semi-supervised/citeseer_2_layers_.pt (torch, 578357 bytes, 16 tensors)

trans_feat.weight f4 [32, 3703]
0	0x3a8222e6	0.0009928613
1	0xbb5cf858	-0.003371736
2	0x3b23365b	0.0024904225
3	0x3b23b296	0.0024978272
4	0xbb1dfdea	-0.0024107643
5	0xba9bc0f5	-0.0011883067
6	0x3b22c909	0.0024839065
7	0x3a704864	0.00091660605
8	0x39aa3cf8	0.00032470352
9	0xbad4531c	-0.0016199085
10	0x39ddd228	0.00042308983
11	0xbafc4d17	-0.0019249049
12	0xba49634c	-0.0007682338
13	0x3b544012	0.0032386822
14	0xbb33a4dc	-0.0027411496
15	0x3a149222	0.00056675274
16	0xba34a459	-0.0006890945
17	0x3aabdb1d	0.0013111565
18	0x3a95ab98	0.0011418937
19	0xbb02c1c8	-0.0019951928
20	0x370ecf80	8.512172e-06
21	0xba9a47b8	-0.0011770641
22	0xba9b384c	-0.0011842339
23	0xbb1b2cfe	-0.002367794
24	0x3b321a8a	0.0027176463
25	0x3a3df56b	0.0007246348
26	0x39a4c808	0.00031429552
27	0xbb8ed3cc	-0.0043587442
28	0xb9c9c5c8	-0.00038485066
29	0x39ba096c	0.00035483704
30	0x3a4bed02	0.00077791524
31	0x3ad80af3	0.0016482755
32	0x3b1f866a	0.0024341592
33	0xbabb4a1d	-0.0014289055
34	0x3b843f34	0.0040358547
35	0xbbf0d487	-0.007349554
36	0xba318066	-0.0006771147
37	0x3b1c64c6	0.0023863777
38	0xbbcbee59	-0.0062234816
39	0x3b65e66c	0.003507997
40	0xbc9e6032	-0.019332979
41	0x3acd72dc	0.001567449
42	0x38d6bef8	0.00010239886
43	0xba81ddd9	-0.0009908035
44	0x37d67500	2.556527e-05
45	0x3a4f9b56	0.000791957
46	0x3ba5559a	0.005045605
47	0x3a3e82fe	0.0007267444
48	0xbbc70a36	-0.0060742153
49	0xba7d68dc	-0.00096668093
50	0x39a7d034	0.00032007846
51	0x3b0decdb	0.002165607
52	0x3b0fcd7e	0.0021942551
53	0x39c7a1a8	0.0003807668
54	0xbb468884	-0.0030293772
55	0x3b2297f8	0.0024809819
56	0xb95c3930	-0.00021002139
57	0x3a5cd8dc	0.00084246485
58	0x3ae721ce	0.0017633976
59	0xbad12771	-0.0015957189
60	0xbb43a470	-0.002985265
61	0x3a68ee70	0.00088856276
62	0xbaca1a7b	-0.0015419269
63	0xba8aef75	-0.0010599928
64	0x3a0283de	0.0004978756
65	0xbba4de69	-0.005031396
66	0x39a334e0	0.00031129178
67	0xba8e67de	-0.0010864695
68	0x3aa4635a	0.0012541816
69	0xbb8467bf	-0.004040688
70	0xbb1fe550	-0.0024398156
71	0x3ae917c0	0.0017783567
72	0xbb0ac039	-0.0021171703
73	0xbb063bb2	-0.0020482359
74	0xbb3ecd00	-0.0029113889
75	0xbc173e42	-0.009231152
76	0xb93ac390	-0.00017811195
77	0xba28242e	-0.00064140826
78	0x3b3bb768	0.0028643254
79	0x3ac44c1c	0.0014976296
80	0xb972e7d8	-0.00023165287
81	0x3b24f4f4	0.0025170418
82	0x3b2dab68	0.0026499871
83	0x3b235f46	0.0024928614
84	0x3b0baa61	0.002131127
85	0x3b182d34	0.0023220303
86	0x3b30a0ff	0.002695143
87	0xbb1d7f15	-0.0024032046
88	0x3aa76b56	0.0012773077
89	0xbb2751f5	-0.0025531028
90	0x399a32fc	0.00029411155
91	0xb9dd4904	-0.00042206806
92	0x3b1d207e	0.0023975666
93	0x3ab8ed72	0.001410885
94	0xbb1086a7	-0.0022052915
95	0x3b2d42a6	0.002643743
96	0x39257be8	0.00015781785
97	0x3b2f4539	0.002674414
98	0xbb0e1762	-0.0021681418
99	0xbb24aee5	-0.002512866
100	0xbacd589a	-0.0015666664
101	0xba581256	-0.00082424784
102	0x3c6dcc18	0.014513992
103	0x3b1dea7b	0.002409606
104	0xba9a4574	-0.0011769966
105	0xbad01b8c	-0.001587735
106	0x3a1ffbaa	0.00061028695
107	0xba1d48b2	-0.0005999907
108	0xb8d96a60	-0.0001036718
109	0x3a2e03b0	0.0006638123
110	0xbbb4995d	-0.0055114464
111	0x3bcb1466	0.0061975
112	0xb8356940	-4.3251785e-05
113	0x3b56f418	0.00327993
114	0xbc2a1470	-0.010380849
115	0xbb222ba7	-0.0024745257
116	0xbabc1ca7	-0.0014351801
117	0xba8ba48d	-0.0010653898
118	0xb8aeb920	-8.331449e-05
119	0xbb4b0378	-0.003097741
120	0x3b2e51ea	0.0026599118
121	0xbb226b4c	-0.0024783192
122	0x3b52873f	0.003212407
123	0x3b31c919	0.002712792
124	0x3b0f0d59	0.0021828024
125	0x3a2f65ca	0.0006690888
126	0xbac5ad28	-0.0015081512
127	0x3abe2925	0.0014508112
128	0xbb7bc397	-0.0038416141
129	0x3a567588	0.00081809657
130	0xbad62626	-0.0016338273
131	0xbb0e2849	-0.0021691492
132	0x3bdc44a9	0.006722052
133	0xba217f28	-0.00061606104
134	0xbb103e26	-0.00220097
135	0xbb168972	-0.0022970107
136	0xbb13a50e	-0.00225288
137	0xbb04b96c	-0.0020252122
138	0x3b0ab2e2	0.0021163751
139	0x3b214b5b	0.0024611566
140	0xbb077ece	-0.0020674947
141	0x3b07b582	0.0020707552
142	0x3a92d12a	0.0011201252
143	0xb9913be0	-0.00027701166
144	0x3b2b8494	0.0026171552
145	0x3a9220d4	0.00111487
146	0xbb5901cd	-0.0033112646
147	0x3a388ee6	0.00070403365
148	0xba51d8bc	-0.0008005013
149	0xba255496	-0.0006306855
150	0xbaaf8473	-0.0013390913
151	0x3a88b618	0.0010430245
152	0xbad7f362	-0.0016475732
153	0x3b27b3b1	0.0025589282
154	0x3ae46966	0.0017426431
155	0xbb1e3872	-0.002414253
156	0xbb1593d4	-0.0022823708
157	0x3ad560a5	0.0016279413
158	0x3b361e4f	0.0027789061
159	0x3acec27e	0.0015774516
160	0xbb30b69e	-0.0026964317
161	0xbb303229	-0.0026885367
162	0x38100ee0	3.434613e-05
163	0x3c18b0e6	0.00931952
164	0xba85d23a	-0.0010209747
165	0xba2133a0	-0.00061493553
166	0x3b752554	0.0037406282
167	0x3aa32874	0.0012447969
168	0x399e08c0	0.00030142628
169	0xbb97d834	-0.0046339277
170	0xbacc413a	-0.0015583404
171	0x3b05eeec	0.0020436598
172	0xba905c70	-0.0011013877
173	0xbb4b6b8a	-0.003103944
174	0x3b6b3c7c	0.0035894206
175	0xbb8252ab	-0.00397714
176	0x3aa0adf9	0.0012258879
177	0x3b021564	0.0019849176
178	0x3a463f92	0.00075625733
179	0x3b7d22be	0.0038625444
180	0x3a3dddfc	0.0007242856
181	0xb9e0fcc0	-0.00042912923
182	0xbb144fbf	-0.002263054
183	0xbb2aa41c	-0.0026037758
184	0xb97eca20	-0.00024298625
185	0xbb2aebec	-0.0026080562
186	0x3b1f4faa	0.0024308958
187	0x3b47c3d0	0.0030481704
188	0xbb39c3c6	-0.002834545
189	0xb96ef478	-0.0002278852
190	0xb9294c48	-0.00016145513
191	0xbb299fe7	-0.0025882663
192	0xbaf16067	-0.0018415571
193	0xbb8e3d82	-0.0043408284
194	0xba745964	-0.00093211816
195	0xbb1c1385	-0.0023815345
196	0x382afa80	4.0764455e-05
197	0xbb6a21fb	-0.003572582
198	0xbb02d04c	-0.001996058
199	0xba9b3219	-0.0011840492
200	0x3a2f1484	0.0006678777
201	0xba48ffb8	-0.00076674996
202	0x3a800595	0.0009767289
203	0xba4b4542	-0.00077541557
204	0x3ac047bf	0.001466982
205	0xbb1e292c	-0.0024133427
206	0xba72264d	-0.00092372746
207	0x3a71a3f4	0.00092178513
208	0xbbec6ca2	-0.0072150985
209	0x3b71ca00	0.0036894083
210	0xbb2f81a4	-0.0026780153
211	0xbaef39a4	-0.0018251431
212	0x3aae2ff4	0.0013289438
213	0x3b08311b	0.0020781222
214	0xbaa687d6	-0.0012705277
215	0x3a25d7a6	0.00063263846
216	0xb9b96524	-0.00035361305
217	0xba170496	-0.0005760876
218	0xbab6d92d	-0.0013950221
219	0xba9288bd	-0.0011179667
220	0xbb1cdd58	-0.0023935642
221	0x3ad394fa	0.0016142421
222	0x3b084813	0.0020794913
223	0x39a4ef94	0.00031459017
224	0x3ac1bf17	0.0014781681
225	0x3c0b3f2e	0.00849895
226	0xbb740b1e	-0.0037238072
227	0x3a8622c3	0.0010233748
228	0x3b1cb8c4	0.002391384
229	0x3b1fe872	0.0024400023
230	0xba426964	-0.0007416217
231	0x3abd1883	0.0014426861
232	0xba60f7f8	-0.0008581872
233	0x3ab75be5	0.0013989179
234	0xba2754f2	-0.0006383202
235	0xbada7f7d	-0.0016670075
236	0x3a5fcf68	0.0008537681
237	0xbb2cff06	-0.0026397123
238	0xbb20fdc4	-0.0024565319
239	0xbab1ecf2	-0.0013574644
240	0x3bda2ec4	0.006658407
241	0xb9b61d68	-0.00034735654
242	0xbb270ee3	-0.002549105
243	0x3ac3e2d5	0.001494492
244	0x3b88459a	0.004158688
245	0xbb83c7d3	-0.0040216236
246	0x3b40b571	0.0029405023
247	0xbab61cba	-0.0013894059
248	0x398e69e8	0.00027163257
249	0x3b5d8b2b	0.0033804874
250	0xbb296cfe	-0.0025852318
251	0xbb032eea	-0.0020016977
252	0x3abffc14	0.0014647269
253	0xb72e3180	-1.0382733e-05
254	0xbb189496	-0.0023281923
255	0xbaa53a4d	-0.0012605876

trans_feat.bias f4 [32]
0	0xbad4481e	-0.0016195809
1	0xbae868bc	-0.0017731409
2	0x3b2972a2	0.002585568
3	0x3a0795bc	0.00051721535
4	0x3b275e0d	0.0025538236
5	0x3b275b7b	0.0025536704
6	0x37cce380	2.4424633e-05
7	0x3a00c986	0.0004912842
8	0x38eeb550	0.000113824965
9	0x3b134c0e	0.0022475752
10	0x39125118	0.00013953855
11	0xba7a4b2a	-0.00095479435
12	0x3ad2b19b	0.0016074659
13	0x3b2a0336	0.0025941855
14	0x3aaa0b11	0.0012973269
15	0x3ad651b6	0.0016351256
16	0xba3ef06e	-0.00072837516
17	0x3b1cfb62	0.0023953547
18	0xb9e2afc0	-0.00043237023
19	0x39f998e4	0.00047606893
20	0xbb2bb7cd	-0.0026202083
21	0x3a48ded6	0.00076625997
22	0xbb23ef54	-0.0025014477
23	0xba8e8e75	-0.0010876196
24	0xbb28c5a8	-0.0025752578
25	0xba06c7be	-0.0005141458
26	0x39dc7a78	0.00042052916
27	0xbb1e2044	-0.0024128119
28	0xb9e01c3c	-0.00042745646
29	0xba9ba9e4	-0.0011876193
30	0xbb23875a	-0.0024952502
31	0xb91f7df8	-0.00015210349

pred_trans.weight f4 [6, 3703]
0	0xbc88b435	-0.016687492
1	0x3f3c323b	0.73514146
2	0x3ddff010	0.1093446
3	0xbda4030b	-0.08008393
4	0x3d33e24a	0.043916978
5	0xbd622189	-0.055207763
6	0xbcbdc758	-0.023166344
7	0x39aa8f80	0.00032531843
8	0x3a9954d2	0.0011698252
9	0xbdb288ea	-0.087175205
10	0xbc1ea67a	-0.009683246
11	0xbd555a5d	-0.05208813
12	0x3d5e3e41	0.05425859
13	0xbf039365	-0.5139678
14	0x3a09e1c0	0.00052597746
15	0x3dc3416b	0.09533962
16	0xbe4b2d28	-0.19841444
17	0x3aad2f75	0.0013212996
18	0xbe3dee1f	-0.18547867
19	0xbe492841	-0.19644262
20	0xbd884d06	-0.06655316
21	0x3c80880c	0.015689872
22	0xbd450bed	-0.048107076
23	0x398262c0	0.00024869107
24	0xbe279337	-0.16364752
25	0xbe102cd3	-0.14079599
26	0xbe181b9f	-0.14854287
27	0xbd68fcc4	-0.05688168
28	0xbe7aa9bd	-0.24478813
29	0x3e6a84f7	0.22902285
30	0xbd87e4ac	-0.066354126
31	0x3ea2ce74	0.31798136
32	0xbedd4f0e	-0.43224376
33	0xbdd49b42	-0.103811756
34	0xbe04795d	-0.12936921
35	0x3dc25503	0.09488871
36	0xbe84f8ae	-0.25970978
37	0xbd3bf095	-0.045883734
38	0xbe4fb831	-0.20285107
39	0xbb4dc1b1	-0.0031395967
40	0xbda916f0	-0.08256328
41	0xbe01c178	-0.12671459
42	0xbb317c08	-0.0027081985
43	0xbcdf40b2	-0.027252529
44	0xbe9797f3	-0.29608116
45	0x3e1134ed	0.14180346
46	0x3d03c8cd	0.03217392
47	0xbd92f329	-0.07175285
48	0xbe35db10	-0.17759347
49	0xbd994658	-0.0748412
50	0x396450f0	0.00021773926
51	0xbe5a8d3a	-0.21342936
52	0xbc86ebd6	-0.016469877
53	0xbdd1b87c	-0.10240266
54	0x3eb69798	0.35662532
55	0x3eed1260	0.46303082
56	0x3c21aadb	0.009867395
57	0x3e36743a	0.17817774
58	0x3c18d964	0.009329174
59	0xbcd935a2	-0.026514832
60	0xbcd5ba23	-0.026089733
61	0x3ef6e8dc	0.48224533
62	0xba19146e	-0.0005839531
63	0xbd40fc8f	-0.04711586
64	0xbdb71a40	-0.08940554
65	0xbeecff40	-0.4628849
66	0x3c9c3a28	0.0190707
67	0xbdc79b3f	-0.09746408
68	0xbc527307	-0.0128448075
69	0x3d65aeb5	0.056074817
70	0x3e52bb14	0.20579177
71	0xbe03dfd6	-0.12878355
72	0xbde0e616	-0.109813854
73	0x3e8d73b6	0.27627343
74	0xbd9fbc3c	-0.07799575
75	0x3ea98a83	0.3311349
76	0x3e9aba3f	0.3022022
77	0xbe455730	-0.1927154
78	0xbdbfa47b	-0.09357544
79	0x3b24d945	0.0025153917
80	0xbd9f1564	-0.07767752
81	0xbdda2832	-0.10652198
82	0xbe428b42	-0.18998435
83	0xbc8e9707	-0.017406
84	0xbe5e7cdc	-0.21727318
85	0xbb2beee7	-0.0026234926
86	0x3e09987b	0.13437073
87	0x3e9519c1	0.2912121
88	0xba57ebd8	-0.00082367426
89	0xbb8ed392	-0.0043587172
90	0xbd0cc6b3	-0.03436918
91	0x3e37dbaa	0.17954889
92	0xbd8f0a58	-0.06984395
93	0xbda5accf	-0.08089601
94	0x3e1c3662	0.1525512
95	0xbe2bbcd3	-0.1677125
96	0xbddc029c	-0.10742685
97	0x3b02d5d4	0.0019963877
98	0x3dd29109	0.102815695
99	0xbad2fcf0	-0.001609711
100	0x394f7460	0.00019784411
101	0xbdc6978f	-0.09696876
102	0x3e078947	0.13235961
103	0xbdb851b4	-0.08999959
104	0xbd7fe288	-0.062471896
105	0x3c969591	0.018381866
106	0x3abe8c08	0.0014537582
107	0xbd0dbb76	-0.034602605
108	0xbb25e036	-0.0025310642
109	0xbd508aae	-0.050913505
110	0x3e2b76e7	0.16744576
111	0xbdf2fc4c	-0.11864528
112	0xbd9cc9d7	-0.076556854
113	0xbe119c4a	-0.14219776
114	0xbdd35ca4	-0.10320404
115	0xbaa07357	-0.0012241405
116	0x3ab6ab64	0.0013936576
117	0xbb28c4ed	-0.0025752143
118	0xbdc121f4	-0.09430304
119	0xbdead9f0	-0.114673495
120	0xbc4f90b7	-0.01266878
121	0xbd4ada94	-0.04952486
122	0xbde1cd92	-0.110255376
123	0xbaad0992	-0.0013201705
124	0x3c6fe98c	0.014643084
125	0xbe6d3b63	-0.23167185
126	0x3b0d7dc2	0.002158985
127	0xbdbd408f	-0.09240829
128	0x3d07843e	0.0330851
129	0xbe8ac09e	-0.2710008
130	0xbe145bce	-0.14488146
131	0xbe1066f7	-0.14101778
132	0xbb1e37c4	-0.0024142126
133	0xbdf64710	-0.12025273
134	0xbd64a3e6	-0.05582037
135	0xbd821a8c	-0.0635272
136	0xbd61c648	-0.055120736
137	0xbcb6c96e	-0.022312846
138	0xbed6b388	-0.41933846
139	0x3c7affbc	0.015319761
140	0xbe4b358f	-0.1984465
141	0xbe23cb42	-0.15995505
142	0xbe008efe	-0.12554547
143	0x3cb96db0	0.02263531
144	0xbb27315f	-0.0025511605
145	0xbb1646d9	-0.0022930412
146	0xbd57e5db	-0.05270944
147	0x3c9f34d3	0.019434368
148	0x3ea0fcc4	0.31442845
149	0xbdebd3bc	-0.115149945
150	0xbd2b5997	-0.041833486
151	0xbcff85aa	-0.031191666
152	0x3ac62e03	0.0015119914
153	0x3b149ffe	0.002267837
154	0xbb4aaad0	-0.0030924566
155	0x3f082ff0	0.53198147
156	0x3b433dc0	0.0029791445
157	0xbab594df	-0.0013853571
158	0xbdc8c21f	-0.09802651
159	0xbdf08c5a	-0.1174552
160	0xbdc896e3	-0.09794404
161	0xbd921852	-0.07133545
162	0xbe9e1e0a	-0.30882293
163	0x3cdc22a5	0.026871989
164	0x3b09e650	0.0021041818
165	0xbdcec818	-0.100967586
166	0x3f0a88ca	0.54114974
167	0xbde685e0	-0.112560034
168	0xbe79fdfa	-0.2441329
169	0xbec487c4	-0.3838483
170	0xbe148764	-0.14504772
171	0x3e53fcbe	0.20701882
172	0xbdd6ad7a	-0.10482307
173	0x3db42274	0.08795634
174	0xbe4ed646	-0.20198926
175	0xbd5fbd15	-0.054623682
176	0xbd814d64	-0.06313589
177	0xbdb6ac6e	-0.08919607
178	0xbe4d8d52	-0.2007344
179	0xbe15b0d4	-0.14618236
180	0xbab8f86d	-0.0014112123
181	0x3b282796	0.002565836
182	0x3e8d6358	0.27614856
183	0x3b2b2503	0.002611459
184	0xbe15c4fe	-0.14625928
185	0x3c6df39e	0.014523415
186	0xbe08ada9	-0.13347496
187	0xbcc98b32	-0.024602506
188	0xbd6b2664	-0.05740966
189	0xbe34379c	-0.17599338
190	0xbdb033c8	-0.086036265
191	0xbb1f4127	-0.0024300308
192	0xb9140f60	-0.00014120108
193	0x3b903ca0	0.0044017583
194	0x3e3e3a97	0.18577038
195	0xbdfb1ec2	-0.12261726
196	0xbd6454bf	-0.055744883
197	0x3ecc602c	0.39917123
198	0x3e78cdbd	0.24297233
199	0xbd18afda	-0.03727708
200	0x3e6895fe	0.22713467
201	0xbe6557e0	-0.22396803
202	0xbd2ea7d8	-0.042640537
203	0xbcb9893f	-0.022648452
204	0x3dbbe3d9	0.09174318
205	0xbb000dbe	-0.001953944
206	0xbebe7cf4	-0.37204707
207	0xbc2941e8	-0.010330655
208	0x3d867026	0.06564359
209	0x3ebfe90a	0.37482482
210	0x3ebc9d5e	0.36838812
211	0xbe91bb24	-0.2846309
212	0xbed3cf50	-0.41369104
213	0xbe0973ed	-0.13423128
214	0xbe4f6f5a	-0.20257321
215	0xbe14bba8	-0.1452471
216	0xbceef332	-0.029168699
217	0xbe5194e6	-0.20466956
218	0xbd97c46b	-0.07410511
219	0xbe52bf55	-0.205808
220	0xbc6fec7e	-0.0146437865
221	0x39a6b164	0.00031794154
222	0x3d0eccdd	0.03486334
223	0x3e28ea94	0.16495734
224	0x3e7b8ea1	0.24566127
225	0x3e49a822	0.19693044
226	0xbe8de3c8	-0.27712846
227	0x3dca0d92	0.098658696
228	0xbdab0198	-0.08349913
229	0x3e2066ca	0.15664211
230	0x3eceef75	0.40417066
231	0xbd1b4dab	-0.037915867
232	0xbe1e4ae7	-0.1545826
233	0xbd86904c	-0.06570491
234	0xbdca698a	-0.09883411
235	0xbd0d90f9	-0.034562085
236	0xbd71a001	-0.058990482
237	0xbe126013	-0.14294462
238	0x3cd2e1a2	0.025742356
239	0xbe37796b	-0.17917411
240	0xbe8b041d	-0.27151576
241	0xbe36414a	-0.17798343
242	0xbe049df0	-0.12950873
243	0x3b0ac750	0.0021175928
244	0x3da8e4c9	0.08246762
245	0x3d9073ea	0.07053359
246	0xbdee8e60	-0.116482496
247	0x3eb30d4d	0.34971085
248	0x3e5efa32	0.2177513
249	0xbe5a20fa	-0.21301642
250	0xbe4f6305	-0.20252617
251	0xbe203314	-0.15644485
252	0xbd47f362	-0.048816092
253	0xbe1779ff	-0.14792632
254	0xbe9a1fa2	-0.3010226
255	0xbd3ea5e7	-0.046544936

pred_trans.bias f4 [6]
0	0xbd1e98c1	-0.038719896
1	0x3c3dfcee	0.011595948
2	0xbbf8b9e5	-0.0075905197
3	0xbac04ed8	-0.0014671935
4	0xbc6240ae	-0.013809366
5	0x3c66db47	0.014090366

gcn_convs.0.path_weight_1.weight f4 [32, 32]
0	0xbc723321	-0.014782698
1	0xbc0ec8b3	-0.008714843
2	0x3b27b7d9	0.002559176
3	0xbc487bee	-0.012236578
4	0x3c6e6ff6	0.014553061
5	0xbc03f53f	-0.008054077
6	0x3c8e70a7	0.017387701
7	0x3ca8e6c0	0.020617843
8	0xbbbc3c2a	-0.005744477
9	0x39d912a4	0.00041403354
10	0x3be0b194	0.0068571065
11	0x3c66cd4b	0.014087032
12	0x3b36231e	0.0027791928
13	0x3b9a421e	0.004707589
14	0xbcb1ed3e	-0.021719571
15	0x3b7cff81	0.003860444
16	0x396e7cfb	0.00022744008
17	0x3b1bc44c	0.0023768125
18	0xbc1b3036	-0.009471944
19	0x3c4e30d4	0.012584884
20	0xbb1d250c	-0.002397838
21	0xbcb20878	-0.021732554
22	0xbc3a3362	-0.01136479
23	0xbb8cb205	-0.0042936825
24	0x3ae9d266	0.0017839193
25	0xbce8a1a0	-0.028397381
26	0x3b5fa1bc	0.00341235
27	0x3c21924e	0.009861542
28	0x3b96b02c	0.004598638
29	0x3c8256da	0.015910555
30	0xbc1d2f03	-0.009593728
31	0x3d13a2ab	0.036043804
32	0xbc454a1a	-0.012041593
33	0xbbd0256d	-0.0063521178
34	0x3c834b8b	0.016027233
35	0x3b3d4977	0.00288829
36	0x3b9c2d70	0.0047661588
37	0xbb8b6795	-0.0042542913
38	0xbc7f4417	-0.015580199
39	0x3beeb5c6	0.0072848527
40	0x3c2c5618	0.010518573
41	0x3c444276	0.011978736
42	0x3c231f3b	0.009956176
43	0xbb857d21	-0.0040737544
44	0x3be62fc8	0.007024739
45	0x3c08a0a0	0.008339077
46	0x3a82be15	0.0009974862
47	0xbc3d907c	-0.011570092
48	0xbbf940a1	-0.0076065813
49	0xbae34774	-0.001734002
50	0x3b8d398b	0.004309838
51	0xbbc706dc	-0.0060738157
52	0xbadcb2e2	-0.0016837979
53	0x3a7ea667	0.0009714127
54	0xbc104d3d	-0.008807478
55	0x3c24a2a8	0.010048546
56	0xbbfb2c8a	-0.0076652216
57	0x3baffbfa	0.005370614
58	0x3bcadbe7	0.006190765
59	0xbbe671e9	-0.007032622
60	0xbb2c0ce9	-0.0026252812
61	0xbbf2c4e4	-0.007408725
62	0x3a321886	0.00067938154
63	0xbbf34899	-0.007424426
64	0x3c3d864d	0.011567664
65	0x3b8ac60c	0.004235035
66	0xbc085fa7	-0.008323587
67	0xbc304ff7	-0.010761253
68	0xbc4545a5	-0.01204053
69	0xbbbebaa6	-0.00582059
70	0x3d030d04	0.031994835
71	0xba06a3cb	-0.00051361014
72	0xbb84e4e3	-0.0040556057
73	0x3b1bd87f	0.0023780165
74	0xbc080665	-0.008302306
75	0x3ba2d940	0.004969746
76	0x3bf103c9	0.0073551876
77	0xbc157331	-0.009121702
78	0xbc863eac	-0.016387306
79	0xbc241b19	-0.010016226
80	0x3c11dae4	0.008902285
81	0xbc376e06	-0.011195665
82	0x3b5d6065	0.003377938
83	0xbc410c3d	-0.011782703
84	0x3c83594a	0.016033787
85	0x3c4f9077	0.01266872
86	0xbb44a266	-0.0030004024
87	0x3c07e6d1	0.008294777
88	0x3c231556	0.009953817
89	0x3bc5c168	0.0060350187
90	0xbc191292	-0.009342806
91	0x3a0b598d	0.00053157733
92	0xbc0c6346	-0.0085685905
93	0x3c996863	0.018726533
94	0xbc5a86f0	-0.013337836
95	0x3be91460	0.0071130246
96	0xb9df86a8	-0.000426342
97	0xbaefe698	-0.0018302975
98	0x3b10dd03	0.002210439
99	0x3b91c772	0.0044488246
100	0x3a9fe99e	0.0012200361
101	0x39d602f9	0.00040819476
102	0xbac0293b	-0.0014660725
103	0xbabd29b9	-0.001443199
104	0xbc03263a	-0.008004719
105	0x3a8436c5	0.0010087123
106	0x393893e4	0.00017602701
107	0x3b797609	0.003806474
108	0xbbb3fe3e	-0.0054929545
109	0x3bf3f692	0.007445165
110	0x3c047fc8	0.008087106
111	0xbb8d1e13	-0.0043065636
112	0x3a8a689b	0.0010559739
113	0xbb9b4197	-0.0047380435
114	0xbaad81aa	-0.0013237495
115	0xbb8dfe41	-0.004333288
116	0x3bb4391b	0.0054999716
117	0x3b294c3e	0.0025832797
118	0x3b00db33	0.0019661903
119	0xbb81148b	-0.0039392165
120	0x3a9193f4	0.0011106716
121	0xba94927a	-0.0011335157
122	0x3c18c17b	0.009323473
123	0xbad44d30	-0.001619732
124	0x3a2487e1	0.0006276351
125	0xbb48a454	-0.0030615525
126	0xbb796f47	-0.0038060711
127	0xbb944320	-0.0045246035
128	0xbcafb906	-0.02145053
129	0x3d0103ff	0.03149795
130	0x3c8a4f36	0.016883474
131	0xbc24e7ae	-0.010065002
132	0x3bdd6341	0.0067562168
133	0xbc02c0b2	-0.007980512
134	0xbcc73e85	-0.024321804
135	0x3aaf44e7	0.0013371975
136	0xbb0e92f9	-0.0021755083
137	0x3bfcc9e0	0.007714495
138	0xbc0aab6d	-0.008463723
139	0xbc45766a	-0.012052158
140	0x3ce08958	0.02740924
141	0x3cb90ede	0.022590097
142	0x3c9e3775	0.019313553
143	0xbc4116d1	-0.011785225
144	0xbc130a46	-0.008974617
145	0x3babe280	0.0052455068
146	0xbc1659d5	-0.009176691
147	0x3c66a351	0.014077024
148	0xbbf50299	-0.0074771163
149	0xbb009f46	-0.0019626184
150	0xbcbb5c88	-0.02287127
151	0xbbc14269	-0.0058978093
152	0xbaf04d3a	-0.0018333562
153	0xbb8d962e	-0.0043208813
154	0xbce5a218	-0.028031394
155	0x3bb13956	0.0054084463
156	0xbb957b1a	-0.004561794
157	0x3b5e65b4	0.0033935132
158	0xbb19ee97	-0.0023488158
159	0x3bf5dbb3	0.007502997
160	0xbc4aaf5e	-0.012370912
161	0xbb0f16d2	-0.002183367
162	0x3ca312ae	0.019906368
163	0xbc53db18	-0.012930654
164	0x3c27be0a	0.01023818
165	0x3bd93e1b	0.006629718
166	0xbc4d6ce0	-0.012538165
167	0x3a7fa21f	0.0009751636
168	0x3c22a03c	0.009925898
169	0x3bd26bcb	0.0064215413
170	0xbbd04fcf	-0.00635717
171	0xbc894623	-0.016757077
172	0x3a6c2969	0.0009008856
173	0xbc11e8d8	-0.008905612
174	0xbbc19f67	-0.005908895
175	0x3b4246e8	0.0029644314
176	0x3c3430ed	0.010997993
177	0x3c778be9	0.015109041
178	0x3c8ad5b9	0.016947614
179	0x3b265ef0	0.0025386177
180	0xbb8c5d67	-0.0042835954
181	0xbc4295b6	-0.011876514
182	0x3c668c84	0.0140715875
183	0xbc2a55b2	-0.010396408
184	0xbc76e8b7	-0.015070132
185	0xbc817ff2	-0.01580808
186	0xbacb824a	-0.00155265
187	0x3bdf922e	0.006822846
188	0xbc081772	-0.008306371
189	0xbc907556	-0.017634075
190	0x3c94fda5	0.018187353
191	0xbbef767e	-0.0073078265
192	0x3bc30947	0.0059520337
193	0xbc0e4a34	-0.008684684
194	0x3b4b9d70	0.0031069182
195	0x3af3837a	0.0018578612
196	0xbc634b91	-0.013872997
197	0xbbbe65bc	-0.0058104675
198	0x37d103da	2.4916535e-05
199	0xbc0a1898	-0.008428715
200	0x3bc6c5f0	0.0060660765
201	0xbbcd7f2b	-0.006271263
202	0x3c29cdf6	0.010364046
203	0xbbe557d8	-0.006998997
204	0xbb9b0a90	-0.0047314838
205	0xbaf34d5c	-0.0018562484
206	0x3c26a340	0.010170758
207	0xbbd712ff	-0.006563544
208	0x3bfa74b8	0.0076433085
209	0x3b7277ea	0.0036997744
210	0x3bf5fad0	0.007506706
211	0xbc478fcf	-0.012180283
212	0xbb4aa112	-0.003091876
213	0x3c202cf5	0.009776344
214	0x3b87c5e0	0.0041434616
215	0x39c6799a	0.00037856103
216	0xba886311	-0.0010405501
217	0xb99da1e7	-0.00030066
218	0x3bc42bf1	0.0059866835
219	0xbc030b2b	-0.007998268
220	0xbc07ecbe	-0.00829619
221	0xbc31abab	-0.0108441515
222	0xbb0708ca	-0.0020604604
223	0xbb33b175	-0.0027419005
224	0x39c99909	0.00038451728
225	0x39fcae13	0.0004819488
226	0xb9475266	-0.00019008815
227	0xbbb162a7	-0.0054133716
228	0xbb1892ad	-0.0023280785
229	0x3910c385	0.00013805747
230	0xbc5d6ee2	-0.013515206
231	0x3be15d3b	0.006877569
232	0xbb158cfe	-0.0022819634
233	0xbb2a65f3	-0.0026000708
234	0xbc395457	-0.011311612
235	0xbb7137b2	-0.0036806879
236	0x3b5a661f	0.003332503
237	0x3b157f2f	0.0022811403
238	0xba84f8fe	-0.0010145006
239	0xb99b8af5	-0.00029667435
240	0x37d96a4b	2.5917912e-05
241	0x38c87350	9.558222e-05
242	0xbb4412b8	-0.0029918384
243	0x3bff3321	0.0077880775
244	0x3aced6e6	0.0015780597
245	0x3befa5df	0.0073134745
246	0x3c185746	0.009298151
247	0xb9f121d2	-0.000459923
248	0xb7d5e941	-2.5500196e-05
249	0xbc5bab91	-0.013407604
250	0xbab2eeea	-0.0013651524
251	0x3a246c32	0.0006272226
252	0xbb460404	-0.0030214796
253	0xbbcc222f	-0.006229661
254	0x3bb5a7cd	0.005543685
255	0x3c1f2f78	0.009715907

gcn_convs.0.path_weight_1.bias f4 [32]
0	0x3ea7e4ca	0.3279174
1	0xbd1d0172	-0.038331456
2	0x3d1b1b4d	0.037867833
3	0xbde90674	-0.11378184
4	0x3e0c2d67	0.13689195
5	0xbc62acdc	-0.013835158
6	0xbdb2263a	-0.086986974
7	0xbcb770d4	-0.022392668
8	0x3c16a855	0.009195407
9	0xbefeb5f0	-0.49748182
10	0xbca300f5	-0.019897917
11	0xbe487b36	-0.19578251
12	0x3f2da8f4	0.67835927
13	0x3ed006fc	0.4063033
14	0xbc2e9f14	-0.010658044
15	0x3cbb5eb1	0.0228723
16	0xbeeff6c8	-0.46867967
17	0xbe7bb411	-0.24580409
18	0xbe48809a	-0.19580308
19	0x3e62e957	0.22159325
20	0xbd664572	-0.056218572
21	0xbcd6d531	-0.026224704
22	0x3f1386d1	0.5762759
23	0xbcbc1ae3	-0.02296204
24	0xbbe8ef10	-0.0071085766
25	0x3d71c636	0.05902692
26	0x3d0e77b9	0.034782145
27	0x3b5a83c8	0.0033342708
28	0xbd176389	-0.03696016
29	0x3e319327	0.1734129
30	0x3bd23575	0.006415064
31	0x3cd60368	0.026124671

gcn_convs.0.path_weight_2.weight f4 [32, 32]
0	0xba7e2b06	-0.0009695742
1	0x3ad1c5f1	0.0016004426
2	0xbaca8667	-0.0015451432
3	0xb9ef1826	-0.00045603624
4	0x38c9f8d1	9.6307725e-05
5	0x3ae6bc14	0.0017603659
6	0x3b06fb8c	0.002059671
7	0x3acbf992	0.0015562049
8	0x3ae539dd	0.0017488558
9	0x3a39b893	0.00070846936
10	0x3aa23b62	0.0012377317
11	0x3a98cf28	0.0011658417
12	0xba359167	-0.00069262687
13	0x3afeb7d8	0.0019433452
14	0x3ad2abd7	0.0016072941
15	0xba8d2d5e	-0.0010770967
16	0x3acac772	0.0015470816
17	0x3947ab50	0.00019041938
18	0x3ada8be0	0.0016673766
19	0x3a392ab7	0.0007063555
20	0xb9ac3c92	-0.00032851525
21	0x3a6264e5	0.000863625
22	0xba1214b8	-0.00055725453
23	0xb973d34d	-0.00023253002
24	0xbb03b9de	-0.00200998
25	0xbaffc678	-0.0019514104
26	0x3ad22e83	0.001603559
27	0x3b0659ba	0.0020500259
28	0xba01727e	-0.000493802
29	0xba8d7071	-0.0010790956
30	0x3ab680e4	0.001392391
31	0xba7105a4	-0.0009194261
32	0x3a1d51f5	0.0006001287
33	0xbabad059	-0.0014252766
34	0x3b029b6d	0.0019929067
35	0x3a751ca8	0.00093502784
36	0xb924fa73	-0.00015733558
37	0x3a9dcb22	0.0012038688
38	0xbad604fb	-0.0016328389
39	0xb86d2d2f	-5.6547284e-05
40	0xb96d8fe4	-0.00022655685
41	0x3a0147a2	0.00049316336
42	0x390db671	0.00013514773
43	0xb9da6be9	-0.000416606
44	0x3a89f648	0.0010525668
45	0x3ad56c3d	0.0016282868
46	0x3b021f9f	0.0019855273
47	0x3a5fa063	0.00085306744
48	0x3aae1e89	0.0013284247
49	0x3acbfcf6	0.0015563059
50	0xba113d1e	-0.0005540418
51	0xbab3fbfa	-0.0013731711
52	0x3ac92b10	0.0015347917
53	0xb9db75cc	-0.000418587
54	0xbb2b3f86	-0.0026130392
55	0x3ab2bc6e	0.0013636479
56	0xba4367b5	-0.0007454113
57	0xba8c1290	-0.0010686684
58	0x3a5902a4	0.00082782866
59	0x3a4ff7ef	0.00079333683
60	0xbaa1065a	-0.0012285218
61	0xb8c7c0e8	-9.524991e-05
62	0xb921fb4f	-0.00015447776
63	0x3b08d84d	0.0020880878
64	0xbadf03b0	-0.0017014649
65	0xba470892	-0.00075925246
66	0x3acbb8bb	0.0015542725
67	0xb8ff3bab	-0.000121704616
68	0xbb0ad477	-0.0021183768
69	0x39b96877	0.00035363782
70	0xba6affd5	-0.00089645135
71	0xba6b4651	-0.00089750165
72	0x3a8b2019	0.0010614424
73	0xbb251f46	-0.0025195642
74	0x3a0b9e54	0.0005326022
75	0xbb087a33	-0.002082479
76	0xba954f0a	-0.0011391353
77	0xba5a5a98	-0.00083295396
78	0xba4ca79c	-0.0007806958
79	0x3a0757d7	0.00051629305
80	0xba9201d7	-0.0011139464
81	0xba712be8	-0.0009199963
82	0x3affcb71	0.0019515586
83	0x3ac8e25c	0.0015326249
84	0xba3dfb60	-0.00072472356
85	0x3a8f6653	0.0010940529
86	0x3a9e94af	0.0012098755
87	0x3af3cabb	0.0018599847
88	0xbae98daa	-0.0017818708
89	0x3a2c02fa	0.0006561723
90	0xbaff8cfc	-0.0019496973
91	0x396c5de8	0.00022541697
92	0x3abe0722	0.0014497975
93	0x3aeccd95	0.0018066639
94	0xba77dbc3	-0.00094550493
95	0xb98a1883	-0.00026339674
96	0x3aedd608	0.0018145451
97	0xb725131d	-9.839217e-06
98	0x3a6a981e	0.0008949059
99	0x3a9f8388	0.0012169937
100	0xbafa6c51	-0.0019105767
101	0xba003a61	-0.00048915116
102	0x3ad18e55	0.0015987853
103	0x3aebb68f	0.0017983484
104	0x3acaba24	0.0015466851
105	0x3a812362	0.0009852464
106	0x39defa06	0.00042529422
107	0xbadb0a48	-0.0016711438
108	0xbab07981	-0.0013463945
109	0xb9eb52f1	-0.0004488449
110	0xbab4cf12	-0.0013794622
111	0x38170235	3.600326e-05
112	0xba7b1a0f	-0.0009578773
113	0x3a06574c	0.00051247026
114	0xba8e7c4d	-0.0010870785
115	0x3ae2cd8f	0.0017303693
116	0xba87bee1	-0.0010356569
117	0x3b0ab7d2	0.0021166694
118	0xb96a1953	-0.00022325413
119	0x3a838b1d	0.0010035966
120	0x3a73385e	0.0009278114
121	0x3abb5552	0.0014292395
122	0x3a967420	0.00114787
123	0xb9b36ec9	-0.00034224082
124	0x3a59241c	0.0008283274
125	0x3afbe3d2	0.0019217676
126	0xba89c0a6	-0.0010509684
127	0x39ca1f06	0.00038551557
128	0x3b06a9f3	0.0020548075
129	0xbb253c49	-0.0025212935
130	0x3af73756	0.0018861096
131	0x3aba438e	0.0014210807
132	0x39edc8fa	0.00045353902
133	0x39673bf0	0.00022052205
134	0xbaad1cd1	-0.001320744
135	0x3a78e24f	0.0009494172
136	0xbb1ea444	-0.0024206797
137	0x3ada98aa	0.0016677578
138	0x3a55c3fa	0.0008154508
139	0x39c96ac0	0.00038417242
140	0xba111e09	-0.00055357866
141	0x3ad4ff92	0.0016250482
142	0x3acbca96	0.0015548046
143	0xbab53c0e	-0.0013827102
144	0x3ab780f3	0.0014000222
145	0xbacbc60a	-0.0015546691
146	0xba8bfd8d	-0.0010680422
147	0xba9423d8	-0.0011302186
148	0xbaf4a246	-0.0018664084
149	0x39ba432f	0.0003552674
150	0xba0a8edd	-0.00052855705
151	0x3903bbef	0.00012563144
152	0xba6b5d96	-0.0008978484
153	0xbb1cca2a	-0.002392421
154	0x39cca2cc	0.00039031205
155	0x3ac1de4f	0.0014790985
156	0x3aff9cd7	0.0019501698
157	0x3a7457da	0.0009320952
158	0x3ab89bc3	0.0014084507
159	0xb9d25bb4	-0.00040122645
160	0xbb04e256	-0.0020276508
161	0xbad6c443	-0.0016385395
162	0x3ac865e1	0.0015289151
163	0xb88c2e33	-6.6843255e-05
164	0xb97095c3	-0.00022943974
165	0x3ae00c40	0.0017093495
166	0x3ac631a6	0.0015120998
167	0xbad723a2	-0.0016413818
168	0x3acfcdbc	0.001585416
169	0x3780fb75	1.5375883e-05
170	0x3add73c2	0.001689546
171	0x3a91a563	0.0011111911
172	0xbaaf246c	-0.0013362295
173	0x3a2a0930	0.00064863544
174	0xbb089b0a	-0.0020844364
175	0xbaa8acad	-0.0012868844
176	0xbac45546	-0.0014979027
177	0xb84b50f2	-4.8474358e-05
178	0xbaac35c3	-0.0013138581
179	0xbae3fe62	-0.0017394538
180	0x3ab2173f	0.001358725
181	0x39df5876	0.00042599783
182	0xbaca48ea	-0.0015433107
183	0x3a953916	0.0011384811
184	0x3ad3a481	0.0016147048
185	0x37d8c14f	2.5839223e-05
186	0xba4cc8da	-0.00078119116
187	0xbad41392	-0.0016180149
188	0xb93435be	-0.00017186158
189	0xb90de9bd	-0.00013533882
190	0x3a78630b	0.0009475208
191	0xba3f4ea4	-0.000729779
192	0xb9c03bd2	-0.00036665663
193	0x3ad4b50f	0.0016228276
194	0xba93512c	-0.0011239401
195	0xbac25ded	-0.0014829017
196	0xbaa43755	-0.0012528697
197	0xbb08ea24	-0.0020891512
198	0xbaa10ce9	-0.0012287173
199	0x3a84db00	0.0010136068
200	0xbaafb35f	-0.0013404897
201	0x39a454ce	0.00031343702
202	0xbb0e3859	-0.0021701066
203	0xba278b90	-0.0006391341
204	0x3a288b58	0.0006429455
205	0x3b0786b3	0.0020679652
206	0xba8e4715	-0.0010854924
207	0xb9bf5f05	-0.00036501154
208	0xb9ac5092	-0.00032866426
209	0x3b07f2b0	0.0020744018
210	0xbac33a94	-0.0014894777
211	0x3aea1312	0.0017858467
212	0xbad2fc19	-0.001609686
213	0xba8081e8	-0.000980434
214	0xb9faa28c	-0.00047804823
215	0x3a9d4cd2	0.0012001044
216	0x3aba7df0	0.0014228206
217	0xba9bb669	-0.0011879924
218	0xbab50fd7	-0.0013813925
219	0x3a218412	0.00061613426
220	0xbad9b9d9	-0.0016611173
221	0x3a931385	0.0011221027
222	0xbaa05488	-0.0012232224
223	0xbac6b122	-0.0015158991
224	0x3ab14bdf	0.001352664
225	0x3b12cae2	0.002239876
226	0xba4c737e	-0.0007799192
227	0x3abc485a	0.0014364824
228	0xbabda441	-0.0014468507
229	0xba9dd7b5	-0.0012042435
230	0x3af080d5	0.0018348942
231	0x390d83a3	0.00013495846
232	0xb8d82b36	-0.00010307731
233	0x3b071b1a	0.002061552
234	0xba92093d	-0.0011141669
235	0x3aca6641	0.0015441851
236	0x3a8e7da4	0.0010871184
237	0x3a81b4cf	0.0009895804
238	0x3adefb58	0.0017012162
239	0xbab42f1c	-0.001374695
240	0x3a2b6e8f	0.0006539607
241	0xbb05f3dc	-0.002043954
242	0xbab1677e	-0.0013534871
243	0xba852b61	-0.0010160023
244	0x3ab84cfe	0.0014061031
245	0x3a3ced03	0.00072069484
246	0xbad42b2e	-0.0016187185
247	0x3a8c15ce	0.0010687651
248	0xb9bb30ab	-0.0003570368
249	0x3b1b0dcc	0.0023659347
250	0xbabf384b	-0.001458892
251	0xbb22e56f	-0.0024855991
252	0xbac608b0	-0.001510879
253	0x39e075b2	0.000428123
254	0x3ac9e55b	0.0015403436
255	0x3adb1790	0.0016715396

gcn_convs.0.path_weight_2.bias f4 [32]
0	0x3c2219c9	0.009893843
1	0xbd5295cf	-0.0514124
2	0x3cb1f89b	0.02172499
3	0x3dd0ff1f	0.102049105
4	0x3d3c7719	0.046012018
5	0xbce306fd	-0.027713293
6	0xbc818908	-0.015812412
7	0xbcd98f94	-0.026557721
8	0x3d332ef6	0.043745957
9	0xbe936fcc	-0.28796232
10	0x3dd79118	0.10525721
11	0xbe639bdd	-0.22227426
12	0x3f39cae3	0.72575206
13	0x3f17c030	0.5927763
14	0xbe37b47d	-0.17939945
15	0xbcf07fac	-0.029357754
16	0xbf0d0c4b	-0.5509688
17	0x3dc4641c	0.09589407
18	0x3f6fa351	0.93608576
19	0x3e2f3915	0.17111619
20	0xbe4d4f69	-0.20049824
21	0x3d9ad96c	0.07561001
22	0x3f07dd58	0.5307212
23	0x3cde1fa1	0.027114691
24	0x3d505236	0.050859652
25	0x3e0cde5b	0.13756697
26	0x3e663bc2	0.22483733
27	0x3bc2a58e	0.005940146
28	0xbc3cc737	-0.011522106
29	0x3d9a39f2	0.075305834
30	0xbb801821	-0.0039091264
31	0x3d6da9c0	0.058023214

gcn_convs.1.path_weight_1.weight f4 [6, 32]
0	0x3c0545e1	0.008134336
1	0xbbba5528	-0.005686421
2	0x3c94a300	0.01814413
3	0x3cb9a511	0.022661718
4	0xbb33270c	-0.0027336506
5	0xbc41ed77	-0.011836401
6	0xbccedc3b	-0.025251498
7	0x3d00f16f	0.03148025
8	0xbc50c01a	-0.012741113
9	0xbbc12435	-0.005894209
10	0x3c44db88	0.012015231
11	0xbc04be44	-0.0081020035
12	0x3b890b3a	0.0041822465
13	0xbaefd2ad	-0.0018297039
14	0xbb5c7609	-0.003363969
15	0x3cf2b440	0.029626966
16	0xbbcdfc86	-0.0062862067
17	0xbb46d457	-0.0030338967
18	0x3c9444f5	0.018099288
19	0x3bd95a5c	0.006633086
20	0xbbdb5d62	-0.0066944817
21	0x3ca25535	0.01981602
22	0x3b6212c7	0.0034496055
23	0xbc8382eb	-0.016053637
24	0x3c3adf43	0.011405769
25	0x3c87aca5	0.016561816
26	0x3c5a918d	0.013340366
27	0x3c5ed499	0.013600492
28	0x3a31283a	0.00067580084
29	0xbba74a0a	-0.0051052617
30	0x3bb37193	0.0054761856
31	0x3b09ce4f	0.002102751
32	0xb9c84548	-0.0003819859
33	0xbaeeb16e	-0.0018210837
34	0x3ba96d3e	0.0051704934
35	0xbb346828	-0.0027527902
36	0xba40b039	-0.0007350478
37	0x3c41f09e	0.011837153
38	0xbaaea87c	-0.0013325359
39	0x3c1f3b42	0.009718718
40	0xbc1a2a41	-0.009409488
41	0x3b625d07	0.0034540312
42	0x3b3bc156	0.0028649173
43	0x3ba618a8	0.005068857
44	0xbbae929f	-0.005327537
45	0xbaeda6e7	-0.0018131406
46	0xbc28e4ce	-0.010308458
47	0xba4ed670	-0.000789023
48	0x3b3c99a3	0.0028778098
49	0xbbcf3a96	-0.0063241227
50	0xbafdbf93	-0.0019359462
51	0xbc0b3318	-0.008496068
52	0xba4827b0	-0.00076353084
53	0x3b80fca2	0.003936366
54	0xbc704f48	-0.01466734
55	0xbbaf8b54	-0.0053571854
56	0x3acc0910	0.0015566666
57	0x3c027a95	0.007963796
58	0x3ba4d58b	0.005030339
59	0x3b6b354a	0.0035889917
60	0x3b6a75bd	0.0035775744
61	0xbbb78898	-0.005601
62	0xbaa4da7c	-0.001257732
63	0xbbdb9538	-0.006701138
64	0x3b2e99a0	0.002664186
65	0x3c45b37f	0.012066721
66	0xbc18ee8b	-0.009334217
67	0x3ae0d393	0.0017152898
68	0xbc3274f1	-0.010892139
69	0xbbb54a4e	-0.0055325394
70	0xbc8d209a	-0.01722746
71	0xbcac0558	-0.020998642
72	0x3a660e18	0.0008775904
73	0xbbab1d53	-0.0052220016
74	0x3ca78e36	0.020453554
75	0xbc1f484b	-0.009721826
76	0xbc5da777	-0.013528696
77	0x3c0d79a5	0.008634959
78	0x3ba42e96	0.0050104363
79	0xbc123076	-0.008922687
80	0x3bce0f75	0.0062884637
81	0xbbf7fb95	-0.0075678327
82	0xbaeb6f00	-0.0017962158
83	0x3c934736	0.017978292
84	0x3c01527f	0.007893204
85	0xbbe5a074	-0.007007653
86	0x3bd6f868	0.006560374
87	0xbbb4567f	-0.005503475
88	0xbc47423e	-0.012161789
89	0xbc84bf62	-0.01620454
90	0x3b53429c	0.0032235747
91	0xbc6fb773	-0.01463114
92	0x3ba3102f	0.0049762945
93	0xbb9df36e	-0.004820279
94	0x3c314bde	0.010821311
95	0x3c4fe264	0.012688253
96	0xbb2fccca	-0.0026824945
97	0xb987a1e4	-0.00025869824
98	0xbadc593e	-0.0016811264
99	0x3a0e8216	0.00054362544
100	0xbb3aaa27	-0.0028482766
101	0x3b9b8ece	0.0047472483
102	0x3c47d608	0.012197025
103	0xbb81cf7b	-0.003961501
104	0xbad62331	-0.0016337392
105	0x39b23f31	0.00033997887
106	0x3bfbebb0	0.0076880082
107	0xbba9b07e	-0.00517851
108	0xba0b3670	-0.0005310541
109	0xbb1021d6	-0.0021992824
110	0xbb268c3c	-0.0025413176
111	0xbb2aa03f	-0.0026035456
112	0x3a078744	0.00051699975
113	0x3b5c0b04	0.0033575902
114	0x3b746cf1	0.003729638
115	0x3ae8ac81	0.0017751605
116	0xbab78b89	-0.0014003377
117	0xba968244	-0.0011482914
118	0xbad3c508	-0.0016156742
119	0xb9f65d16	-0.0004699013
120	0xbb6780fd	-0.0035324686
121	0x3b7ecac8	0.0038878191
122	0x3bade22c	0.005306503
123	0x3c0313ef	0.008000358
124	0xbaaf5371	-0.0013376308
125	0xbaa636b5	-0.0012681099
126	0xbbc41490	-0.0059838966
127	0x3c248ccb	0.010043333
128	0xbb0a4fd5	-0.0021104713
129	0x3c76c21b	0.015060927
130	0xbb8c3ee1	-0.0042799567
131	0x3c9be798	0.019031331
132	0xbc814eb7	-0.015784604
133	0x3c72d7cf	0.014821961
134	0x3bdb43fe	0.006691455
135	0xb9a04f67	-0.00030576737
136	0x3b32be19	0.0027273952
137	0x3c4b76a9	0.0124184275
138	0x3ba1efb0	0.004941903
139	0x3c22f956	0.009947142
140	0x3a407cac	0.00073427963
141	0xbb8be70f	-0.0042694877
142	0xbcbbc908	-0.022923008
143	0xbc0f1c49	-0.008734771
144	0x3c9cda4e	0.019147065
145	0x3be78b9d	0.0070662037
146	0xbbe44a03	-0.0069668307
147	0xbcb197dc	-0.021678858
148	0xbb142ed7	-0.0022610927
149	0xbbc8bf04	-0.0061262865
150	0xba54c1b8	-0.00081160245
151	0xbbb4ceaf	-0.0055178027
152	0xbcc0f3ab	-0.02355369
153	0x3bdd900f	0.006761558
154	0xbc2f26b6	-0.010690382
155	0x3c91d6cc	0.017802618
156	0xbbc41ac7	-0.0059846374
157	0x3bb2140c	0.0054345187
158	0xbc85203d	-0.016250724
159	0x3bf784cc	0.0075536724
160	0xbc113f3a	-0.008865172
161	0x3cc2d303	0.023782259
162	0xbba801cb	-0.005127167
163	0xbb943876	-0.004523332
164	0xbc4de1c3	-0.012566033
165	0x3c7986b6	0.0152298715
166	0xbd066e46	-0.03282001
167	0x3ca76b5d	0.020436937
168	0x3ca6d613	0.02036575
169	0xbc6f8f3c	-0.014621552
170	0xbd2472d9	-0.04014859
171	0x3caccff5	0.021095255
172	0xbc0045cf	-0.007829144
173	0xbc0eb3cf	-0.008709862
174	0xbc301ba6	-0.010748779
175	0x3c878961	0.016545
176	0x3c3fd005	0.011707311
177	0x3c89f0d1	0.016838463
178	0x3b50724e	0.0031806412
179	0x3c31db4f	0.01085551
180	0x3c36b0cd	0.011150551
181	0x3ce20da6	0.027594399
182	0xbc9b2d62	-0.018942539
183	0x3c1dabf8	0.00962352
184	0x3c16348b	0.009167801
185	0x3c1ce4f8	0.009576075
186	0x3a1f3ee5	0.00060747407
187	0xbc9c86e1	-0.019107284
188	0x3af19c45	0.0018433413
189	0x3b8c31b6	0.004278387
190	0xbb9114ba	-0.0044275196
191	0x3c177fbd	0.009246764

gcn_convs.1.path_weight_1.bias f4 [6]
0	0x3ebf7674	0.3739506
1	0xbde5525d	-0.1119735
2	0x3f141466	0.57843626
3	0x3eead9c9	0.45869282
4	0x3f291c7b	0.6605908
5	0x3f244470	0.6416693

gcn_convs.1.path_weight_2.weight f4 [6, 32]
0	0xbdcfb325	-0.10141591
1	0x3e1c6f79	0.15276898
2	0xbcffa3cc	-0.031206034
3	0xbd471d96	-0.0486122
4	0xbd986a7a	-0.07442184
5	0xbd4277d4	-0.04747756
6	0xbd14e63b	-0.036352377
7	0xbc1c750b	-0.00954939
8	0x3c11d73c	0.0089014135
9	0xbd33fa8e	-0.04394012
10	0xbcdfc155	-0.027313868
11	0xbd100d01	-0.03516865
12	0x3efe3395	0.4964873
13	0x3e69b881	0.22824289
14	0xbd176442	-0.036960848
15	0xbe2fa763	-0.17153697
16	0x3d4d05f5	0.05005451
17	0xbbff892e	-0.0077983355
18	0x3e424af3	0.18973903
19	0x3f436150	0.7632036
20	0x3b24f930	0.0025172941
21	0x3c7e65fb	0.015527244
22	0x3c8a5c9f	0.016889868
23	0x3e6dab84	0.2320996
24	0xbe2b9698	-0.16756666
25	0x3de0334f	0.10947286
26	0x3de3ead1	0.11128772
27	0xbd4063c6	-0.04697015
28	0x3cb3890e	0.021915939
29	0x3dd49c6f	0.103814
30	0xbc0f4193	-0.008743661
31	0x3d8e49ad	0.06947646
32	0x3d597937	0.053094115
33	0x3ed2c9e2	0.4116965
34	0x3da0a650	0.078442216
35	0xbe282c69	-0.16423191
36	0x3e2117e6	0.15731773
37	0xbe1336bf	-0.14376353
38	0xbd898756	-0.067152664
39	0xbda3f9c0	-0.080066204
40	0xbdb44923	-0.08803012
41	0x3eed146b	0.4630464
42	0xbd419248	-0.047258645
43	0xbe0e3ccc	-0.1389038
44	0x3f0b573d	0.5442999
45	0x3eea305a	0.45740014
46	0xbe071ca0	-0.13194513
47	0x3c9ebe49	0.019377844
48	0xbd8687d0	-0.06568873
49	0xbe8c8dc8	-0.2745192
50	0x3ee990e6	0.4561836
51	0xbdc050c7	-0.09390407
52	0xbd978443	-0.07398274
53	0xbe3f5935	-0.18686374
54	0x3eff4594	0.4985777
55	0xbe2f38a9	-0.17111458
56	0xbe0c7f8a	-0.13720527
57	0xbd9b76fc	-0.07591054
58	0x3c827078	0.01592277
59	0x3d69e1c5	0.057100076
60	0xbda25813	-0.07926955
61	0xbea80c3e	-0.3282184
62	0x3c7c944c	0.015416216
63	0x3e17bd83	0.14818387
64	0x3d668478	0.056278676
65	0x3f2fed27	0.6872124
66	0x3de9b1a6	0.11410837
67	0xbed475ce	-0.41496128
68	0x3cc13293	0.023583686
69	0xbde89a1c	-0.11357519
70	0x3dc60b46	0.09670119
71	0x3c6e8437	0.01455789
72	0x3d22a6f1	0.03970999
73	0x3eaf4739	0.34234026
74	0xbc82f3cd	-0.015985394
75	0xbe54ecbb	-0.2079343
76	0x3f0e9801	0.5570069
77	0x3f0f3782	0.55944073
78	0xbce21a24	-0.027600355
79	0x3e4ea4d4	0.20180064
80	0x3d7c16af	0.06154507
81	0xbd748cca	-0.05970458
82	0x3e452902	0.19253924
83	0x3e70c18f	0.23511337
84	0xbe4627e2	-0.19351152
85	0xbe27a42e	-0.16371223
86	0x3eab9f42	0.33519942
87	0xbe7c5f6f	-0.2464578
88	0x3d2407d8	0.040046543
89	0xbe36aaca	-0.17838588
90	0x3df181a6	0.117923066
91	0xbd3c5f8e	-0.045989566
92	0x3e76bbce	0.2409508
93	0xbe7d6c33	-0.24748306
94	0xbd0330c9	-0.032028947
95	0x3e1ee638	0.15517509
96	0x3df53401	0.119728096
97	0x3ed6cb38	0.4195192
98	0x3d439b71	0.047755662
99	0xbe7f993a	-0.24960795
100	0xba540553	-0.00080879516
101	0xbe3cc2b1	-0.18433644
102	0x3c07c455	0.008286555
103	0xbd2fca08	-0.04291728
104	0xbdde31da	-0.10849352
105	0x3f04b675	0.5184091
106	0xbdb7d008	-0.08975226
107	0xbe73c1ac	-0.23804349
108	0x3f15a94c	0.5846145
109	0x3ef70b6a	0.48250896
110	0xbe0b8e7b	-0.1362857
111	0x3e0930c7	0.13397513
112	0xbe0e2c30	-0.13884044
113	0xbe905c2e	-0.28195328
114	0x3ed6ec16	0.41976994
115	0x3e89bc56	0.269015
116	0xbe05adfa	-0.13054648
117	0xbde6ff43	-0.11279156
118	0x3ef3cb88	0.4761622
119	0xbe667031	-0.22503735
120	0xbcb20087	-0.021728767
121	0xbe8710b9	-0.26379946
122	0xbefb80c1	-0.4912167
123	0x3daca84f	0.0843054
124	0x3dcddbd7	0.10051697
125	0xbe76dac0	-0.24106884
126	0xbd4870c0	-0.04893565
127	0x3de9ffed	0.11425767
128	0x3d9fbf49	0.078001566
129	0x3ecd3bf9	0.40084818
130	0x3d2f5457	0.042805042
131	0xbe7d9f1b	-0.24767725
132	0x3c8aec8f	0.016958503
133	0xbe232c06	-0.15934762
134	0x3d2960ae	0.041351967
135	0x3dd34dd4	0.10317579
136	0x3c992a17	0.018696828
137	0x3e892da6	0.2679264
138	0x3c6c84ec	0.014435988
139	0xbdc30685	-0.09522728
140	0x3ed8b0ab	0.42322287
141	0x3e93e07b	0.28882203
142	0xbdb65486	-0.0890284
143	0x3d554a68	0.052072912
144	0x3dd6a525	0.104807176
145	0xbe520834	-0.20510942
146	0x3e8ad82b	0.27118048
147	0xbbc01a87	-0.0058625373
148	0xbd4b3ec4	-0.049620405
149	0xbd8d707a	-0.06906219
150	0x3eb57b7d	0.35445777
151	0xbdca6fd9	-0.098846145
152	0x3c7b85a0	0.015351683
153	0xbca158d8	-0.019695684
154	0xbe6e8dfc	-0.2329635
155	0x39ce9920	0.0003940547
156	0xbe522d67	-0.20525132
157	0xbd8bd3bc	-0.068274945
158	0x3c0a5d12	0.008445041
159	0x3e1c1850	0.1524365
160	0x3c5a2ef3	0.013316858
161	0x3e9a313a	0.30115682
162	0x3dff971d	0.124799944
163	0xbe2c9ce8	-0.1685673
164	0xbd4b992d	-0.049706627
165	0xbdd089b2	-0.10182513
166	0xbaf412df	-0.0018621347
167	0xbda16b0a	-0.07881744
168	0xbd00b323	-0.031420838
169	0x3eb32987	0.3499262
170	0xbcecc4a2	-0.028902356
171	0xbe551ef5	-0.2081259
172	0x3f1cfbf0	0.61321926
173	0x3f0c2d32	0.5475646
174	0xbdcf2ad8	-0.10115594
175	0x3db5a326	0.08869009
176	0x3d4a75be	0.049428694
177	0xbea31a56	-0.3185603
178	0x3ec11562	0.37711626
179	0x3f393a48	0.72354555
180	0xbdbabcb0	-0.091180205
181	0xbd4257e1	-0.04744709
182	0x3e93e259	0.28883627
183	0xbe75fccb	-0.24022214
184	0xbe2707f5	-0.16311629
185	0xbe03aa06	-0.12857828
186	0xbd23144d	-0.039814282
187	0xbb341b97	-0.0027482265
188	0xbde41f75	-0.111388125
189	0xbde6896e	-0.112566814
190	0xbbd2ab0c	-0.006429082
191	0xbd012153	-0.03152592

gcn_convs.1.path_weight_2.bias f4 [6]
0	0x3de6b322	0.112646356
1	0x3f4dd264	0.80399156
2	0x3f16d89c	0.5892427
3	0x3f33e3ca	0.70269454
4	0x3e8e81e1	0.27833465
5	0x3f0ac200	0.5420227

lns.0.weight f4 [32]
0	0xbd8e46d1	-0.06947101
1	0xbe6e716a	-0.23285452
2	0x3bedf3ae	0.007261715
3	0x3d50e13a	0.050996043
4	0xbc4d7076	-0.01253902
5	0xbc01e7f7	-0.00792884
6	0x3d3027ef	0.043006834
7	0x3dbb7d07	0.091547064
8	0x3d0692cd	0.032854844
9	0xbe958a17	-0.29206917
10	0x3c9a2a90	0.018819124
11	0x3d7df432	0.06200046
12	0x3f0ec54d	0.5576981
13	0x3ea6a82c	0.3255018
14	0xbdc112c0	-0.094274044
15	0x3dfe9d05	0.12432293
16	0x3d028169	0.031861696
17	0x3e5d91f2	0.21637705
18	0x3e7491fd	0.23883815
19	0xbd8587df	-0.06520056
20	0x3d326ed6	0.043562733
21	0x3d44cd5b	0.048047405
22	0xbddb2ac4	-0.10701516
23	0x3d33692a	0.043801464
24	0xbde661cc	-0.11249122
25	0xbd73fdf7	-0.05956837
26	0x3e22a4bc	0.15883154
27	0xbba2b238	-0.004965093
28	0x3de047e5	0.10951213
29	0x3d530005	0.05151369
30	0x3c32aa0b	0.010904799
31	0x3e8d374a	0.27581245

lns.0.bias f4 [32]
0	0xbac91e3d	-0.0015344095
1	0x3ed6dc56	0.41964978
2	0x3d8b69e3	0.06807306
3	0xbe275dce	-0.16344377
4	0x3d1269fe	0.035745613
5	0xbd0ecc6b	-0.034862917
6	0xbda68ca1	-0.081322916
7	0xbdbedee0	-0.09319854
8	0xbd4083bc	-0.04700063
9	0x3eb9f946	0.36322993
10	0xbd03dc96	-0.03219279
11	0xbd8bb844	-0.06822255
12	0x3e8a52a9	0.2701619
13	0x3e54acc8	0.20769036
14	0x3d1f5880	0.03890276
15	0x3d83d68b	0.06437405
16	0xbcd3c108	-0.02584888
17	0xbe92e409	-0.28689602
18	0x3d147e8a	0.03625349
19	0xbd81c668	-0.06336671
20	0xbdb4ab1c	-0.08821699
21	0xbddb4a69	-0.10707552
22	0xbce7d36d	-0.028299058
23	0xbe2bc98c	-0.16776103
24	0x3d882d69	0.06649286
25	0xbe3600a3	-0.1777368
26	0x3e69ccf8	0.22832096
27	0x3c010727	0.00787524
28	0x3d0fa54d	0.035069752
29	0xbe51c65d	-0.20485826
30	0xbcd9b468	-0.026575282
31	0x3e408d08	0.18803799

lns.1.weight f4 [32]
0	0x3f800000	1.0
1	0x3f800000	1.0
2	0x3f800000	1.0
3	0x3f800000	1.0
4	0x3f800000	1.0
5	0x3f800000	1.0
6	0x3f800000	1.0
7	0x3f800000	1.0
8	0x3f800000	1.0
9	0x3f800000	1.0
10	0x3f800000	1.0
11	0x3f800000	1.0
12	0x3f800000	1.0
13	0x3f800000	1.0
14	0x3f800000	1.0
15	0x3f800000	1.0
16	0x3f800000	1.0
17	0x3f800000	1.0
18	0x3f800000	1.0
19	0x3f800000	1.0
20	0x3f800000	1.0
21	0x3f800000	1.0
22	0x3f800000	1.0
23	0x3f800000	1.0
24	0x3f800000	1.0
25	0x3f800000	1.0
26	0x3f800000	1.0
27	0x3f800000	1.0
28	0x3f800000	1.0
29	0x3f800000	1.0
30	0x3f800000	1.0
31	0x3f800000	1.0

lns.1.bias f4 [32]
0	0x00000000	0.0
1	0x00000000	0.0
2	0x00000000	0.0
3	0x00000000	0.0
4	0x00000000	0.0
5	0x00000000	0.0
6	0x00000000	0.0
7	0x00000000	0.0
8	0x00000000	0.0
9	0x00000000	0.0
10	0x00000000	0.0
11	0x00000000	0.0
12	0x00000000	0.0
13	0x00000000	0.0
14	0x00000000	0.0
15	0x00000000	0.0
16	0x00000000	0.0
17	0x00000000	0.0
18	0x00000000	0.0
19	0x00000000	0.0
20	0x00000000	0.0
21	0x00000000	0.0
22	0x00000000	0.0
23	0x00000000	0.0
24	0x00000000	0.0
25	0x00000000	0.0
26	0x00000000	0.0
27	0x00000000	0.0
28	0x00000000	0.0
29	0x00000000	0.0
30	0x00000000	0.0
31	0x00000000	0.0
