semi-supervised/citeseer_16_layers_.pt (torch, 728249 bytes, 100 tensors)

trans_feat.weight f4 [32, 3703]
-0.00011465776 0.00011829512 -1.5189309e-05 -2.5940408e-05 -9.4511e-06 2.042027e-05 3.3222532e-06 7.661425e-06
-7.4793734e-06 -9.009636e-05 -3.3054625e-05 -7.493654e-05 3.8323262e-05 -4.5274744e-05 2.3542407e-05 -3.1995867e-05
4.364438e-05 5.7441102e-05 0.00012157976 -1.0690845e-05 3.341599e-05 1.0116237e-06 -9.649661e-05 3.1812342e-06
8.941237e-05 3.4716086e-05 2.2987355e-05 -9.522751e-05 -7.733458e-05 -4.6735295e-08 7.024126e-06 4.53342e-05
-6.7661815e-05 -1.3635123e-05 -0.00012216366 9.860721e-05 -2.001454e-05 0.00010015259 9.878959e-06 -4.281237e-05
3.733958e-05 -5.8205573e-05 -3.1796088e-05 6.8450554e-06 0.00011078178 -0.00011316876 -0.00013396953 -2.6270687e-05
-2.1051164e-05 -1.7036236e-05 -2.3635697e-05 -9.124409e-05 3.5165314e-05 -0.00011977422 -2.5905083e-05 2.2564236e-05
2.8877812e-05 -9.151438e-06 -3.1582116e-05 2.7732613e-05 2.0846375e-05 2.6417083e-05 1.2648896e-05 3.755984e-05
3.0999432e-05 0.0001537841 4.2389445e-05 -3.040871e-05 -2.710926e-05 -4.323471e-05 -3.444463e-05 -4.0947565e-05
-4.1174004e-05 -1.2323289e-06 -2.9655766e-05 7.3564835e-05 -6.489023e-05 2.1706765e-06 -5.429467e-05 2.8941144e-05
-2.3748787e-05 1.0872867e-05 -0.000100752986 -1.256518e-05 3.951969e-06 3.2357188e-05 2.738275e-05 -0.00012987416
2.8491131e-05 1.5887652e-05 -3.2300504e-06 -2.7936901e-05 -4.2379965e-05 -0.00012054452 1.5396792e-05 -8.122568e-05
-2.4379733e-06 -3.1953903e-05 -2.2401426e-05 -3.2868425e-05 2.2385426e-05 2.2552846e-05 -0.00010180057 3.298235e-05
-3.5375277e-05 -5.2384876e-05 6.2187566e-05 -2.687081e-05 -1.8793384e-05 4.5691788e-05 -0.00010176583 2.5312416e-05
-5.2651827e-05 3.3371743e-05 5.6503006e-05 -1.8427852e-05 -2.2480754e-05 -2.8361264e-06 2.959797e-05 -2.3575867e-05
2.6301346e-05 4.375176e-05 -1.5241796e-05 1.6071535e-05 -3.137101e-05 -3.477182e-05 1.886159e-05 -9.307763e-06
-4.7617716e-05 -1.1427997e-05 7.99691e-06 -3.6744248e-05 0.000118577154 4.939462e-05 -3.0916497e-05 9.956382e-05
-1.55039e-05 1.7654624e-05 0.00010372972 -1.4659752e-05 -4.3597443e-05 3.0838804e-05 7.735434e-08 2.9732733e-05
3.335424e-05 1.5738795e-05 -6.01827e-05 0.000101462305 2.8832283e-05 -2.7509595e-05 8.122219e-06 -2.9401817e-05
-2.053148e-05 2.672571e-05 -2.3032602e-05 1.283197e-05 -5.8355887e-05 1.6642958e-05 6.2867584e-06 -2.5120597e-05
3.3097433e-05 -3.6629193e-05 2.8061459e-05 0.00012510132 8.5800675e-05 3.0942247e-06 1.979269e-05 2.5046065e-05
0.00025738095 -8.118437e-06 6.16059e-05 -8.621129e-06 3.3430824e-06 4.4482244e-05 -2.3845223e-06 -0.00010328467
1.8518238e-05 -0.00017025946 3.792055e-05 4.4099965e-05 -2.7186574e-05 -2.1004591e-05 -3.6605288e-06 3.4352022e-05
1.4031812e-05 3.3437824e-05 -9.061464e-05 2.3692715e-05 -2.7719101e-05 -7.0327314e-06 -3.2822165e-05 8.266887e-06
2.7548132e-05 2.2247074e-05 -2.66787e-05 1.9678442e-05 -2.0182211e-05 -8.8741195e-05 1.6084305e-05 -3.2109023e-05
-0.00022754117 3.43523e-05 -4.5694404e-05 1.9011903e-05 -7.34722e-06 -2.721525e-05 7.6281496e-05 2.8533734e-05
-5.367539e-05 -0.00013060054 -2.1188935e-05 4.0862808e-05 -4.5359648e-06 8.694038e-05 -6.330872e-05 -4.9220034e-07
3.2235926e-05 -9.898464e-05 2.1487094e-05 -9.756118e-05 7.8162666e-05 1.9516014e-05 2.3128598e-05 -2.6549287e-05
-2.949245e-05 3.5552275e-05 6.9379035e-05 2.910258e-05 -3.2447657e-05 -2.2582519e-05 3.2954948e-05 2.7105787e-05
-1.95188e-05 3.3238786e-05 8.803901e-06 2.5085941e-05 -0.00012288343 1.8332496e-05 -2.7884184e-05 -2.5324905e-05
2.2384273e-05 4.8177495e-05 -6.178452e-07 -3.526765e-05 -2.3278244e-05 6.346231e-05 2.758866e-05 2.6128208e-05
-6.958574e-05 -1.1309543e-05 -0.00010757041 -6.62043e-05 1.9862167e-05 0.00014296354 2.9375042e-05 -2.7984968e-05
00000000: 6b74 f0b8 3515 f838 96d5 7eb7 9a9a d9b7
00000010: 2a90 1eb7 324c ab37 e0f3 5e36 9289 0037
00000020: 54f7 fab6 1df2 bcb8 22a4 0ab8 4027 9db8
00000030: 4abd 2038 63e5 3db8 ef7c c537 4d33 06b8
00000040: cc0e 3738 eaec 7038 a3f8 fe38 d45c 33b7
00000050: 2528 0c38 20c7 8735 395e cab8 307d 5536
00000060: e782 bb38 1d9c 1138 f8d4 c037 e1b4 c7b8
00000070: b02e a2b8 00ba 48b3 c8b0 eb36 3a25 3e38
00000080: a9e5 8db8 68c2 64b7 0f19 00b9 58cb ce38
00000090: e6e4 a7b7 0309 d238 cebd 2537 6f91 33b8
000000a0: 129d 1c38 c221 74b8 ca5c 05b8 94ae e536
000000b0: 8453 e838 0455 edb8 2c7a 0cb9 df5f dcb7
000000c0: 0897 b0b7 0ae9 8eb7 4645 c6b7 4c5a bfb8
000000d0: 787e 1338 4b2f fbb8 be4e d9b7 5448 bd37
000000e0: a13e f237 2089 19b7 0a77 04b8 55a3 e837
000000f0: 40df ae37 419a dd37 9836 5437 9289 1d38
00000100: 6305 0238 1b41 2139 52cb 3138 3516 ffb7
00000110: b168 e3b7 eb56 35b8 a478 10b8 1dbf 2bb8
00000120: 40b2 2cb8 8066 a5b5 46c5 f8b7 d246 9a38
00000130: ad15 88b8 f0ab 1136 75ba 63b8 a2c6 f237
00000140: 2238 c7b7 9c6a 3637 594b d3b8 0acf 52b7
00000150: 289b 8436 44b7 0738 02b4 e537 d42e 08b9
00000160: 3d00 ef37 7946 8537 d8c3 58b6 0a5a eab7
00000170: 24c1 31b8 d9cc fcb8 5c28 8137 b457 aab8
00000180: 109c 23b6 3e06 06b8 b2ea bbb7 34dc 09b8
00000190: 56c8 bb37 de2f bd37 c47d d5b8 8756 0a38
000001a0: ea5f 14b8 d5b7 5bb8 b26a 8238 a068 e1b7
000001b0: 7ca6 9db7 2fa5 3f38 1d6b d5b8 0056 d437
000001c0: 78d6 5cb8 a3f8 0b38 a4fd 6c38 8395 9ab7
000001d0: 0d95 bcb7 4854 3eb6 2849 f837 cac4 c5b7
000001e0: b6a1 dc37 1882 3738 04b7 7fb7 5cd1 8637
000001f0: 5e94 03b8 f5d7 11b8 f538 9e37 8a28 1cb7
00000200: 22b9 47b8 e0ba 3fb7 782a 0637 d61d 1ab8
00000210: a0ac f838 122d 4f38 56ac 01b8 ebcc d038
00000220: 5f0e 82b7 0419 9437 7889 d938 28f3 75b7
00000230: 66dc 36b8 ea58 0138 001e a633 8f6a f937
00000240: d8e5 0b38 ce06 8437 af6c 7cb8 29c8 d438
00000250: dbdc f137 68c4 e6b7 aa44 0837 eca3 f6b7
00000260: 043b acb7 0631 e037 2336 c1b7 e448 5737
00000270: 28c3 74b8 7b9c 8b37 d8f2 d236 12ba d2b7
00000280: 19d2 0a38 4ca2 19b8 8665 eb37 a12d 0339
00000290: e3ef b338 60a6 4f36 7a08 a637 041a d237
000002a0: 16f1 8639 6c34 08b7 6a32 8138 78a3 10b7
000002b0: b859 6036 7292 3a38 c805 20b6 899a d8b8
000002c0: 9d57 9b37 ad87 32b9 e10c 1f38 faf7 3838
000002d0: b90e e4b7 0433 b0b7 68a7 75b6 3415 1038
000002e0: 2c6a 6b37 973f 0c38 5d08 beb8 b8bf c637
000002f0: 5186 e8b7 b4fa ebb6 88aa 09b8 02b2 0a37
00000300: 2a17 e737 3a9f ba37 12cc dfb7 2213 a537
00000310: f84c a9b7 911a bab8 c8ec 8637 cdac 06b8
00000320: 1e98 6eb9 8015 1038 fea7 3fb8 c07b 9f37
00000330: 2488 f6b6 4e4c e4b7 51f9 9f38 ba5b ef37
00000340: 8321 61b8 d1f1 08b9 e4be b1b7 1b64 2b38
00000350: a433 98b6 c353 b638 9cc4 84b8 c01f 04b5
00000360: 1035 0738 f995 cfb8 2f3f b437 c299 ccb8
00000370: 43eb a338 52b6 a337 4904 c237 29b6 deb7
00000380: 8e66 f7b7 f71d 1538 967f 9138 5121 f437
00000390: 6818 08b8 976f bdb7 1b39 0a38 3c61 e337
000003a0: 4ebc a3b7 e069 0b38 78b4 1337 a66f d237
000003b0: 45da 00b9 bcc8 9937 d4e8 e9b7 d270 d4b7
000003c0: dcc5 bb37 3112 4a38 00da 25b5 5aec 13b8
000003d0: a645 c3b7 1117 8538 326e e737 e62d db37
000003e0: 8fee 91b8 1ebe 3db7 6d97 e1b8 2ad7 8ab8
000003f0: ae9d a637 7ce8 1539 6c6a f637 43c1 eab7

trans_feat.bias f4 [32]
3.0212419e-05 -1.4329717e-05 1.8041534e-05 -9.987416e-07 -1.9859908e-07 -3.0415611e-05 1.3788302e-05 3.137604e-05
-1.12334e-05 3.196037e-05 2.8249258e-05 -2.599709e-05 -8.808711e-06 2.6779806e-05 -1.6274395e-05 2.823493e-05
-1.10363544e-07 2.0806438e-05 -3.8859143e-06 1.0316631e-05 -2.260662e-05 7.1803643e-06 -3.0219358e-05 -1.6346119e-05
1.9042121e-05 -3.3260367e-05 2.7700862e-06 -1.2464927e-05 2.3396735e-05 2.5777466e-05 3.1597716e-05 -8.24354e-06
00000000: ad70 fd37 aa69 70b7 e657 9737 800c 86b5
00000010: 803e 55b4 0725 ffb7 4e54 6737 c499 0338
00000020: 1677 3cb7 300d 0638 d2f8 ec37 5314 dab7
00000030: 20c9 13b7 32a5 e037 ff84 88b7 0dda ec37
00000040: 0001 edb3 7c89 ae37 c063 82b6 9815 2d37
00000050: 59a3 bdb7 dcee f036 947f fdb7 061f 89b7
00000060: a5bc 9f37 0c81 0bb8 b8e5 3936 7420 51b7
00000070: 1b44 c437 b03c d837 ca87 0438 bc4d 0ab7

pred_trans.weight f4 [6, 3703]
0.116719685 0.76050645 0.0392198 -0.11938684 0.025946032 0.016633127 5.1716343e-05 0.04003483
-0.052724157 0.058223203 -0.008235976 -0.048841804 0.0042961985 -0.3101112 -0.04289815 0.08181067
-0.1994777 -0.0023434623 -0.28742313 -0.09701976 0.009785379 0.010485641 -0.31830812 -0.011687858
-0.1113491 -0.13882661 -0.0694434 -0.07397475 -0.08947082 0.46247745 -0.0045395773 0.37924483
-0.4385626 0.029805183 -0.15601817 0.2405422 -0.25554067 -0.28717 -0.09357219 0.014111497
0.009846648 -0.21322441 -0.054567043 -0.033494804 -0.41733986 0.25368932 0.0102142785 0.03300139
-0.1094987 0.03053797 -0.01018479 -0.14121275 0.024084594 -0.047614947 0.025612596 0.3940256
-0.013979355 0.29338995 -0.046020858 0.06416084 -0.03624133 0.3488495 -0.015059561 0.006504368
-0.013732623 -0.75262576 0.0013870597 -0.024572887 0.0151494965 -0.05612614 -0.111293755 -0.075059906
-0.08590151 0.27459696 -0.017192964 0.7093239 0.28448668 -0.13806802 0.020414755 5.96911e-06
0.044159353 -0.041131943 -0.18036348 0.013111737 -0.12096505 -0.0063958 0.016183713 0.6390844
-0.009302206 -0.042032443 -0.022163086 0.07415824 -0.07683605 -0.069600016 0.08928394 -0.12463038
-0.053938806 -0.054183226 0.034518197 0.021440215 -4.6608657e-06 -0.25723612 0.034208663 -0.003117364
-0.119222686 0.0035738277 0.01950854 -0.13109837 -0.009540299 -0.050120287 0.0018005269 -0.066823766
0.020802386 -0.060856618 0.1738626 -0.0013211181 -0.07375164 -0.0037991547 -0.024892518 -0.05029738
0.01462527 -0.012341138 -0.08912044 -0.0028775274 -0.05140559 -0.07526555 0.0059077106 -0.11488697
0.0014254497 -0.33278292 -0.10567299 0.057465304 -0.039690103 -0.12812471 0.0014558993 -0.059788164
-0.015687365 0.00060326466 -0.23282985 -0.026313553 -0.14712577 -0.06749817 -0.1373195 0.051532112
-0.01313975 -0.024708243 0.13604955 -0.103300266 0.39121512 -0.1690223 -0.24464822 -0.124395214
-0.010413291 0.07235753 0.00026446767 0.59405565 -0.06899234 -0.02762453 -0.04393654 -0.025610713
-0.06674169 -0.028652744 0.029699873 0.017775387 0.00037078466 0.22021215 0.72495526 -0.030122187
-0.25039786 -0.29876179 -0.004819788 0.11875118 0.05739729 0.2215688 -0.097942434 -0.028134845
0.022376893 -0.23219238 0.011985979 -0.15156072 -0.015711341 -0.0035026185 -0.11245906 -0.06281027
-0.13104317 0.00953972 -0.08743669 -0.030442733 -0.0026848875 -0.089868754 0.010526666 -0.027937584
-0.004715219 0.08907545 0.12860803 0.058968574 -0.05287352 0.40013862 -0.024747472 0.024469137
0.41512978 0.011926871 0.02493575 -0.016949877 0.04617767 -0.006618568 -0.2977158 0.040720444
-0.052983247 0.42682594 0.36337888 -0.3010513 -0.15815325 -0.08895241 -0.12016975 -0.073846444
-0.002245442 -0.06870766 0.1479301 -0.124428414 -0.08145303 -0.00013459986 0.030739222 0.10402262
0.15824871 0.29849494 -0.14558567 -0.040041845 -0.0643258 0.0765185 0.4347742 -0.018722715
-0.07324357 0.09513658 0.04820023 0.04388304 0.016142167 -0.22611836 -0.009344911 -0.039443273
-0.1979666 -0.08477317 -0.014417621 -0.005056077 0.061055586 0.08766425 -0.08518658 0.83434623
0.27217945 -0.36570996 -0.10487396 -0.06341187 -0.013936512 -0.083639264 -0.14899097 0.00079927966
00000000: bb0a ef3d 8db0 423f f1a4 203d 1681 f4bd
00000010: c68c d43c 3242 883c 00ea 5838 90fb 233d
00000020: 49f5 57bd 747b 6e3d 30f0 06bc 580e 48bd
00000030: 20c7 8c3b e5c6 9ebe f8b5 2fbd 5a8c a73d
00000040: e243 4cbe c694 19bb 2029 93be 4cb2 c6bd
00000050: db52 203c f7cb 2b3c 48f9 a2be 6e7e 3fbc
00000060: ff0a e4bd 9028 0ebe 5738 8ebd 1380 97bd
00000070: 7a3c b7bd d8c9 ec3e bcc0 94bb 612c c23e
00000080: 478b e0be 002a f43c 3ac3 1fbe b250 763e
00000090: 3ad6 82be f207 93be c7a2 bfbd e933 673c
000000a0: d653 213c 8057 5abe b181 5fbd d931 09bd
000000b0: 92ad d5be 91e3 813e ca59 273c 772c 073d
000000c0: db40 e0bd c42a fa3c 1bde 26bc 139a 10be
000000d0: 0e4d c53c e407 43bd 82d1 d13c b9bd c93e
000000e0: aa09 65bc 3537 963e 5e80 3cbd c266 833d
000000f0: ca71 14bd 679c b23e 60bc 76bc 9822 d53b
00000100: ccfe 60bc 15ac 40bf 00ce b53a 144d c9bc
00000110: 9835 783c 86e4 65bd fbed e3bd 02b9 99bd
00000120: 22ed afbd f997 8c3e 42d8 8cbc 4096 353f
00000130: 3da8 913e b461 0dbe d83c a73c 444a c836
00000140: 70e0 343d f879 28bd 34b1 38be 9cd2 563c
00000150: 86bc f7bd dc93 d1bb b593 843c 099b 233f
00000160: 4868 18bc 362a 2cbd 5c8f b5bc 46e0 973d
00000170: 385c 9dbd 748a 8ebd 80da b63d 363e ffbd
00000180: f0ee 5cbd 3bef 5dbd f462 0d3d 64a3 af3c
00000190: 8864 9cb6 74b4 83be 621e 0c3d b04c 4cbb
000001a0: 062b f4bd e136 6a3b 60d0 9f3c a73e 06be
000001b0: ea4e 1cbc ee4a 4dbd a8ff eb3a e6da 88bd
000001c0: c469 aa3c ca44 79bd 0a09 323e 5e29 adba
000001d0: 1a0b 97bd 3dfb 78bb 65eb cbbc a004 4ebd
000001e0: d49e 6f3c 7c32 4abc c784 b6bd e694 3cbb
000001f0: ab8e 52bd d324 9abd 7895 c13b dc49 ebbd
00000200: 28d6 ba3a 8662 aabe 156b d8bd bd60 6b3d
00000210: 1792 22bd 2033 03be e0d3 be3a 6fe4 74bd
00000220: ca82 80bc 6824 1e3a f36a 6ebe 858f d7bc
00000230: 23a8 16be 7b3c 8abd 7c9d 0cbe 5613 533d
00000240: 1b48 57bc f168 cabc 9350 0b3e 178f d3bd
00000250: 594d c83e 2f14 2dbe 1085 7abe ebc2 febd
00000260: 829c 2abc 2f30 943d 40a8 8a39 0814 183f
00000270: db4b 8dbd d74c e2bc cdf6 33bd 8fcd d1bc
00000280: deaf 88bd 29b9 eabc 264d f33c b09d 913c
00000290: e065 c239 4b7f 613e ab96 393f cec2 f6bc
000002a0: 2634 80be 4ef7 98be 50ef 9dbb d233 f33d
000002b0: 6c19 6b3d eee2 623e 0b96 c8bd 0c7b e6bc
000002c0: bf4f b73c d7c3 6dbe d760 443c bc32 1bbe
000002d0: 12b5 80bc 308c 65bb f050 e6bd aca2 80bd
000002e0: 2e30 06be 7c4c 1c3c 0212 b3bd 0a63 f9bc
000002f0: f0f4 2fbb 1c0d b8bd 0a78 2c3c 5cdd e4bc
00000300: 2082 9abb 316d b63d d3b1 033e 0889 713d
00000310: e791 58bd f8de cc3e 36bb cabc 8073 c83c
00000320: e48b d43e ec68 433c 0f46 cc3c 78da 8abc
00000330: cc24 3d3d 93e0 d8bb 356e 98be 7bca 263d
00000340: f604 59bd ee88 da3e cc0c ba3e 6523 9abe
00000350: edf2 21be ae2c b6bd 8f1b f6bd ce3c 97bd
00000360: 4428 13bb 9ab6 8cbd fd7a 173e 53d4 febd
00000370: d9d0 a6bd 6023 0db9 d2d0 fb3c d009 d53d
00000380: f30b 223e 54d4 983e 6914 15be eb02 24bd
00000390: 3fbd 83bd bbb5 9c3d b99a de3e 6160 99bc
000003a0: ba00 96bd f8d6 c23d 9b6d 453d b4be 333d
000003b0: 943c 843c 928b 67be 661b 19bc 458f 21bd
000003c0: c2b7 4abe 8e9d adbd e337 6cbc 73ad a5bb
000003d0: 6c15 7a3d 5089 b33d 4d76 aebd b797 553f
000003e0: 1b5b 8b3e 563e bbbe 29c8 d6bd 15de 81bd
000003f0: f855 64bc 104b abbd 1791 18be c086 513a

pred_trans.bias f4 [6]
-0.025111731 0.0043088617 -0.006194402 -0.012363497 -0.024202775 9.529409e-05
00000000: 1eb7 cdbc 5a31 8d3b 69fa cabb 4490 4abc
00000010: e644 c6bc a0d8 c738

gcn_convs.0.path_weight_1.weight f4 [32, 32]
0.04822981 -0.012920408 -0.06589712 0.00031259158 0.049142417 0.0012674601 -0.081805535 0.022486284
0.014426069 -0.00037072334 -0.045586817 -0.060295995 -0.079750806 0.021214686 -0.00035292038 -0.016018238
3.814559e-05 0.000117566975 0.0038908604 0.0002374229 -0.016624035 0.00032343817 0.00081360363 0.060881622
0.022231957 -0.057923224 -0.042841338 0.016342388 0.009005775 0.00013845421 0.02377812 0.00033405406
-2.47846e-05 -0.00015174833 1.4043848e-05 -0.00017618926 -2.903222e-05 4.4705943e-05 4.5031564e-05 1.843617e-05
-5.3866577e-05 -0.000109396206 4.7253256e-05 -0.00013601323 -0.00010912873 1.8954677e-05 5.784725e-06 -0.00025686834
0.000111887566 0.00014527784 -6.267586e-05 2.9828367e-05 2.0970534e-05 -3.8474067e-05 -2.25327e-05 -0.00012624121
-0.00015588693 3.0140125e-05 -6.309707e-05 2.1401935e-05 -3.3130396e-05 -0.00013404578 -1.0223977e-05 2.4212106e-05
3.6741956e-05 7.540879e-05 -0.00025265888 -0.00012743294 0.00028644144 -0.00014131877 -0.00022600373 -5.0608855e-06
-0.00028595683 -9.084063e-05 7.1045e-05 0.000104023 0.00026028143 -0.00013643574 -5.8436697e-05 -0.00036607898
6.3466716e-05 5.274519e-05 -2.1776843e-05 -0.000105267696 -7.294244e-05 -0.00020154823 -0.00019942383 -0.00034701874
0.00033226484 -0.00022065663 -0.00022684218 -9.748797e-05 -4.5752106e-05 -1.0629115e-05 -0.0001738197 7.611468e-06
0.00023969777 9.518859e-05 -0.00010305965 -7.6134114e-05 6.784597e-05 0.00013442403 -4.585765e-05 1.924628e-05
-5.4721073e-07 -0.00022827364 -0.00015644338 -6.252343e-05 -8.9916924e-05 0.000118040916 -0.00014108256 -0.0002532969
8.5538704e-05 2.2200295e-05 -0.00011535674 -9.818743e-05 4.8880087e-05 8.820517e-05 0.00010830898 4.8583413e-05
-4.2058955e-06 3.645849e-05 6.29347e-05 -9.272375e-05 -9.452476e-05 -0.00012257417 2.0225058e-05 -0.00021256009
-0.0014861374 -0.000779567 0.0020052872 0.000119437245 -0.00079651934 -0.00048234157 0.0016717425 0.00016643669
0.00025736142 -0.00013223819 0.0021455877 0.0012452595 0.00087679777 4.9671125e-05 -8.364397e-05 0.000309739
0.0004191754 -0.00054946024 0.0006580399 7.204883e-05 0.000993468 7.9963065e-05 -0.00013678538 -0.0006847224
-6.3371706e-05 0.0016111956 0.00029337016 -0.001045603 -0.00021618245 -0.00019468658 -0.0015711671 0.00014910185
-3.3225697e-05 -4.3377073e-05 -6.743496e-06 -0.00013080076 2.4549048e-05 -1.1017711e-05 -0.00017804229 5.7089423e-05
5.3622294e-05 3.8812514e-06 -1.0992609e-06 -2.3767187e-05 1.2125311e-05 2.7353624e-05 0.00012830584 -5.1518356e-05
-1.2257751e-05 1.7299482e-05 4.8974918e-05 1.1671062e-05 3.4839166e-05 -8.801088e-05 -8.254469e-06 6.0399416e-06
2.6560007e-05 5.998749e-05 -6.210265e-06 -1.0206229e-05 3.2964363e-05 3.8998123e-06 -0.000111221416 -5.3516454e-05
0.00014347942 -0.00014183184 -0.00018406485 0.00022245813 -6.0703696e-05 -0.00010200192 0.0001151259 0.00014924048
0.00018795738 -0.00025311447 -0.000113393944 -0.00014864132 0.0001087382 -4.4494067e-05 -7.9307974e-05 -0.0002375612
0.00010081879 -4.979215e-05 1.8103266e-05 -0.0002528612 -0.00018201643 -1.2034363e-05 0.00012406688 -4.6406058e-05
0.00026531625 1.4965715e-07 1.2649819e-05 -0.00028777204 0.00011094293 8.383218e-05 0.000104892875 -9.3183226e-05
0.00010422207 -0.00017794581 0.00011940122 0.00017538921 -4.0468258e-05 0.00011861882 -0.00017618104 -0.00010759635
0.00017711794 -9.6380145e-06 3.105568e-05 -4.39427e-05 3.6690995e-05 2.6833344e-05 -8.968606e-05 -5.95931e-05
5.3493994e-05 -1.5045617e-05 -7.047544e-05 -7.8028286e-05 -8.867784e-05 -4.278363e-05 8.1578284e-05 9.663514e-05
-0.00018829592 -5.1172665e-05 -0.000106704276 -0.00013082197 -5.6363653e-05 -9.611062e-05 -8.3609964e-05 -4.820325e-05
00000000: 9f8c 453d 1eb0 53bc 12f5 86bd 55e3 a339
00000010: 8f49 493d e720 a63a a989 a7bd 2835 b83c
00000020: 525b 6c3c a55d c2b9 3eb9 3abd eff8 76bd
00000030: 6454 a3bd 6cca ad3c 2c08 b9b9 ae38 83bc
00000040: 84fe 1f38 4a8e f638 cefd 7e3b b9f4 7839
00000050: 212f 88bc 2393 a939 0448 553a 025f 793d
00000060: cb1f b63c e740 6dbd 667a 2fbd 79e0 853c
00000070: f58c 133c 052e 1139 55ca c23c fa23 af39
00000080: 86e8 cfb7 a21e 1fb9 de9d 6b37 72bf 38b9
00000090: 388a f3b7 a482 3b38 46e0 3c38 60a7 9a37
000000a0: ccee 61b8 a46b e5b8 cc31 4638 c69e 0eb9
000000b0: 0adc e4b8 dc00 9f37 691a c236 49ac 86b9
000000c0: 2ea5 ea38 b955 1839 d970 83b8 ee37 fa37
000000d0: e1e9 af37 375f 21b8 9b04 bdb7 9e5f 04b9
000000e0: 9475 23b9 6dd5 fc37 fb52 84b8 4e88 b337
000000f0: 7ef5 0ab8 a48e 0cb9 a687 2bb7 1a1b cb37
00000100: 601b 1a38 c924 9e38 4d77 84b9 859f 05b9
00000110: 852d 9639 f82e 14b9 6afb 6cb9 add0 a9b6
00000120: 7aec 95b9 b181 beb8 fefd 9438 ec26 da38
00000130: 6276 8839 3110 0fb9 ed19 75b8 4aee bfb9
00000140: 6f19 8538 b73a 5d38 6aad b6b7 2ac3 dcb8
00000150: adf8 98b8 b156 53b9 6d1c 51b9 11f0 b5b9
00000160: d533 ae39 1060 67b9 7cdc 6db9 7572 ccb8
00000170: f3e5 3fb8 b453 32b7 5f43 36b9 0366 ff36
00000180: 6157 7b39 fc9f c738 ba21 d8b8 31aa 9fb8
00000190: 8748 8e38 2df4 0c39 4757 40b8 1273 a137
000001a0: 09e4 12b5 bd5c 6fb9 f30a 24b9 031f 83b8
000001b0: c891 bcb8 bc8c f738 90ef 13b9 efcc 84b9
000001c0: 3e63 b338 c53a ba37 aeeb f1b8 fae9 cdb8
000001d0: 9804 4d38 cafa b838 f123 e338 0bc6 4b38
000001e0: 5e20 8db6 01eb 1838 cffb 8338 af74 c2b8
000001f0: 983b c6b8 4187 00b9 fba8 a937 aae2 5eb9
00000200: 7fca c2ba db5b 4cba 236b 033b 627a fa38
00000210: 82cd 50ba cae2 fcb9 5f1e db3a 8285 2e39
00000220: 77ee 8639 6ba9 0ab9 fd9c 0c3b fa37 a33a
00000230: e7d8 653a f755 5038 046a afb8 7764 a239
00000240: c5c4 db39 a709 10ba 4f80 2c3a ec18 9738
00000250: 4137 823a d8b1 a738 0c6e 0fb9 f17e 33ba
00000260: 6de6 84b8 c12e d33a 7acf 9939 9d0c 89ba
00000270: 09af 62b9 c824 4cb9 9fef cdba 3958 1c39
00000280: d25b 0bb8 c7ef 35b8 3146 e2b6 9027 09b9
00000290: aeee cd37 b5d8 38b7 ddb0 3ab9 4d73 6f38
000002a0: 80e8 6038 b23b 8236 518a 93b5 a55f c7b7
000002b0: d06d 4b37 7675 e537 d689 0639 6a15 58b8
000002c0: a4a6 4db7 5b1e 9137 6b6a 4d38 d4ce 4337
000002d0: 4520 1238 7b92 b8b8 ad7c 0ab7 b4aa ca36
000002e0: 2ecd de37 149b 7b38 c561 d0b6 6b3b 2bb7
000002f0: 3743 0a38 22db 8236 8b3f e9b8 db76 60b8
00000300: f772 1639 b2b8 14b9 8801 41b9 a643 6939
00000310: 199c 7eb8 dde9 d5b8 bf6f f138 707d 1c39
00000320: 6d16 4539 73b4 84b9 e9cd edb8 9adc 1bb9
00000330: 600a e438 249f 3ab8 2552 a6b8 d919 79b9
00000340: ad6e d338 ead7 50b8 78dc 9737 7592 84b9
00000350: aadb 3eb9 32e7 49b7 f317 0239 20a4 42b8
00000360: 251a 8b39 72b1 2034 8f3a 5437 1ce0 96b9
00000370: 08aa e838 0fcf af38 eff9 db38 5d6b c3b8
00000380: cc91 da38 f796 3ab9 0b67 fa38 afe8 3739
00000390: 76bc 29b8 fec2 f838 3dbd 38b9 5aa5 e1b8
000003a0: bcb8 3939 f5b2 21b7 c841 0238 1d4f 38b8
000003b0: a8e4 1938 2b18 e137 d615 bcb8 9bf3 79b8
000003c0: bd5e 6038 6f6c 7cb7 37cc 93b8 1ea3 a3b8
000003d0: 8ef8 b9b8 9372 33b8 0215 ab38 99a8 ca38
000003e0: 4d71 45b9 3ba2 56b8 6cc6 dfb8 412d 09b9
000003f0: 0368 6cb8 ff8e c9b8 c257 afb8 d82d 4ab8

gcn_convs.0.path_weight_1.bias f4 [32]
-0.600028 -0.0020775925 -6.7070825e-05 -0.6703494 -0.28853133 -0.8834641 0.4545136 -0.0003509059
-0.2413304 -0.38334537 1.0317799 -0.00012694411 0.73589337 0.21049683 -0.61407095 0.001455204
-0.3120014 0.7005944 -0.4030239 0.4000733 0.00019734392 -0.00057049235 0.78630555 0.028761148
0.9302127 -0.00036832748 -0.59240156 -0.0005753248 -0.21356396 -0.53562254 0.024783805 0.0014257098
00000000: 6f9b 19bf 3828 08bb 60a8 8cb8 059c 2bbf
00000010: 61ba 93be b42a 62bf 02b6 e83e cbf9 b7b9
00000020: 511f 77be d845 c4be 5d11 843f 4d1c 05b9
00000030: 8263 3c3f 7b8c 573e c133 1dbf 8bbc be3a
00000040: a6be 9fbe 285a 333f 2659 cebe 68d6 cc3e
00000050: 1bee 4e39 188d 15ba 524b 493f 809c eb3c
00000060: 6b22 6e3f 141c c1b9 a1a7 17bf 65d1 16ba
00000070: 83b0 5abe 8f1e 09bf 6807 cb3c e2de ba3a

gcn_convs.0.path_weight_2.weight f4 [32, 32]
-2.2077014e-05 3.969731e-06 9.542837e-06 -1.310239e-05 -1.9468489e-05 -2.724681e-05 2.1655442e-05 1.7237888e-05
-1.5259031e-05 8.215692e-06 2.3416817e-06 1.9381425e-05 -2.368311e-05 1.9822971e-06 1.9951302e-05 2.2842094e-05
1.8784773e-05 1.4832252e-05 -2.901909e-05 2.3040022e-05 -5.3266085e-06 -2.5985704e-05 -1.5289217e-05 -2.2653117e-05
-2.975077e-05 2.3777584e-05 2.459939e-05 2.7168053e-05 1.5586063e-05 1.7532531e-05 -6.1251835e-06 1.1306134e-05
2.0664216e-05 1.1884739e-07 -1.1878883e-05 2.2214525e-05 1.993855e-05 1.9816385e-05 -4.5641107e-07 1.6447957e-05
1.4511815e-05 1.2472548e-05 -1.803776e-05 -1.6899291e-06 1.38181795e-05 -1.9518226e-05 1.8885372e-05 2.168627e-05
-1.3690303e-05 2.7816364e-05 4.617993e-06 1.710699e-05 2.6855696e-05 -2.3352617e-05 -3.2211105e-06 -1.69802e-05
1.8607334e-05 2.027613e-05 1.8633295e-05 2.8396826e-05 7.6220504e-06 -7.083512e-06 -1.8786719e-05 1.9805044e-05
-1.0633894e-05 -1.8091014e-05 -1.767544e-05 -1.146827e-05 3.3104636e-05 2.8281797e-06 3.8290973e-06 -2.347227e-05
-1.8282726e-05 1.4572053e-05 1.9069466e-05 -1.9280735e-05 5.1056395e-06 2.4063365e-05 1.1268331e-05 1.03279635e-05
9.936788e-06 9.5127905e-07 2.0784342e-05 -1.34932225e-05 -9.311404e-06 -2.7086893e-05 -3.1531156e-06 -1.9955905e-05
1.05934005e-05 -1.4536669e-05 1.15183675e-05 -2.8005177e-05 2.2168955e-05 4.5878573e-06 -1.6845277e-05 -1.970634e-05
-5.7998886e-06 1.216096e-06 -2.789365e-05 -2.279425e-05 -2.708721e-05 -1.9157065e-05 -1.8521232e-05 5.768626e-06
-1.9607933e-05 -1.8248184e-05 -4.6579885e-06 -1.1309978e-05 -1.8054807e-05 -1.8145027e-05 -5.1876776e-07 -2.1460908e-06
1.3415277e-05 1.9194895e-05 -2.1566779e-05 3.0513385e-05 2.0282188e-05 4.198567e-06 2.1235799e-05 -3.0917258e-06
-1.8138651e-05 -3.7444775e-06 2.5604415e-05 1.8396939e-05 4.1731446e-06 -9.444999e-06 1.0975161e-05 2.8412642e-05
1.2011814e-05 1.7183547e-05 7.0527244e-06 -2.2151984e-05 -2.4817225e-06 -2.0982772e-05 -3.4338311e-06 6.3960897e-07
-2.0954249e-05 -7.0162014e-07 5.7660765e-07 4.2051806e-06 -2.833424e-06 1.5819036e-05 -1.1764736e-05 2.5240566e-05
-1.80323e-05 -1.5063481e-06 -1.3601258e-05 2.1184474e-05 2.7084918e-05 2.1968592e-06 -8.1585185e-06 1.9994362e-05
-2.4934587e-05 1.9374782e-05 2.7150785e-05 1.527774e-05 2.8070881e-05 2.2742188e-05 2.8866409e-05 -2.6050287e-05
1.2234044e-05 2.3353485e-05 -2.1526139e-05 7.67645e-06 1.3842748e-05 -1.7021364e-05 2.577788e-06 -8.530005e-06
-6.9387256e-06 1.855665e-05 2.3659673e-05 9.958349e-06 2.7218926e-05 1.6503334e-05 -1.4903636e-05 1.5233869e-05
6.8753247e-06 -1.8023964e-05 -4.299097e-06 2.2147473e-05 -2.4380974e-05 2.8371514e-05 1.7987062e-05 -6.126032e-06
1.1952372e-05 -1.5446418e-06 6.4957726e-06 7.5644557e-06 3.250988e-05 -1.2487812e-05 5.8799446e-06 -1.6124484e-05
5.8297155e-06 -2.3760397e-06 1.7288639e-06 1.8308685e-05 -2.5220172e-05 -2.7624073e-05 2.2861295e-05 -1.9468336e-05
2.3194829e-05 -3.2934447e-06 -1.0212931e-05 -1.2675209e-06 -2.0510952e-05 6.8166305e-06 -3.1352098e-05 1.8878034e-05
-4.6013307e-07 1.9254998e-05 -6.5852655e-06 -1.6733258e-05 1.990951e-05 1.014494e-05 -2.0294938e-05 -1.869883e-05
2.6538508e-05 -1.8838055e-05 1.645204e-05 1.558587e-05 -1.436092e-05 -5.8038063e-06 2.804043e-05 1.9844709e-05
-1.898208e-05 -1.8546243e-05 -1.6061762e-05 1.8958865e-05 1.7209708e-05 -1.8122817e-05 2.1570675e-05 2.2849232e-05
1.2603849e-05 -2.5862114e-06 9.580676e-06 9.069021e-06 -5.587488e-06 -2.6801205e-05 5.7321463e-06 1.3816081e-05
9.292591e-06 2.9810567e-06 1.5204353e-05 1.8006389e-05 -6.988472e-06 1.4956399e-06 -2.4497858e-05 -1.6939739e-05
2.9679057e-05 1.772608e-05 1.12426405e-05 1.8411514e-05 -2.0537225e-05 1.5210753e-05 2.3625158e-05 4.492522e-06
00000000: 0732 b9b7 bb33 8536 2c1a 2037 56d2 5bb7
00000010: 4350 a3b7 1490 e4b7 b5a8 b537 159a 9037
00000020: 8500 80b7 21d6 0937 c925 1d36 4b95 a237
00000030: 17ab c6b7 9b07 0536 185d a737 069d bf37
00000040: fe93 9d37 0ad8 7837 056e f3b7 1246 c137
00000050: 38bb b2b6 e0fb d9b7 5841 80b7 3307 beb7
00000060: 4b91 f9b7 f975 c737 ca5a ce37 f3e6 e337
00000070: d1be 8237 d312 9337 ed86 cdb6 7aaf 3d37
00000080: 1158 ad37 0b39 ff33 6a4b 47b7 5459 ba37
00000090: b641 a737 5d3b a637 a908 f5b4 b8f9 8937
000000a0: c577 7337 3041 5137 cb4f 97b7 86d1 e2b5
000000b0: a1d4 6737 12bb a3b7 076c 9e37 e9ea b537
000000c0: 67af 65b7 3057 e937 42f4 9a36 fb80 8f37
000000d0: 2b48 e137 5de5 c3b7 422a 58b6 b470 8eb7
000000e0: f216 9c37 a816 aa37 b24e 9c37 b835 ee37
000000f0: eac0 ff36 e8ae edb6 2c98 9db7 0223 a637
00000100: 3a68 32b7 28c2 97b7 b845 94b7 d867 40b7
00000110: d5d9 0a38 c2cb 3d36 b27b 8036 51e6 c4b7
00000120: db5d 99b7 7e7a 7437 5ef7 9f37 10bd a1b7
00000130: 1c51 ab36 afdb c937 1d0d 3d37 4446 2d37
00000140: 2eb6 2637 665b 7f35 095a ae37 f360 62b7
00000150: 2d38 1cb7 a938 e3b7 1d9a 53b6 fb66 a7b7
00000160: 4fba 3137 85e2 73b7 033f 4137 a9ec eab7
00000170: 78f7 b937 65f1 9936 f54e 8db7 0b4f a5b7
00000180: aa9c c2b6 be38 a335 28fd e9b7 4736 bfb7
00000190: 5739 e3b7 7cb3 a0b7 0b5e 9bb7 1f90 c136
000001a0: b77b a4b7 ad13 99b7 d14b 9cb6 fcbf 3db7
000001b0: 6774 97b7 2636 98b7 7341 0bb5 8f05 10b6
000001c0: 2d12 6137 b904 a137 4eea b4b7 fff6 ff37
000001d0: ab23 aa37 6ae1 8c36 8823 b237 727b 4fb6
000001e0: 7528 98b7 a249 7bb6 10c9 d637 2053 9a37
000001f0: 0a07 8c36 f675 1eb7 f521 3837 af57 ee37
00000200: 5986 4937 6325 9037 71a6 ec36 06d3 b9b7
00000210: ab8b 26b6 2904 b0b7 c570 66b6 98b1 2b35
00000220: e8c6 afb7 f856 3cb5 2dc8 1a35 3a1a 8d36
00000230: db25 3eb6 1fb3 8437 2861 45b7 b4bb d337
00000240: 1244 97b7 ba2d cab5 f530 64b7 50b5 b137
00000250: 6b34 e337 c16d 1336 92e0 08b7 91b9 a737
00000260: 9e2a d1b7 0787 a237 dec1 e337 b228 8037
00000270: c279 eb37 7ac6 be37 2426 f237 9186 dab7
00000280: d240 4d37 3ae7 c337 0893 b4b7 1aca 0037
00000290: 263e 6837 1ac9 8eb7 10fe 2c36 181c 0fb7
000002a0: 33d3 e8b6 1aaa 9b37 c378 c637 c912 2737
000002b0: 3354 e437 a470 8a37 a10a 7ab7 f894 7f37
000002c0: 97b2 e636 2b32 97b7 f640 90b6 56c9 b937
000002d0: be85 ccb7 5dff ed37 ece2 9637 378e cdb6
000002e0: 0c87 4837 7d51 cfb5 43f6 d936 2ed2 fd36
000002f0: 385b 0838 be82 51b7 574c c536 1143 87b7
00000300: e09c c336 0d74 1fb6 500b e835 9a95 9937
00000310: e88f d3b7 3fba e7b7 42c6 bf37 ef4f a3b7
00000320: 8492 c237 f304 5db6 3458 2bb7 b01f aab5
00000330: ef0e acb7 69ba e436 0f80 03b8 455c 9e37
00000340: 3508 f7b4 cb85 a137 00f7 dcb6 665e 8cb7
00000350: 5903 a737 2f34 2a37 0c3f aab7 6fdb 9cb7
00000360: 039f de37 6a06 9eb7 7d02 8a37 67be 8237
00000370: afef 70b7 51be c2b6 5d38 eb37 3078 a637
00000380: b53b 9fb7 c193 9bb7 5fbc 86b7 da09 9f37
00000390: 915d 9037 7406 98b7 acf2 b437 5aac bf37
000003a0: 1f75 5337 c68e 2db6 b1bc 2037 2627 1837
000003b0: 287c bbb6 26d3 e0b7 c356 c036 9ecb 6737
000003c0: 60e7 1b37 2a0e 4836 3316 7f37 6d0c 9737
000003d0: 847e eab6 ccbd c835 c080 cdb7 d019 8eb7
000003e0: 4af7 f837 78b2 9437 c69e 3c37 6d72 9a37
000003f0: 5b47 acb7 b031 7f37 a42e c637 78be 9636

gcn_convs.0.path_weight_2.bias f4 [32]
-0.6875312 -0.0021173097 -0.00014219045 -0.69141823 -0.30935967 -0.83570576 0.5150604 -0.0003028269
0.053292386 -0.97308284 0.98589015 0.53623855 -0.00070161844 0.22215356 -0.76281154 1.0880213
-0.7931953 -0.13860436 -0.42925113 -0.00024404803 -0.29575557 -4.929705e-05 1.302251 0.453146
0.0035770326 0.0006105041 0.004630765 0.0005914537 0.0016856618 -0.57507825 0.74129033 5.302219e-05
00000000: 0b02 30bf 90c2 0abb f518 15b9 c900 31bf
00000010: 6464 9ebe d0f0 55bf 00db 033f bdc4 9eb9
00000020: 1e49 5a3d f51b 79bf 4c63 7c3f ee46 093f
00000030: d1ec 37ba 397c 633e 9e47 43bf 4844 8b3f
00000040: d90e 4bbf 4dee 0dbe cec6 dbbe 25e7 7fb9
00000050: 466d 97be 4ec4 4eb8 29b0 a63f c102 e83e
00000060: a66c 6a3b 3d0a 203a acbd 973b c90b 1b3a
00000070: 6df1 dc3a 5438 13bf 34c5 3d3f 2564 5e38

gcn_convs.1.path_weight_1.weight f4 [32, 32]
-0.00011207461 -8.806758e-05 -5.986813e-05 -5.188745e-05 8.120339e-05 -0.00017282763 -0.000113339556 -1.4095608e-05
8.266865e-05 1.73803e-05 -0.00011450811 -0.00010117206 0.0001148148 -0.00012265897 -7.911873e-05 3.038953e-05
0.00012381453 3.8477214e-05 -0.00012131708 -9.385881e-05 -1.7364317e-05 -9.649636e-05 0.00011559451 -5.0721537e-05
-6.554327e-05 7.346685e-05 0.000103304956 -0.00017470625 7.697658e-05 0.00010588825 9.018422e-05 -8.0206206e-05
-0.00012605867 5.947286e-05 -8.812526e-05 2.189419e-05 3.0428427e-07 -9.126924e-05 0.00012817362 7.374806e-05
-0.00011151782 9.5983625e-05 -3.9667928e-05 -9.703612e-05 -0.00014204308 9.721468e-05 -8.6448905e-05 -7.4780466e-05
-7.361422e-05 0.00011332008 -6.385092e-05 9.03194e-05 0.00014886395 1.5893329e-05 4.5029406e-05 -4.9333426e-05
-0.00015420998 -6.9610556e-05 -0.00015362621 0.00010690004 -8.9093315e-05 4.66895e-05 0.00014533437 2.2445008e-06
-4.9971975e-05 -0.000100795296 6.0219012e-05 -5.759288e-05 -5.2929612e-05 6.009292e-05 4.6874206e-06 3.6723406e-05
-1.9866054e-06 -1.6850301e-05 -8.556207e-05 -3.1667607e-06 -3.8361173e-05 9.732413e-05 1.7461625e-05 -2.9006958e-05
1.90947e-05 -9.917388e-05 -7.756821e-05 5.3550477e-05 8.33736e-05 2.6834095e-05 -3.0681244e-05 -7.981359e-05
1.7721384e-05 -2.888352e-05 -4.8411603e-05 1.8856761e-05 -4.6812176e-05 5.1545983e-05 7.551468e-05 -4.984854e-05
1.352182e-05 2.657969e-05 -1.2106639e-06 3.570704e-05 -1.906702e-05 4.5509692e-05 7.371861e-05 5.7716294e-05
5.637371e-06 2.3838864e-05 5.7744684e-05 -0.00010349472 -4.5853958e-05 -5.476231e-05 9.993178e-06 -7.341202e-05
-4.446913e-05 -3.171208e-05 4.8386257e-05 4.186365e-06 4.658664e-06 9.2674236e-05 -5.366089e-05 1.565625e-05
5.7224017e-05 2.26069e-05 -7.6021815e-06 6.068988e-07 3.2636046e-05 -8.4895895e-05 -5.8696136e-05 -4.094661e-05
0.00013382523 -8.500672e-05 -8.904439e-05 3.8983275e-05 9.0427326e-05 -3.3795245e-06 6.5922985e-05 5.0046303e-05
0.00012563787 -3.8210612e-05 4.5999608e-05 5.8690683e-05 -8.9572546e-05 2.9313747e-05 -2.228407e-05 -5.6449084e-05
-3.8902548e-05 2.458005e-05 -6.716748e-06 -0.0001556096 -4.748975e-05 2.6214013e-05 3.84157e-05 7.765038e-05
-8.675876e-05 -7.253386e-05 6.513722e-05 -3.255034e-05 -4.0645973e-05 6.424399e-05 2.2345794e-05 -1.0709474e-05
-5.290162e-05 0.00011950361 0.000101675636 1.4841105e-05 1.4682967e-05 -2.617535e-05 -0.00011029223 3.840193e-05
7.011736e-06 1.1536739e-05 4.6250184e-06 -7.4357384e-05 -4.4172775e-05 -7.144549e-05 0.000101790116 -2.718694e-05
-5.332545e-05 1.6643901e-06 -8.206579e-06 2.1075226e-05 -7.5360826e-05 6.829784e-05 1.0546602e-05 -9.609271e-05
2.7412103e-05 9.5550924e-05 -3.882347e-05 0.000102156504 5.0951658e-05 2.071239e-05 -4.093464e-05 -1.1868123e-05
0.00010370041 -0.00013032938 -9.344598e-05 4.686922e-05 -6.6716624e-05 -6.347658e-05 5.5099168e-05 -4.8016613e-05
-7.7484176e-05 3.1428135e-05 8.025037e-05 0.00014254313 1.2963922e-05 -8.831384e-05 5.1403702e-05 9.069854e-05
6.0746647e-06 -5.6055946e-05 3.269638e-06 -5.4531898e-05 -7.627854e-06 -2.900072e-05 3.641364e-05 -7.5795833e-06
6.264799e-05 -8.351495e-05 0.00012709353 2.6941258e-05 -6.747969e-05 -1.7290538e-05 -8.099559e-05 2.355121e-05
-6.7819784e-08 5.1885138e-05 5.8893118e-05 1.3620317e-05 -5.0023787e-05 -0.00012002366 -0.00012857822 9.232303e-05
0.00011293227 -5.3406493e-05 -3.6872138e-05 -1.4411294e-05 -9.638476e-05 -4.4628006e-05 0.00011438216 -4.9094615e-05
-6.0415223e-05 3.0259196e-05 -8.451929e-06 -7.86792e-06 3.4293487e-06 -4.0157658e-05 -6.5534866e-09 -4.097129e-05
3.339149e-05 -5.9906597e-05 -4.111491e-06 0.00010678255 0.00010544991 3.5662193e-05 5.8727437e-05 3.7961017e-05
00000000: 9909 ebb8 ecb0 b8b8 ea1a 7bb8 baa1 59b8
00000010: bd4b aa38 1039 35b9 b6b0 edb8 2d7c 6cb7
00000020: 655e ad38 e9cb 9137 1324 f0b8 562c d4b8
00000030: bac8 f038 049e 00b9 8bec a5b8 05ed fe37
00000040: 36d4 0139 9862 2138 9d6b feb8 11d6 c4b8
00000050: 96a9 91b7 175e cab8 546b f238 d6bd 54b8
00000060: 4674 89b8 3712 9a38 6da5 d838 5a31 37b9
00000070: 7d6e a138 5210 de38 4921 bd38 6134 a8b8
00000080: 9e2e 04b9 7f72 7938 e4cf b8b8 6aa9 b737
00000090: 835c a334 cd67 bfb8 5866 0639 30a9 9a38
000000a0: acde e9b8 d14a c938 1d61 26b8 df7f cbb8
000000b0: 66f1 14b9 bcdf cb38 e74b b5b8 75d3 9cb8
000000c0: 5561 9ab8 41a6 ed38 b4e7 85b8 dc69 bd38
000000d0: 5d18 1c39 aa52 8537 f5dd 3c38 5deb 4eb8
000000e0: 6db3 21b9 e2fb 91b8 b916 21b9 862f e038
000000f0: 9cd7 bab8 78d4 4338 e664 1839 3ba0 1636
00000100: 0099 51b8 1062 d3b8 ac93 7c38 e28f 71b8
00000110: bd00 5eb8 480c 7c38 a348 9d36 7507 1a38
00000120: 9f51 05b6 bf59 8db7 c96f b3b8 8984 54b6
00000130: ffe5 20b8 7f1a cc38 8e7a 9237 f853 f3b7
00000140: 8e2d a037 92fb cfb8 1eac a2b8 639b 6038
00000150: dcd8 ae38 c819 e137 bcaf 00b8 9861 a7b8
00000160: 62a8 9437 e34a f2b7 900d 4bb8 962e 9e37
00000170: 3158 44b8 1433 5838 a35d 9e38 7614 51b8
00000180: c6db 6237 73f7 de37 187e a2b5 24c4 1538
00000190: 1df2 9fb7 a9e1 3e38 6199 9a38 6614 7238
000001a0: a628 bd36 92f9 c737 e232 7238 4e0b d9b8
000001b0: 5053 40b8 95b0 65b8 5fa8 2737 c7f4 99b8
000001c0: 5d84 3ab8 9602 05b8 59f2 4a38 9a78 8c36
000001d0: 9e51 9c36 1a5a c238 f111 61b8 8a55 8337
000001e0: d203 7038 f3a3 bd37 3e16 ffb6 c5e9 2235
000001f0: b0e2 0838 230a b2b8 7f30 76b8 16be 2bb8
00000200: 7053 0c39 a345 b2b8 58bd bab8 f981 2338
00000210: cda3 bd38 cacb 62b6 2240 8a38 cfe8 5138
00000220: a9bd 0339 5544 20b8 b4ef 4038 a42a 7638
00000230: e5d8 bbb8 cbe6 f537 adee bab7 bec3 6cb8
00000240: 4b2b 23b8 4131 ce37 6d60 e1b6 222b 23b9
00000250: bb2f 47b8 2ae6 db37 8b20 2138 3bd8 a238
00000260: 41f2 b5b8 521d 98b8 479a 8838 a986 08b8
00000270: 487b 2ab8 bbba 8638 3a73 bb37 d7ac 33b7
00000280: afe2 5db8 039e fa38 b13a d538 10fe 7837
00000290: dd56 7637 2393 dbb7 b14c e7b8 c211 2138
000002a0: 5b46 eb36 eb8d 4137 9b30 9b36 51f0 9bb8
000002b0: 2846 39b8 01d5 95b8 2778 d538 820f e4b7
000002c0: c4a9 5fb8 0264 df35 fdae 09b7 b4ca b037
000002d0: 090b 9eb8 203b 8f38 50f1 3037 6185 c9b8
000002e0: 0bf3 e537 8362 c838 62d6 22b8 db3c d638
000002f0: edb4 5538 85bf ad37 3cb1 2bb8 331d 47b7
00000300: bc79 d938 07a9 08b9 6ef8 c3b8 7195 4438
00000310: 37ea 8bb8 bb1e 85b8 481a 6738 7265 49b8
00000320: 007f a2b8 b4d1 0338 174c a838 a177 1539
00000330: 9f7f 5937 2235 b9b8 4e9a 5738 6835 be38
00000340: f9d4 cb36 9d1d 6bb8 f46b 5b36 2eb9 64b8
00000350: c4f2 ffb6 9246 f3b7 d9ba 1838 2054 feb6
00000360: e261 8338 bf24 afb8 6944 0539 e9ff e137
00000370: e283 8db8 260b 91b7 2ddc a9b8 d78f c537
00000380: 52a4 91b3 3e9f 5938 0104 7738 d182 6437
00000390: a2d0 51b8 36b5 fbb8 f4d2 06b9 8d9d c138
000003a0: 0dd6 ec38 c900 60b8 28a7 1ab8 09c8 71b7
000003b0: 2d22 cab8 f52e 3bb8 74e0 ef38 f1ea 4db8
000003c0: 5a66 7db8 21d5 fd37 c2cc 0db7 7600 04b7
000003d0: c323 6636 f56e 28b8 142d e1b1 96d8 2bb8
000003e0: d70d 0c38 3844 7bb8 70f5 89b6 72f0 df38
000003f0: fd24 dd38 fd93 1538 1b52 7638 5538 1f38

gcn_convs.1.path_weight_1.bias f4 [32]
0.09944024 -0.00011920972 -0.001473768 0.000184269 -1.3434154e-05 -0.00012191768 -0.31828204 0.0003968825
-0.000148947 -0.00020040586 0.0007654143 0.00045876048 -0.00069198996 0.0007368565 -0.02878643 0.42755315
0.00018454359 0.00013879276 -0.00046726098 -3.203883e-05 -0.00023490803 -0.0023927933 -2.5430683e-05 0.21392295
0.00011294531 -0.06927213 0.00017772948 0.047487583 0.0008321264 -0.00032846545 0.00013411403 0.012095864
00000000: 53a7 cb3d 3b00 fab8 732b c1ba 5538 4139
00000010: 4163 61b7 0eae ffb8 ddf5 a2be ab14 d039
00000020: a82e 1cb9 0a24 52b9 16a6 483a ca85 f039
00000030: a966 35ba 9a29 413a 85d1 ebbc 3fe8 da3e
00000040: 0b82 4139 e688 1139 b5fa f4b9 6f61 06b8
00000050: a551 76b9 69d0 1cbb fa53 d5b7 9e0e 5b3e
00000060: 0ddd ec38 8cde 8dbd e55c 3a39 5782 423d
00000070: 0f23 5a3a e335 acb9 f6a0 0c39 bb2d 463c

gcn_convs.1.path_weight_2.weight f4 [32, 32]
0.006252721 0.00027188487 -0.0007712043 0.008900788 -0.0001421568 0.17046332 0.00012789141 -0.0016633729
-6.7198496e-05 0.008233734 0.12910701 0.00024928965 4.093841e-05 -0.0002136594 0.48130828 -0.0011125685
-0.12767276 0.00079630525 1.8858405e-05 -0.00036860871 -0.0005626511 -0.0061529204 -0.0021889817 -0.000112972244
-0.1485665 0.0006642787 -0.0009488538 -0.056019343 0.0010107937 -0.00052925403 0.029690368 -0.013377897
0.00078544725 -0.00038894766 -0.0014676693 -0.22857346 0.57194906 -0.24641608 0.00021667175 0.0069307317
0.0003550147 0.1484075 -0.53533316 -0.0007556702 -2.4481085e-05 -0.55599624 -0.8358342 -0.10316919
0.29215682 -0.05133638 0.30836087 -0.20745258 0.12632197 -0.037733074 -0.030830828 -0.00075753056
0.28137982 0.036902416 0.031846195 0.3919406 0.2450899 0.043507144 -0.00028831128 0.47285658
-0.00039564932 0.009484879 -0.017599098 -7.281473e-05 -0.00015211896 -7.55773e-05 -4.905352e-05 0.00014303159
0.00017241479 -4.2995758e-05 3.5253597e-05 2.632037e-06 7.7473174e-05 -0.00026380192 0.056885894 -9.178888e-05
-0.13830736 0.00016910423 -0.073055126 0.38541952 -0.00032546336 0.0044494634 -0.00012424985 -0.00045617516
-0.062218998 0.0004438211 0.0018564535 -0.048988786 0.00011520577 -0.0003746197 -0.00026348507 -0.02834531
-0.0002258231 0.00015909749 0.00022058119 -0.021779688 -0.0011998026 -0.033774223 -0.00020692017 0.000772828
-6.1426275e-05 0.00017934453 -0.41345927 -0.00021692437 0.00013734307 -0.065562926 -0.3229576 0.00012105638
-0.0018270053 -0.00050119427 0.0006317323 0.000874366 0.00016428565 0.00029247065 -3.4398694e-05 0.00024032121
-3.867259e-06 6.917096e-05 0.0006484782 0.08410196 0.00074439653 0.00073511025 -0.00024159582 0.16417971
-0.0026276105 0.007727402 -0.0049200235 0.09627664 -0.00025427385 5.1622843e-05 0.0005762956 -0.00022944857
-9.405557e-05 -0.0006185091 3.178776e-05 -6.542849e-05 -7.4312666e-05 0.0019491516 -0.00058408437 -0.00025258845
-0.009262024 -0.00021184314 3.8857495e-05 0.087118864 0.0023193336 -8.017093e-05 0.0011118251 -0.001405018
-0.12048644 -0.00079002744 -0.0019719203 0.00017436351 -0.0005771286 0.030197518 0.0018743258 -0.0002699715
0.0003695076 0.0003781299 0.0006167787 0.000125376 0.0003979113 -0.000639355 -0.00017430236 -9.309708e-05
-1.770421e-05 -2.8479062e-06 0.0010959132 0.00014243445 1.6756672e-05 -0.0012796193 -0.0053724647 -0.00021557393
0.00027084243 9.925041e-05 0.00063258375 5.521156e-05 -0.00016226506 -0.00014920923 0.0003224029 1.60853e-05
-0.00024711483 0.00023610062 0.00014302952 -0.0007580661 0.0007702272 0.0008635299 0.00033770848 -0.00034666012
-0.0017253701 1.6546966e-05 -0.00022521372 -0.0011666944 0.13698253 -0.0015294914 -0.00031574265 -0.0017714102
0.00012477757 9.755793e-05 -0.23569645 -0.0007624778 0.00015092848 -0.06186101 -0.46994945 0.0019342912
-0.0012460168 0.00066978467 0.0009491201 -0.39338773 -6.423861e-05 0.001362386 -0.00078236836 -0.0008100263
0.00072421134 -0.0018831242 -0.00043315397 -0.0004944254 -0.0013180865 -0.0016347632 0.01975834 0.08637827
0.00044611268 -0.21461722 1.1737705e-05 0.59109014 0.05359553 0.15122916 0.00055635837 -0.16173682
0.0003075976 0.17079832 0.015801826 0.0005694555 -3.4303066e-06 -0.0011256494 -0.3185287 0.00070149166
0.11678124 -0.0004802043 -0.00045631378 0.00027292978 -0.00011218225 -0.3520776 -0.000873813 -0.0060912604
0.25561464 -0.00048241098 -0.0017056642 -0.36674705 0.07522154 -0.08280141 -0.0016977249 -0.1151534
00000000: a0e3 cc3b c58b 8e39 a52a 4aba 9cd4 113c
00000010: ed0f 15b9 f08d 2e3e 971a 0639 8805 daba
00000020: ebec 8cb8 c9e6 063c a134 043e 17b3 8239
00000030: 48b5 2b38 c209 60b9 0a6e f63e 9bd3 91ba
00000040: a6bc 02be 24bf 503a 1e32 9e37 d341 c1b9
00000050: e07e 13ba 709e c9bb 0575 0fbb 83eb ecb8
00000060: d121 18be fd22 2e3a 80bc 78ba 8a74 65bd
00000070: 9c7c 843a a3bd 0aba 3739 f33c f82e 5bbc
00000080: 79e6 4d3a aceb cbb9 cf5e c0ba 290f 6abe
00000090: 416b 123f 7f54 7cbe 6132 6339 311b e33b
000000a0: 4421 ba39 23f8 173e 980b 09bf 2b18 46ba
000000b0: bb5c cdb7 c555 0ebf 3bf9 55bf 5e4a d3bd
000000c0: 9495 953e 1946 52bd 7ae1 9d3e 736e 54be
000000d0: 8c5a 013e ff8d 1abd ef90 fcbc 0495 46ba
000000e0: 0411 903e fd26 173d 2871 023d 70ac c83e
000000f0: d9f8 7a3e 8c34 323d 7c28 97b9 421a f23e
00000100: 276f cfb9 7766 1b3c fc2b 90bc 1cb4 98b8
00000110: 1f82 1fb9 417f 9eb8 d1be 4db8 c0fa 1539
00000120: 3eca 3439 5856 34b8 43dd 1338 0da2 3036
00000130: 1879 a238 e54e 8ab9 2f01 693d c87e c0b8
00000140: 72a0 0dbe 9251 3139 ed9d 95bd b555 c53e
00000150: f4a2 aab9 cecc 913b 1149 02b9 cb2a efb9
00000160: 59d9 7ebd a9b0 e839 3e54 f33a 77a8 48bd
00000170: a09a f138 9b68 c4b9 5e24 8ab9 6c34 e8bc
00000180: edca 6cb9 68d3 2639 d04b 6739 516b b2bc
00000190: b242 9dba d756 0abd b6f8 58b9 9c97 4a3a
000001a0: fbd1 80b8 6e0e 3c39 efb0 d3be 3176 63b9
000001b0: c003 1039 db45 86bd b35a a5be a6df fd38
000001c0: 2078 efba 9462 03ba d69a 253a b535 653a
000001d0: 1844 2c39 bf56 9939 5147 10b8 bcfe 7b39
000001e0: 80c3 81b6 e00f 9138 a3fe 293a a63d ac3d
000001f0: 9b23 433a 6ab4 403a e254 7db9 ba1e 283e
00000200: fd33 2cbb 2536 fd3b 2638 a1bb b02c c53d
00000210: 0f50 85b9 9b85 5838 8b12 173a 2298 70b9
00000220: b33f c5b8 7123 22ba d953 0538 a736 89b8
00000230: 4fd8 9bb8 ad7a ff3a 3d1d 19ba d96d 84b9
00000240: bfbf 17bc 3622 5eb9 ebfa 2238 606b b23d
00000250: f6ff 173b 7121 a8b8 a9ba 913a 9528 b8ba
00000260: 98c1 f6bd d819 4fba 553b 01bb 59d5 3639
00000270: 724a 17ba c960 f73c f0ab f53a f68a 8db9
00000280: 78ba c139 bc3f c639 51af 213a 5d77 0339
00000290: c09e d039 639a 27ba efc4 36b9 1d3d c3b8
000002a0: 8083 94b7 a81e 3fb6 bfa4 8f3a 755a 1539
000002b0: ae90 8c37 e6b8 a7ba 800b b0bb b00b 62b9
000002c0: dbff 8d39 a824 d038 fad3 253a f692 6738
000002d0: b225 2ab9 0c75 1cb9 2f08 a939 ebee 8637
000002e0: 318f 81b9 c791 7739 32fa 1539 f4b8 46ba
000002f0: 13e9 493a 835e 623a 770e b139 efbf b5b9
00000300: d025 e2ba 57ce 8a37 5927 6cb9 c5eb 98ba
00000310: 2645 0c3e 3779 c8ba 438a a5b9 aa2e e8ba
00000320: b9d6 0239 0498 cc38 695a 71be 05e1 47ba
00000330: 8e42 1e39 f861 7dbd 379d f0be 0b88 fd3a
00000340: 6351 a3ba 7d94 2f3a 5fce 783a 1e6a c9be
00000350: d7b7 86b8 1792 b23a da17 4dba f257 54ba
00000360: 00d9 3d3a 2ad3 f6ba f118 e3b9 549c 01ba
00000370: a5c3 acba 8d45 d6ba 3edc a13c 17e7 b03d
00000380: 3be4 e939 9ec4 5bbe 0fed 4437 af51 173f
00000390: fd86 5b3d d1db 1a3e 94d8 113a 569e 25be
000003a0: 0d45 a139 c1e5 2e3e d572 813c 8347 153a
000003b0: 3834 66b6 878a 93ba 3216 a3be 4fe4 373a
000003c0: 012b ef3d eec3 fbb9 663d efb9 0418 8f39
000003d0: 6343 ebb8 8443 b4be 9910 65ba 3299 c7bb
000003e0: ecdf 823e 1bec fcb9 9890 dfba 45c6 bbbe
000003f0: c00d 9a3d c993 a9bd 3286 deba 8cd5 ebbd

gcn_convs.1.path_weight_2.bias f4 [32]
-0.0024190126 -0.2786186 -0.0015055396 0.0021533233 9.122869e-06 -0.00029886264 -0.017147886 -8.761398e-05
0.2241914 5.7143196e-05 -0.0011856847 -0.00037813067 6.495396e-05 4.7902675e-05 -0.022974022 0.00044484207
0.0005240132 -0.0006762881 -0.00087462243 0.031565063 2.8100943e-05 0.0017153302 0.0020043422 0.015878042
7.4273645e-05 -0.0012447989 0.0008281877 -0.0009488406 -0.0006836573 -0.00024610743 -0.00016673766 0.032652162
00000000: 4c88 1ebb 19a7 8ebe 8755 c5ba c51e 0d3b
00000010: 6d0e 1937 aab0 9cb9 b979 8cbc 66bd b7b8
00000020: 6e92 653e 0aad 6f38 fa68 9bba d73f c6b9
00000030: e437 8838 1beb 4838 0434 bcbc b139 e939
00000040: ee5d 093a ed48 31ba eb46 65ba 5e4a 013d
00000050: 51ba eb37 eed4 e03a 485b 033b ab12 823c
00000060: 5cc3 9b38 8528 a3ba bc1a 593a 9dbb 78ba
00000070: 7737 33ba fb07 81b9 4dd6 2eb9 46be 053d
