semi-supervised/citeseer_4_layers_.pt (torch, 599569 bytes, 28 tensors)

trans_feat.weight f4 [32, 3703]
-0.010503469 0.030723685 0.020697528 0.043840144 -0.006122431 -0.05184506 0.027255042 0.027641408
-0.025020754 0.055846035 0.03341817 -0.0035832338 0.0175663 0.018855674 -0.036190525 -0.039622772
0.035717823 -0.039710157 -0.010870937 -0.045062978 -0.026619503 0.05364488 0.088769324 -0.026960177
-0.027158972 -0.022708878 -0.025296459 0.022613326 -0.026114823 0.007935159 -0.00034093857 -0.015498722
-0.04914309 -0.07319921 -0.011987096 0.04520149 0.0163577 0.050981186 -0.090795785 0.0096783545
0.00600503 0.0007780604 0.026993312 -0.030117974 -0.109071024 0.03002285 -0.00927186 0.028685657
0.04460766 -0.035067737 0.024310058 0.014770029 -0.025155755 0.032537352 -0.09121208 0.035571907
0.035061605 0.049746167 0.023265505 0.02885476 -0.029877491 -0.031486757 0.02233059 -0.025708936
-0.033045545 0.08221033 -0.018458944 -0.018397959 -0.03340687 0.012505293 0.035712846 -0.004882943
-0.0607881 0.023209125 -0.0035256352 0.05910571 -0.019997139 -0.02194825 -0.0077775866 0.0357984
0.032312617 -0.043159198 0.07104954 0.03529854 -0.029293526 0.0299328 -0.015126996 -0.05575095
0.029893067 0.025070893 0.014268832 -0.05266052 0.067354 -0.058599986 -0.029761566 -0.003650317
0.0012683775 -0.021964142 0.0043845177 -0.031755075 -0.034011144 -0.033452276 0.036224037 -0.056328624
-0.019974288 0.0055169053 -0.026530426 -0.024944428 0.023239348 -0.04987593 -0.07017568 -0.07225113
0.006471092 -0.02356174 -0.0033116043 0.026836481 -0.019301923 0.02206288 -0.03092483 -0.008315958
-0.024996797 -0.016619673 -0.017575081 0.026883941 0.037796665 -0.06069348 -0.02675507 0.07257048
0.087800205 -0.034337625 -0.01334727 0.026129717 -0.075065635 -0.04201399 0.027981706 -0.045154538
-0.020437092 -0.0397537 -0.014514726 0.007554354 0.0044941977 0.02426238 -0.04065782 0.0042491965
0.027442038 -0.022542695 -0.00033977441 -0.07546301 0.057443827 0.041619442 0.03666818 0.0328355
0.029922832 -0.02580443 0.027814679 0.033071734 -0.042409915 0.032184392 -0.024801567 -0.03710161
0.025126964 0.009474538 0.04524547 -0.07350058 -0.044618648 -0.023799032 -0.056006536 0.024663541
-0.124209866 0.12991962 -0.0265908 0.030271307 0.01744814 -0.057059422 -0.016784325 -0.009780658
-0.011797072 0.04506543 -0.050316095 -0.06555429 -0.030328613 0.027180659 -0.029456602 -0.019036112
0.023238515 0.020278608 0.035875537 0.010644143 -0.016304098 -0.013652708 -0.024079466 -0.029401004
-0.04250908 -0.018400256 -0.034397766 -0.0071749073 -0.036253676 -0.012699701 -0.009424975 0.0063201375
-0.034362815 -0.034669384 -0.07357963 0.034312554 0.041979786 0.026762411 -0.011561879 0.03610046
0.010584073 0.023231575 0.016362265 0.026455332 0.035687923 -0.08558123 -0.05245271 -0.024004841
0.024301533 0.025605723 0.0051613655 0.019747948 0.01568434 -0.0036285669 0.029428627 -0.024313422
-0.05347883 0.048121773 0.04305496 -0.02183872 0.06677072 -0.012974467 0.06561413 0.028096594
0.030537903 -0.031524777 0.026955076 -0.0074343793 -0.06546298 -0.060006633 -0.03710709 0.008946275
0.006213039 0.030170023 0.0134778 0.02690465 -0.024650335 0.042730276 0.024211116 0.032844827
0.022593811 -0.089617506 0.032711275 0.009726649 0.025751784 -0.049227223 -0.030842014 0.032787837
00000000: be16 2cbc 3db0 fb3c dd8d a93c b991 333d
00000010: ac9e c8bb 7c5b 54bd f745 df3c 3c70 e23c
00000020: 53f8 ccbc d0be 643d 7ee1 083d b0d4 6abb
00000030: 34e7 8f3c 3777 9a3c 843c 14bd 7d4b 22bd
00000040: da4c 123d 1ea7 22bd 041c 32bc f593 38bd
00000050: 2511 dabc bcba 5b3d b1cc b53d 97db dcbc
00000060: 7e7c debc f807 babc 853a cfbc 953f b93c
00000070: c1ee d5bc 7802 023c 00c0 b2b9 5aee 7dbc
00000080: 444a 49bd 78e9 95bd 8665 44bc 3325 393d
00000090: 9500 863c a6d1 503d 24f3 b9bd f691 1e3c
000000a0: d8c5 c43b c0f6 4b3a 1421 dd3c f8b9 f6bc
000000b0: a160 dfbd 7bf2 f53c 00e9 17bc 2ffe ea3c
000000c0: 86b6 363d 30a3 0fbd e325 c73c fefd 713c
000000d0: 7113 cebc e345 053d 66cd babd d9b3 113d
000000e0: c29c 0f3d a3c2 4b3d 4d97 be3c d160 ec3c
000000f0: a4c1 f4bc 42f8 00bd a4ee b63c 8c9b d2bc
00000100: c45a 07bd e45d a83d 3637 97bc 51b7 96bc
00000110: a4d5 08bd 00e3 4c3c a247 123d 1801 a0bb
00000120: f1fc 78bd 1021 be3c 580e 67bb d418 723d
00000130: 0ad1 a3bc d1cc b3bc 20db febb 58a1 123d
00000140: 3c5a 043d b3c7 30bd 6c82 913d 3495 103d
00000150: faf8 efbc a235 f53c 38d7 77bc 1c5b 64bd
00000160: 4ee2 f43c 7961 cd3c d2c7 693c 8fb2 57bd
00000170: e5f0 893d 8a06 70bd 87ce f3bc 283a 6fbb
00000180: b03f a63a 25ee b3bc 00ac 8f3b 9c11 02bd
00000190: 454f 0bbd 4105 09bd a85f 143d d8b8 66bd
000001a0: 1ea1 a3bc 28c7 b43b 5656 d9bc 4258 ccbc
000001b0: 7260 be3c b44a 4cbd 44b8 8fbd 67f8 93bd
000001c0: 740b d43b 8d04 c1bc 8007 59bb 2ed8 db3c
000001d0: 111f 9ebc 37bd b43c 1256 fdbc a83f 08bc
000001e0: 15c6 ccbc fb25 88bc 9ef9 8fbc b63b dc3c
000001f0: add0 1a3d ba99 78bd 732d dbbc d59f 943d
00000200: 98d0 b33d 9ca5 0cbd 82ae 5abc fd0d d63c
00000210: 03bc 99bd dd16 2cbd e439 e53c f7f3 38bd
00000220: b06b a7bc c7d4 22bd 2ccf 6dbc 848a f73b
00000230: 1044 933b e6c1 c63c d088 26bd d83c 8b3b
00000240: 20ce e03c 75ab b8bc c023 b2b9 5a8c 9abd
00000250: 384a 6b3d 2679 2a3d 6031 163d 847e 063d
00000260: ba20 f53c d063 d3bc 9cdb e33c 3a76 073d
00000270: 05b6 2dbd c8d3 033d a82c cbbc dcf7 17bd
00000280: 10d7 cd3c 183b 1b3c 5053 393d 7987 96bd
00000290: 0bc2 36bd 30f6 c2bc 1c67 65bd 320b ca3c
000002a0: be61 febd a609 053e f3d4 d9bc 88fb f73c
000002b0: 67ef 8e3c 24b7 69bd 487f 89bc 0e3f 20bc
000002c0: 8248 41bc 8796 383d 4018 4ebd 5441 86bd
000002d0: b673 f8bc f9a9 de3c f94e f1bc 9ff1 9bbc
000002e0: b35e be3c 531f a63c 3af2 123d c664 2e3c
000002f0: 2c90 85bc 9caf 5fbc 4d42 c5bc 60da f0bc
00000300: 001e 2ebd 22bc 96bc ace4 0cbd 7c1b ebbb
00000310: bc7e 14bd 6812 50bc 366b 1abc 2819 cf3b
00000320: 06c0 0cbd 7c01 0ebd ebb0 96bd 528b 0c3d
00000330: fff2 2b3d d83c db3c 096e 3dbc 13de 133d
00000340: d268 2d3c 2550 be3c 280a 863c dab8 d83c
00000350: 802d 123d 3645 afbd a7d8 56bd cda5 c4bc
00000360: 0214 c73c 18c3 d13c ac20 a93b 73c6 a13c
00000370: 727c 803c 40cd 6dbb 4e14 f13c f12c c7bc
00000380: 9e0c 5bbd 561b 453d 665a 303d 1ee7 b2bc
00000390: 16bf 883d dc92 54bc b360 863d d42a e63c
000003a0: a02a fa3c 2020 01bd e4d0 dc3c 189c f3bb
000003b0: 7411 86bd 84c9 75bd 9bfd 17bd 6693 123c
000003c0: c096 cb3b 2027 f73c fed1 5c3c 2467 dc3c
000003d0: 80ef c9bc f105 2f3d 6456 c63c 4c88 063d
000003e0: a816 b93c 6289 b7bd 42fc 053d 865c 1f3c
000003f0: 68f5 d23c 7ca2 49bd 64a8 fcbc 8a4c 063d

trans_feat.bias f4 [32]
-0.021430764 0.03630083 0.02979463 0.026487287 0.036009 -0.021457907 -0.031281605 0.02150962
-0.026790686 -0.022167755 -0.02591531 -0.029882856 0.026887976 -0.028412852 -0.02344685 0.02634408
0.03567633 0.03140495 -0.029747047 -0.026218366 0.023310144 -0.021823341 0.024705121 0.027373452
0.034878183 -0.02218979 0.03449533 0.021457521 -0.022853676 0.035699785 -0.022082655 -0.021441232
00000000: 928f afbc 2eb0 143d de13 f43c defb d83c
00000010: 2c7e 133d 7ec8 afbc 2421 00bd f134 b03c
00000020: 2478 dbbc 2799 b5bc 584c d4bc e4cc f4bc
00000030: 2c44 dc3c 12c2 e8bc 9c13 c0bc 8acf d73c
00000040: 5821 123d 7aa2 003d 14b0 f3bc e6c7 d6bc
00000050: eaf4 be3c ddc6 b2bc 6562 ca3c 4a3e e03c
00000060: 6ddc 0e3d 5dc7 b5bc fa4a 0d3d afc7 af3c
00000070: a237 bbbc f039 123d afe6 b4bc 86a5 afbc

pred_trans.weight f4 [6, 3703]
0.27028507 0.97582275 0.010897691 -0.092364095 0.09608397 -0.029184006 -0.019950096 0.022281274
0.0006565489 0.039973676 0.066856235 0.01681455 0.06831737 -0.21631959 0.012405317 -0.0045644976
-0.052187562 0.023418361 0.6639455 -0.19308761 0.033797354 -0.6963916 -1.0972995 0.027130008
-0.04860869 -0.33697513 -0.11405853 -0.20920005 0.4866566 0.6036417 0.00831685 0.88168865
-1.1386104 -0.04315423 0.009745588 0.4740183 -0.08398369 -0.2977136 -0.475079 0.057918184
-0.059048608 -0.13791357 0.08270969 0.004818475 -0.76475126 0.0900726 0.48060933 -0.060951125
-0.15184158 0.031034162 -0.032972306 -0.20667368 -0.051567692 0.111340724 0.07635115 0.2899447
0.035811916 0.626845 0.053952023 0.11584469 -0.05197104 0.8507446 0.006623881 -0.018631857
-0.060896583 -2.1634965 0.054625254 0.015731663 -0.022842359 -0.019012392 -0.011260364 -0.06576719
-0.08495 0.992437 0.0189874 0.8342495 0.9928271 -0.28655994 0.059688494 0.026471548
0.049652413 -0.09302185 -0.13592915 0.0006415434 -0.25057608 -0.027418744 0.10091447 1.0078794
-0.06298147 -0.035526223 0.001297967 0.112519875 -0.10059501 -0.12022631 -0.08207398 -0.12097849
-0.12855378 -0.052122504 0.12911853 0.025011402 -0.021590715 -0.013215873 -0.06792757 0.009333456
-0.1388509 -0.036997404 -0.009415526 -0.03944196 0.06834544 -0.05832716 -0.10015397 -0.12277174
-0.094179474 -0.14455381 0.023598606 -0.03297451 -0.04460926 -0.035248723 -0.023192193 0.13754253
0.028659144 0.017173404 -0.70841223 -0.078935444 0.09710671 -0.09217338 0.026962865 -0.11864652
-0.08080501 -0.3207968 0.10154629 0.1813264 -0.0021495242 -0.032244153 -0.030450653 -0.038677864
0.015627822 0.006906314 -0.16983102 -0.12535016 -0.081957415 -0.03697012 -0.051890202 0.07688188
0.05093472 0.027712462 -0.06477934 -0.18629694 0.15423289 -0.0015666015 -0.122252114 -0.034639277
-0.05812011 -0.012435863 0.035423744 0.53353125 0.059169013 0.0029202588 0.014520584 -0.11332841
-0.10375661 0.015256145 -0.03633628 0.05234227 0.026024379 0.7627564 1.0267522 -0.047031127
-0.53056496 0.5290031 -0.13705349 0.7636844 0.00065937266 0.17063588 -0.20657356 0.5477769
0.09487566 0.6480486 -0.2448056 0.012411196 -0.009273598 -0.0037379693 0.09686768 -0.07085296
-0.21347861 -0.02294452 -0.013694692 0.024551796 -0.06781631 -0.25739843 0.17168587 -0.033489503
-0.041132767 0.16150676 -0.07687705 -0.09333074 -0.14079654 1.0031639 -0.004709445 0.031337265
0.8845977 -0.12117297 0.1180934 0.028400768 -0.11299559 0.030432703 -0.39062443 0.042480163
-0.09285756 0.30197102 0.977404 -0.5219101 -0.05184215 -0.07491121 0.030285385 -0.11054412
-0.04218355 -0.15884624 -0.03186809 -0.07197483 -0.13572225 0.0073080696 0.11910676 -0.04445062
-0.053850327 0.21549475 -0.01414125 -0.037895214 -0.07586886 0.047199212 0.7760606 0.046421185
-0.13041231 -0.04093793 -0.063758776 0.041744284 0.14058447 -0.12755483 -0.03784447 0.116493806
-0.10079339 -0.08621697 -0.07003768 0.01962989 0.054225095 -0.49658653 -0.14927241 0.80769056
0.29396826 -1.0641093 -0.10871099 -0.05740826 0.04376062 -0.2272081 -0.3570899 -0.042979408
00000000: ce62 8a3e 85cf 793f 3b8c 323c 6329 bdbd
00000010: acc7 c43d 4c13 efbc 626e a3bc 3887 b63c
00000020: 401c 2c3a 70bb 233d eceb 883d abbe 893c
00000030: fae9 8b3d e282 5dbe ac3f 4b3c c891 95bb
00000040: a0c2 55bd ddd7 bf3c 55f8 293f c2b8 45be
00000050: 186f 0a3d b846 32bf 4f74 8cbf c03f de3c
00000060: e819 47bd 0188 acbe 8597 e9bd 8a38 56be
00000070: 0e2b f93e 4388 1a3f 6643 083c 59b6 613f
00000080: fcbd 91bf 7dc2 30bd f5ab 1f3c 87b2 f23e
00000090: a4ff abbd eb6d 98be 8e3d f3be 9e3b 6d3d
000000a0: f4dc 71bd 3739 0dbe b363 a93d 4ce4 9d3b
000000b0: bdc6 43bf fc77 b83d 6d12 f63e e3a7 79bd
000000c0: 5c7c 1bbe 5b3b fe3c f80d 07bd 44a2 53be
000000d0: a538 53bd 9b06 e43d fe5d 9c3d a273 943e
000000e0: 84af 123d ea78 203f ccfc 5c3d fb3f ed3d
000000f0: 96df 54bd 66ca 593f 240d d93b d6a1 98bc
00000100: b26e 79bd ba76 0ac0 bbbe 5f3d b0df 803c
00000110: e61f bbbc e0bf 9bbc 647d 38bc f3b0 86bd
00000120: 44fa adbd 5a10 7e3f 778b 9b3c 6091 553f
00000130: eb29 7e3f fcb7 92be ec7b 743d dcda d83c
00000140: 5460 4b3d 3d82 bebd 0331 0bbe 402d 283a
00000150: 824b 80be 469d e0bc 3fac ce3d 3102 813f
00000160: 6efc 80bd f283 11bd 8c20 aa3a d270 e63d
00000170: c204 cebd 3639 f6bd 6716 a8bd 92c3 f7bd
00000180: 9aa3 03be 687e 55bd a637 043e b6e4 cc3c
00000190: 03df b0bc 6487 58bc 9c1d 8bbd 5aeb 183c
000001a0: ee2e 0ebe 978a 17bd 9443 1abc e58d 21bd
000001b0: b2f8 8b3d 76e8 6ebd 861d cdbd c06f fbbd
000001c0: 2be1 c0bd ea05 14be dd51 c13c 4810 07bd
000001d0: 33b8 36bd f760 10bd 8efd bdbc f3d7 0c3e
000001e0: 95c6 ea3c 3daf 8c3c 815a 35bf e8a8 a1bd
000001f0: e2df c63d 66c5 bcbd 3ae1 dc3c f2fc f2bd
00000200: 197d a5bd 7a3f a4be 80f7 cf3d a1ad 393e
00000210: 08df 0cbb 7212 04bd a673 f9bc ae6c 1ebd
00000220: eb05 803c 5c4e e23b 2fe8 2dbe cb5b 00be
00000230: 4ad9 a7bd fb6d 17bd d28a 54bd 3f74 9d3d
00000240: eda0 503d 3f05 e33c 08ab 84bd a0c4 3ebe
00000250: 3aef 1d3e 6c56 cdba 515f fabd eae1 0dbd
00000260: 5a0f 6ebd cabf 4bbc 7d18 113d 8195 083f
00000270: 355b 723d d061 3f3b bee7 6d3c ba18 e8bd
00000280: 587e d4bd e9f4 793c 5ad5 14bd d964 563d
00000290: 1431 d53c 0144 433f 9e6c 833f b6a3 40bd
000002a0: 1bd3 07bf bf6c 073f c057 0cbe d280 433f
000002b0: c0d9 2c3a 2cbb 2e3e 0588 53be 1b3b 0c3f
000002c0: 2c4e c23d 83e6 253f 52ae 7abe 5458 4b3c
000002d0: 4af0 17bc b8f8 74bb 9062 c63d 5b1b 91bd
000002e0: 239a 5abe 25f6 bbbc b45f 60bc d920 c93c
000002f0: 47e3 8abd bac9 83be 6cce 2f3e 4a2c 09bd
00000300: d57a 28bd 0762 253e b771 9dbd 3024 bfbd
00000310: f82c 10be ad67 803f b051 9abb 815b 003d
00000320: ff74 623f 8929 f8bd f4da f13d baa8 e83c
00000330: 3b6a e7bd 014e f93c edff c7be aeff 2d3d
00000340: 1b2c bebd f29b 9a3e 2637 7a3f e69b 05bf
00000350: 6f58 54bd 0c6b 99bd 0e19 f83c f564 e2bd
00000360: a8c8 2cbd 97a8 22be 1d88 02bd 8a67 93bd
00000370: c6fa 0abe 8878 ef3b 3fee f33d da11 36bd
00000380: 2992 5cbd a8aa 5c3e b4b0 67bc 0338 1bbd
00000390: 2261 9bbd f653 413d e8ab 463f 2424 3e3d
000003a0: ce8a 05be 88ae 27bd f693 82bd 0efc 2a3d
000003b0: 60f5 0f3e bc9d 02be ce02 1bbd 4e94 ee3d
000003c0: c46c cebd 8692 b0bd ea6f 8fbd ddce a03c
000003d0: 221b 5e3d 9740 febe deda 18be cfc4 4e3f
000003e0: 0283 963e bc34 88bf dea3 debd ec24 6bbd
000003f0: 563e 333d 3da9 68be 7dd4 b6be 2d0b 30bd

pred_trans.bias f4 [6]
0.028043784 0.012336681 -0.03415773 -0.015632262 -0.014733194 0.06292844
00000000: 14bc e53c ca1f 4a3c fae8 0bbd 3b0f 80bc
00000010: 7f63 71bc a0e0 803d

gcn_convs.0.path_weight_1.weight f4 [32, 32]
-0.19024315 0.07655599 0.074984305 -0.17433336 0.047615614 -0.0059084967 0.047767233 0.030267766
0.0022167324 -0.02915305 0.25366607 0.01738334 -0.11844405 0.07786039 0.052459523 0.049636737
0.16451715 -0.01786667 0.052180674 -0.06134785 -0.044279158 -0.24728484 0.06065005 -0.09517988
-0.117231116 0.0864892 -0.15889129 0.098090954 0.03497355 -0.10904015 0.1175512 -0.11125908
-0.06823822 0.19522396 0.10799379 -0.19988582 -0.09698185 0.16838627 0.053154547 -0.19553149
0.03748881 0.13798496 0.044830095 0.18910088 -0.10708424 -0.047832455 -0.05546725 -0.049996395
-0.12108836 -0.16551207 -0.037569374 0.16041945 0.043055825 0.014189469 0.013570383 0.025734533
-0.10467138 0.22012036 0.052997686 0.01597678 -0.10840195 -0.10930102 -0.039163087 -0.07555241
-0.18472119 -0.07674523 0.08424176 0.21590203 0.014500336 0.07052452 0.07673247 -0.09093375
-0.061428275 0.11772696 0.18197384 0.064522944 -0.07006666 0.08675425 0.19447123 -0.006311152
0.22096579 0.101007 0.08384382 -0.21635137 -0.21382613 -0.25600827 0.002779759 -0.10322162
0.055202793 0.13619763 -0.0063907774 0.11865367 0.06216416 -0.03942353 0.24151324 -0.13635787
-0.108562596 0.26859388 0.15927833 -0.22323813 0.02229822 0.073822156 0.06423453 -0.06940785
0.013081785 -0.02664762 -0.07171728 -0.05584559 -0.34623033 -0.042754397 -0.0688031 -0.10851378
-0.01057407 -0.22415029 -0.049497005 -0.033882413 0.09696191 -0.0029619867 -0.10987625 -0.010824248
-0.15744142 0.16177544 0.05281951 0.060801655 -0.09045755 -0.18722753 0.24393061 -0.045909807
0.024910906 0.073874526 -0.22845075 0.09267141 -0.092568554 -0.14082873 0.11332009 -0.14245231
0.14969867 -0.12241581 -0.06275442 -0.11876923 0.013051612 0.11674797 -0.1131228 -0.12336091
-0.08073911 0.0358554 0.0067084804 0.058880325 -0.12751547 -0.06262055 0.034825727 -0.067033105
0.0664634 0.20365186 0.16932547 -0.009936495 0.1745656 0.0680685 0.03002218 0.08344769
-0.18363824 -0.15156339 0.28896505 -0.20998432 -0.08102031 0.28870875 -0.051661946 -0.03783757
0.19005978 0.07943944 0.086198464 0.20945781 -0.21741757 0.10570169 0.045994487 0.15116674
-0.013686528 0.32701546 0.06629438 0.008908349 0.26585442 0.14415513 -0.23336588 0.13182206
-0.051605307 -0.14699243 -0.01757816 0.031065492 -0.056307476 -0.107278556 -0.10250974 -0.04507635
0.19193411 0.11299764 0.018926354 -0.113415755 0.14302565 0.038583405 0.06576265 0.016758898
-0.09909563 0.049440637 -0.16494308 0.041361343 -0.19893773 -0.11888809 -0.14490929 0.13232307
0.018480888 -0.0029946885 -0.1949063 0.04768565 0.20341165 0.15249647 0.04960272 0.084095284
-0.14767472 -0.02771235 0.2740542 0.018270476 -0.073838025 -0.029587839 0.019359658 -0.22311106
-0.06084079 0.026822891 -0.11499474 0.19362672 -0.00023791807 0.0031801807 0.014963241 0.00036333007
0.041409444 -0.027537202 0.0698283 0.014300268 -0.19796196 -0.22935586 0.08738256 -0.16994318
-0.048795685 -0.17528671 -0.12946443 -0.16452655 -0.13388415 -0.25750685 -0.044019405 -0.12328762
-0.017511046 0.080639504 -0.0031155988 0.042870484 -0.045399886 -0.128121 -0.14191645 0.023682324
00000000: 1acf 42be 63c9 9c3d 5f91 993d 7284 32be
00000010: 9708 433d 109c c1bb 93a7 433d 1bf4 f73c
00000020: 9946 113b 61d2 eebc 85e0 813e 8267 8e3c
00000030: cb92 f2bd 4575 9f3d ccdf 563d e44f 4b3d
00000040: 2f77 283e 1f5d 92bc 67bb 553d e247 7bbd
00000050: 105e 35bd 3d38 7dbe 306c 783d abed c2bd
00000060: de16 f0bd 4021 b13d 66b4 22be e9e3 c83d
00000070: 6d40 0f3d 7150 dfbd afbe f03d cddb e3bd
00000080: 7bc0 8bbd cae8 473e d92b dd3d deae 4cbe
00000090: 6c9e c6bd 736d 2c3e 95b8 593d 6839 48be
000000a0: de8d 193d ee4b 0d3e c39f 373d a9a3 413e
000000b0: fb4e dbbd f7eb 43bd a131 63bd 05c9 4cbd
000000c0: 2dfd f7bd ff7b 29be 58e2 19bd ff44 243e
000000d0: 4e5b 303d f27a 683c 5056 5e3c 3ad1 d23c
000000e0: f35d d6bd 3b67 613e 1a14 593d bce1 823c
000000f0: d701 debd 37d9 dfbd 7969 20bd 39bb 9abd
00000100: 8d27 3dbe 9a2c 9dbd f286 ac3d 6c15 5d3e
00000110: d192 6d3c 296f 903d ea25 9d3d 793b babd
00000120: 379c 7bbd d51a f13d 5a57 3a3e 9b24 843d
00000130: 1c7f 8fbd 36ac b13d 7723 473e c8cd cebb
00000140: db44 623e c2dc ce3d 4fb6 ab3d 378b 5dbe
00000150: 3df5 5abe 8413 83be 9e2c 363b db65 d3bd
00000160: 531c 623d 6477 0b3e ba69 d1bb b200 f33d
00000170: d99f 7e3d 917a 21bd 3f4f 773e 66a1 0bbe
00000180: 1156 debd 2385 893e dc19 233e 8998 64be
00000190: c2aa b63c 1230 973d 658d 833d b425 8ebd
000001a0: fc54 563c 1c4c dabc 82e0 92bd 58be 64bd
000001b0: 1a45 b1be 3c1f 2fbd a4e8 8cbd 793c debd
000001c0: dd3e 2dbc a787 65be 5fbd 4abd 49c8 0abd
000001d0: f793 c63d e41d 42bb cd06 e1bd 3058 31bc
000001e0: 5338 21be 76a8 253e 4559 583d 280b 793d
000001f0: cf41 b9bd 93b8 3fbe f2c8 793e ec0b 3cbd
00000200: f511 cc3c 874b 973d feee 69be 82ca bd3d
00000210: 9594 bdbd 6835 10be 5d14 e83d 05df 11be
00000220: 9c4a 193e 24b5 fabd 6485 80bd 483d f3bd
00000230: 6ed6 553c 8f19 ef3d edac e7bd a5a4 fcbd
00000240: 8c5a a5bd 1ddd 123d d0d2 db3b 7f2c 713d
00000250: 6a93 02be 343f 80bd 6ca5 0e3d a748 89bd
00000260: f71d 883d 1d8a 503e a863 2d3e aecc 22bc
00000270: 53c1 323e 7f67 8b3d 13f1 f53c 9fe6 aa3d
00000280: aa0b 3cbe 6f33 1bbe 3af3 933e 2106 57be
00000290: faed a5bd a2d1 933e 7a9b 53bd 91fb 1abd
000002a0: 089f 423e 25b1 a23d d288 b03d 1c7c 563e
000002b0: b6a2 5ebe 217a d83d b764 3c3d 74cb 1a3e
000002c0: 763d 60bc 926e a73e 59c5 873d 53f4 113c
000002d0: 121e 883e 679d 133e 77f7 6ebe 5dfc 063e
000002e0: 1660 53bd 2f85 16be 1300 90bc 0f7d fe3c
000002f0: aba2 66bd dcb4 dbbd a0f0 d1bd fba1 38bd
00000300: 608a 443e 4f6b e73d 710b 9b3c 8546 e8bd
00000310: 5175 123e a209 1e3d 91ae 863d f549 893c
00000320: a6f2 cabd 4482 4a3d d7e6 28be 836a 293d
00000330: 55b6 4bbe 997b f3bd 1a63 14be b37f 073e
00000340: 3b65 973c 8942 44bb 8495 47be 0752 433d
00000350: 254b 503e 0928 1c3e 392c 4b3d 263a ac3d
00000360: 0b38 17be 0305 e3bc d550 8c3e f7ab 953c
00000370: 6438 97bd 3262 f2bc 2598 9e3c 3a77 64be
00000380: 3134 79bd aebb db3c 5d82 ebbd 1546 463e
00000390: a579 79b9 946a 503b 6228 753c 567d be39
000003a0: f39c 293d b395 e1bc 2402 8f3d ac4b 6a3c
000003b0: 8ab6 4abe 43dc 6abe a1f5 b23d 9605 2ebe
000003c0: fcdd 47bd 5c7e 33be 5392 04be a679 28be
000003d0: ed18 09be f0d7 83be b14d 34bd 387e fcbd
000003e0: 5373 8fbc 5326 a53d 132f 4cbb f698 2f3d
000003f0: 3bf5 39bd 2732 03be 8c52 11be 6f01 c23c

gcn_convs.0.path_weight_1.bias f4 [32]
0.20202969 -0.017226221 -0.1256581 0.29061314 -0.6530806 1.0741935 0.73265964 -1.0315149
-0.38456568 0.32014647 1.0101568 1.1223246 0.3566167 1.0286375 0.25913563 1.2060609
-0.049074456 -0.61911094 -0.20838779 0.74061596 0.12813714 1.0429807 0.5580523 0.80485886
0.36170125 -0.33665812 -1.0006851 -0.9904902 -0.7068404 1.0685422 1.1341925 -0.787673
00000000: dfe0 4e3e 011e 8dbc 84ac 00be 3fcb 943e
00000010: 4a30 27bf 2c7f 893f 958f 3b3f ae08 84bf
00000020: cbe5 c4be 3dea a33e d14c 813f 55a8 8f3f
00000030: 7796 b63e 65aa 833f 6dad 843e 3460 9a3f
00000040: 4c02 49bd 0e7e 1ebf 9c63 55be 0299 3d3f
00000050: 6236 033e 6480 853f 84dc 0e3f 3b0b 4e3f
00000060: e830 b93e 745e acbe 7316 80bf c490 7dbf
00000070: 7ef3 34bf fec5 883f 382d 913f f0a4 49bf

gcn_convs.0.path_weight_2.weight f4 [32, 32]
-0.023575418 0.039080936 0.0034376672 -0.039987452 -3.5264187e-05 0.030206364 0.026249634 0.022344612
0.03013914 0.029493429 -0.0036658272 0.036816794 0.0040099374 -0.02251725 0.03006049 -0.002256305
0.026281215 -0.037119165 -0.0026799878 -0.004139701 0.029438019 -0.010970488 -0.029709358 0.02693723
0.0011889553 -0.027050603 0.004627176 -0.029946525 0.0040983832 -0.0010408708 0.02138184 0.0071277507
-0.021780845 0.03822655 0.036313765 -0.036678106 -0.004547756 -0.034078967 0.028137363 -0.025120601
-0.0013629227 0.025632612 -0.036580287 0.028814076 -0.018713215 -0.015512359 -0.0041559828 -0.008045896
0.008974026 -0.021472046 -0.004511042 0.023036983 -0.03372134 -0.016562073 0.017716497 0.0061312877
-0.0010289309 -0.038744118 0.03674684 0.023907349 -0.008444999 -0.029950595 0.0037222835 -0.008987081
-0.015079628 -0.024783883 -0.0047911233 -0.011222154 0.028393526 -0.0029574856 0.005171209 0.025972247
0.002238709 -0.013450431 0.028355088 0.004532324 -0.0002554146 0.014983796 -0.02508613 -0.039946284
0.030289302 0.022385018 0.019354265 -0.033693563 0.039938197 -0.029745892 -0.030075476 0.039758228
-0.036249995 0.028520914 0.0082764635 0.004649734 0.03019919 -0.0076119974 -0.002582561 -0.015245303
-0.03925442 0.027130779 -0.032587066 0.038032316 -0.004560103 -0.039079886 0.027818847 0.0065197875
-0.032933358 -0.03609548 -0.0067258407 -0.035895336 0.02887539 0.026250275 9.2475435e-05 0.018680602
-0.035910703 0.035801895 -0.010089485 -0.006616433 -0.022386702 -0.0035297538 -0.0036141933 0.030184785
0.014354385 -0.037426185 0.01737419 0.03906085 -0.0018866484 -0.039462 -0.010495863 -0.0024746358
0.021817474 0.03972758 -0.0022823126 0.003121755 0.023130018 0.015816037 0.013042017 0.030152952
-0.029825386 -0.03562509 0.0147451535 0.0028628323 -0.040003646 0.004209592 0.027659297 -0.029679688
0.0037443833 0.00042143546 0.0046293763 -0.023133388 0.029399527 0.02313259 -0.028400276 0.006812343
-0.036684718 -0.020919926 0.0343174 -0.002289839 -0.0005657598 -7.094308e-05 -0.0261877 0.03918377
0.0059967316 0.02391871 0.023857128 -0.0394596 -0.01721739 -0.004925943 0.027397553 -0.0040004705
-0.018217012 0.0046402765 -0.00017341072 -0.016852243 0.023042439 0.035010118 -0.026539542 0.033701953
0.022710733 -0.037536822 0.039135907 -0.009824461 -0.03018907 -0.0033937693 0.027061844 -0.0008319447
-0.010830774 0.0038857223 0.03947904 0.028873673 0.0111360345 -0.03714002 0.008110048 0.021726448
-0.030200776 -0.008073539 0.015560022 -0.012158095 -0.024369664 0.0044074724 0.029353814 -0.022461
-0.04000396 -0.038964108 -0.02804428 -0.029699579 0.019107698 -0.023657043 -0.032433324 0.022073224
0.029511115 -0.028991316 0.011214787 0.0015731506 -0.021001097 0.03378654 0.03717807 -0.038759895
0.012383506 -0.030102808 -0.0024501847 0.039984018 0.03312723 -0.025762098 0.025190208 -0.029672725
0.022699405 0.03998833 0.038971897 -0.01524166 -0.039299227 0.036628734 0.029779889 -0.021516562
-0.0249674 0.011852547 -0.017674075 -0.00033872732 0.025312427 0.010555399 -0.039657176 0.0041782116
-0.010896977 -0.030014109 -0.03763328 -0.019305095 -0.021861287 0.021447606 0.017076474 0.039205648
0.0007553447 0.0013051175 -0.007651092 0.004716121 0.037652023 0.0073006847 -0.027696535 -0.025295127
00000000: 3c21 c1bc 5513 203d 7c4a 613b e2c9 23bd
00000010: a2e8 13b8 5673 f73c 7909 d73c 0c0c b73c
00000020: 5ce6 f63c 349c f13c 603e 70bb 35cd 163d
00000030: cb65 833b 1976 b8bc 6b41 f63c 84de 13bb
00000040: b44b d73c 440a 18bd bca2 2fbb 54a6 87bb
00000050: 0028 f13c 90bd 33bc 0a61 f3bc 77ab dc3c
00000060: b8d6 9b3a 3a99 ddbc 919f 973b 6a52 f5bc
00000070: bb4b 863b d46d 88ba f828 af3c e88f e93b
00000080: be6d b2bc 7193 1c3d bebd 143d c83b 16bd
00000090: 5805 95bb 6396 0bbd 5480 e63c b8c9 cdbc
000000a0: 19a4 b2ba 7cfb d13c 36d5 15bd 7f0b ec3c
000000b0: 754c 99bc 8d27 7ebc e92e 88bb efd2 03bc
000000c0: cb07 133c 25e6 afbc 5dd1 93bb 0eb8 bc3c
000000d0: 631f 0abd 2fad 87bc 3022 913c f8e8 c83b
000000e0: 31dd 86ba 27b2 1ebd db83 163d 58d9 c33c
000000f0: e55c 0abc f35a f5bc 8ef1 733b 8d3e 13bc
00000100: 8b10 77bc 9207 cbbc dbfe 9cbb 20dd 37bc
00000110: 8a99 e83c 60d2 41bb 3f73 a93b c0c3 d43c
00000120: 4eb7 123b 325f 5cbc ee48 e83c e483 943b
00000130: 2be9 85b9 987e 753c 6d81 cdbc b79e 23bd
00000140: 4521 f83c c960 b73c d68c 9e3c 4302 0abd
00000150: 3c96 233d a8ad f3bc d860 f6bc 86d9 223d
00000160: e07a 14bd b1a4 e93c 019a 073c cc5c 983b
00000170: 4b64 f73c 106e f9bb 2f40 29bb 6fc7 79bc
00000180: 3ec9 20bd 5e41 de3c 047a 05bd c6c7 1b3d
00000190: eb6c 95bb 3b12 20bd 5ae4 e33c f1a3 d53b
000001a0: 21e5 06bd dbd8 13bd 7164 dcbb fd06 13bd
000001b0: 158c ec3c d10a d73c 5fef c138 1008 993c
000001c0: 1a17 13bd 02a5 123d 5e4e 25bc aace d8bb
000001d0: 5164 b7bc 7153 67bb 1adc 6cbb 1546 f73c
000001e0: a82e 6b3c 334c 19bd 5154 8e3c 45fe 1f3d
000001f0: 6a49 f7ba e8a2 21bd d7f6 2bbc 802d 22bb
00000200: 8fba b23c 63b9 223d da92 15bb 5c96 4c3b
00000210: 2a7b bd3c a290 813c 2fae 553c 5303 f73c
00000220: 5e54 f4bc 9deb 11bd a895 713c 5b9e 3b3b
00000230: ddda 23bd 9ef0 893b c095 e23c d122 f3bc
00000240: 5464 753b 1cf4 dc39 06b2 973b 3b82 bdbc
00000250: 47d7 f03c 8f80 bd3c b2a7 e8bc 133a df3b
00000260: b742 16bd 4460 abbc 6790 0c3d 2011 16bb
00000270: 7f4f 14ba 47c7 94b8 9687 d6bc 297f 203d
00000280: 3b80 c43b 2cf1 c33c 0670 c33c 64a0 21bd
00000290: 7c0b 8dbc ce69 a1bb d570 e03c 6116 83bb
000002a0: d83b 95bc 760d 983b 96d5 35b9 b70d 8abc
000002b0: 7fc3 bc3c c566 0f3d 7469 d9bc 0f0b 0a3d
000002c0: dc0b ba3c 36c0 19bd f94c 203d c7f6 20bc
000002d0: 124f f7bc 006a 5ebb cdb0 dd3c dd16 5aba
000002e0: 8f73 31bc 9aa7 7e3b c6b4 213d 7b88 ec3c
000002f0: ea73 363c 2220 18bd 02e0 043c aafb b13c
00000300: 9e67 f7bc e046 04bc 76ef 7e3c bf32 47bc
00000310: e4a2 c7bc 8f6c 903b 6977 f03c 2200 b8bc
00000320: 31db 23bd d498 1fbd 1ebd e5bc 884c f3bc
00000330: bf87 9c3c 6acc c1bc ced8 04bd e8d2 b43c
00000340: 4bc1 f13c 327f edbc 3abe 373c 2d32 ce3a
00000350: 7e0a acbc c163 0a3d 0848 183d b2c2 1ebd
00000360: 30e4 4a3c 2a9a f6bc 4793 20bb 48c6 233d
00000370: 6bb0 073d 090b d3bc b25b ce3c 3714 f3bc
00000380: 1af4 b93c ceca 233d ffa0 1f3d 28b8 79bc
00000390: 3af8 20bd 0308 163d f4f4 f33c 8043 b0bc
000003a0: 6f88 ccbc 2f31 423c 39c9 90bc 3697 b1b9
000003b0: 025c cf3c 8df0 2c3c 906f 22bd 61e9 883b
000003c0: 3c89 32bc 26e0 f5bc 5b25 1abd b825 9ebc
000003d0: 7116 b3bc e4b2 af3c f6e3 8b3c 1a96 203d
000003e0: 5302 463a 7a10 ab3a 03b6 fabb b189 9a3b
000003f0: 0239 1a3d 953a ef3b d8e3 e2bc ba37 cfbc

gcn_convs.0.path_weight_2.bias f4 [32]
0.12694415 0.16852015 -0.43619272 -0.60924196 -0.59589595 0.16631775 0.6835044 -1.074636
-0.81835914 -0.90950835 0.8691787 1.4557714 1.3150066 -0.13467392 0.28415027 1.2643238
1.0371132 -0.764474 -0.64986324 0.56003535 0.9772708 -0.21547309 1.0972118 0.8583459
-0.9559928 -0.6287815 -0.5526004 -0.8201379 1.0747312 0.05002053 1.1137946 -0.95267797
00000000: a6fd 013e 8c90 2c3e a754 dfbe 48f7 1bbf
00000010: a38c 18bf 334f 2a3e 25fa 2e3f ac8d 89bf
00000020: fc7f 51bf 8ad5 68bf 7f82 5e3f b856 ba3f
00000030: 2352 a83f f6e7 09be 257c 913e 5dd5 a13f
00000040: 20c0 843f 91b4 43bf 705d 26bf 7a5e 0f3f
00000050: 6b2e 7a3f faa4 5cbe 7071 8c3f 8fbc 5b3f
00000060: f2bb 74bf d3f7 20bf 3877 0dbf 8ff4 51bf
00000070: cb90 893f 54e2 4c3d d290 8e3f b4e2 73bf

gcn_convs.1.path_weight_1.weight f4 [32, 32]
-0.018361757 -0.11163582 0.061238334 -0.03875179 -0.11185001 0.11680722 -0.005454651 -0.12540619
0.11629953 -0.08700739 0.00011277528 -0.10691514 0.09642336 0.07080362 0.030871967 -0.082300454
-0.10309369 -0.00096800504 0.06403851 -0.023724677 -0.0010737563 0.08384917 -0.09841538 0.11812346
0.114742026 -0.106896564 -0.030060684 0.017784063 -0.08719282 0.030813958 -0.05607128 0.056015797
0.095448524 -0.03411772 0.06562984 -0.08287174 -0.05986246 -0.052769497 0.0068176314 -0.04213908
-0.049543936 -0.0930719 0.041504793 0.04503522 0.0036362782 -0.0909767 -0.0817783 -0.041562572
-0.10580654 -0.020978132 0.06838496 0.08494216 -0.019219989 -0.029174952 -0.050428957 -0.06309287
-0.034516137 -0.06733666 -0.012847937 -0.08048755 0.040288974 0.070483096 0.07022146 0.025351444
-0.011106649 0.022565939 0.083989106 -0.087827675 0.002912543 0.019769192 -0.07930406 0.008365199
-5.7669346e-05 0.03067313 0.008449889 0.030934028 0.056343578 -0.03788246 -0.062911704 -0.057619233
-0.037959643 0.025694378 0.019656582 0.056248818 0.063663185 0.03232196 -0.03405765 0.04162152
-0.007980901 0.061860457 -0.021954136 -0.07129185 -0.07273317 -0.055921674 0.047188465 -0.012189534
-0.0574941 -0.0015663129 0.071718596 -0.012082154 -0.031100823 -0.035850905 0.043564875 0.006690619
-0.03519448 -0.039435852 -0.010296415 -0.03503941 0.007119205 0.06602822 -0.04923397 -0.0046781995
0.005504587 0.0066178855 -0.021509357 0.07034814 0.05032797 0.057700314 0.055729486 -0.055523302
0.010042456 2.8767161e-05 -0.04332122 -0.016345479 -0.038723204 0.07948725 -0.002182497 0.107679985
-0.06398286 0.015888946 -0.08757944 0.019839112 -0.043682914 0.043836303 0.024050526 0.064377435
0.08710654 -0.057089042 0.036623254 -0.007612295 0.00028608233 0.020231701 0.0015032383 0.02004327
-0.0036183067 0.009226924 -0.059321176 -0.052733228 -0.07383754 -0.04684889 0.031020401 -0.06482837
-0.06857451 0.0299632 0.06727124 0.022624658 0.040240727 -0.04931341 -0.06290517 -0.041135594
0.040684216 -0.003416875 -0.011528242 0.044389706 -0.0069938954 -0.03444167 0.006619073 -0.045489654
0.017193194 0.023336869 -0.031641938 -0.033107243 -0.020971723 -0.00955009 0.0074885045 -0.018517878
-0.0050542364 0.03248962 0.050782543 0.0070003336 -0.02707024 -0.004683618 -0.029188367 0.023748662
0.007198352 -0.031083003 -0.0036701958 0.0059693293 -0.018209197 -0.039267987 0.010533953 -0.014284431
-0.08654885 -0.007061948 -0.028999262 0.039729126 0.09022031 -0.08549642 -0.022996226 -0.039442725
-0.07200701 0.03121382 -0.0879269 -0.010449716 -0.09117566 0.025296513 0.04961063 0.06803242
0.012637598 0.04074319 0.08781537 0.020916162 0.053341284 -0.030755429 0.09936863 0.045172583
-0.02912127 -0.029080845 0.01923593 -0.032364093 0.024618853 -0.031256508 0.043950755 -0.061372098
0.044537246 0.012522066 -0.04489826 0.054594018 0.076412655 0.0019085427 -0.026944796 0.057406772
0.020909954 0.015503973 -0.01401761 0.0027343286 -0.01596682 0.087510854 -0.048090085 0.021055952
0.03694715 -0.027714666 0.039815784 -0.0533914 -0.0076682707 -0.07095004 -0.004091732 -0.07684292
-0.049059052 0.033351064 0.02040258 0.0072015277 0.04042849 0.018330297 0.02466546 0.04041622
00000000: 656b 96bc 52a1 e4bd 0cd5 7a3d 32ba 1ebd
00000010: 9e11 e5bd a038 ef3d eebc b2bb 7b6a 00be
00000020: 732e ee3d ee30 b2bd c481 ec38 53f6 dabd
00000030: 9c79 c53d 7d01 913d 35e7 fc3c 248d a8bd
00000040: c922 d3bd b8c1 7dba 9f26 833d 415a c2bc
00000050: 48bd 8cba 1db9 ab3d 018e c9bd b6ea f13d
00000060: defd ea3d 96ec dabd d341 f6bc e2af 913c
00000070: 2692 b2bd 8e6d fc3c 00ab 65bd d270 653d
00000080: 847a c33d 06bf 0bbd f068 863d a9b8 a9bd
00000090: 5732 75bd d424 58bd 7066 df3b 079a 2cbd
000000a0: 95ee 4abd 7b9c bebd ee00 2a3d da76 383d
000000b0: a04e 6e3b fe51 babd 627b a7bd 843d 2abd
000000c0: 19b1 d8bd 55da abbc 6a0d 8c3d 28f6 ad3d
000000d0: 3d73 9dbc 4f00 efbc 988e 4ebd d636 81bd
000000e0: cb60 0dbd cee7 89bd 2780 52bc a8d6 a4bd
000000f0: 0d06 253d 7159 903d 45d0 8f3d d5ad cf3c
00000100: aaf8 35bc 34dc b83c 7b02 ac3d ffde b3bd
00000110: 5de0 3e3b 00f3 a13c 2b6a a2bd 300e 093c
00000120: fde1 71b8 3746 fb3c 6771 0a3c 5c69 fd3c
00000130: 86c8 663d a32a 1bbd dad7 80bd 2502 6cbd
00000140: 927b 1bbd 047d d23c d706 a13c 2965 663d
00000150: d861 823d 0864 043d 0980 0bbd 547b 2a3d
00000160: 53c2 02bc 6461 7d3d 29d9 b3bc 7601 92bd
00000170: 21f5 94bd 200e 65bd b148 413d 9cb6 47bc
00000180: ef7e 6bbd bd4c cdba 33e1 923d 3af4 45bc
00000190: 27c7 febc 66d8 12bd 1571 323d fb3c db3b
000001a0: 1628 10bd 7d87 21bd 4bb2 28bc 7c85 0fbd
000001b0: 3848 e93b ce39 873d 8fa9 49bd 954b 99bb
000001c0: d35f b43b d9da d83b 6434 b0bc b012 903d
000001d0: b424 4e3d 2a57 6c3d 9a44 643d 676c 63bd
000001e0: 1d89 243c 0251 f137 9771 31bd f4e6 85bc
000001f0: 399c 1ebd 36ca a23d 3908 0fbb 5387 dc3d
00000200: 7209 83bd 8929 823c d95c b3bd a285 a23c
00000210: dbec 32bd b28d 333d 9c05 c53c 51d8 833d
00000220: ea64 b23d 33d6 69bd 4402 163d 8f70 f9bb
00000230: 52fd 9539 f4bc a53c 4f08 c53a c931 a43c
00000240: 1d21 6dbb 862c 173c c3fa 72bd ccfe 57bd
00000250: 2338 97bd 9fe4 3fbd 7f1e fe3c bdc4 84bd
00000260: cb70 8cbd 6375 f53c 81c5 893d 5957 b93c
00000270: 76d3 243d dcfc 49bd 6dd4 80bd cc7d 28bd
00000280: 7ea4 263d a6ed 5fbb f4e0 3cbc fbd1 353d
00000290: 0c2d e5bb b512 0dbd cfe4 d83b 5c53 3abd
000002a0: bed8 8c3c f62c bf3c fa9a 01bd 769b 07bd
000002b0: e4cc abbc fb77 1cbc 2162 f53b ceb2 97bc
000002c0: 029e a5bb d613 053d 5b01 503d 0e63 e53b
000002d0: 68c2 ddbc 0979 99bb 711c efbc 8e8c c23c
000002e0: 27e0 eb3b c8a1 febc ab87 70bb 5d9a c33b
000002f0: 742b 95bc 78d7 20bd 9a96 2c3c 3f09 6abc
00000300: 8640 b1bd ea67 e7bb dc8f edbc 02bb 223d
00000310: 6dc5 b83d bf18 afbd 9562 bcbc b28e 21bd
00000320: 6978 93bd 20b4 ff3c 0513 b4bd 4935 2bbc
00000330: 4eba babd a23a cf3c 8434 4b3d 9554 8b3d
00000340: ee0d 4f3c 55e2 263d 8bd8 b33d 5f58 ab3c
00000350: 647c 5a3d cff2 fbbc c881 cb3d e306 393d
00000360: bb8f eebc f43a eebc ab94 9d3c 3690 04bd
00000370: 7aad c93c d306 00bd b505 343d 4f61 7bbd
00000380: b06c 363d 5a29 4d3c 3de7 37bd fa9d 5f3d
00000390: 3d7e 9c3d 1128 fa3a 55bb dcbc 5d23 6b3d
000003a0: 5a4b ab3c 6004 7e3c 1eaa 65bc 6c32 333b
000003b0: d9cc 82bc e438 b33d 1cfa 44bd 887d ac3c
000003c0: e555 173d de09 e3bc e015 233d f1b0 5abd
000003d0: 1e46 fbbb 414e 91bd f013 86bb d25f 9dbd
000003e0: 25f2 48bd 209b 083d 5023 a73c cbfa eb3b
000003f0: 5898 253d 6b29 963c 380f ca3c 7a8b 253d

gcn_convs.1.path_weight_1.bias f4 [32]
0.47922906 0.14788635 0.043715738 -0.10330003 -0.17547096 -0.31039444 -0.16974461 -0.221294
0.033962503 0.07323035 -0.16755196 -0.5431622 0.017198773 0.19694842 -0.12245149 0.1143273
0.028884534 -0.03498525 0.25811395 -0.017030273 -0.69098294 -0.16570014 -0.061789744 -0.014394311
-0.07099973 0.11522691 -0.55602854 0.72027767 0.3308385 0.31870243 0.0039372984 -0.057438713
00000000: 835d f53e 856f 173e 460f 333d f78e d3bd
00000010: a9ae 33be 05ec 9ebe 88d1 2dbe e59a 62be
00000020: 441c 0b3d cbf9 953d be92 2bbe ae0c 0bbf
00000030: 71e4 8c3c d9ac 493e d9c7 fabd 6e24 ea3d
00000040: 429f ec3c b24c 0fbd 8327 843e 1283 8bbc
00000050: 42e4 30bf 4cad 29be 3e17 7dbd 1ed6 6bbc
00000060: 4e68 91bd 16fc eb3d e357 0ebf 1e64 383f
00000070: aa63 a93e f72c a33e 7404 813b db44 6bbd

gcn_convs.1.path_weight_2.weight f4 [32, 32]
-1.035169 -0.5217689 -0.47255555 -0.5582026 -0.70743215 0.23377933 0.8947402 -0.2916625
0.8819413 0.6699163 0.28481334 -0.70247203 -0.5406857 -0.42264512 -0.36875382 0.7499353
-0.6517693 0.4989399 -0.62754107 -0.20322841 0.109970205 0.09098869 0.8317542 1.1128535
0.39373294 -0.058007 0.42520982 0.9388217 -0.20002902 -0.32104197 -0.8049601 -0.26898527
-0.98789126 -0.025178064 0.22465129 0.2975966 0.15110843 0.06150855 0.5871083 -0.34063026
-0.086806655 -0.22310176 -0.041946154 0.034213316 -0.09042269 0.076906554 0.08139686 0.41226178
0.02100662 0.34007984 -0.21950342 0.601357 -0.119318776 -0.16573541 -0.3187279 0.09670344
0.42396355 -0.10826925 0.32678664 0.9488044 0.25995722 0.14199708 -0.20878595 -0.22825485
-0.041770764 -0.24287252 0.42754814 -0.10802615 -0.026478613 -0.3333493 0.73111326 -0.16224644
0.20898734 0.19937785 -0.18184686 0.07245114 0.14712407 -0.42186472 -0.04895183 0.40056285
0.38113284 -0.69458544 -0.06479559 0.8708909 0.081328146 -0.26134872 -0.12642892 0.6445826
-0.073328674 -0.8074476 0.056625754 -0.14315851 0.29931524 -0.089595154 0.40283787 0.28274205
0.08330586 0.0356297 0.7198733 0.5054048 0.44288182 -0.1780786 -0.72746456 0.7231967
-0.0937442 -0.004097855 0.14617814 0.6531496 -0.005616568 0.04250657 -0.02755216 -0.83263695
-0.050437212 0.74977833 0.5016253 -0.57902545 0.017176097 0.061555337 0.18264654 -0.7599759
-0.5968351 0.6514972 -0.5430499 -0.85552794 -0.63087434 -0.20168877 -0.82780486 0.44542566
0.90962785 0.7569834 0.7855261 0.7745757 0.7535318 -0.31517115 -0.68634194 0.0917156
-0.60655123 -0.13560246 -0.38862804 0.1455049 -0.14244014 0.5609389 -0.094584495 -0.59327483
0.55956185 0.8053437 0.76691127 -0.6517812 0.049243867 -0.28549346 -0.11556654 -0.9313645
-0.4685151 0.77038115 -0.27207205 -0.7176638 0.16479197 -0.13749537 -0.77680564 0.6606702
-0.05865658 0.51981467 -0.0065299673 0.1847556 0.1268509 -0.088128015 -0.14787363 -0.12504606
-0.035707954 0.033204045 -0.09690293 0.019949274 -0.04353815 -0.16318923 0.053232633 0.1702816
-0.184272 0.35927376 0.2710704 -0.18374458 0.004253098 0.07206105 -0.15068989 0.12671484
0.0997985 0.17943586 -0.083493486 -0.6917466 -0.09427714 -0.15236825 -0.17258431 -0.06747089
0.048290733 -0.5048136 -0.22760428 -0.13806409 -0.3867416 0.06659473 -0.26035017 -0.05338383
0.35939428 0.103515826 -0.0742269 -0.27683577 0.0884829 0.0051921117 0.030138727 -0.21652217
-0.07612813 0.07509183 -0.047947023 0.22653103 -0.07906032 -0.12068302 0.066068254 0.12437791
0.31563115 -0.30536303 0.27470922 0.4549098 -0.13754402 0.07088544 0.23268157 0.15740106
0.5365065 0.038846675 -0.19838952 0.7779575 -0.22394903 -0.031568766 -0.22983553 -0.20359005
-0.035148542 0.09929736 0.14954439 -0.05876524 -0.1577956 -0.14549512 -0.12807477 -0.0013430539
0.08012054 0.3930387 -0.18582769 0.031395137 -0.10536331 -0.00712955 -0.21738498 -0.56339854
0.10757138 0.05267901 0.06696692 -0.63288546 -0.22090802 -0.06681778 -0.13977428 -0.1057704
00000000: 6b80 84bf a692 05bf cdf2 f1be 5ee6 0ebf
00000010: 461a 35bf d963 6f3e b20d 653f ca54 95be
00000020: e8c6 613f a27f 2b3f 0ed3 913e 35d5 33bf
00000030: 616a 0abf f164 d8be 4dcd bcbe c3fb 3f3f
00000040: 5ada 26bf 0d75 ff3e 88a6 20bf 1c1b 50be
00000050: 0f38 e13d 4758 ba3d d8ed 543f fc71 8e3f
00000060: 5d97 c93e bf98 6dbd 1ab5 d93e 9e56 703f
00000070: 68d4 4cbe 9d5f a4be dd11 4ebf 70b8 89be
00000080: 71e6 7cbf 3a42 cebc fd0a 663e 955e 983e
00000090: 2bbc 1a3e 64f0 7b3d bb4c 163f 1767 aebe
000000a0: b0c7 b1bd ca74 64be bbcf 2bbd 4323 0c3d
000000b0: 882f b9bd 2f81 9d3d 66b3 a63d fa13 d33e
000000c0: 1316 ac3c f21e ae3e 81c5 60be 88f2 193f
000000d0: 675d f4bd 8bb6 29be 4e30 a3be 740c c63d
000000e0: c011 d93e 45bc ddbd 9450 a73e d8e4 723f
000000f0: 1d19 853e af67 113e fccb 55be a4bb 69be
00000100: d217 2bbd 93b3 78be 97e7 da3e d03c ddbd
00000110: ade9 d8bc c2ac aabe 3d2a 3b3f ee23 26be
00000120: c700 563e b529 4c3e 1036 3abe 4361 943d
00000130: b1a7 163e a7fe d7be b781 48bd 9316 cd3e
00000140: d823 c33e 5ad0 31bf 8db3 84bd b5f2 5e3f
00000150: 5f8f a63d 80cf 85be 9576 01be 5e03 253f
00000160: 582d 96bd e3b4 4ebf 68f0 673d 2598 12be
00000170: d93f 993e aa7d b7bd c440 ce3e 91c3 903e
00000180: 439c aa3d 73f0 113d 9e49 383f 3562 013f
00000190: 68c1 e23e 3d5a 36be 1e3b 3abf 6b23 393f
000001a0: f6fc bfbd 4d47 86bb b9af 153e d034 273f
000001b0: 300b b8bb 5f1b 2e3d 11b5 e1bc b227 55bf
000001c0: 4097 4ebd 79f1 3f3f 846a 003f 033b 14bf
000001d0: e3b4 8c3c 7321 7c3d b207 3b3e c88d 42bf
000001e0: 2fca 18bf 85c8 263f 5105 0bbf e103 5bbf
000001f0: fb80 21bf 8087 4ebe 05eb 53bf d50e e43e
00000200: 5fdd 683f aac9 413f 3d18 493f 984a 463f
00000210: 76e7 403f 1d5e a1be 1bb4 2fbf 63d5 bb3d
00000220: f146 1bbf 5fdb 0abe 41fa c6be 3dff 143e
00000230: d4db 11be b199 0f3f 84b5 c1bd dce0 17bf
00000240: 723f 0f3f 012b 4e3f 4c54 443f 22db 26bf
00000250: f0b3 493d 332c 92be 26ae ecbd e76d 6ebf
00000260: 36e1 efbe b337 453f 074d 8bbe d1b8 37bf
00000270: 3abf 283e 96cb 0cbe bcdc 46bf af21 293f
00000280: e241 70bd 9312 053f 56f9 d5bb 9230 3d3e
00000290: 34e5 013e 767c b4bd 2f6c 17be 130c 00be
000002a0: 8142 12bd f700 083d 0b75 c6bd a96c a33c
000002b0: 0f55 32bd 141b 27be 760a 5a3d 4d5e 2e3e
000002c0: cdb1 3cbe bbf2 b73e bdc9 8a3e 8a27 3cbe
000002d0: 925d 8b3b be94 933d 734e 1abe 89c1 013e
000002e0: 2863 cc3d 09be 373e a2fe aabd 4e16 31bf
000002f0: 6014 c1bd 6c06 1cbe f1b9 30be 2e2e 8abd
00000300: 81cc 453d 773b 01bf 1911 69be ac60 0dbe
00000310: ff02 c6be d162 883d 9e4c 85be 01a9 5abd
00000320: 8702 b83e 1b00 d43d 4604 98bd 6bbd 8dbe
00000330: 8636 b53d 9722 aa3b 7ee5 f63c fdb7 5dbe
00000340: 11e9 9bbd bfc9 993d 1964 44bd c0f7 673e
00000350: 61ea a1bd a928 f7bd cb4e 873d d8b9 fe3d
00000360: 689a a13e 8b58 9cbe b0a6 8c3e f0e9 e83e
00000370: 57d8 0cbe 632c 913d 1444 6e3e be2d 213e
00000380: 7d58 093f b11d 1f3d 9f26 4bbe 3928 473f
00000390: e552 65be 404e 01bd 015a 6bbe e979 50be
000003a0: ebf7 0fbd 6a5c cb3d 2a22 193e d2b3 70bd
000003b0: 2b95 21be acfc 14be 0826 03be 6909 b0ba
000003c0: 3d16 a43d 5e3c c93e 9d49 3ebe 3098 003d
000003d0: b8c8 d7bd 009f e9bb 2b9a 5ebe e33a 10bf
000003e0: 624e dc3d f2c5 573d f425 893d c804 22bf
000003f0: b635 62be c3d7 88bd fd20 0fbe 279e d8bd

gcn_convs.1.path_weight_2.bias f4 [32]
0.44535902 0.24112904 -0.05415737 -0.6145187 -0.64931804 -0.10865435 -0.0063064904 -0.026544733
-0.0010042972 0.049561635 -0.35152298 -0.76632106 -0.008679735 0.38716927 -0.1532401 -0.43528643
0.35173416 -0.2530709 -0.2609326 -0.48332158 -0.42556414 0.05947556 0.35589585 -0.023267861
0.016685566 0.49551034 0.79467916 0.5662014 0.57779914 -0.2254673 0.090905346 -0.7332349
00000000: 1906 e43e 88ea 763e 1ed4 5dbd 1951 1dbf
00000010: b539 26bf 2c86 debd ada6 cebb 5774 d9bc
00000020: 9fa2 83ba 2401 4b3d d2fa b3be 9e2d 44bf
00000030: 7235 0ebc 0d3b c63e f9ea 1cbe dddd debe
00000040: 8016 b43e 8292 81be f598 85be ed75 f7be
00000050: 8be3 d9be a59c 733d fb37 b63e 3e9c bebc
00000060: 2bb0 883c 88b3 fd3e 1870 4b3f 93f2 103f
00000070: a5ea 133f e6e0 66be 952c ba3d 48b5 3bbf

gcn_convs.2.path_weight_1.weight f4 [32, 32]
0.08799919 0.06928998 -0.053468697 0.11192902 0.12753683 0.012743497 -0.01825079 -0.13133301
0.010310622 0.013163129 0.12304423 -0.060887095 0.11853417 0.014896862 0.13217233 -0.053028442
0.10230688 0.12495589 -0.14907186 -0.116368376 0.0671657 -0.06491397 0.12806559 -0.067063145
0.09321538 -0.0667914 0.031803574 0.033499613 -0.022419123 -0.04487536 0.13636608 0.0027942841
-0.034955893 0.13141876 -0.06490907 -0.1048115 -0.15637487 -0.09915829 0.10075602 -0.021659922
-0.093477786 -0.031048456 -0.05557055 0.061184444 -0.061981846 -0.16096154 -0.11018993 0.037781402
0.036139708 0.091790624 -0.09074904 0.052673742 0.06743782 0.10557334 -0.018753495 0.081614345
-0.05397989 0.095944606 0.13395256 -0.02675526 0.11013665 -0.09177601 -0.091809645 -0.071306676
-0.03270845 0.042935938 0.082756065 0.009741512 0.014073915 0.1005577 0.021726022 0.0719387
-0.08063274 -0.07000777 0.09860853 0.013717528 -0.049258083 0.10467693 -0.03209863 -0.06944335
0.044056483 0.05693916 0.01718157 0.06336889 0.048859388 -0.09034113 -0.03943036 -0.034620095
0.031112477 -0.08419566 0.02201475 0.036278136 -0.059457187 0.14998057 0.11097647 -0.06355977
-0.036651798 0.07837334 -0.0048764865 -0.056620684 0.009702841 -0.10658685 0.09808335 -0.02350045
-0.090448625 -0.13509393 -0.13010494 -0.13107301 -0.07898404 -0.084414154 0.030422106 -0.038804438
-0.10884351 0.09650415 0.095582925 -0.07987326 0.06566755 0.08627779 -0.051199548 -0.09813294
-0.09137053 0.040023092 -0.058416974 -0.02426898 -0.019631125 -0.121349186 -0.02184443 0.013965952
0.04001858 0.07433462 0.032708056 -0.031688392 -0.078649886 0.04227769 -0.018411078 -0.045051426
-0.018338162 -0.02341827 0.030133191 -0.049307257 -0.021307765 0.056434922 -0.018320285 -0.031610385
-0.055084765 0.041748334 0.031178987 -0.034583002 0.03360034 -0.027487226 0.035892583 0.0150289945
0.010436349 0.026438707 0.0152381295 0.002414125 -0.077579126 0.025932154 -0.04560842 0.015830046
-0.018165046 -0.013972443 -0.03233538 -0.015419314 -0.044103652 0.044158835 0.0025626805 0.0037185526
-0.037667457 0.026241735 -0.04338052 0.018279852 -0.044921547 -0.0028880388 0.015784683 0.014297381
-0.013529321 -0.019655377 0.025596477 0.030073967 -0.008362998 -0.020088937 0.007607368 0.03603462
0.031000666 -0.00059261307 0.036251433 -0.009901748 0.029911079 -0.009118543 0.02226185 -0.016449561
0.06350217 0.07361822 0.12468119 -0.041737597 -0.03207103 -0.042408753 -0.008439759 0.022354733
0.032150596 -0.094760254 -0.054950643 0.022677466 -0.0051303445 -0.014557866 -0.060928296 0.027321035
-0.069246784 -0.076843895 0.05219423 -0.042504415 -0.0024312225 0.021837711 0.048361436 -0.10515748
0.06286345 -0.04591145 -0.08063612 -0.07818051 -0.03709454 0.03862297 0.07412839 -0.0095594
-0.047820203 0.18669325 -0.07302565 0.13685009 -0.042155765 -0.116008095 -0.19901921 0.031105757
0.050772645 -0.19084662 0.04446529 -0.02511099 -0.15212412 -0.0075950674 -0.10690484 -0.0044041397
0.008820845 -0.057004575 0.08912992 0.005594065 -0.042983174 -0.06022254 -0.069732964 0.12496236
0.06443664 0.008416051 0.18971409 0.14866158 0.14936756 0.2160923 0.12795904 -0.08745539
00000000: eb38 b43d e8e7 8d3d fe01 5bbd 0b3b e53d
00000010: 0499 023e 1aca 503c ae82 95bc 297c 06be
00000020: e2ed 283c 2aaa 573c 9dfe fb3d bf64 79bd
00000030: 0bc2 f23d f811 743c 2f58 073e 5a34 59bd
00000040: 4586 d13d e0e8 ff3d 4ba6 18be 8b52 eebd
00000050: 2c8e 893d 9ef1 84bd a023 033e 6758 89bd
00000060: b5e7 be3d eec9 88bd 7744 023d e436 093d
00000070: 4fa8 b7bc 3acf 37bd 8da3 0b3e 4f20 373b
00000080: e92d 0fbd a492 063e 0cef 84bd 69a7 d6bd
00000090: bc20 20be 8013 cbbd 2c59 ce3d 2670 b1bc
000000a0: 4871 bfbd 5559 febc f29d 63bd 8a9c 7a3d
000000b0: ade0 7dbd 1ad3 24be 42ab e1bd acc0 1a3d
000000c0: 3b07 143d b9fc bb3d a2da b9bd 6cc0 573d
000000d0: d71c 8a3d d636 d83d eea0 99bc 6c25 a73d
000000e0: 041a 5dbd 9b7e c43d dc2a 093e d92d dbbc
000000f0: 538f e13d 10f5 bbbd b206 bcbd 3c09 92bd
00000100: 4cf9 05bd 98dd 2f3d 037c a93d dd9a 1f3c
00000110: 4796 663c 32f1 cd3d c5fa b13c 9954 933d
00000120: c722 a5bd 3c60 8fbd 45f3 c93d 7cbf 603c
00000130: d8c2 49bd dc60 d63d da79 03bd 5138 8ebd
00000140: 9274 343d 0939 693d 5dc0 8c3c 8cc7 813d
00000150: c820 483d c504 b9bd bb81 21bd cdcd 0dbd
00000160: 98df fe3c c66e acbd 4758 b43c 6298 143d
00000170: 6189 73bd 8294 193e a247 e33d a02b 82bd
00000180: 3220 16bd 3482 a03d efca 9fbb 17eb 67bd
00000190: aaf8 1e3c 354a dabd ecdf c83d 0484 c0bc
000001a0: 213d b9bd 1056 0abe 3b3a 05be 0138 06be
000001b0: 62c2 a1bd 54e1 acbd c837 f93c 67f1 1ebd
000001c0: 59e9 debd f8a3 c53d fbc0 c33d 9794 a3bd
000001d0: b57c 863d 69b2 b03d 9eb6 51bd ecf9 c8bd
000001e0: 7920 bbbd 41ef 233d a346 6fbd bdcf c6bc
000001f0: 74d1 a0bc ec85 f8bd 17f3 b2bc 73d1 643c
00000200: 86ea 233d c03c 983d e2f8 053d b0cb 01bd
00000210: 3113 a1bd 5f2b 2d3d d4d2 96bc d887 38bd
00000220: ea39 96bc acd7 bfbc e2d9 f63c 68f6 49bd
00000230: 9f8d aebc 4e28 673d 6c14 96bc e479 01bd
00000240: 90a0 61bd 4d00 2b3d 136b ff3c e8a6 0dbd
00000250: 83a0 093d e42c e1bc 1a04 133d 2c3c 763c
00000260: 38fd 2a3c fd95 d83c 59a9 793c 4c36 1e3b
00000270: cee1 9ebd ab6f d43c e5cf 3abd 03ae 813c
00000280: ddce 94bc acec 64bc 1a72 04bd 4aa1 7cbc
00000290: 08a6 34bd e5df 343d a5f2 273b f6b2 733b
000002a0: 3149 1abd e8f8 d63c c6af 31bd a1bf 953c
000002b0: a8ff 37bd 4045 3dbb e14e 813c 903f 6a3c
000002c0: 16aa 5dbc 5004 a1bc b4af d13c ae5d f63c
000002d0: f504 09bc 8e91 a4bc 3a47 f93b 0a99 133d
000002e0: 1cf5 fd3c 9759 1bba 627c 143d f13a 22bc
000002f0: 1408 f53c f165 15bc 7c5e b63c 3bc1 86bc
00000300: 6d0d 823d 26c5 963d da58 ff3d 0bf5 2abd
00000310: ea5c 03bd cdb4 2dbd ea46 0abc 4621 b73c
00000320: 58b0 033d aa11 c2bd ed13 61bd 18c6 b93c
00000330: 731c a8bb 1e84 6ebc f38f 79bd 5dd0 df3c
00000340: 42d1 8dbd 5560 9dbd 9ec9 553d 1c19 2ebd
00000350: 2555 1fbb 00e5 b23c a416 463d ce5c d7bd
00000360: 8dbe 803d a50d 3cbd 8d24 a5bd 1a1d a0bd
00000370: 72f0 17bd 1f33 1e3d a0d0 973d 089f 1cbc
00000380: 1edf 43bd 842c 3f3e 798e 95bd 6e22 0c3e
00000390: 86ab 2cbd a795 edbd b1cb 4bbe 80d1 fe3c
000003a0: faf6 4f3d 4c6d 43be 3c21 363d 90b5 cdbc
000003b0: 6dc6 1bbe 0be0 f8bb edf0 dabd 9a50 90bb
000003c0: 4e85 103c a17d 69bd bf89 b63d 6b4e b73b
000003d0: 200f 30bd e9ab 76bd 28d0 8ebd 44ec ff3d
000003e0: 5bf7 833d 7ae3 093c 6944 423e be3a 183e
000003f0: cff3 183e 4d47 5d3e b207 033e d01b b3bd

gcn_convs.2.path_weight_1.bias f4 [32]
1.1323774 -0.034632526 0.45097736 0.0020297728 -0.19510444 -0.14883214 -0.3239613 0.4762699
-0.20310414 0.037741058 -0.034486517 -0.10797356 0.34443447 -0.068881065 -0.1644915 -0.677862
0.0829144 -0.42625907 0.027422078 0.01784892 -0.056756563 -0.3299042 -0.33614954 1.118444
-0.007839709 0.45505723 -0.16558677 -0.2329685 0.24379429 0.31185693 -0.12070349 0.60859525
00000000: bef1 903f d6da 0dbd 81e6 e63e f005 053b
00000010: 75c9 47be 7467 18be 41de a5be a6d9 f33e
00000020: 88fa 4fbe 5e96 1a3d bc41 0dbd 3e21 ddbd
00000030: b759 b03e 8411 8dbd 7670 28be 5d88 2dbf
00000040: 06cf a93d a13e dabe 44a4 e03c e637 923c
00000050: 9279 68bd 34e9 a8be cb1b acbe 2c29 8f3f
00000060: 1f72 00bc 43fd e83e 948f 29be 4b8f 6ebe
00000070: 36a5 793e b6ab 9f3e 6433 f7bd e6cc 1b3f
