semi-supervised/cora_4_layers_.pt (torch, 260497 bytes, 28 tensors)

trans_feat.weight f4 [32, 1433]
000000 1a 46 a8 3c 7c e0 0c bc b4 1f a9 3c 5c e1 27 bd
       0.02054124 -0.008598443 0.020645 -0.040986404
000010 27 7a 93 bd 10 c4 08 3d 8d 78 00 bd 08 52 6d 3c
       -0.07201033 0.033390105 -0.031364966 0.01448489
000020 6b e9 5e 3c 50 67 8a 3c 67 59 b3 3c f5 b0 25 3c
       0.013605456 0.016894966 0.021893216 0.010112991
000030 0d cf 85 bc 72 9f 91 3c 32 f1 b9 bc 82 b1 06 3d
       -0.016334081 0.017776225 -0.022698019 0.03288413
000040 5c 31 03 3d e3 fa 0a bd 6e 04 ea 3c 94 45 74 3b
       0.032029495 -0.03393067 0.028566565 0.0037272917
000050 7f 57 64 bc 50 ea 42 bc dc b9 8f bc c0 da fb b9
       -0.013936876 -0.011896685 -0.01754468 -0.00048037432
000060 b8 15 20 3c b8 55 79 3c 45 79 d4 3c d6 4f b0 3c
       0.009770803 0.015218191 0.025936732 0.021522444
000070 78 b6 f3 bb 04 39 96 3c 08 99 a3 bb 2a 2e c9 bc
       -0.0074375235 0.018337734 -0.004992608 -0.024558146
000080 50 73 b7 3c c0 47 b3 3c 9a 67 b5 3b 78 55 98 ba
       0.022393852 0.021884799 0.005536032 -0.0011622151
000090 eb d7 ba bc 4f 78 6c 3c e4 8e 09 3b 60 de c4 bb
       -0.022808036 0.014432981 0.002098971 -0.0060079545
0000a0 ea 87 ae bc 36 13 bc 3d 3e eb 16 bd 98 53 b9 bc
       -0.021305043 0.09183352 -0.03684544 -0.022622868
0000b0 10 72 8c 3c cc 51 bc bc 80 d6 97 bc 54 ba d1 3c
       0.017144233 -0.022988223 -0.018534899 0.025601543
0000c0 9f c3 39 bd 5d bc 0e 3c 76 2b 39 bc 6a c4 2e bd
       -0.045352574 0.0087119015 -0.011301866 -0.042667784
0000d0 ee c4 06 3d da 30 ba 3c 30 c6 97 bc 8d ad 15 bc
       0.03290265 0.022728372 -0.01852712 -0.009135616
0000e0 5c d0 37 bd 09 32 b6 bc 72 6d 7a 3c 1a 9c ee 3c
       -0.04487644 -0.022240655 0.015284883 0.02912717
0000f0 c5 e9 ac bc bb 04 ad 3c e8 db 09 3d 6e 3e f1 3c
       -0.021107564 0.02112042 0.033656985 0.029448714
000100 78 91 52 bb 2c a6 f2 3b db eb b4 3c ba 06 f0 bc
       -0.0032130163 0.007405063 0.02208512 -0.029300082
000110 23 dd bd 3c 38 77 c4 3c a0 64 7a bb 60 67 ff 3b
       0.023176735 0.02398263 -0.003820695 0.0077943057
000120 14 29 6c 3b 25 6c 08 bd fa ce 93 3c 02 61 00 bd
       0.0036035227 -0.03330626 0.01804303 -0.031342514
000130 68 2a fa bc 27 78 36 3c ab 4a ce bc bf b5 e0 3c
       -0.030537799 0.011137045 -0.025182089 0.027430413
000140 8a 85 c1 bc 52 5a 7f 3c 78 e4 fd 3b 14 1f 9b bc
       -0.023623247 0.015585499 0.007748183 -0.018935718
000150 50 07 c0 3c 3b 66 6f 3d 5e 79 7a bc aa 06 aa bc
       0.023440987 0.058447104 -0.015287725 -0.02075513
000160 27 c4 9e bc 66 73 23 3d 9c bf bf bc 39 7c ac bc
       -0.019380642 0.039904974 -0.023406796 -0.021055328
000170 54 a9 28 3c 42 b7 aa 3c 51 1e 5b bc a0 a2 cd b9
       0.010294277 0.020839337 -0.013373927 -0.00039221812
000180 78 e5 0b bb bb 01 11 3c 5e 44 ce 3c 13 a4 78 bd
       -0.002134649 0.00885051 0.025179084 -0.06070335
000190 1b c4 fc 3c b4 86 46 3c 08 c1 9d 3c 06 68 da bc
       0.03085523 0.012117077 0.019257084 -0.02666093
0001a0 25 4a 0a 3d b6 ff 86 bc a6 52 55 bc 33 31 a5 3c
       0.033762116 -0.016479354 -0.013020193 0.020165062
0001b0 b7 80 32 bd 46 15 0d 3d 40 32 ab 39 51 86 b0 bc
       -0.043579783 0.034444116 0.000326531 -0.021548422
0001c0 2c 0e 89 bc bc 16 25 3c 04 23 10 3d ea 7e bd 3b
       -0.01673039 0.010076221 0.035189644 0.0057829516
0001d0 f0 37 59 bb b8 e0 94 ba 0c a4 26 bd f4 50 9f 3c
       -0.0033144914 -0.0011358475 -0.04068379 0.019447781
0001e0 73 3b 27 bd 53 bc 59 bd c8 43 79 3b 2e 64 3f bd
       -0.04082818 -0.053158116 0.0038034786 -0.0467264
0001f0 a1 5f a4 3c 12 47 9c 3c 1c f1 72 3c b3 78 b9 bc
       0.02006513 0.019076858 0.014827993 -0.022640562
000200 3a 6d 14 3d c8 09 9f bc eb f6 ad 3d f3 f1 da 3c
       0.03623698 -0.019413844 0.084943615 0.026726699
000210 3e a0 23 3d 2a 34 96 3c 81 cf 26 3c 2a 86 2f bc
       0.03994774 0.01833542 0.010181309 -0.01071314
000220 a6 66 9b bd 0b eb 0c 3c d4 56 4d 3b fa d3 08 3d
       -0.07587938 0.0086009605 0.0031332271 0.03340528
000230 7f 0b e5 bc b6 25 cc bc 02 75 d7 bc 1e 00 f0 3c
       -0.027959583 -0.024920326 -0.02630091 0.02929693
000240 ed 99 8c 3c 2e 33 c6 3c 96 47 d2 3b fb f7 ac bc
       0.017163241 0.024194326 0.006417225 -0.02111434
000250 de 2d 43 3c d7 35 24 bc 67 85 83 3c d0 1b 7b bc
       0.011912791 -0.010022602 0.016054822 -0.015326455
000260 52 b2 05 3c a2 a8 88 3b d4 17 a7 bc 0a f6 24 3c
       0.008160191 0.004170493 -0.020397104 0.010068426
000270 88 57 9b bc 08 81 e7 3b 30 ed 86 3c e6 68 d4 3c
       -0.018962637 0.0070649423 0.016470522 0.025928926
000280 6f 34 cf 3c 00 08 1d ba e2 e9 59 bc bb 2e 0f bd
       0.025293557 -0.0005990267 -0.013300391 -0.034956675
000290 a6 9a 20 bc 2e b3 ba 3c 98 11 ca 3c c0 f1 29 ba
       -0.009802496 0.022790518 0.024666592 -0.0006482862
0002a0 cc 5f 4e 3d b0 89 ba 3c 48 ba fa 3b 36 2b 43 3c
       0.050384328 0.022770733 0.007651601 0.011912158
0002b0 65 ec 5b 3c 60 34 77 ba 1d 27 ed 3c cc d1 cb bc
       0.01342306 -0.0009430107 0.028949315 -0.024880312
0002c0 71 ad a6 3c cc d8 81 bc e2 c7 9b bc 2f a7 81 bd
       0.020346375 -0.015850447 -0.01901621 -0.06330716
0002d0 b2 00 c1 bc 18 7b d5 3b 32 3e 51 bc d2 d1 c4 bc
       -0.023559902 0.006514918 -0.012771176 -0.024025831
0002e0 56 84 bf 3c cd be 2c bc 14 a1 64 bc d5 88 69 bd
       0.023378532 -0.010543537 -0.01395442 -0.05701526
0002f0 bc bc 13 bd 2c 80 ce 3b 86 92 b6 bc 82 ca c9 bc
       -0.036068663 0.0063019004 -0.022286665 -0.024632696
000300 be 44 4c bc 5a c2 ba bc fc f2 45 3c fa 6a 82 3b
       -0.012467561 -0.022797752 0.012081858 0.0039800378
000310 2e cc af bc c2 9c 9c bb e9 3b df bc e0 b0 d3 ba
       -0.021459665 -0.004779429 -0.027250247 -0.0016150735
000320 c0 07 b6 bc b0 28 ca 3c aa 8b 3a bc 4c 80 df 3b
       -0.022220492 0.024677604 -0.011385838 0.006820714
000330 28 d4 8a ba 31 e2 8b bc 88 f5 71 3b b7 c5 be 3c
       -0.0010591792 -0.01707563 0.003692003 0.023287637
000340 e0 f7 91 bc 1e e8 ba 3c 30 80 03 ba ee bc 06 bd
       -0.017818391 0.02281576 -0.0005016355 -0.03289502
000350 ae f3 e9 3c 5d 2b 1f bd 42 d0 b3 bb b5 49 9a bc
       0.028558578 -0.038859714 -0.0054874728 -0.018833974
000360 28 c0 98 bc c6 56 fa 3c be 35 d6 3c d8 6e a5 3c
       -0.018646315 0.030558955 0.026148673 0.020194456
000370 c4 88 07 bc 00 fc 77 bc db 7a 2b 3d 6e 4f 34 bc
       -0.008272354 -0.015135765 0.04186521 -0.011005266
000380 88 8d 60 3c 42 02 a8 3d 35 4d 8a 3c 80 51 11 3a
       0.013705619 0.08203556 0.016882518 0.00055434555
000390 03 0e ce 3d 86 35 f4 3b 69 4e 40 bd 8c 04 67 bc
       0.10061266 0.0074526696 -0.046949778 -0.014100205
0003a0 90 22 36 3d 6c 11 af 3c 3e b8 f5 3c a4 13 09 3c
       0.044466555 0.021370612 0.02999508 0.008366499
0003b0 c1 c2 03 bd e6 87 60 bd cb a5 80 bc c5 36 c0 3c
       -0.032168154 -0.054817103 -0.015704056 0.023463616
0003c0 da 0f b3 bc ec 7a b3 bc 9b 0e da 3c 88 0a 7b 3c
       -0.021858145 -0.0219092 0.026618293 0.015322335
0003d0 0d b7 6d bc 43 35 02 3d 2d e0 b6 3c 80 57 1c 3d
       -0.014508975 0.031789076 0.022323692 0.038169384
0003e0 69 a8 e3 bc 8c 4d a3 bc 89 bc f2 3b 42 31 b5 3b
       -0.027790265 -0.019934438 0.007407729 0.0055295536
0003f0 20 77 af 3c 88 a5 8d 3c 39 99 dc 3c 98 45 f6 3c
       0.021419108 0.017290846 0.026928531 0.030062482

trans_feat.bias f4 [32]
000000 58 28 a2 3c 21 9b c5 bc 1e 57 a7 bc 3e a1 91 3c
       0.019794628 -0.024121823 -0.020427283 0.017777082
000010 8c d8 c3 bc 8f 0d 51 bc d2 d3 4d 3c 28 19 8b bc
       -0.023906969 -0.01275958 0.012562709 -0.016979769
000020 6c 02 aa 3c b7 07 31 3c 14 20 c2 3c d0 e4 c0 3c
       0.020753108 0.010805062 0.023696937 0.023546606
000030 9a c5 c3 bc 5c ff b0 bc d2 b0 8e bc b0 98 82 3c
       -0.023897935 -0.02160614 -0.017418299 0.015941948
000040 d4 7c 80 3c 36 67 b6 3c 48 bc 82 bc 8f d9 6c bc
       0.015684523 0.022266012 -0.01595892 -0.014456167
000050 62 50 8e bc 9a fc 22 3c 2a 77 85 3c 9e 57 c4 3c
       -0.017372314 0.00994792 0.016292173 0.02396756
000060 92 60 54 3c 90 e4 56 3c 3a 84 ad bc 11 a3 b4 bc
       0.012962477 0.013116017 -0.021181215 -0.022050412
000070 83 8f 21 3c a9 11 c4 bc 58 a4 36 bc 20 1e 33 3c
       0.009860876 -0.023934202 -0.011147581 0.010932475

pred_trans.weight f4 [7, 1433]
000000 08 27 71 3d d4 de e6 be fa 10 b8 3e f9 23 44 be
       0.058875114 -0.4509188 0.35950452 -0.19154347
000010 9a b8 0a be fa 75 b3 bc cc 55 00 3f fd 41 19 be
       -0.13546982 -0.021906842 0.50130916 -0.14966579
000020 92 e8 d4 bd 84 2c 15 bc 00 a4 b8 39 fa b6 8e bd
       -0.10395922 -0.009104852 0.00035217404 -0.06968494
000030 42 59 9b 3e 5b 6e 27 be 5b 5e 12 3d cb 77 e8 3d
       0.30341536 -0.16350691 0.035734516 0.11350974
000040 b0 91 fd bd a0 56 a1 3d d2 43 9a bd 5b d6 ae bf
       -0.12381303 0.078778505 -0.07532467 -1.3659166
000050 66 65 94 3c 66 56 df 3d fe 7f eb bb b8 af b8 be
       0.018114757 0.10905151 -0.0071868887 -0.36071563
000060 7a ed c0 bd f4 c5 23 3f f4 a3 2c 3e 6f 58 5c be
       -0.09420295 0.6397393 0.16859418 -0.2151811
000070 79 d5 5b be 12 18 47 3c 28 b4 2e 3c 87 7a 90 bc
       -0.21468152 0.012151735 0.01066307 -0.01763655
000080 bd 0d 6a bd fa f0 8b 3d d4 f4 14 3c ea 79 03 be
       -0.057142008 0.06833072 0.009091575 -0.12839475
000090 f5 62 41 be c9 2d 82 3c 1a 52 30 bf 71 a7 aa be
       -0.18885405 0.015890973 -0.6887528 -0.33330873
0000a0 46 36 21 be a0 b8 ef 3d c6 97 a5 bd af df 1e 3c
       -0.1574336 0.11705136 -0.08085589 0.009696885
0000b0 68 9e 16 be c9 40 cf be ae 8d b3 bd e1 35 a1 3e
       -0.14708865 -0.40479115 -0.08767258 0.3148642
0000c0 b6 8c cc be 28 e6 4b 3e 56 23 75 bd ee 47 4a bd
       -0.39951104 0.19912016 -0.059848152 -0.049385004
0000d0 fc df 07 3f 40 3b 6f 3a fe e4 c9 be d0 51 53 bd
       0.5307615 0.00091259554 -0.3943252 -0.051591694
0000e0 f0 4e 2a 3f 7b d6 96 bc 2c 60 a0 be 3d 27 bd be
       0.665267 -0.01841282 -0.31323373 -0.36944
0000f0 0a 26 c3 bc c1 f3 94 be 72 ad 99 3e e7 4a 77 bd
       -0.02382185 -0.2909222 0.3001514 -0.060374167
000100 d6 ca f1 3e 08 c3 90 3e 68 9b d9 bd 9a 3f 8c bd
       0.47225064 0.28273797 -0.106253445 -0.068480685
000110 4f 87 82 3d cb 53 46 3d 2b ca 95 3d 3b fa 8d 3d
       0.06373464 0.048419755 0.07313951 0.06932493
000120 a8 5f cd bc a0 7a c3 3a b0 2d 68 be 78 19 8b 3c
       -0.025070027 0.0014913864 -0.22673678 0.016979918
000130 76 e9 86 3c 8b 1c aa be 60 70 91 be 97 c6 ca 3b
       0.016468745 -0.33224902 -0.28406048 0.0061882245
000140 02 7a 0a 3d e2 cc 1b bf 38 80 6b bd ed f3 02 be
       0.033807762 -0.608595 -0.057495326 -0.12788363
000150 5f 82 b2 3d 99 8f db bc 7f 7b d8 be 3a 57 40 3e
       0.087162726 -0.026801871 -0.4228172 0.18783274
000160 60 e8 93 bd 17 2f 89 3e 76 8b 9b 3d fe 06 72 be
       -0.072220564 0.2679374 0.075949594 -0.2363548
000170 59 93 2f be 36 12 15 bc 06 c6 12 bd 2c 51 ff 3c
       -0.17146052 -0.00909858 -0.03583338 0.031166635
000180 71 f8 ad bd f0 36 1d be a0 8f 09 3f e5 3a 48 be
       -0.08494652 -0.15352988 0.5373478 -0.19553716
000190 f4 87 70 bd f1 90 e2 3c 37 1f 44 bd da 1a 3d be
       -0.058723405 0.027657004 -0.04788133 -0.18467274
0001a0 1f 22 75 be 14 98 78 bd de 07 2f be 04 f0 d2 bd
       -0.23938797 -0.060691908 -0.17092845 -0.102996856
0001b0 1d 87 c4 be 22 0a d4 bd 9a ab 0a 3e 51 1a ef bd
       -0.38384333 -0.10353495 0.13542023 -0.11674941
0001c0 23 7a f7 3d cc 68 8b bb a4 c3 2e bd ac b4 fa 3b
       0.120838426 -0.004254436 -0.042667046 0.0076509323
0001d0 b7 d4 89 be f2 0f aa 3c a4 02 0c bf c0 aa 51 b9
       -0.269201 0.020759556 -0.5469153 -0.00019995403
0001e0 30 07 51 bb 21 b3 72 3e 9a b1 fd 3e d6 c6 2f 3c
       -0.0031895153 0.23701145 0.49549562 0.0107285585
0001f0 28 df 0c be f2 35 51 bd cd 15 c3 3d 4c 4c 5a 3d
       -0.13757002 -0.051076837 0.095256425 0.05329542
000200 7e ba 4d bf e4 a9 83 3d 3b 36 16 bd 4d 72 35 3e
       -0.8036269 0.064288884 -0.036672812 0.17719384
000210 d1 e7 80 3f 85 1b e3 3d 75 24 7f be 1b d7 79 be
       1.0070745 0.11089233 -0.24916251 -0.24398462
000220 49 2c 88 3e 30 d4 46 bb a0 d7 83 bc 1c 1c c1 3c
       0.26596287 -0.0030338876 -0.016094029 0.023572974
000230 f3 8c d1 be 43 fc f6 bd b2 43 de bd 5f 0c 6d 3d
       -0.40927848 -0.12059834 -0.108527556 0.057873126
000240 74 77 ca 3c 8e 53 8c bc e1 a7 0e 3f 7a 84 c8 3d
       0.024715163 -0.017129686 0.5572491 0.09790893
000250 0b c1 12 bd 9e 81 b6 be 24 45 43 bd e0 fe 67 3e
       -0.03582863 -0.35645765 -0.04767336 0.22655821
000260 9e 49 4d bc 74 33 50 be c3 8f a4 be 5f f2 3f 3d
       -0.012529759 -0.20332128 -0.3214093 0.046862002
000270 94 c4 3b bd e3 6f 99 be 63 3a 6f bd 1f de 21 bd
       -0.04584177 -0.29968175 -0.05840529 -0.03951847
000280 9a 62 7c be 20 c1 aa 3d 3c 9a 4e be fd 6c 83 bd
       -0.24646989 0.08337617 -0.20176023 -0.06417272
000290 35 f8 b6 3c 64 6c bf 3d f8 e5 dd 3d f8 c3 16 bd
       0.022335151 0.09346846 0.10834879 -0.036807984
0002a0 d5 9e 19 bf f0 53 a0 3d 48 de 57 bd 52 3a 39 3e
       -0.60007983 0.0782851 -0.05270222 0.18088654
0002b0 2b 60 b8 be d8 06 fd be 71 7f 83 3c 17 b2 97 bd
       -0.3601087 -0.49419284 0.01605198 -0.07407015
0002c0 e7 38 89 be 4b 6d 8e 3d ce ff 2e bd 0d 18 20 3f
       -0.26801226 0.0695444 -0.042724423 0.625367
0002d0 04 09 6f bd 94 aa 26 bd 68 ea bf 3b 1a f4 90 bd
       -0.058358207 -0.04069002 0.005856801 -0.07077809
0002e0 f4 f1 0d 3d 9c 9b 8a 3c e9 24 b5 3d d5 13 af be
       0.034654573 0.016919903 0.08844931 -0.34194818
0002f0 96 04 82 bd 61 55 15 bd 49 92 f2 bd 71 4d 10 be
       -0.06348531 -0.036458377 -0.11844308 -0.14092042
000300 81 be 7e be 8d 9f 81 3e 7f f4 7d be 5f f7 04 be
       -0.24877359 0.2531704 -0.24800299 -0.1298499
000310 54 35 8c be 23 2b a5 3d f0 d2 23 bd 76 9c 9a bc
       -0.27384436 0.08064868 -0.039996088 -0.018873435
000320 cf b8 8a 3c fa e7 75 bc 12 56 f4 3d 5f 8d 35 be
       0.016933827 -0.015008921 0.11930479 -0.1772971
000330 65 bd e3 bd 42 4f a2 3f f0 e7 46 bb 2a d9 c4 bd
       -0.111201085 1.2680438 -0.0030350648 -0.09611733
000340 87 91 96 be 44 28 1b 3d 6e 26 b1 3c 5b 80 b8 3e
       -0.29407904 0.037880197 0.02162477 0.36035427
000350 93 92 86 be 43 97 12 be 75 00 40 3f 5e 01 11 3e
       -0.26283702 -0.14315514 0.750007 0.14160678
000360 0c b7 5b bc e4 23 38 be 41 94 7c be 80 58 03 3e
       -0.013410341 -0.17982441 -0.2466593 0.12826729
000370 34 f4 0b 3d 90 37 84 bd 22 f7 e6 3e 40 6e 50 39
       0.034168437 -0.0645591 0.45110422 0.00019877497
000380 b8 c8 3b bd 34 f3 23 3d ea 40 11 bd 09 2d 5c 3c
       -0.045845717 0.04002686 -0.035462297 0.013438472
000390 ae 83 53 3f d0 26 e9 bc 05 d0 a3 be ed 43 c7 bd
       0.826228 -0.02846089 -0.31994644 -0.09729753
0003a0 a4 20 64 be 89 8e 80 3e 4e 94 e0 3d 89 67 9b bc
       -0.22278076 0.25108746 0.10965787 -0.018970268
0003b0 7e 9e 87 bd f9 eb 7b 3f dd 4d aa be 80 d2 4c 3d
       -0.06622027 0.9840694 -0.3326253 0.050005436
0003c0 b7 2a a5 bd ec a6 9e 3c d0 76 de bd 15 b5 16 3e
       -0.08064788 0.019366704 -0.108625054 0.14717515
0003d0 16 6c 53 bc 82 80 8f 3d 22 11 b3 3d 78 c8 ff bd
       -0.012904188 0.07006933 0.08743502 -0.12489408
0003e0 e8 6a 92 bd 2b 13 5b be 66 4e 83 3c 78 fc 8d bb
       -0.07149297 -0.21394031 0.016028594 -0.004333075
0003f0 3e bd cb 3c da 0b 1e 3d e0 30 06 bb 68 a2 0b 3e
       0.024870511 0.03858552 -0.002047591 0.13636172

pred_trans.bias f4 [7]
000000 56 b7 7f bd a4 f7 96 bd f6 01 30 3c af 78 be 3d
       -0.062430702 -0.073714525 0.010742655 0.09300362
000010 70 8e 88 3d ec 8b a6 bc ea 63 b9 bb
       0.06667793 -0.020330392 -0.0056576626

gcn_convs.0.path_weight_1.weight f4 [32, 32]
000000 9b 44 49 3d 4e c3 05 3d 80 6f 05 bd cc b1 1a 3b
       0.049137693 0.03265696 -0.032577038 0.002360451
000010 54 f7 a2 3d f4 3f c1 bd 5f f1 3b 3d 2f ab 8b 3c
       0.0795733 -0.09436026 0.045884486 0.0170494
000020 af ee 68 3c d9 f1 1e bd 63 06 15 be 0e 2d e8 3c
       0.014217063 -0.038804863 -0.14553218 0.028341796
000030 27 07 1a bd 48 95 98 bb 06 09 63 3d 26 88 a2 bd
       -0.037604477 -0.0046564676 0.055428527 -0.079361245
000040 6f 6b 40 bd a8 f7 88 bd 7e 45 00 3d 5b 81 9f 3d
       -0.046977457 -0.06687862 0.031316273 0.077883445
000050 62 c1 8e 3d d9 ce fb 3d d8 eb 7e bb 75 3f 32 be
       0.069704786 0.122953124 -0.0038897898 -0.1740702
000060 57 f2 46 bd ca 4a 0f 3c f0 08 5a 3d da 2e e4 bd
       -0.048570957 0.008745858 0.05323118 -0.11141749
000070 a1 08 2f 3d aa d4 05 3c ce 81 83 3d 86 b2 b5 bd
       0.04273284 0.008168379 0.06421243 -0.08871941
000080 97 51 ac 3d 6b 4b a8 bc e1 ff d5 bd d4 c0 01 3e
       0.084139995 -0.020543775 -0.10449196 0.12671214
000090 65 c8 17 bc cd ba b8 3d 98 f4 96 bd 1a ff 13 3d
       -0.009264086 0.090200044 -0.07370871 0.036131956
0000a0 5d 93 a2 3c b4 ef ca 3d 31 cb 56 bc 72 b8 6b 3c
       0.019845659 0.09909001 -0.013109968 0.014387237
0000b0 f0 8f 84 bd 7f c0 a1 3d d5 00 cf bd 38 54 1a 3d
       -0.064727664 0.07898044 -0.101075806 0.037677974
0000c0 d7 9a 38 3d 68 9a cb bd 6d 8f 3d 3c 26 3e a9 bd
       0.04506954 -0.0994156 0.01156984 -0.08263807
0000d0 db 19 c3 3d e1 b8 42 bc 04 51 f1 3d 1c f8 0e bd
       0.09526416 -0.011884899 0.11783031 -0.034904584
0000e0 32 81 60 3d 85 d4 9b bd 63 a0 7c ba 4f 58 53 bc
       0.05481071 -0.07608894 -0.00096369366 -0.012899472
0000f0 93 ab 5c bd 81 87 84 3d 10 28 50 bd 8c fb a9 bc
       -0.053874563 0.06471158 -0.050819457 -0.02074983
000100 84 3d 3c bd b3 68 63 3c a4 a1 7c 3d 89 7c 6e bc
       -0.045957103 0.013879943 0.06167759 -0.014556059
000110 a6 2d 7a 3d 31 9e 4f 3d b2 d3 50 bd e9 08 1f bd
       0.06107869 0.050687972 -0.05098314 -0.038826857
000120 db e3 b5 bd f6 5d 86 bd a9 65 c0 bc 9e ef 79 bd
       -0.088813506 -0.065608904 -0.023485975 -0.061019532
000130 26 8a d5 3c db 60 a5 3d 00 f1 10 3c 0a aa f4 3c
       0.02606685 0.08075114 0.008846521 0.029866237
000140 b6 5a 69 3d ee a7 9a bd de 64 9b bd fa 0e 3a 3d
       0.056971274 -0.07551561 -0.07587598 0.04542444
000150 ae ae a7 3c 13 6a ed 3c e2 cf 3e 3d a0 45 47 3d
       0.020469036 0.028981244 0.04658497 0.048650384
000160 d3 33 90 3d 5c e8 04 bd 57 aa a3 3d e3 e0 14 bc
       0.07041135 -0.032448158 0.07991474 -0.00908682
000170 7d d1 a8 3b 1a ba c7 3d 6e e8 23 bd eb 04 19 bd
       0.005151926 0.09752293 -0.040016584 -0.037358206
000180 aa eb 90 3d f0 ba 48 3d 0a 85 35 bd 3c d6 9d 3d
       0.07076199 0.049006402 -0.04431633 0.077068776
000190 ff 8e 78 bd ef 91 cd 3d d8 57 7f 3d aa 28 d2 3b
       -0.060683247 0.100376 0.062339634 0.006413539
0001a0 62 03 14 3b 1f a6 05 3a cb 81 7f 3c b3 60 8e bd
       0.0022585024 0.00050983013 0.01559491 -0.06952038
0001b0 ee 37 dd bb bf 14 84 3c df 24 d6 3a 32 9e fc 3c
       -0.006751052 0.016123174 0.0016337893 0.030837152
0001c0 89 49 95 3c 48 02 b8 bd 34 89 53 3d 0f fe 37 3d
       0.01822354 -0.0898481 0.05164452 0.044920024
0001d0 b1 c0 59 bc 0d 36 ba 3c 18 5d cf 3c 89 c4 8e bc
       -0.01329057 0.022730852 0.025312945 -0.0174277
0001e0 ef ea 83 3d b5 b6 11 bd 97 0d ff bc 76 b1 12 3d
       0.064412944 -0.035574634 -0.03113441 0.03581377
0001f0 1e 43 6f 3d 52 f1 c3 bd 96 cf 96 bc 8c 5b ca bc
       0.058413617 -0.095675126 -0.018409532 -0.024701856
000200 1d a1 4a 3b cb 28 22 bd aa 9c 5a 3d 1b af 2d 3d
       0.0030918785 -0.039589684 0.053372063 0.04240332
000210 b5 55 9f 3c af 19 56 3c 70 9c 94 bd d6 6c a9 bd
       0.019450048 0.013067647 -0.072564006 -0.08272712
000220 21 4b b7 bc 0c 1e 34 bd b9 68 e4 bd c9 38 7f bd
       -0.022374691 -0.043973967 -0.11152787 -0.062310014
000230 ed 9b 65 bb b4 1a 12 bb db 01 8c bd f6 22 23 bd
       -0.0035035566 -0.0022293748 -0.068362914 -0.039828263
000240 a4 f8 57 bd 70 7f 97 bd d3 56 a7 3d 0b e8 98 3c
       -0.052727357 -0.07397354 0.08170857 0.018665334
000250 1e 78 b9 3c d5 0c 8d bd 98 4a ec bd a7 0a 8e 3d
       0.022640284 -0.06887213 -0.11537665 0.069356255
000260 57 49 7a 3d 20 d5 7a 3d 14 d2 b4 3d c1 0f a2 3d
       0.0611051 0.061238408 0.08829132 0.07913161
000270 d4 09 5f bd 54 ed 2e bc 4e 95 9b 3d cc 22 b0 bc
       -0.054452732 -0.010676701 0.07596837 -0.021500967
000280 f2 78 29 bc cc 3b c6 bd 57 31 62 3d 9c 31 85 bc
       -0.010343777 -0.09679374 0.055222835 -0.016259007
000290 3f e5 94 3c b4 f7 b8 3d cf fb 9e bd d9 ff d3 3c
       0.01817572 0.090316206 -0.077628724 0.025878834
0002a0 bb 89 34 bd da c7 a1 bc 32 eb e8 3d f3 b7 3d 3d
       -0.044076663 -0.019748617 0.11372985 0.046318006
0002b0 4f 78 72 3d 7d 01 5c bd 26 d3 00 bc a0 56 5e bd
       0.059196766 -0.053712357 -0.007862842 -0.05428183
0002c0 7a 13 38 3d 83 86 cd 3c 92 eb 6f bd 13 36 71 bd
       0.04494045 0.025088554 -0.058574267 -0.05888946
0002d0 e8 df d6 bd 8d c4 77 3d f8 81 08 3d c3 3a 64 3d
       -0.104919255 0.06049018 0.033327073 0.055720102
0002e0 0b ff dc bc 17 a0 b9 3c ef 19 10 bd ec 6d 9f bb
       -0.026977083 0.022659345 -0.035180982 -0.0048653986
0002f0 db 3b f9 bc f3 d3 86 bd 97 04 da 3c 74 69 06 3c
       -0.03042405 -0.06583395 0.026613517 0.008203853
000300 eb 8e fe 3b 8a dd 9c bd 31 30 80 3d e6 ad 4e 3d
       0.007768502 -0.07659443 0.06259192 0.05045881
000310 9f 02 93 bd ed fe 77 bc c3 b3 66 bd 44 bd a8 bd
       -0.07178234 -0.015136463 -0.056323778 -0.082392246
000320 dc 66 8a bd 2a fa b5 bd 67 f1 90 bd 64 84 c8 ba
       -0.067579 -0.08885606 -0.07077294 -0.0015298245
000330 a7 a7 b0 3d 3f c0 9e bb ce 74 c1 bc 2e 95 94 3d
       0.08625727 -0.004844695 -0.023615267 0.07255016
000340 65 1c 0f 3e d4 89 54 bd b7 2f a0 bd ad 31 21 3d
       0.13975675 -0.051889256 -0.07821601 0.039354015
000350 05 4f 9a 3d 37 c9 19 3d 4d 75 14 bd 03 b9 e0 bb
       0.07534603 0.03754541 -0.03624468 -0.0068579926
000360 0a 4b 14 b9 95 b3 a5 bd 44 83 eb ba 89 e0 66 3d
       -0.00014142334 -0.08090893 -0.0017968197 0.056366477
000370 e5 c4 82 3d 5f 14 57 bd 40 43 d7 bd 9d b3 8a bc
       0.06385211 -0.05250966 -0.10510874 -0.01693135
000380 aa 7e 56 bc 56 3d cc ba 32 05 23 3d 02 31 f2 bd
       -0.0130917225 -0.0015582244 0.039799877 -0.11825754
000390 9e 8b b1 bd 5a 40 ec bd e9 fb ae 3d 65 4e 39 3d
       -0.08669208 -0.115357116 0.08544142 0.04524078
0003a0 e1 b3 86 bd c2 c1 1c 3d 9e 8e 6b bd 3e f4 c3 3d
       -0.06577278 0.03827072 -0.057509057 0.0956807
0003b0 6f ee 78 3a 79 b4 58 bd 23 d9 04 bd 36 ad 20 3e
       0.00094959786 -0.052906487 -0.03243364 0.15691075
0003c0 3e af be bd 1d 2f 98 bc bb f3 3f 3c e3 2b 2c 3c
       -0.093107685 -0.018577153 0.011715825 0.01050851
0003d0 df 3a cd 3c 8a 2d 1d 3d 11 81 8e bd 07 8b 02 be
       0.025052486 0.038373508 -0.06958211 -0.12748347
0003e0 27 46 06 be d9 d0 2d bd 4a a2 6f 3c 7d a3 b9 bd
       -0.13112698 -0.0424355 0.014626095 -0.09064386
0003f0 8d d5 c1 bc 04 5b c3 bd 11 93 48 bd 52 2d ae 3c
       -0.0236614 -0.09538844 -0.04896838 0.021261845

gcn_convs.0.path_weight_1.bias f4 [32]
000000 ce be 0e be 0b 4e 9f be 6d 11 72 3e 22 b9 8b bd
       -0.13939974 -0.3111423 0.2363946 -0.06822421
000010 28 7f 0e be 09 9c 51 3f ec e5 9e be 7c 57 0f bf
       -0.13915694 0.81878716 -0.3103479 -0.55992866
000020 bd 5d 1d 3e 23 54 82 3f ca c1 08 be 3d fc bc be
       0.1536779 1.0181926 -0.13355175 -0.36911193
000030 48 d2 60 bf f9 8a b7 be 49 df 8a 3e 71 dd 42 3d
       -0.87820864 -0.35848215 0.27123478 0.047574464
000040 18 48 54 be b9 37 6f bd b2 15 27 bf d4 56 c4 be
       -0.20730627 -0.05840275 -0.6526748 -0.38347495
000050 22 0a a2 3e 8e 7e 11 bd 33 d2 73 3f 81 cc ab 3f
       0.31648356 -0.035521083 0.95242614 1.3421785
000060 a2 e6 4d 3f e4 8d 89 3f 72 58 02 3f 95 07 a8 3d
       0.8043004 1.0746427 0.50916207 0.08204571
000070 d3 e2 00 3c e9 2e 22 3f 65 51 60 bf 4d e6 2b bf
       0.007866579 0.6335283 -0.876242 -0.67148286

gcn_convs.0.path_weight_2.weight f4 [32, 32]
000000 1b 6a 52 bc 02 55 82 bc 98 27 13 bb 28 50 7c bc
       -0.01284268 -0.015909676 -0.002245402 -0.01539997
000010 d9 67 f3 bb 62 87 86 bc 95 e4 c4 bc 9e fa 9b 3c
       -0.007428151 -0.016421977 -0.024034778 0.019040402
000020 b9 5f 78 bc 8d 11 7a 3c eb 94 7c 3c 4a 7c 7a 3c
       -0.015159541 0.0152629735 0.015416364 0.015288422
000030 69 8c 5b bc 06 ba 6d bc ba dc bf 3a 01 fd a9 3c
       -0.013400176 -0.0145096835 0.0014637925 0.020750524
000040 a1 16 6f bc d6 5d 8f bc 6e 5a 81 3c 92 81 94 bc
       -0.0145927975 -0.0175008 0.01579019 -0.01812819
000050 a4 80 86 bc fb 50 da 3b 34 f1 11 3c d0 63 4f bc
       -0.016418763 0.0066624857 0.008907605 -0.0126580745
000060 ac e5 85 bc 8e 7c 91 bc 0b 22 b7 3c 1d 06 5a 3c
       -0.016344868 -0.017759588 0.0223551 0.013307122
000070 96 d9 96 3b 1c 14 5c bc 6b da 52 bc f0 fe 6b bc
       0.004603575 -0.013432529 -0.012869458 -0.014404044
000080 d1 2f 77 3c fa 2c 21 bc 89 07 59 bc 28 d2 b1 bc
       0.015087084 -0.009837383 -0.013246425 -0.021706656
000090 15 49 53 3c 9e 0a 80 bc a4 d6 98 3c 49 d2 79 bc
       0.012895842 -0.015630063 0.018657036 -0.01524789
0000a0 ae af 69 3c 4c b3 bd 3c 6f d2 96 3c 51 64 d8 bb
       0.014263077 0.023156784 0.01841089 -0.0066037555
0000b0 9f e8 8e bc e6 8e 7d bc 21 21 1d bc 00 88 1a bb
       -0.017444907 -0.015475964 -0.009590418 -0.0023579597
0000c0 02 af 98 bc 30 c3 98 3c a6 12 00 3b 81 d0 7a bc
       -0.018638138 0.01864776 0.0019542365 -0.0153085
0000d0 74 d0 3b 3c 2b 97 7b bc 5d 8a 35 bc fd 5d 57 3c
       0.011463273 -0.0153558655 -0.011080352 0.013144967
0000e0 1b 04 7c 3c 98 9f 77 bc ce 5d b6 bc 17 64 c3 bc
       0.015381838 -0.015113734 -0.022261526 -0.023851437
0000f0 3b 41 11 bc c4 fe 7a 3c 54 05 92 3c c6 e4 4c 3c
       -0.00886565 0.01531953 0.017824806 0.012505716
000100 d4 62 0c bc 38 96 53 bc 66 0f 87 bc 36 98 8f 3c
       -0.008568484 -0.012914233 -0.016486835 0.017528635
000110 37 d0 02 bb 6f 9a 9c bc b1 9a 33 3c 9b e8 31 3a
       -0.0019960531 -0.019116608 0.010962174 0.0006786675
000120 d8 ac 0a bc b8 c8 ae bc 01 a6 bb bc 25 ef 5e 3c
       -0.008464061 -0.021335945 -0.022906305 0.013606821
000130 14 bd 54 3c 8b 1c 4c bc a9 cd ba bb 49 95 7c bc
       0.012984533 -0.012457977 -0.005700786 -0.015416452
000140 ef 67 6e 3c e7 0b 85 bc ff 58 06 3c 19 48 8f 3c
       0.014551147 -0.016241027 0.008199929 0.017490434
000150 87 86 7a bc fa f9 88 bc 97 43 49 bc 81 49 64 bc
       -0.015290863 -0.01672076 -0.012284181 -0.01393354
000160 a0 e8 87 bc 34 e1 37 3b 75 33 16 bc 05 d2 4c bc
       -0.016590416 0.0028057816 -0.009167542 -0.012501244
000170 6f d1 55 bc a9 bc 84 3c 06 ff 70 3c bd f0 42 3c
       -0.013050421 0.016203241 0.01470924 0.011898217
000180 49 be 2f 3c a5 a6 5f bb 95 63 68 3c 9a d9 c4 bc
       0.01072652 -0.0034126427 0.014183898 -0.024029542
000190 8b 96 95 bc 97 b5 10 3c e1 66 ad 3b 22 60 7b bc
       -0.018260261 0.008832357 0.005291805 -0.015342744
0001a0 d1 25 c4 bc 18 3c 9c 3c 73 8e 96 3c c4 62 61 3b
       -0.023943814 0.019071624 0.018378472 0.0034391144
0001b0 42 c3 bd 3c b0 bc 5f 3c c1 7f 41 3c 5e ae 98 3c
       0.023164395 0.013655826 0.011810244 0.018637832
0001c0 4d 13 84 bc 2b 37 3c bc f4 ab 7e 3b ea d0 80 3c
       -0.016122485 -0.011487762 0.0038859816 0.015724618
0001d0 92 f4 25 3c e5 f6 84 3c 19 67 57 bc ee ac 2b 3b
       0.010129111 0.01623101 -0.013147139 0.0026195603
0001e0 62 19 29 3b 2b d3 6c bc ba ec c1 bc 16 be 76 bc
       0.0025802483 -0.014454643 -0.02367245 -0.015059968
0001f0 b8 28 9b bc 9b d0 79 3c 00 a4 9c 3c c0 68 44 3c
       -0.018940315 0.015247489 0.01912117 0.011987865
000200 fb 26 4b bb 54 dc 35 3b 5c 9c e2 bb d7 14 94 3b
       -0.0030998576 0.0027749734 -0.006915612 0.004519086
000210 0a 30 0d 3a 4a 25 78 bc a9 99 0d bc 31 78 32 bc
       0.00053858815 -0.015145609 -0.0086425925 -0.010892914
000220 05 d9 e4 ba f9 97 3f bc 51 f1 69 3c e5 bb 7b 3c
       -0.0017459696 -0.011693948 0.014278726 0.015364622
000230 d5 c8 77 bc ff 98 55 bc 13 bd 0c bc 14 d4 7d 3c
       -0.015123566 -0.013036965 -0.008590001 0.015492458
000240 04 af 88 3c 77 f5 a9 bc 40 d7 1c bc 39 6f 24 bc
       0.016685016 -0.02074693 -0.009572804 -0.010036283
000250 b8 f8 79 bc 37 40 94 bc 0c 05 d1 bb dd 94 43 3c
       -0.015257053 -0.018097026 -0.0063787755 0.011937347
000260 77 d9 7f 3c 24 a7 f3 bb f6 77 9a bb 90 df 00 3c
       0.0156158125 -0.007435696 -0.0047140075 0.007865801
000270 3d 3f a4 bc d8 9c 10 bc 10 67 85 3c 80 cd c4 3c
       -0.020049686 -0.008826457 0.016284496 0.024023771
000280 1b 4c 78 bc 65 aa 47 bc a7 c2 8e b9 3b 83 81 3c
       -0.015154864 -0.012186621 -0.00027229378 0.015809646
000290 1e 58 7c bc a0 8a 7a 3c 92 93 49 bc 4c e3 37 3c
       -0.015401868 0.01529184 -0.01230325 0.011223625
0002a0 b0 43 87 3b 8e 14 c7 bb 4a aa 80 3c dc 06 b1 3c
       0.004127942 -0.0060754484 0.0157062 0.021609716
0002b0 ca e0 e8 3b 5f 19 fb b9 bb 93 9c bc f4 ad 45 3c
       0.007106875 -0.00047893354 -0.019113412 0.012065399
0002c0 c0 6a 94 3c e6 13 98 3c 69 6a 83 3c 20 ed 12 bc
       0.018117309 0.018564176 0.016041951 -0.008967668
0002d0 d5 25 7c bc a2 c0 1f 3c b5 a7 c1 bb 9b 69 7b 3c
       -0.015389879 0.009750517 -0.005909885 0.0153450025
0002e0 e8 ec ce bb 46 57 aa bb 19 84 99 bb d4 53 3b 3b
       -0.0063148625 -0.005198392 -0.0046849367 0.00285839
0002f0 9f b4 9b 3c 2d ff 96 3c 97 95 79 3c 70 9d 12 bc
       0.019007025 0.018432224 0.015233419 -0.008948669
000300 ea 5e 84 bc 46 69 15 3c 31 70 7b 3c 6a 6a c0 3c
       -0.01615854 0.009119337 0.015346573 0.023488242
000310 2c 76 01 bc fb 3f 55 bb d2 45 78 bc d4 de 89 bc
       -0.0079017095 -0.0032539356 -0.015153365 -0.016829886
000320 bf 40 26 3c 42 8e 85 3c b1 ba 64 bc 8e 0a 77 bc
       0.010147273 0.016303185 -0.013960526 -0.0150782
000330 8b 81 97 bc f6 27 27 3c 18 22 7a bc 4e 1d 80 3c
       -0.018494388 0.0102023985 -0.015266918 0.015638974
000340 83 91 7c bc d3 c0 19 3c 60 cc 6d 3c 6c b2 9a bc
       -0.015415552 0.009384352 0.014514059 -0.018883906
000350 f0 02 92 bb 0b cf 3d 3c 80 06 91 3b 1a aa 48 3c
       -0.0044559166 0.011585007 0.0044258237 0.012247587
000360 82 96 a1 bc 75 a1 88 bc 81 dd 95 bc f5 dc 5d bb
       -0.019725088 -0.016678551 -0.018294098 -0.0033853624
000370 e7 f4 77 3c 24 d3 6f 3a c2 38 55 3c 67 bd 51 3c
       0.015134073 0.0009148589 0.01301402 0.012801505
000380 bb de 78 bc 38 55 77 bc 9c e6 22 3c 03 4d 9a 3c
       -0.015189822 -0.015096001 0.009942677 0.01883555
000390 55 35 2e 3c 48 50 4c 3c 04 5d 03 bb 71 ff 9a 3c
       0.010632833 0.012470312 -0.0020044455 0.018920632
0003a0 41 29 41 3c 3c d6 af bc 20 bd 01 3c 2a c4 72 3c
       0.011789621 -0.02146446 0.007918626 0.014817277
0003b0 ed e4 70 bc 89 9b 05 bc 4a 0a 88 3c 84 43 86 bc
       -0.014703018 -0.008154758 0.016606469 -0.016389616
0003c0 a6 67 5e 3c 13 00 74 bc ba 49 71 3c 08 02 a8 3c
       0.013574516 -0.014892596 0.01472705 0.020508781
0003d0 71 4e 2f bc 9a 19 77 bc 82 fc ba bc 8e 20 5d bc
       -0.010699854 -0.0150817875 -0.022825483 -0.013496531
0003e0 84 60 4d 3c 08 0d 4e 3c d5 0e 6b bc 5b 77 9c 3c
       0.012535218 0.012576349 -0.014346798 0.019099882
0003f0 56 d7 d7 ba a6 18 79 bc 6c 8f 77 3c 1d fb 86 bc
       -0.0016467373 -0.015203631 0.015109878 -0.016477162

gcn_convs.0.path_weight_2.bias f4 [32]
000000 f1 98 42 be 27 a9 1a bf 68 c3 44 3e 64 ac 49 bf
       -0.19003655 -0.60414356 0.19215167 -0.7877867
000010 4e e6 c2 bd d4 21 5c 3f d6 f9 34 be fc 09 0e bf
       -0.095165834 0.8598912 -0.1767343 -0.55483985
000020 b3 37 77 be c8 d9 77 3e bf be 95 3c f5 7e 15 bf
       -0.24142341 0.2420417 0.018279431 -0.58396846
000030 eb 34 85 bf 1e cb d7 3d 1f a0 e0 3e d5 5e 71 3f
       -1.0406774 0.105367884 0.43872163 0.9428533
000040 44 33 e0 3e 82 a0 90 3d fd 43 47 3e 17 a1 2d bd
       0.43789113 0.070618644 0.19459529 -0.042389955
000050 97 28 c4 3d ae 61 0d 3e 36 30 41 be 64 3a ae 3f
       0.095780544 0.13806793 -0.18866047 1.361157
000060 f5 5b b8 3d 9b 20 8f bc 8e cf de bc e6 01 48 3e
       0.090019144 -0.017471602 -0.02719858 0.19531974
000070 f1 5d 9a 3d 0f b8 81 3f 12 66 6e bf 39 bc 11 bf
       0.07537449 1.0134295 -0.93124497 -0.5692783

gcn_convs.1.path_weight_1.weight f4 [32, 32]
000000 89 ef 02 bd 9e 34 38 3d ba 03 ae 3b 0a 90 58 3d
       -0.03196672 0.044972055 0.005310503 0.05287174
000010 ee 5d a3 bc 42 cc 25 bc 83 b1 c7 3b 7c 0d f9 ba
       -0.01994225 -0.0101195 0.006094159 -0.0019001211
000020 97 0f 13 3c 7e 13 de bc 84 97 3f 3d ed e4 a6 3c
       0.008975885 -0.027108904 0.046775356 0.020372832
000030 ec c2 fc bb fb 5b 13 3d 30 3d 19 bd e1 c2 8a bc
       -0.007713666 0.03597639 -0.03741187 -0.016938629
000040 87 3c c1 3c a0 03 cb 3b ac a9 08 bd b2 ef 3d 3c
       0.023588432 0.0061955005 -0.033364937 0.011592792
000050 73 9c a9 bc 7a 05 f0 3c 90 14 95 bc 70 d6 d7 bc
       -0.020704484 0.029299486 -0.018198282 -0.026347369
000060 0c 99 68 bc e5 7e b8 bc c9 c2 02 3d ce 11 40 3d
       -0.0141966455 -0.022521446 0.031924043 0.04689198
000070 f5 6a d9 bc 4d 30 cd 3c 26 b9 5f bb 82 5b 35 bc
       -0.026540259 0.025047446 -0.0034137457 -0.01106918
000080 99 c8 bc 3c a3 8b 68 bd 9d 98 00 3c 0c 95 60 bb
       0.023044871 -0.056773793 0.007848886 -0.0034268526
000090 aa b6 a5 bc 09 50 ff 3b 50 e3 10 bc fd 57 15 3d
       -0.020228703 0.0077915234 -0.008843258 0.036460865
0000a0 52 b1 0f bd 63 0a ce b9 23 cf 25 bd 66 ee 11 ba
       -0.035081215 -0.0003929912 -0.040480744 -0.0005566835
0000b0 fd 95 91 3c 19 20 bd 3b 1c 84 f0 3c fa 75 58 3d
       0.017771715 0.0057716486 0.02935987 0.052846886
0000c0 9c ef 23 bd 86 06 55 3b 31 ee 64 bc 26 f4 13 bd
       -0.04002343 0.003250511 -0.013972805 -0.03612151
0000d0 05 f1 a6 bc 55 4b 86 3c 3b 80 27 bc 18 d6 01 3b
       -0.020378599 0.016393343 -0.010223444 0.0019811448
0000e0 45 f7 5b bd 18 f3 2a 3d 10 9f e0 bc f8 eb 06 3d
       -0.05370261 0.04173574 -0.027419597 0.03293988
0000f0 8a a5 86 3c b7 5b 92 bd 0f 91 32 3a 91 2a 48 3c
       0.016436357 -0.071463995 0.00068117765 0.01221718
000100 9a e8 1a 3a c2 45 76 bb 11 89 23 bc 49 06 bd 3c
       0.0005909294 -0.00375782 -0.00998141 0.023074286
000110 c4 35 f8 3c 3e 07 a1 bc 49 be 0a 3d e9 2f 8d 3c
       0.030299075 -0.019656774 0.033872876 0.01723476
000120 ca da b5 bb 79 80 8b 3c f5 84 0c 3b 3a e5 b2 3c
       -0.0055497633 0.017029034 0.0021441553 0.02183782
000130 d2 a1 01 bc 75 16 02 bd 90 57 0e 3d d8 21 26 bd
       -0.007912116 -0.031759698 0.034751475 -0.04055962
000140 1f 4e b3 bc 08 cf c9 bb f2 a5 ac bc 61 11 06 bd
       -0.021887837 -0.0061587133 -0.021075223 -0.032731418
000150 fd 5b a9 3c 33 ef 73 3c 12 8e d0 bc 85 af 01 bd
       0.020673746 0.0148885725 -0.02545837 -0.03166153
000160 2d 53 8d bc 6a ed ec 3c 31 cb d3 bc 3f 93 f4 3b
       -0.017251575 0.028921802 -0.025853725 0.007463842
000170 01 f6 3f 3c ac 48 a7 3c 11 84 c6 bb d6 94 d7 bb
       0.011716367 0.020420395 -0.006058224 -0.006579022
000180 47 e0 3e bc 0d 3a 17 3d bd 18 b7 bb a7 ad 4c 3c
       -0.011650152 0.036920596 -0.005587666 0.012492574
000190 69 5a af 3c 03 f9 fe bc 69 63 0c 3c 3b 66 1d bd
       0.021405416 -0.031124597 0.008568623 -0.038427573
0001a0 8d 73 e2 bc 2a 2d 5b 3b b9 42 1b 3b c7 de 12 3d
       -0.02764299 0.0033443668 0.0023690893 0.03585699
0001b0 bb 94 a6 bc f8 f5 e4 3a 32 37 de 3b b1 60 57 bd
       -0.020334592 0.0017468324 0.006781482 -0.052582446
0001c0 ca aa c3 bc 4f b6 80 bc a2 57 91 bc 81 6e 3a 3c
       -0.02388515 -0.015711932 -0.017741982 0.011378885
0001d0 13 57 1e 3d ce ea c3 bc 56 da 87 bc 94 d9 5d 3d
       0.03865726 -0.023915675 -0.016583603 0.054162577
0001e0 90 b6 60 3c 38 ef b9 bc 0c 75 c6 bc f8 f1 b0 bb
       0.013715401 -0.022697076 -0.024225734 -0.0053999387
0001f0 b0 a0 4c bb 98 e2 25 bc c7 8b a8 bc 4d 64 f3 bb
       -0.0031223707 -0.010124825 -0.020574464 -0.0074277283
000200 51 fa 76 3d ad e9 13 bc 08 8d 4b bd 6d ae ec bc
       0.060297314 -0.009027881 -0.049695045 -0.028891766
000210 90 f5 12 bd 1a 6e 3f 3c a6 0b 8e 3d fc 68 c4 3c
       -0.035878718 0.011683965 0.069358155 0.023975842
000220 42 20 e9 3c 89 05 6e 3d cf dd 02 bc 6b 45 40 bd
       0.028457765 0.058110747 -0.007987454 -0.046941202
000230 eb 2b dd bd 11 37 b9 3c ca 95 ec bb 2f 90 8a 3d
       -0.10799392 0.022609266 -0.0072200047 0.06765782
000240 a9 4e 74 bd c8 d4 14 bc 60 62 64 bc 65 80 e1 bd
       -0.05964533 -0.009083934 -0.01393947 -0.110108174
000250 23 cd 4c 3c 44 47 d7 bc 77 b3 33 bd 4d d3 bf bd
       0.01250008 -0.0262791 -0.043872323 -0.09366474
000260 a5 7e de bd 52 c3 8b 3c cc a1 7d bd 96 34 03 bc
       -0.10863999 0.01706091 -0.06192188 -0.008008143
000270 92 1d 39 bd 3d ac da bd 69 c0 c0 bd ce 7e 5a 3d
       -0.045194216 -0.10677383 -0.09411699 0.053343587
000280 3d 67 89 3b 7d 44 96 bb 36 19 9a bb 77 bd 30 bc
       0.004193215 -0.004585801 -0.0047027124 -0.010787359
000290 26 e6 1c 3c 1e b2 46 bd 2e 6d 14 3d f8 27 e5 bc
       0.009576356 -0.04850971 0.036236934 -0.02797316
0002a0 61 17 81 bc 3a 04 d3 3c f3 e6 cf 3b bd fc 25 3d
       -0.015758218 0.025758851 0.00634467 0.040524233
0002b0 fb 72 fd bc 12 13 3b bd 7a 33 5d 3d 8e 2c 7d bd
       -0.030938616 -0.045672484 0.05400417 -0.06181007
0002c0 f1 42 ba bc b3 02 53 bc b3 1b 93 3c a9 c2 27 bd
       -0.022736998 -0.0128790615 0.017957544 -0.040957127
0002d0 42 1a e3 3c 01 f7 04 3d da fe c7 bc 77 e4 12 bc
       0.027722482 0.032462124 -0.024413515 -0.008965603
0002e0 a2 cd 38 bd ec 9e a1 3c 12 d0 4e bd 3e 25 0a bc
       -0.04511798 0.0197291 -0.0504914 -0.008431731
0002f0 48 05 43 3b f4 46 3a 3d 38 e3 e3 3c f5 d5 78 bd
       0.0029757787 0.045477822 0.027818307 -0.06075092
000300 96 e4 05 3d 5e 13 2b bc e9 56 82 3b 29 b1 bf 3c
       0.0326887 -0.010441629 0.0039776457 0.023399906
000310 20 93 8c bc 18 5c 2c bc a6 97 12 3b 89 8d 98 bb
       -0.017159998 -0.010520004 0.0022368222 -0.004655544
000320 18 d9 d0 bb 3c 84 b8 bb f2 56 ee 3c 3b 54 ec bc
       -0.006373536 -0.005630998 0.029094193 -0.028848758
000330 a6 20 6e bd d5 ba 2e 3d fe bf 2d 3b df 11 0b bd
       -0.058136605 0.042658646 0.0026512141 -0.03395259
000340 8d 62 49 bd a0 a6 06 3d 07 c5 e7 bc 3b 7e 66 bc
       -0.04916625 0.03287375 -0.028292192 -0.014068182
000350 ca 81 45 3d d4 c5 36 3c 68 ee 74 3c a9 75 18 bd
       0.04821948 0.011155564 0.014949419 -0.037221584
000360 3d 3b 62 bb fc 84 73 bc 5b 74 89 3c 77 76 1b 3c
       -0.0034520172 -0.014863249 0.016779115 0.009488693
000370 84 a7 d4 3c 7d fa 2c 3d 2d bd 0c bc c7 de c9 3a
       0.025958784 0.04223107 -0.008590025 0.0015401476
000380 f5 88 8e bb 0f cb 14 3d 93 ea 62 bc 72 6c f9 bb
       -0.0043498226 0.036326464 -0.013849872 -0.0076118046
000390 df 52 3b 3d a7 83 4b 3c 05 fa dc 3b 8e 77 cf bc
       0.04573333 0.012421525 0.006743672 -0.025325563
0003a0 25 f5 15 3d c2 41 fd bb 25 e0 9c 3c 0d 6b 18 bd
       0.03661074 -0.007728786 0.01914985 -0.037211467
0003b0 ba dd 61 bc 09 ec 2a bb 7c 8d 14 bd c3 3b 0a 3c
       -0.013785774 -0.002608063 -0.036267743 0.0084371
0003c0 e2 73 f1 bc 2c d6 8e 3c ac a5 e5 bb 6e 7c 11 3c
       -0.029474203 0.01743611 -0.007008275 0.008879764
0003d0 10 7d 01 3d 79 4d 4a bc fb 21 43 3c 40 76 69 bc
       0.03161341 -0.0123475725 0.011909957 -0.014249384
0003e0 c8 23 7e 3c 0d 58 ce 3c fa ac bb 3c 5f 0b 1d bd
       0.015511461 0.02518847 0.02290963 -0.038340922
0003f0 70 7d 60 3c f4 79 20 bc d3 6f 0f bd 95 58 71 3c
       0.013701782 -0.009794701 -0.035018753 0.014730592

gcn_convs.1.path_weight_1.bias f4 [32]
000000 e4 1a 22 3d 0c 24 a9 3d 36 2e 24 3e eb 74 c3 3d
       0.039576426 0.082588285 0.16033253 0.09543785
000010 f0 12 46 be 3d 26 05 3e dc d0 81 3e ac 64 11 be
       -0.19343162 0.13002868 0.2535466 -0.1419856
000020 54 19 83 3c a7 b6 8e 3c 7a 7b 87 bd 7e 22 b1 3d
       0.016003288 0.01742108 -0.06615348 0.08649157
000030 2c b6 63 be ba 51 0d be f7 b9 5a bc f8 f0 1b be
       -0.22237462 -0.13800707 -0.013350002 -0.15228641
000040 e3 eb 05 3e e0 25 a2 bb 27 e8 5e 3e a6 3a 77 bc
       0.13078265 -0.0049483627 0.21768247 -0.0150896665
000050 0b e0 c8 bd da 0d 5a bd 23 07 d6 b9 2c fb 8a be
       -0.09808358 -0.053235866 -0.00040822578 -0.27144754
000060 75 c8 09 bd 80 f5 9f bd bc 1a ca bb 49 ff f1 3d
       -0.033638436 -0.07810497 -0.0061677378 0.1181627
000070 77 8f f0 bc 33 83 27 bc 81 e3 7c bc ce cd ca bd
       -0.029365284 -0.010224151 -0.0154351005 -0.099025354

gcn_convs.1.path_weight_2.weight f4 [32, 32]
000000 26 40 d5 bd 2d 1a 1f 3e 32 cf ca bb c2 77 4d be
       -0.10412626 0.15537329 -0.0061892504 -0.20065215
000010 4f bf ff 3d 01 ca ba bd a6 2e 82 bd 04 b9 38 3e
       0.12487661 -0.091205604 -0.06356554 0.18039328
000020 c3 7c 34 3e d6 db 54 bd 07 ed 03 be c6 4f 6e 3d
       0.17625718 -0.051967464 -0.12883388 0.058181547
000030 1f b5 96 3d 4d 78 b2 bd 7f a5 1d bd ac 56 94 bd
       0.07358765 -0.08714352 -0.038487907 -0.07243094
000040 d3 00 1f 3e ae 8e d9 bd fb fc 9a bd 37 54 db bd
       0.15527658 -0.10622917 -0.075677834 -0.10709422
000050 38 aa ae 3d 67 a6 3a 3c 87 01 3d be f5 36 35 bc
       0.085285604 0.0113922125 -0.18457614 -0.011060466
000060 2f b5 3d be f8 40 b6 3d 8a 56 0d bd b3 47 1a 3e
       -0.18526147 0.088991106 -0.03450636 0.15066414
000070 bd f8 e3 3d 2c ed 84 3d 30 a3 4d 3e 26 8b 9c 3d
       0.111314274 0.064905494 0.20081782 0.07643728
000080 c3 93 c0 3d c9 3a 4b be 50 9e 08 3d f7 b6 fa 3d
       0.09403183 -0.19846644 0.033354104 0.12241929
000090 4f cb be 3d ba 60 b5 3a 38 43 5f bd f8 f8 b4 bd
       0.09316122 0.0013838031 -0.054507464 -0.088365495
0000a0 80 fd d3 bd fe ca 70 3e 00 3d ab be 09 32 b9 3d
       -0.10351086 0.23514935 -0.33444977 0.090427466
0000b0 65 db 14 3f b5 60 09 3e de c3 ca 3d cb 91 b6 bd
       0.5814727 0.13415797 0.0990064 -0.089145266
0000c0 c3 62 a3 3b b4 03 e9 bd ac 94 87 3d eb 70 7b bd
       0.0049861385 -0.113776594 0.06620154 -0.061386984
0000d0 35 df 2e 3d aa 02 2e 3e 38 b3 78 bd d4 4b 8a bd
       0.042693336 0.16993204 -0.06071779 -0.06752744
0000e0 b7 9f 9e 3d d1 31 b2 bd 2e 87 d6 be 43 46 04 3e
       0.07745307 -0.08700908 -0.4190001 0.12917428
0000f0 93 98 26 be 9b fd 65 3d 7f 06 9d 3d d4 05 2b 3f
       -0.1626914 0.05615006 0.07667255 0.6680577
000100 6a 7d 12 3d 70 6d ee 3d e2 ed 3b 3e 70 7a 70 bd
       0.035764135 0.11641967 0.18352464 -0.058710515
000110 87 c6 cd 3e 81 7d 41 bd 6d 15 0b 3d 3d b2 f8 3c
       0.40190527 -0.04723883 0.03395598 0.030358428
000120 16 35 3a 3d f5 86 2c be 60 34 98 3c 9f 79 71 bd
       0.045460783 -0.16848357 0.018579662 -0.058953878
000130 3c 8f 90 be 37 08 34 be 50 98 d2 bd 63 35 14 be
       -0.2823428 -0.17581259 -0.102829576 -0.1447349
000140 de 52 c1 bd 1c c6 fd be 04 8c be bd 63 85 08 3e
       -0.09439634 -0.49565208 -0.093040496 0.13332133
000150 49 ed e4 bd 70 55 15 3e c6 f4 07 3e 89 70 c1 3c
       -0.11178071 0.14583373 0.13276967 0.023613231
000160 da 4a 3a be 25 59 11 3d 4b d4 00 3e 8d 8d 00 3f
       -0.18192616 0.035485405 0.12580983 0.5021599
000170 56 66 5c 3d f2 4a f2 bd 95 cb 01 3c 13 1c 87 be
       0.053808533 -0.11830701 0.007922073 -0.26388606
000180 23 56 dc 3e 05 63 9c 3e 53 29 ec 3d 76 ea 09 3f
       0.43034467 0.30544296 0.115313195 0.53873384
000190 0d d5 ff 3c 12 2d ff 3e db 86 04 3f f7 f4 cc 3b
       0.03122952 0.49839073 0.51768273 0.006254788
0001a0 fa 1d f2 bd 90 35 fe bd 8c 28 c8 3e bc 55 c5 3d
       -0.11822124 -0.1241256 0.39093435 0.09635493
0001b0 60 46 29 bf fc 36 e4 bb 54 50 f8 3e fb 5d 8f be
       -0.6612301 -0.0069645625 0.48498785 -0.2800139
0001c0 60 75 a3 3e 11 76 1f bf d8 e3 20 bf 85 e5 ac be
       0.31925488 -0.6228953 -0.6284766 -0.3376886
0001d0 07 02 21 bf bf 19 08 3f b1 be df bc c6 38 08 be
       -0.6289372 0.53164285 -0.027312608 -0.13302907
0001e0 05 91 0c 3e e9 c8 bf 3b 53 a9 04 bf e9 20 0f 3e
       0.13727196 0.005852808 -0.5182087 0.13977398
0001f0 24 10 9f 3e 20 e5 57 bb 83 cd 37 be 32 e9 49 bf
       0.31067002 -0.0032942966 -0.1794949 -0.7887145
000200 c8 f3 19 3e 2d f3 fd 3d 35 39 04 3c 9c 3d 30 bd
       0.15034401 0.12399898 0.00807028 -0.043027505
000210 ff b4 bf 3d e4 7f 8d 3e d2 0d 21 be 9f 65 81 bd
       0.09360694 0.27636635 -0.15727928 -0.06318211
000220 72 e0 77 3e 99 05 d8 bd b6 9f 88 3c 0d d2 71 3e
       0.24206713 -0.10547943 0.016677719 0.23615284
000230 0b a5 8e bc 55 d1 4b 3e 59 9d 8e be 5f d3 40 bc
       -0.017412683 0.19904073 -0.27854422 -0.011769145
000240 c2 51 a4 bd 6f 92 42 be 5e 07 75 bb be e7 55 3d
       -0.080234066 -0.19001172 -0.0037388424 0.05222296
000250 db b5 d9 3d 21 3b c6 3d 75 42 4b 3c c2 f2 ab 3e
       0.10630389 0.09679247 0.012405981 0.33583647
000260 f9 1e 99 3d 3f e5 8c bc a7 8d a3 bd 67 3a 10 bd
       0.07476611 -0.017199157 -0.079860024 -0.035211947
000270 bb 41 76 bc ea b3 5f be 74 5f 18 3e 54 92 d9 bc
       -0.01503032 -0.21845976 0.14880162 -0.026559032
000280 9a 70 a1 3b eb fc 03 bd bc 71 0e bc 48 a4 ea 3d
       0.004926753 -0.032223623 -0.008694109 0.114571154
000290 e0 b5 a2 bd d0 41 d4 bd 6c 68 0c be c1 18 cf bd
       -0.07944846 -0.10364115 -0.13711709 -0.10112143
0002a0 6b 7a b4 bd 6d be 5b ba ba 17 e9 3c 7c a2 a6 bd
       -0.08812412 -0.00083825627 0.028453697 -0.0813646
0002b0 2e a7 1c 3d 06 0c 80 bd 60 a1 35 be 85 b6 db 3c
       0.038245372 -0.06252293 -0.17737341 0.02682043
0002c0 5e b6 9e 3d 9f 4b 9e bd 01 e6 24 3d fa b4 b3 3d
       0.077496275 -0.07729267 0.04025841 0.08774753
0002d0 7c 23 55 3d 80 4d 15 3b bd 58 ce bc 88 7e a0 3e
       0.052035794 0.002278179 -0.025188798 0.31346536
0002e0 6a 1c 23 3d 68 10 4a 3d 6d e4 9a bb cf 34 de 3d
       0.03982202 0.049332052 -0.0047269375 0.10849916
0002f0 45 37 c0 bd 6f 4e 33 bd f3 a7 4f be e1 46 89 bc
       -0.09385542 -0.043775972 -0.20278911 -0.01675743
000300 09 88 65 bd 91 72 18 be a8 ba 80 bc ce 5e 29 bc
       -0.056037936 -0.14887454 -0.015714005 -0.010337545
000310 25 e2 30 3e db 65 b0 3e f4 5e f3 3e 4b 81 01 3e
       0.17273767 0.3445271 0.4753338 0.12646978
000320 a9 2c 2d 3e 5d 48 0a be fd af dc bd d1 2a 84 3e
       0.16911568 -0.13504167 -0.107757546 0.25813916
000330 ed bc 81 bd d5 f1 a4 bd 69 32 71 bd 55 34 9b 3d
       -0.06334863 -0.08053938 -0.058885965 0.07578341
000340 dc 88 12 3d 29 14 5e 3d 36 01 a9 bd 61 6b cb 3d
       0.03577505 0.054218445 -0.08252184 0.0993259
000350 ce be 05 3e 58 f0 fc 3d 44 87 27 3d 31 d6 62 3d
       0.13061067 0.123505294 0.040900484 0.05538005
000360 f2 87 db bd bc 90 d9 3d 7f 72 6e bd 2c a1 9d 3c
       -0.10719289 0.10623309 -0.05821466 0.019241892
000370 5f 3a a7 3d 84 23 14 3d 34 49 19 3c ed 30 15 bf
       0.0816543 0.036166683 0.009355832 -0.5827778
000380 9a ab 66 bc df 46 a9 bd 2a fc 1e 3d 12 3e e3 3d
       -0.014078999 -0.08265471 0.0388147 0.11095823
000390 10 dc 02 3f 44 ee e2 3d 4a ef 47 3d 7e 66 19 3e
       0.5111704 0.11080602 0.04881219 0.14980504
0003a0 3e 11 95 bc 61 2d 0a be e6 9f f5 3e ac f2 13 bd
       -0.018196698 -0.13493873 0.47973555 -0.0361201
0003b0 f1 fd e3 3d 6f d2 ab bc ae 66 13 be ec ef 15 3e
       0.1113242 -0.020974366 -0.14394638 0.14642304
0003c0 75 19 27 be dc 29 ac be b2 74 da bd e7 55 9d be
       -0.16318305 -0.33625686 -0.10666789 -0.307296
0003d0 93 3d 04 3b 8c 28 fb 3e 6d 0c 0c be 9a b3 5c 3d
       0.0020178303 0.49054372 -0.13676615 0.05388222
0003e0 0c 38 03 be 60 33 99 bb 61 c4 1f be b0 76 ac 3e
       -0.12814349 -0.004675314 -0.15602256 0.336843
0003f0 40 d4 f3 3e 47 f6 38 3d 05 eb 6b 3d b0 45 4b bf
       0.4762287 0.045156743 0.05759718 -0.7940321

gcn_convs.1.path_weight_2.bias f4 [32]
000000 2b b0 21 3d 80 d4 5d be 77 1f 00 3e 57 b5 ed be
       0.039474647 -0.21663094 0.12512003 -0.46427414
000010 7a 17 07 be dd b6 4b bd 11 7a 0d bd 4c 4d 4b be
       -0.1319255 -0.04973494 -0.03454024 -0.19853705
000020 85 8e c7 3d cc 67 14 bd 34 89 0a 3d dc 30 09 3e
       0.0974398 -0.0362318 0.033822253 0.13397545
000030 0c 98 cc 3d 3f 7d 7b 3e 77 43 70 3e f9 97 c7 bc
       0.09989938 0.24559496 0.23463236 -0.024364458
000040 33 b9 69 3e 70 97 40 bd 08 37 87 3c 5d 24 6d bc
       0.22824554 -0.047019422 0.016505733 -0.014474002
000050 93 19 e5 bd e5 7d df 3d 0f 7a f4 3c d1 ae 94 be
       -0.111865185 0.10912684 0.029843358 -0.29039624
000060 fa 97 6b 3b 7b 90 16 bd f4 b6 e4 bd 87 c4 18 bd
       0.003594874 -0.03675888 -0.11167708 -0.037296798
000070 d0 27 c9 bd 76 0d 80 be 8f 96 7b bd 41 23 f0 3e
       -0.09822047 -0.2501027 -0.06142288 0.46901897
