semi-supervised/cora_8_layers_.pt (torch, 303305 bytes, 52 tensors)

trans_feat.weight f4 [32, 1433]
0	0x3bf1b39a	0.0073761465
1	0xbc1b9393	-0.009495634
2	0x3c031554	0.0080006905
3	0xbb5260d5	-0.0032101173
4	0x3b91fe94	0.004455397
5	0xba8368a4	-0.0010025692
6	0xbbd9ed36	-0.006650592
7	0xbc16d854	-0.00920685
8	0x3bd0e7fd	0.0063753114
9	0x3bf1cd2a	0.007379194
10	0xbbf6b526	-0.007528919
11	0x3b62cfd8	0.0034608748
12	0x3c8ca511	0.017168554
13	0x3aee7618	0.0018193154
14	0xbc0d4662	-0.008622738
15	0x3aab05e6	0.0013048023
16	0x3c288e1f	0.010287791
17	0xba2c0640	-0.00065622106
18	0xbad6ece4	-0.0016397503
19	0x3d1e440e	0.03863912
20	0x3b8d1c2d	0.0043063373
21	0x3bd1b55a	0.0063997926
22	0xbb22493c	-0.002476289
23	0x3c11cdb8	0.008899145
24	0xbbffb66a	-0.007803728
25	0x3a3715c0	0.0006984137
26	0xbc123714	-0.008924264
27	0x3c7d8d19	0.015475535
28	0x3ca6ed54	0.020376839
29	0xbbd3a8c9	-0.0064593297
30	0xbbb80e08	-0.005616907
31	0x3c0a69a5	0.008448039
32	0x3bd96825	0.0066347294
33	0x3bec6ff9	0.0072154966
34	0x3c609a21	0.013708622
35	0x3c240df7	0.010013095
36	0xbba8aac2	-0.005147309
37	0xbbcbbdcb	-0.0062176934
38	0x3c39b0c8	0.011333652
39	0xbb9341da	-0.004493934
40	0xbbbaed16	-0.0057045324
41	0xbca2df55	-0.019881884
42	0xbbc58e50	-0.006028928
43	0xbba399e0	-0.0049927086
44	0xbc11b5dc	-0.008893456
45	0x3bc6b44a	0.0060639726
46	0xbbb7938b	-0.0056023053
47	0xbbfdeb30	-0.007748984
48	0x3be7d396	0.0070747836
49	0x3bcad972	0.0061904723
50	0xba69e770	-0.00089227315
51	0x3cf02b80	0.029317617
52	0x3c32069a	0.010865832
53	0xbbc2ec34	-0.0059485678
54	0xbb1ef286	-0.0024253442
55	0xba8a63c0	-0.0010558292
56	0x3b979af2	0.004626625
57	0x3bea4998	0.0071498863
58	0x3bf8bf1c	0.0075911414
59	0x3b77b142	0.0037794863
60	0x3bdcf1fb	0.0067427135
61	0xbc2513e0	-0.010075539
62	0xbb7f3e71	-0.003894713
63	0x3c01ca13	0.007921713
64	0x3c02ccbd	0.007983384
65	0x3c5068b2	0.012720274
66	0x3b7041cc	0.0036660312
67	0xbc06f700	-0.0082376
68	0xbb84d7e8	-0.0040540583
69	0xbb8b3638	-0.0042484067
70	0xbc3d8ca8	-0.01156918
71	0x3b595aba	0.003316565
72	0xbb13a9a6	-0.0022531538
73	0x3bea4000	0.0071487427
74	0xbbdd2f06	-0.0067499904
75	0xbc816f5c	-0.01580017
76	0xbb8a4fad	-0.004220924
77	0x3b28e65c	0.002577207
78	0xba4e0d00	-0.00078602135
79	0x3bcb0d38	0.006196644
80	0x3bc377c6	0.005965206
81	0x3cbe6277	0.023240311
82	0x3a54f960	0.0008124318
83	0x3bb3f33c	0.0054916423
84	0xbca9f21b	-0.020745328
85	0xbb8f42cc	-0.0043719765
86	0xbbe520ea	-0.006992449
87	0x3b4a695c	0.0030885553
88	0x3bcf9e08	0.0063359775
89	0xbc5570a1	-0.013027341
90	0x3bb6504d	0.005563772
91	0xbac42ba4	-0.0014966619
92	0x3baf4a57	0.005349438
93	0x3cd14ec3	0.025550252
94	0xbbeb5f6d	-0.0071830065
95	0x3aa3fea8	0.0012511807
96	0x3c30fdb0	0.010802671
97	0xbc0a7130	-0.008449838
98	0x3c5515b5	0.013005664
99	0x3c6ba05a	0.0143814925
100	0x3be150b0	0.006876074
101	0xbb10abf4	-0.0022075148
102	0xbb1f23f6	-0.002428291
103	0xbb9ce958	-0.004788559
104	0x3c03837b	0.008026953
105	0xbba8d030	-0.005151771
106	0xba44e948	-0.0007511568
107	0xbb1815fe	-0.0023206468
108	0xbc22cc0c	-0.009936344
109	0xbb1abd12	-0.002361123
110	0x3ae35668	0.0017344477
111	0xbc087581	-0.008328796
112	0xba10b5b0	-0.00055202376
113	0x3be6b6af	0.0070408206
114	0xbb3a2c74	-0.0028407844
115	0x3a1c6790	0.000596636
116	0x3b9bc072	0.004753166
117	0x3be9efd4	0.0071391854
118	0x3c7e65c0	0.015527189
119	0xbc473bd0	-0.0121602565
120	0x3b2b8b30	0.0026175492
121	0x3bb62acb	0.0055593005
122	0x3bf5fc56	0.0075068874
123	0xbc0cd380	-0.008595347
124	0x3c131d0f	0.008979096
125	0x3c965253	0.018349802
126	0x3c65c35c	0.014023628
127	0x3b172282	0.002306134
128	0xbc2341f3	-0.009964454
129	0x3bed2536	0.007237102
130	0x3b1a5ec8	0.002355503
131	0x3b5643e5	0.0032694277
132	0xbb25aa82	-0.0025278633
133	0x3c4abb1f	0.012373715
134	0xbba48113	-0.0050202697
135	0x3acb25a4	0.0015498889
136	0x3a878b68	0.0010341229
137	0x3c02e05d	0.007988063
138	0xbbade52e	-0.0053068614
139	0x3b759304	0.0037471661
140	0x3b5c7576	0.0033639348
141	0xbb74a914	-0.0037332224
142	0xbc027222	-0.007961782
143	0xbb79b744	-0.003810362
144	0x3a8f8190	0.0010948647
145	0xba809878	-0.0009811064
146	0xbccac4bf	-0.024752019
147	0x3ba46997	0.00501747
148	0x3c598df0	0.013278469
149	0xbc15f174	-0.009151805
150	0xbad9d0f8	-0.0016618064
151	0x3bace3fd	0.0052762018
152	0x3bf64e10	0.00751663
153	0xb9805210	-0.00024475204
154	0x3c15324d	0.009106231
155	0xbb80b73e	-0.003928094
156	0x3c1108aa	0.008852163
157	0x3c24f8de	0.0100691
158	0x3b9c65bb	0.0047728694
159	0xbb03caf2	-0.0020109979
160	0xbb225fac	-0.0024776263
161	0xbb848e2c	-0.0040452685
162	0x3c0d4b02	0.00862384
163	0xbbd60052	-0.0065308
164	0x3b8fdf82	0.004390658
165	0xbbdd1e82	-0.0067480216
166	0xbbaa6fa4	-0.005201297
167	0xbbf1c20f	-0.00737787
168	0xbb74d4f0	-0.0037358366
169	0x3bb961f6	0.00565743
170	0x3bd576bc	0.0065143984
171	0xbc121bcc	-0.00891776
172	0x3cbd29f5	0.023091296
173	0x3bda0bf5	0.0066542574
174	0x3c6137cd	0.013746214
175	0x3ba266a8	0.0049560852
176	0xbbf2d80c	-0.0074110087
177	0xbbb80e76	-0.0056169583
178	0x3b9772c7	0.004621837
179	0x3cb74934	0.022373773
180	0xbbe35f50	-0.0069388524
181	0xbbaba017	-0.00523759
182	0xbc245cef	-0.010031923
183	0xbaebcdac	-0.0017990372
184	0x3be4d003	0.0069828047
185	0x3b116d68	0.0022190455
186	0x3baf8f4c	0.0053576585
187	0xbc5ee4fd	-0.0136044
188	0xbb4e1420	-0.00314451
189	0xbafeb450	-0.00194324
190	0x3a84f0b8	0.001014254
191	0x3c36faab	0.011168162
192	0x3cabcbce	0.020971205
193	0x3c0756c5	0.008260434
194	0xbc2d9573	-0.0105947135
195	0x3bc38808	0.005967144
196	0xba952eb2	-0.0011381714
197	0x3bdfb928	0.0068274923
198	0xbac29b7c	-0.0014847363
199	0xbc0d5950	-0.008627251
200	0x3bdf6c74	0.0068183485
201	0x3bac7e20	0.0052640587
202	0x3c2a0773	0.010377753
203	0x3c0d21fa	0.008614058
204	0x3c0449bd	0.008074221
205	0x3c55cbfa	0.01304912
206	0x3aadaed0	0.0013250951
207	0xbc178556	-0.009248098
208	0x3bebf54b	0.007200872
209	0x3c0718c4	0.008245651
210	0x3b2e0c2b	0.0026557546
211	0x3b5a1efa	0.0033282624
212	0x3ac29e7c	0.0014848257
213	0x3b4d61f4	0.0031338902
214	0xbc2e1bea	-0.010626772
215	0x3a5b9cd0	0.0008377554
216	0x3acea2b0	0.0015765037
217	0x3c224ecd	0.009906483
218	0xbbc4db1c	-0.006007565
219	0x3c018d5b	0.007907237
220	0xb9bf5700	-0.0003649518
221	0x3bfebc20	0.007773891
222	0x3bf5c1f8	0.0074999295
223	0xbaee3280	-0.0018173009
224	0x3c0053dd	0.007832495
225	0xbc715215	-0.014729043
226	0xbc1c11a6	-0.009525692
227	0x3bb4bce3	0.005515681
228	0xbc20c9fa	-0.00981378
229	0x3778de00	1.483364e-05
230	0x3bc81a5b	0.0061066574
231	0xbc266a92	-0.010157244
232	0xbaa837ee	-0.0012834051
233	0x3c0fef9d	0.008785156
234	0xbbad4145	-0.0052873218
235	0x3b875125	0.004129546
236	0x3bf08336	0.0073398603
237	0xbb41d9ce	-0.0029579285
238	0x3c60e534	0.013726521
239	0xbac600e4	-0.0015106467
240	0x3bee8162	0.007278607
241	0xbc07d2f9	-0.008290046
242	0x3bf2b1df	0.007406458
243	0x3c035863	0.0080166785
244	0x3c086d72	0.008326875
245	0xbbc96fa0	-0.00614734
246	0xba8534f4	-0.0010162876
247	0x3b60d0ea	0.003430421
248	0xbc12956e	-0.00894676
249	0xbbf9c280	-0.007622063
250	0x3c0b24aa	0.008492628
251	0x3b9c5fcc	0.004772162
252	0x3c09af8e	0.008403672
253	0xbb3a6cc2	-0.0028446172
254	0x3b032f06	0.0020017042
255	0xbb86dd39	-0.0041157273

trans_feat.bias f4 [32]
0	0xb7215600	-9.616371e-06
1	0xba494aa0	-0.00076786615
2	0x3becb0ea	0.0072232382
3	0x3b854b0c	0.004067784
4	0x3be747d6	0.007058124
5	0xbb4ad758	-0.0030951109
6	0xbbdb400c	-0.0066909846
7	0xbb22aa5a	-0.0024820776
8	0x3aa050e0	0.0012231134
9	0x3be3b0cb	0.0069485656
10	0xbbede179	-0.0072595445
11	0xbb7899d6	-0.003793349
12	0xbb411aee	-0.0029465514
13	0xbbede974	-0.007260496
14	0x3bd20970	0.0064098164
15	0xba017200	-0.0004937947
16	0x3bb2dd80	0.0054585338
17	0x3b7041f2	0.00366604
18	0xbbe06ff2	-0.0068492824
19	0xbbca6e91	-0.0061777313
20	0x3bb36d02	0.005475641
21	0x3beb6966	0.0071841953
22	0xbbd67784	-0.006545009
23	0xbbedd7c2	-0.0072583864
24	0xbbe65234	-0.0070288423
25	0x3bdf3085	0.006811204
26	0x3b82bc54	0.0039897356
27	0xbbea70c3	-0.0071545555
28	0x3bd6d32c	0.0065559354
29	0x3b13dee2	0.0022563268
30	0x3bd6c178	0.006553825
31	0x3a8459e0	0.0010097586

pred_trans.weight f4 [7, 1433]
0	0x3cd9c2a6	0.026582073
1	0xbeaa67d7	-0.3328235
2	0x3e4c03a9	0.19923271
3	0xbd96a5fe	-0.07355879
4	0xbecf6e8e	-0.40514034
5	0xbde4e17c	-0.1117582
6	0x3eddc61d	0.4331521
7	0xbe2aba44	-0.16672617
8	0xbd866146	-0.06561522
9	0xbcbf41fa	-0.02334689
10	0xbd4db8d8	-0.05022511
11	0x3c2ff5ba	0.010739738
12	0x3e5b9dfc	0.21446985
13	0xbd954abd	-0.07289646
14	0x3c9348d0	0.017979056
15	0x3e7c3b9f	0.24632119
16	0xbda28bfb	-0.079368554
17	0xbd0a4d1b	-0.03376494
18	0xbd864c42	-0.06557514
19	0xbf9650a6	-1.1743362
20	0xbcfe16ce	-0.031016733
21	0x3ca1942d	0.019723976
22	0x3aa9d4ba	0.0012957074
23	0xbee70520	-0.45121098
24	0x3e0e83b4	0.13917428
25	0x3f254e81	0.6457291
26	0x3e717726	0.23580608
27	0xbe0c2d86	-0.13689241
28	0xbd650540	-0.05591321
29	0x3d534bc9	0.051585946
30	0x3e02522d	0.1272666
31	0xbd466283	-0.04843379
32	0x3c613c2e	0.013747258
33	0x3d957c69	0.0729912
34	0xbde990d7	-0.11404579
35	0xbeaafbb4	-0.3339516
36	0xbcd716fa	-0.026256073
37	0x3b13d0b0	0.0022554807
38	0xbf1af238	-0.60525846
39	0xbf2c4ec4	-0.67307687
40	0xbe606543	-0.21913628
41	0x3e3f8464	0.18702847
42	0x3cb5a583	0.022173649
43	0xbb4c7870	-0.0031199716
44	0xbe09277c	-0.13393968
45	0xbe81b2c0	-0.25331688
46	0xbbbe33d6	-0.005804519
47	0x3e63885e	0.22219989
48	0xbea53c33	-0.3227249
49	0xbd91d056	-0.07119815
50	0x3d880bbc	0.06642863
51	0xbec196d4	-0.37810385
52	0x3f1deb85	0.616875
53	0x3c78df0c	0.015189897
54	0xbed9172d	-0.42400494
55	0xbbed8662	-0.0072486857
56	0x3f6db391	0.9285212
57	0x3da14aa9	0.078755684
58	0xbe85e28d	-0.26149407
59	0xbe9a67a2	-0.3015719
60	0x3d4bd258	0.049761146
61	0xbebc3494	-0.36758864
62	0x3ed14137	0.40870067
63	0x3d27d3f9	0.040973637
64	0x3efc9f4d	0.49340287
65	0x3ea310c8	0.3184874
66	0xbde97266	-0.11398773
67	0xbe1409f0	-0.14456916
68	0x3d0015d2	0.03127081
69	0x3d3ea90c	0.046547934
70	0xbcd2e3ba	-0.025743354
71	0x3d02a7db	0.03189836
72	0xbd97b54d	-0.07407627
73	0x3c2f5b58	0.01070293
74	0x3b27c300	0.0025598407
75	0xbd28b43e	-0.041187517
76	0xbdb2b569	-0.087260075
77	0xbe75b3ba	-0.23994341
78	0xbe96cc7d	-0.29452887
79	0xbd02024e	-0.03174048
80	0xbddadd58	-0.10686749
81	0xbf0688b8	-0.52552366
82	0xbdc89f3a	-0.09795995
83	0xbdf30319	-0.11865825
84	0x3d41b7e2	0.047294505
85	0xbe612915	-0.21988328
86	0xbebff7d9	-0.3749378
87	0x3dc38189	0.09546191
88	0xbeb52a40	-0.35383797
89	0x3e87f1c3	0.26551637
90	0xbbead8bc	-0.00716695
91	0xbe84d11d	-0.2594079
92	0xbe692a19	-0.22769965
93	0x3dab73b6	0.083716795
94	0xbe08249e	-0.13295218
95	0x3b6ecd7d	0.0036438399
96	0xbc66ae7b	-0.014079685
97	0xbdf1e503	-0.11811259
98	0x3ea9d60c	0.33171117
99	0xbdfa42b4	-0.12219754
100	0xbdc4f00c	-0.09616098
101	0xbc1a1926	-0.00940541
102	0xbdd9dc06	-0.10637669
103	0xbe251d07	-0.16124354
104	0xbe27b902	-0.16379169
105	0x3b9a52aa	0.0047095614
106	0xbe260b29	-0.16215195
107	0xbce492f3	-0.027902102
108	0xbe48fb31	-0.19627072
109	0xbd3194fa	-0.043354966
110	0x3d40ecdb	0.047100883
111	0xbd0dcdf2	-0.034620233
112	0x3c06a340	0.008217633
113	0xbbd6738b	-0.0065445355
114	0xbd9ec3be	-0.077521786
115	0xbda11dce	-0.07867013
116	0xbe476f4d	-0.19476052
117	0x3b8d9de4	0.0043218005
118	0xbf03e04e	-0.51514137
119	0x3d1af04a	0.037826814
120	0xbdb3b4d1	-0.08774722
121	0x3ea1cb43	0.3160039
122	0x3eca5e32	0.3952499
123	0xbdf45e9a	-0.11932106
124	0xbe1ef349	-0.15522493
125	0xbe840819	-0.25787428
126	0x3e1d5080	0.1536274
127	0x3dab8059	0.0837409
128	0xbf6671c0	-0.9001732
129	0x3d1155f7	0.035482373
130	0xbcdb2967	-0.02675314
131	0xbaf942a0	-0.0019017048
132	0x3f9aec3d	1.2103344
133	0x3e21359a	0.15743104
134	0xbd93d0d1	-0.07217563
135	0xbece976c	-0.403499
136	0x3e5922b1	0.2120464
137	0x3d339792	0.04384572
138	0xbc1d4a5b	-0.009600247
139	0xbe058220	-0.1303792
140	0xbedb1c08	-0.42794824
141	0xbd1d8eda	-0.038466312
142	0xbc89e7cd	-0.016834164
143	0xbd17f488	-0.037098438
144	0xbb35e01c	-0.0027751988
145	0x3c4f604b	0.012657235
146	0x3edd5322	0.43227488
147	0x3d2498ef	0.04018491
148	0xbddf15ca	-0.10892828
149	0xbeb39ebe	-0.35082048
150	0xbd950c96	-0.07277791
151	0x3e9783a7	0.2959263
152	0x3b5ef622	0.0034021218
153	0xbe2d02f2	-0.16895655
154	0xbe27312d	-0.16327353
155	0xbd919766	-0.07108955
156	0xbde26c3c	-0.110558
157	0xbe97cef8	-0.29650092
158	0x3d268936	0.0406582
159	0x3d888ec8	0.06667858
160	0xbe67150f	-0.22566627
161	0x3dfaca53	0.122456215
162	0xbe214f5d	-0.15752931
163	0xbd88b566	-0.06675224
164	0xbd18c5ba	-0.03729794
165	0x3e006154	0.12537128
166	0x3c64cb12	0.013964431
167	0xbde317d8	-0.11088532
168	0xbeff3378	-0.49843955
169	0x3d94e5f8	0.072704256
170	0x3ad4f108	0.0016246149
171	0xbd313762	-0.043265708
172	0xbe646a2c	-0.22306126
173	0xbec19c8e	-0.37814754
174	0xbdb9c50f	-0.09070789
175	0x3c759708	0.014989622
176	0xbe6551d4	-0.22394496
177	0x3d6d5d01	0.057950024
178	0x3c267328	0.010159291
179	0x3f6276cf	0.8846254
180	0x3cfa77d0	0.03057471
181	0xbdcf8ea2	-0.10134627
182	0x3c3b0ede	0.011417119
183	0xbd04ca9d	-0.03241979
184	0x3d0c4a12	0.034250326
185	0xbd028056	-0.031860672
186	0xbdfe6e8d	-0.1242343
187	0xbf44165f	-0.76596636
188	0x3e4a209b	0.19739
189	0xbbae5b3e	-0.0053209355
190	0xbdf89ad2	-0.12138905
191	0xbd3b735a	-0.045764305
192	0xbe799131	-0.24371792
193	0x3e259ceb	0.1617314
194	0xbeb22e81	-0.34801105
195	0xbdae3dea	-0.08507903
196	0xbe770d43	-0.24126153
197	0x3d988d1a	0.07448788
198	0xbdd36de6	-0.10323696
199	0xbdd9789a	-0.10618706
200	0x3da6706b	0.08126911
201	0x3be92d48	0.0071159936
202	0xbc50c6b4	-0.012742687
203	0xbe9185b6	-0.28422326
204	0xbd9e0bc8	-0.07717091
205	0x3f99a5f9	1.2003776
206	0x3d1a7baf	0.03771561
207	0xbda208ee	-0.079118595
208	0xbe9944cf	-0.2993531
209	0x3d48b1af	0.048997577
210	0xbb290e68	-0.002579594
211	0x3f094f3a	0.53636515
212	0xbeaf2811	-0.34210256
213	0xbe4dadd2	-0.20085838
214	0x3f135a26	0.5755943
215	0xbceca92b	-0.02888926
216	0xbca612c4	-0.02027262
217	0xbe1dd97c	-0.15414995
218	0xbd8f5a46	-0.0699964
219	0x3d2e2708	0.04251769
220	0xbd20c00c	-0.03924565
221	0x3d390145	0.045167226
222	0x3ecefe14	0.4042822
223	0x3ca5158f	0.020151882
224	0xbd04e6ee	-0.032446794
225	0x3d677c3d	0.056514967
226	0xbe127042	-0.14300635
227	0xbcdab1ff	-0.026696203
228	0x3f517a2c	0.81827044
229	0x3c2f44ec	0.010697585
230	0xbde9ffef	-0.114257686
231	0xbce420f4	-0.027847745
232	0xbe29c380	-0.16578484
233	0x3ec5968a	0.38591415
234	0x3d5bf153	0.05369694
235	0xbae00f84	-0.0017094468
236	0xbc47528a	-0.012165675
237	0x3f967998	1.1755857
238	0xbe6caa6b	-0.23111884
239	0xbc724b4a	-0.014788458
240	0xbd91a710	-0.07111943
241	0x3d647eef	0.055785116
242	0x39bff8e0	0.00036615785
243	0xbd357278	-0.04429862
244	0xbdb46f80	-0.088103294
245	0x3d6aabdc	0.057292804
246	0x3e208770	0.15676665
247	0xbe6063d0	-0.21913075
248	0x3d16d24a	0.03682164
249	0xbe93e32c	-0.28884256
250	0x3e050a0e	0.12992117
251	0xbc0af065	-0.008480166
252	0x3de82e5d	0.11336968
253	0x3c9335c2	0.01796997
254	0xbde1916d	-0.11014066
255	0x3dba28b5	0.090897955

pred_trans.bias f4 [7]
0	0xbd5803a4	-0.052737847
1	0xbd808838	-0.06275982
2	0xbc2d1eda	-0.010566438
3	0x3d900cfc	0.070337266
4	0x3d4f26ef	0.05057424
5	0xbd13ebe6	-0.036113642
6	0x3c8c24a7	0.017107321

gcn_convs.0.path_weight_1.weight f4 [32, 32]
0	0x3cb98041	0.022644164
1	0x3ba48df5	0.0050218054
2	0xbc4b61d5	-0.012413462
3	0xbd16b4ce	-0.036793523
4	0xbc541d1c	-0.012946393
5	0x3ba02cc9	0.0048881513
6	0x3d487268	0.04893723
7	0xbc6218b4	-0.013799835
8	0xbc2af047	-0.010433263
9	0x3d4c0824	0.04981245
10	0x3b6f2c1b	0.0036494795
11	0x3c5a4f50	0.013324574
12	0xbd21586c	-0.039390966
13	0x3be68723	0.0070351525
14	0x3cb80464	0.022463031
15	0xbc3e3ccc	-0.011611175
16	0x3cc1d493	0.023660934
17	0x3c229e4f	0.009925439
18	0x3a154d2c	0.00056953984
19	0x3ae4d73e	0.0017459167
20	0xbcd15478	-0.025552973
21	0xbc9bfbc0	-0.019040942
22	0x3ba2947a	0.0049615474
23	0xbd16a5a3	-0.036779057
24	0x3b93c240	0.0045092404
25	0xbbbb9aa3	-0.0057252212
26	0xbd2e6dd5	-0.042585213
27	0x3c75644f	0.014977529
28	0x3ce22c81	0.027609112
29	0x3b652da9	0.0034969843
30	0xbbea5988	-0.0071517862
31	0x3c934095	0.017975131
32	0xbba82971	-0.0051318933
33	0x3bc7792c	0.006087443
34	0xbca917c3	-0.020641213
35	0x3be5ca47	0.0070126387
36	0x3c128596	0.008942982
37	0x3a6630b1	0.00087810593
38	0x3a598fa0	0.0008299295
39	0x3c69c9a6	0.014269268
40	0x3c900422	0.017580096
41	0x3c47b044	0.012188021
42	0xbb9235cf	-0.004461981
43	0xbc08e269	-0.008354762
44	0xbc188e39	-0.009311252
45	0x3c45afbf	0.012065827
46	0x3c422425	0.011849438
47	0x3b9fd898	0.004878115
48	0x3bea1afe	0.007144331
49	0xbb5e7ce9	-0.0033948964
50	0x3c9b29d0	0.018940836
51	0xbc0a85db	-0.008454765
52	0xbbcd68d0	-0.006268598
53	0x3c71408e	0.014724864
54	0xbc6607c2	-0.014039936
55	0x3bbbb0ac	0.005727848
56	0x3b743f96	0.0037269345
57	0x3baa5cb2	0.0051990384
58	0xbb6c1077	-0.0036020556
59	0x3baa778f	0.005202241
60	0xbc2633fd	-0.010144231
61	0x3b95b542	0.0045687268
62	0xbc75fd53	-0.0150140105
63	0xbc9301fb	-0.01794528
64	0xbc050f8b	-0.0081213815
65	0x3ab8f17b	0.0014110053
66	0xbc96b747	-0.01839794
67	0xbc16159b	-0.009160425
68	0xbb31ca8f	-0.002712879
69	0xbb601c66	-0.0034196614
70	0xbb0205ea	-0.001983995
71	0xbaf99de9	-0.0019044253
72	0xbbe5c5b9	-0.007012096
73	0x3ab8282c	0.0014050058
74	0xbc611c89	-0.0137397135
75	0x3bed1c1f	0.0072360183
76	0x3c397665	0.011319731
77	0xbc47b26b	-0.012188534
78	0x398b7c94	0.00026604964
79	0xbbb37679	-0.0054767695
80	0x3ce03fa5	0.027374098
81	0x3cb864d2	0.022509012
82	0xbc91f2c1	-0.01781595
83	0xbcd96470	-0.02653715
84	0xbc1d0431	-0.009583519
85	0x3c6ac359	0.014328801
86	0x3cc26da1	0.023733916
87	0xbc35922a	-0.0110822115
88	0x3c0162ea	0.007897118
89	0xbb9b0f7c	-0.0047320705
90	0x3b8a4501	0.0042196517
91	0xbccd8628	-0.025088385
92	0xbb0c173a	-0.0021376149
93	0x3c52406a	0.01283274
94	0xbc7dbe6e	-0.0154872965
95	0xbb052376	-0.0020315326
96	0xbc882f32	-0.016624067
97	0x3cb0b554	0.021570839
98	0xbbf3eb67	-0.0074438336
99	0xbccb9fe2	-0.024856512
100	0x3c519d9c	0.012793925
101	0x3baa8da5	0.0052048736
102	0x3b1e2f0f	0.0024136936
103	0xbb571a28	-0.0032821987
104	0xbbe0e3d0	-0.006863095
105	0x3bb73563	0.005591081
106	0x3c559595	0.013036151
107	0x3d27eb06	0.04099562
108	0x3c5ebe3d	0.013595161
109	0xbcd1507e	-0.025551077
110	0x3c8d3cde	0.017240938
111	0xbc8f45b3	-0.01748929
112	0xbccb5c71	-0.024824353
113	0x3d3461e9	0.044038687
114	0x3ca25530	0.019816011
115	0xbcc028e3	-0.023456996
116	0x3c0bcf42	0.008533301
117	0xbce547df	-0.027988372
118	0xbcbce155	-0.023056665
119	0xbacce59d	-0.0015632395
120	0x3c914b48	0.017736092
121	0xbd10d317	-0.03535756
122	0x3af71bd5	0.0018852899
123	0xba0f11ea	-0.00054576865
124	0xbc56c0b0	-0.013107464
125	0x3d1b7d0b	0.037961047
126	0x3c752b07	0.014963872
127	0xbb2a3054	-0.0025968747
128	0x3c385bb5	0.011252333
129	0xbc58c37b	-0.0132302
130	0x3c169877	0.009191624
131	0x3c7465ca	0.0149168465
132	0xbc546b8c	-0.012965094
133	0xb95bcabf	-0.00020960996
134	0x3be3af92	0.00694842
135	0x3b11a058	0.0022220816
136	0x3c872dea	0.016501386
137	0xbd101d82	-0.03518439
138	0xbcb8dc96	-0.022566121
139	0x3cb439d4	0.02200023
140	0x3d25f4ab	0.040516537
141	0xbb077c25	-0.002067336
142	0xbc60d37d	-0.013722298
143	0xbc1d94bb	-0.00961798
144	0x3c9f09d3	0.019413864
145	0xbc77d21e	-0.015125779
146	0x3c1cac2a	0.0095625315
147	0xbc9e3922	-0.019314352
148	0xbca7f22e	-0.020501222
149	0x3c232cfb	0.009959455
150	0x3d1a3a94	0.03765352
151	0x3c0f3a66	0.008741951
152	0xbace465d	-0.0015737523
153	0xbc7581bd	-0.014984545
154	0x3a660a65	0.00087753526
155	0x3ce1fa98	0.027585313
156	0x3c949a49	0.018139975
157	0x3c20f4d3	0.009823996
158	0xbca57dc8	-0.020201579
159	0x3c0b2a69	0.008493998
160	0x3bc8aa13	0.00612379
161	0x3c9a8a50	0.01886478
162	0xbbfc6c56	-0.0077033443
163	0x3cfd1aa7	0.030896498
164	0x3c2fbc51	0.0107260505
165	0xbc1b941f	-0.009495764
166	0x3b8550d6	0.0040684743
167	0xb9dad5ca	-0.00041739485
168	0xbbf3370a	-0.0074223327
169	0xbc661339	-0.014042669
170	0x3cf35f0a	0.029708404
171	0xbb262949	-0.0025354198
172	0xbc1e97b2	-0.009679722
173	0x3c952ffd	0.01821136
174	0x3bb38358	0.005478304
175	0x3cbe8ccd	0.023260498
176	0x3cb373a1	0.021905722
177	0xbc5cc4db	-0.013474668
178	0xbc4f1603	-0.012639525
179	0x3c5d65a9	0.013513007
180	0xbc56a5a8	-0.013101019
181	0xbb6e9860	-0.003640674
182	0xbcd24fc4	-0.0256728
183	0x3c13e575	0.009026875
184	0xbc18d324	-0.009327684
185	0x3c770bdd	0.015078512
186	0xbc99c324	-0.018769808
187	0xbc98b73a	-0.018642057
188	0xbc3b9778	-0.011449687
189	0x3cd39202	0.025826458
190	0xb923b4a3	-0.00015612184
191	0xbb081f94	-0.0020770775
192	0x3c9261f2	0.01786897
193	0xbbb666bb	-0.0055664456
194	0x3cbef620	0.02331072
195	0xbc1a9088	-0.009433873
196	0x3c340fbd	0.01099008
197	0x3bd15755	0.0063885846
198	0xbbb3ce5c	-0.0054872464
199	0xbbee3c35	-0.007270361
200	0x3bdf0694	0.006806204
201	0xbcc99f6c	-0.024612151
202	0xbc1ce987	-0.009577162
203	0xbc5c059a	-0.01342907
204	0x3d1c06b6	0.038092338
205	0x3be87dea	0.0070950883
206	0xbc931bea	-0.017957646
207	0xbcf2bcef	-0.029631106
208	0x39aeb487	0.0003332237
209	0x3ca4ce18	0.020117804
210	0x3c6c0145	0.0144046
211	0x3d1e44c7	0.03863981
212	0xbb7a7704	-0.0038217911
213	0x3c979096	0.018501561
214	0x3d1801f3	0.037111234
215	0xbd0645c6	-0.032781385
216	0x3cbeceb7	0.023291929
217	0xbc4b8080	-0.0124207735
218	0xbbf71bf7	-0.0075411755
219	0xbba5eaa2	-0.005063371
220	0xbd1fc0aa	-0.0390021
221	0xbca05eae	-0.019576397
222	0x3c1cd9e9	0.009573438
223	0xbd2aa6a8	-0.041662842
224	0x3c1b4fbe	0.009479461
225	0x3c10d52e	0.0088398885
226	0xbbe3334c	-0.0069336053
227	0x3aac3275	0.0013137596
228	0x3c4271b1	0.011867926
229	0x3ca23f7a	0.019805659
230	0x3c692b6f	0.014231547
231	0x3b864000	0.004096985
232	0x3c2cb0b2	0.010540174
233	0x3cadfed1	0.02123967
234	0x3c91d5d8	0.017802164
235	0xbb507a94	-0.0031811344
236	0xbc0aa5dc	-0.0084623955
237	0x3b8b42e7	0.0042499187
238	0x3af79a6a	0.0018890623
239	0xbbc83a7d	-0.006110488
240	0x3cb70467	0.022340966
241	0xbcafb146	-0.021446835
242	0xbc87edf7	-0.016592963
243	0x3bf08898	0.007340502
244	0x3b0fe603	0.0021957166
245	0xbd348245	-0.044069547
246	0x3bc62b4b	0.0060476414
247	0xbc4627c5	-0.012094443
248	0x3ccc5452	0.02494255
249	0xbc90297b	-0.017597904
250	0x3d1e7153	0.038682293
251	0x3b8e8db2	0.0043503875
252	0xbbddab48	-0.006764803
253	0x3c987b4f	0.018613486
254	0x3d0da5ac	0.034581825
255	0x3d3aa2ae	0.0455653

gcn_convs.0.path_weight_1.bias f4 [32]
0	0x3f8ee735	1.1164309
1	0x3d002f62	0.031295188
2	0x3f3c8399	0.736383
3	0x3ee34718	0.44390178
4	0x3d4829aa	0.04886786
5	0xbf4407b0	-0.7657423
6	0x3e1a159f	0.1504731
7	0x3c5a1c22	0.013312371
8	0x3dcba8fb	0.0994434
9	0xbf54de0d	-0.8315132
10	0x3f266c28	0.65008783
11	0xbcda620b	-0.026658079
12	0xbef77371	-0.48330262
13	0x3ce64138	0.02810727
14	0x3d72d09d	0.05928098
15	0xbf0c1b09	-0.5472875
16	0xbc0769c8	-0.008264966
17	0x3af1f01e	0.0018458401
18	0xbde50298	-0.11182135
19	0xbd861b9a	-0.06548233
20	0x3d0e24ef	0.03470319
21	0x3d8e07e4	0.06935099
22	0xbf631719	-0.8870712
23	0xbd551c60	-0.052029014
24	0xbe0a7077	-0.13519464
25	0xbe75cb85	-0.24003418
26	0x3d38f0f0	0.04515165
27	0x3d0ac806	0.033882163
28	0x3c40d3ad	0.011769217
29	0xbf09ad2e	-0.53779876
30	0xbd3e7778	-0.046500653
31	0xbc18cab9	-0.009325677

gcn_convs.0.path_weight_2.weight f4 [32, 32]
0	0x3b832194	0.0040018056
1	0x3b6d1d92	0.0036180955
2	0xbae4a69c	-0.0017444673
3	0x3b8f4f7c	0.004373489
4	0xbb57f25a	-0.003295085
5	0xbb3db6c0	-0.0028948039
6	0xba49ac10	-0.0007693181
7	0x3bc53b8d	0.006019062
8	0x3bc500e9	0.0060120714
9	0x3b98cc6d	0.0046630413
10	0x3bac70ae	0.005262456
11	0x3b4e5d66	0.0031488775
12	0x3bb6c1b2	0.0055772895
13	0x3bbf78f9	0.0058432785
14	0x3b94b557	0.004538219
15	0x3b98e2d7	0.0046657133
16	0x3bc0ab37	0.0058797854
17	0xbbc2da00	-0.005946398
18	0x3b961ea7	0.0045812908
19	0x3b971735	0.004610921
20	0x3bb9ce1b	0.0056703216
21	0xbb9ffad3	-0.0048821955
22	0x3b5ee0fd	0.0034008615
23	0xbb9697c9	-0.004595731
24	0x3b5513b3	0.0032512962
25	0x3ba7d5e4	0.0051219333
26	0x3b26d6dd	0.0025457658
27	0xb96b94ca	-0.00022466775
28	0xb80a9bc6	-3.304684e-05
29	0xbba0a9d5	-0.004903058
30	0xbb94fafc	-0.004546521
31	0xbb440afd	-0.0029913776
32	0x3bc3dd65	0.00597732
33	0xbb4539cb	-0.0030094262
34	0xbba121a0	-0.0049173385
35	0xbb8e9856	-0.004351656
36	0xbbbcc173	-0.0057603656
37	0x3bad5f97	0.005290936
38	0xbb9e7508	-0.0048357286
39	0xbb93e05a	-0.004512829
40	0x3bc56ce0	0.006024942
41	0x38d553db	0.00010172251
42	0xbb8f3100	-0.004369855
43	0x3b8aa081	0.0042305593
44	0x3b992f41	0.0046748226
45	0x3bdfa9fc	0.0068256836
46	0xb9b8f542	-0.00035277946
47	0x3a20e010	0.00061369035
48	0xbbb4a788	-0.0055131353
49	0x3b98746c	0.0046525504
50	0x3a1334c8	0.000561547
51	0xbb8a988c	-0.004229611
52	0xba86033f	-0.0010224356
53	0xbaa70d86	-0.0012745119
54	0xbb90f41d	-0.004423632
55	0x3aa9898b	0.0012934668
56	0x3a1552e5	0.0005696251
57	0x3ba5145a	0.0050378265
58	0x3b81bb8f	0.0039591263
59	0x3b8c451f	0.004280701
60	0xbac57284	-0.0015064036
61	0xbb7d3612	-0.0038636965
62	0xbb1690b7	-0.002297444
63	0xbb867e59	-0.0041044173
64	0x3ba682e2	0.0050815204
65	0xba47492c	-0.0007602151
66	0x3bb44b8b	0.0055021695
67	0x3b6e810d	0.0036392838
68	0x3b4bf23e	0.003111973
69	0xbb94b0d4	-0.004537681
70	0x3bcd3183	0.006262006
71	0xbbae0bc5	-0.0053114616
72	0xba99db98	-0.0011738418
73	0x3b7952a1	0.0038043635
74	0xbad22d85	-0.0016035294
75	0xbb8d437d	-0.0043110237
76	0xbb4b598c	-0.0031028716
77	0x3b91c21c	0.0044481885
78	0x3b7914ee	0.003800686
79	0xbae34b57	-0.0017341179
80	0x3b7fbdf8	0.0039023142
81	0x39c9e151	0.0003850558
82	0x3b16fac7	0.0023037659
83	0xbb8aa776	-0.0042313887
84	0x3b2b3623	0.0026124797
85	0xbb7e0e12	-0.003876571
86	0xbb8ae801	-0.004239083
87	0xbb8565fa	-0.0040709944
88	0xb9ab2401	-0.00032642487
89	0xbbbc263b	-0.005741862
90	0xbb9bd4be	-0.0047555855
91	0xbb95371e	-0.0045536896
92	0x3afa5f7c	0.0019101943
93	0x3bbabf3a	0.0056990655
94	0xbb0708cc	-0.0020604609
95	0x3ba55ddc	0.0050465893
96	0xba4b3ec9	-0.0007753191
97	0x3b28f8b6	0.002578301
98	0xbbe40202	-0.006958247
99	0x3ac8686c	0.0015289909
100	0xbbcc512a	-0.0062352614
101	0xbacb815b	-0.0015526222
102	0xbbc7f2b6	-0.0061019314
103	0xbbae0c5a	-0.005311531
104	0x3b876594	0.004131982
105	0xbbbd04ca	-0.005768393
106	0xbbafbe26	-0.0053632436
107	0xbb996894	-0.004681656
108	0x3b8c051a	0.004273069
109	0xbb8c1d48	-0.0042759515
110	0x3b920ec1	0.004457325
111	0xbbc3b68e	-0.00597269
112	0xbbed7680	-0.0072467923
113	0xbb86fb0f	-0.004119284
114	0xbb46d214	-0.0030337619
115	0xbb8ae8be	-0.004239171
116	0xbb587397	-0.0033027881
117	0x3b9b0f4c	0.004732048
118	0x3b65b3f5	0.003504989
119	0x3b90c7fb	0.004418371
120	0xbb86268c	-0.0040939506
121	0xbb31865c	-0.002708814
122	0xbb9d67ab	-0.004803618
123	0x3ba8abee	0.0051474487
124	0x39b0396b	0.00033612116
125	0xbba85853	-0.005137482
126	0xbb601e4b	-0.0034197744
127	0x3ae69c37	0.0017594163
128	0xbbab6480	-0.0052304864
129	0x3b929e3a	0.0044744285
130	0x3b98bb5f	0.0046610082
131	0x3aa40019	0.0012512236
132	0xba88c703	-0.0010435287
133	0xbb90ff0c	-0.004424935
134	0xb9763ce8	-0.00023483078
135	0x3ad9c162	0.0016613419
136	0x3b62fe9f	0.003463663
137	0x3ba166ff	0.004925608
138	0xbab52d95	-0.0013822789
139	0xbbc106f6	-0.0058907224
140	0xbbe8955b	-0.0070978827
141	0xbb014be3	-0.001972907
142	0x3bede877	0.007260378
143	0x3b179ed1	0.0023135433
144	0xbb995fae	-0.0046805954
145	0x3b94d4db	0.004541976
146	0xbb985b5b	-0.0046495623
147	0xbb91b79a	-0.004446936
148	0x3b96e716	0.0046051843
149	0xbb927232	-0.0044691795
150	0xbb62b484	-0.003459246
151	0x39818959	0.0002470713
152	0xbb933c62	-0.004493282
153	0xbb99688b	-0.004681652
154	0x3b6063a4	0.0034239078
155	0xbbc15f19	-0.005901229
156	0x3b9dcc52	0.0048156166
157	0x3b82d8b7	0.0039931196
158	0x3b93cc97	0.004510473
159	0x3b9f8edd	0.0048693256
160	0x3aee7efe	0.0018195806
161	0xbb9e72d0	-0.004835464
162	0x3bac890a	0.0052653598
163	0xba46a509	-0.0007577693
164	0x3b8d4e26	0.0043122945
165	0x3b8d4c91	0.004312106
166	0x3b93b5d4	0.0045077596
167	0xbb8cfc37	-0.0043025273
168	0xbb35d6c6	-0.0027746423
169	0xb90858c3	-0.00013003037
170	0xba33224b	-0.0006833418
171	0xb954732f	-0.00020260805
172	0x3b999391	0.0046867807
173	0xbbae2317	-0.0053142416
174	0xbbc3133a	-0.0059532197
175	0x3b7cf1ec	0.0038596345
176	0xbbc0f165	-0.0058881515
177	0xbab44ce8	-0.001375583
178	0x3ba28669	0.0049598706
179	0xb80f3a3b	-3.4148088e-05
180	0xbb295f7a	-0.0025844262
181	0x3a0b1360	0.00053053163
182	0x3b8b4ecd	0.004251337
183	0xb97eec72	-0.0002431141
184	0xba9ea4bb	-0.0012103537
185	0x3b322e87	0.0027188377
186	0xbb26f248	-0.0025474
187	0xbb44f698	-0.0030054208
188	0xbb8aac83	-0.004231991
189	0x3b8ee3c8	0.0043606497
190	0xbb0d5cc1	-0.0021570178
191	0xbb52c206	-0.0032159104
192	0xbb8801f8	-0.0041506253
193	0x3adecc28	0.0016998099
194	0x3b7133a0	0.0036804453
195	0x3bc726a6	0.0060776053
196	0x3bae1562	0.0053126076
197	0x3b8ccc66	0.004296827
198	0x3b25e612	0.0025314135
199	0x3ab07d1e	0.0013465022
200	0x3be16291	0.006878205
201	0xbb948686	-0.004532638
202	0x3b93bb22	0.004508392
203	0x3b9fcf36	0.0048769964
204	0xbbc1dabb	-0.0059159673
205	0xbb57782f	-0.0032878031
206	0xbba134aa	-0.004919608
207	0xbbbbe694	-0.005734274
208	0xbb9d6d3d	-0.004804282
209	0xbb90aed4	-0.0044153724
210	0xbb8f6fa1	-0.004377321
211	0x3ba09579	0.004900631
212	0x3b8afc35	0.004241491
213	0x3ba53f1f	0.005042925
214	0x3aefebac	0.0018304489
215	0xbbc3fbbf	-0.005980938
216	0x3b8832ed	0.0041564615
217	0xbbc61975	-0.006045515
218	0xbb66bfd9	-0.0035209565
219	0xbae0dcbe	-0.001715563
220	0xbb826b01	-0.003980041
221	0xbba41613	-0.0050075143
222	0xbb89b383	-0.0042023077
223	0xbb960688	-0.0045784153
224	0x3ba15377	0.00492328
225	0xbb35d39b	-0.0027744535
226	0x3b68f752	0.0035547805
227	0x38b7670b	8.745313e-05
228	0xbb0d424f	-0.0021554416
229	0x3b8288c6	0.00398359
230	0x3bc10c9a	0.005891395
231	0xbad232b1	-0.0016036836
232	0xbb3aa600	-0.0028480291
233	0x3b85465d	0.004067226
234	0x3ab065dc	0.0013458091
235	0x3b20ccfe	0.0024536247
236	0x3bcc0b53	0.006226936
237	0x3b9772c3	0.004621835
238	0xbbaacc38	-0.005212333
239	0xbbecd723	-0.0072277947
240	0xbb173262	-0.0023070802
241	0xbb94a54a	-0.0045363056
242	0xbba2e9d7	-0.0049717235
243	0xbba7132a	-0.00509872
244	0xbbbf23e6	-0.005833137
245	0xbb6c168a	-0.0036024177
246	0xbb65b4ac	-0.0035050316
247	0x3bc31428	0.0059533305
248	0x3b90bf0e	0.0044173067
249	0x3b64b557	0.0034898126
250	0x3ac9e289	0.0015402596
251	0xbba402b1	-0.0050052037
252	0xbb8b5dce	-0.0042531257
253	0x3b55c9cb	0.0032621499
254	0xbb81bba2	-0.003959135
255	0x3b8227cf	0.0039720307

gcn_convs.0.path_weight_2.bias f4 [32]
0	0x3f8c3f08	1.0956736
1	0xbf34c3ed	-0.7061146
2	0x3f411cb2	0.7543441
3	0x3f01e813	0.5074474
4	0x3d4c9faf	0.049956974
5	0xbf6d6a05	-0.927399
6	0xbd317a2d	-0.043329407
7	0xbce74fa7	-0.028236223
8	0x3dc5b36e	0.09653364
9	0x3d4f07af	0.050544437
10	0x3f1289b1	0.5724135
11	0x3af559a7	0.0018718735
12	0xbd2d06f9	-0.042242978
13	0xbdf09e33	-0.11748924
14	0x3d9bb420	0.076027155
15	0xbf08f3e8	-0.5349717
16	0x3f4f9b17	0.81096023
17	0xbf254325	-0.6455558
18	0xbde6617d	-0.11249063
19	0xbdec9c9c	-0.11553308
20	0xbb8b99aa	-0.0042602615
21	0xbed164ee	-0.40897316
22	0xbf648fba	-0.8928181
23	0x3f760551	0.9610186
24	0xbe52b7d3	-0.20577936
25	0xbe955446	-0.29165858
26	0xbbe1d59f	-0.0068919207
27	0xbd10327f	-0.035204407
28	0xbbd0176b	-0.006350448
29	0xbeee325c	-0.46522796
30	0xbd793514	-0.060841635
31	0xbcb05c24	-0.021528311

gcn_convs.1.path_weight_1.weight f4 [32, 32]
0	0x3bb72d0b	0.0055900863
1	0x3c50fd77	0.012755743
2	0x3bd3e8d3	0.006466964
3	0xbc25b8a2	-0.010114821
4	0x3b8d9a14	0.004321346
5	0x3c34b7b0	0.011030123
6	0x3be5f903	0.00701821
7	0x3bf79594	0.007555673
8	0x3b2ea0f7	0.0026646235
9	0xbb6b8451	-0.003593702
10	0xbbf112f2	-0.007356995
11	0x39b6c26c	0.000348586
12	0xbb8f45c4	-0.0043723304
13	0xbbbb7df5	-0.0057218024
14	0xbbf4d00e	-0.007471091
15	0xbac01b72	-0.0014656617
16	0xbc194117	-0.0093538975
17	0xbacf2767	-0.001580459
18	0x3b593eea	0.0033149072
19	0xbc5b59ea	-0.013388136
20	0xbb02d5ae	-0.0019963789
21	0xbc4bb297	-0.012432716
22	0xbbc5a8ce	-0.006032086
23	0x3b395a02	0.0028282409
24	0x3c08a405	0.008339887
25	0xbbbc2e3a	-0.0057428153
26	0x3c4f32b2	0.012646364
27	0x3b24619e	0.0025082598
28	0x3c487235	0.01223426
29	0xbbf27eab	-0.007400354
30	0xba652d43	-0.0008742401
31	0xbb53a0c1	-0.0032291862
32	0xb853c152	-5.0486364e-05
33	0xbc97ef19	-0.018546628
34	0x3ba3369f	0.0049808766
35	0x3c4bbbd6	0.01243492
36	0x3c9a9667	0.018870546
37	0xbb315b83	-0.0027062602
38	0xbc53e841	-0.012933792
39	0x3c230358	0.009949528
40	0x3b13d728	0.0022558663
41	0xbb1b8c0a	-0.0023734593
42	0xbb92fd39	-0.004485753
43	0x3c17142c	0.009221118
44	0x3c1bd892	0.009512084
45	0xbc0b3f76	-0.008499017
46	0x3b93aac9	0.004506443
47	0xbccd669a	-0.025073338
48	0xbb05dbbf	-0.0020425168
49	0xbc3be6af	-0.0114685735
50	0xbbc7212b	-0.006076952
51	0x3c208962	0.00979838
52	0xba9a68d5	-0.001178051
53	0xbaaed99c	-0.0013339999
54	0x3c977688	0.018489137
55	0xbc9105ce	-0.017702963
56	0xbc4ca4e5	-0.012490486
57	0x3bfc393a	0.0076972516
58	0xbc84e360	-0.016221702
59	0x3c7606f7	0.015016309
60	0x3b7d820f	0.0038682257
61	0xbada07c7	-0.0016634398
62	0x3c392275	0.011299719
63	0x3b61ce03	0.0034455068
64	0xbbe2d7cf	-0.006922699
65	0x3c01464a	0.007890293
66	0x3c0d80ae	0.008636637
67	0xbb902ecf	-0.0044001113
68	0xbb73cd8e	-0.0037201378
69	0xbc1562c0	-0.009117782
70	0x3bf1dd2a	0.007381101
71	0xba9483cd	-0.0011330784
72	0xbc1ebb90	-0.009688273
73	0x3c5d8788	0.013521083
74	0x3c435709	0.011922606
75	0xba9d160a	-0.0011984718
76	0x3b8861e3	0.0041620596
77	0xbbdd0986	-0.00674552
78	0x3c2db373	0.010601866
79	0xbc0e28d3	-0.008676725
80	0x3b2c6f95	0.0026311625
81	0x3b81d71d	0.003962411
82	0xbbd3c400	-0.006462574
83	0x3c5391c5	0.012913172
84	0xbaef3274	-0.0018249289
85	0xbba2c74a	-0.0049676048
86	0x3acea889	0.001576678
87	0xbc4e74ca	-0.012601087
88	0xbb4f7b72	-0.0031659272
89	0x3c508244	0.01272637
90	0x3b118dc4	0.0022209743
91	0xbbe6e807	-0.007046703
92	0x3b02abb8	0.0019938778
93	0xbb51081a	-0.0031895698
94	0x3bc352d3	0.005960801
95	0x3c486227	0.012230433
96	0xbb84f202	-0.00405717
97	0xbbd41c84	-0.006473126
98	0x3b9b28af	0.0047350745
99	0xbc2db4b0	-0.010602161
100	0x3b4a4243	0.003086225
101	0xbb8884ae	-0.0041662073
102	0x37784495	1.479792e-05
103	0x3be2331e	0.0069030663
104	0x3b9f9b6f	0.004870824
105	0xbb20358e	-0.0024445984
106	0x399ec390	0.00030281814
107	0x392d49c8	0.00016526051
108	0xbc43c6ee	-0.011949284
109	0x3b1efb85	0.0024258804
110	0x3afda641	0.0019351916
111	0x3aff9c70	0.0019501578
112	0x3b772764	0.0037712688
113	0xbb8dd882	-0.0043287883
114	0x3aafdd51	0.0013417398
115	0xbbb86ff5	-0.0056285807
116	0xba36720a	-0.0006959742
117	0x3b108f83	0.0022058196
118	0x3c38318f	0.011242284
119	0xbc1ff27f	-0.009762405
120	0xbc05ebea	-0.008173922
121	0x3ad04fe2	0.0015892948
122	0x3bf02841	0.0073290174
123	0xbb8708a9	-0.0041209054
124	0x3b6fb730	0.0036577694
125	0x3ba72cb5	0.005101765
126	0xbb9399ec	-0.004504433
127	0x3bd30d37	0.0064407843
128	0xbba676b5	-0.005080069
129	0x3b904c64	0.0044036377
130	0x3c43d0d9	0.011951649
131	0x3b9dab30	0.004811667
132	0xbb97ecb5	-0.004636372
133	0xbbfee4e5	-0.007778751
134	0x3b94cdf9	0.0045411554
135	0xbb87fa6c	-0.0041497257
136	0x3b369b5c	0.0027863597
137	0xbb017447	-0.0019753145
138	0xbba286d4	-0.0049599204
139	0x3bb3b7c4	0.005484553
140	0xb9dd23c4	-0.00042179052
141	0xba35a05e	-0.00069284986
142	0x3b7139ba	0.003680809
143	0x39641495	0.00021751442
144	0xbbe20718	-0.0068978183
145	0xbb961c6d	-0.0045810253
146	0xbc05fe95	-0.008178373
147	0x3b8b1188	0.0042440332
148	0x3bab7373	0.0052322685
149	0x3b92cb32	0.004479789
150	0x3c06d2b2	0.008228945
151	0xbc29f129	-0.0103724385
152	0x3c106639	0.008813434
153	0x3be8efba	0.0071086558
154	0x3ae0a6a6	0.0017139509
155	0xbbbbc100	-0.0057297945
156	0xbb380e06	-0.002808453
157	0xbabe6773	-0.001452668
158	0x3bdad885	0.006678643
159	0x3b974d16	0.0046173437
160	0x3b8ec612	0.004357108
161	0x3a14cabd	0.00056759623
162	0x3b04526f	0.0020190736
163	0x3b027d06	0.0019910946
164	0xbb6a04f0	-0.003570851
165	0xbb7ae211	-0.0038281719
166	0x3bec9212	0.0072195614
167	0xbb8b7fe0	-0.0042571872
168	0x3c3d657f	0.011559843
169	0xbc2e352c	-0.010632794
170	0x3ae002c1	0.0017090664
171	0x3aafda3a	0.0013416477
172	0x3b228ae2	0.002480202
173	0x3b186c9b	0.0023258093
174	0x38bc5c9d	8.981789e-05
175	0x3b300c40	0.002686277
176	0xbbfe1d2b	-0.007754942
177	0x3b8266ac	0.0039795246
178	0xba731ca4	-0.0009273982
179	0xbafc745f	-0.0019260756
180	0x3c241cb3	0.010016608
181	0x3bbf9922	0.0058471123
182	0xbbe5a21b	-0.00700785
183	0xbb8652b9	-0.004099217
184	0x3b61a5ee	0.0034431177
185	0x3c0611cd	0.008182955
186	0xbae1795e	-0.0017202308
187	0x3b7a467c	0.0038188985
188	0xbb4200da	-0.0029602558
189	0x3bae3e74	0.0053175036
190	0x3c28218b	0.0102619035
191	0x3b8cbd63	0.0042950376
192	0xbc505554	-0.012715656
193	0x3bd9f80e	0.006651885
194	0x3c2452a8	0.010029472
195	0x3bf92a97	0.007603954
196	0x3ba41f18	0.0050085895
197	0xbc61c510	-0.0137798935
198	0x3c8769a6	0.01652987
199	0xbac6e30d	-0.0015173868
200	0x3c014da4	0.007892046
201	0xbb436f3c	-0.002982094
202	0x3b557aa9	0.0032574332
203	0xbb99c556	-0.0046927137
204	0xbbd9899e	-0.0066387197
205	0x3b8ff311	0.0043929894
206	0xbc5defe0	-0.01354596
207	0x3c5900c5	0.013244812
208	0xbbb682ae	-0.0055697775
209	0xbc0dbbb3	-0.008650708
210	0x3bc7510a	0.0060826587
211	0xbc1cfe61	-0.009582133
212	0x3c4024c2	0.011727514
213	0x3c03e719	0.008050703
214	0xbaaa393a	-0.0012987026
215	0xbbda853c	-0.006668715
216	0x3b9bbeff	0.004752993
217	0x3ba57d97	0.005050372
218	0xbc27fee7	-0.010253645
219	0x3b17ac08	0.002314331
220	0xbc4837a3	-0.012220296
221	0x3b9180b8	0.0044403933
222	0xbb6366b3	-0.0034698665
223	0xba44ef28	-0.00075124437
224	0xbba0ad08	-0.0049034394
225	0xba64983a	-0.00087201933
226	0xbb8a2784	-0.0042161364
227	0x3bb8c9dd	0.0056392984
228	0x3be456f0	0.0069683716
229	0x3bb805d3	0.0056159287
230	0xba1744ce	-0.00057704456
231	0x3c0f355b	0.008740748
232	0xbc8057e6	-0.015666913
233	0x3bd113eb	0.0063805482
234	0xbc8467af	-0.016162721
235	0x3bb6b1e9	0.0055754078
236	0xbb1883cb	-0.0023271914
237	0xbabbb8d9	-0.0014322057
238	0xbb20dfa1	-0.0024547356
239	0xb9a3249b	-0.00031117056
240	0xbc1fe99a	-0.009760285
241	0x3b42653e	0.0029662396
242	0x3c266e9c	0.010158207
243	0xbb1fcb44	-0.002438263
244	0x3bd7e9ee	0.006589166
245	0xbc4670c5	-0.012111847
246	0x3bee0ce5	0.0072647207
247	0x3c501e26	0.0127025
248	0xbb7d13f5	-0.0038616632
249	0xbc13e0f2	-0.009025799
250	0xba00a094	-0.00049067405
251	0xba1c0848	-0.0005952162
252	0xbb496136	-0.0030728108
253	0xbb71dd35	-0.0036905531
254	0x3c60edd7	0.01372858
255	0x3bd256d8	0.006419044

gcn_convs.1.path_weight_1.bias f4 [32]
0	0xbc81170d	-0.015758062
1	0x3da1a9bb	0.07893702
2	0x3c895e5f	0.016768632
3	0xbe27948e	-0.16365263
4	0x3d084b75	0.033275086
5	0xbcaa4963	-0.020786947
6	0xbb5a3366	-0.0033294796
7	0x3b57e2db	0.0032941613
8	0xbc33e191	-0.010979072
9	0xba0494fa	-0.00050575996
10	0x3d31db55	0.043422062
11	0x3ce98749	0.028506892
12	0x3dd3fd00	0.1035099
13	0xbcb70dee	-0.02234551
14	0x3e6883ab	0.22706477
15	0x3d1b5b6b	0.03792898
16	0x3c2c2f19	0.010509276
17	0x3d84a7ab	0.064772926
18	0xbd33a36c	-0.043857023
19	0xbbf98eb8	-0.0076158904
20	0x3c8e3a11	0.017361673
21	0x3c0e3936	0.008680632
22	0x3cf69112	0.030098472
23	0xbc9a7703	-0.018855577
24	0xbcd4561d	-0.025919968
25	0x3bf7a5cf	0.0075576077
26	0x3c866aa1	0.016408266
27	0xbb477250	-0.0030433126
28	0x3ca8b118	0.020592257
29	0x3b7aafcf	0.0038251763
30	0x3cceb314	0.025231875
31	0x3ce2c3c7	0.027681245

gcn_convs.1.path_weight_2.weight f4 [32, 32]
0	0x3c418bb4	0.011813093
1	0xbaef7580	-0.0018269271
2	0xbb8982c1	-0.0041964953
3	0x3b8847e6	0.0041589616
4	0xbce86b9d	-0.028371627
5	0xbbcff2ef	-0.0063460986
6	0x3c809412	0.015695605
7	0x3d3e9a00	0.046533585
8	0x3d480420	0.04883206
9	0xbd086d9a	-0.03330765
10	0xbd3d1ae8	-0.046168238
11	0xbc72565f	-0.0147911
12	0xbc95ad3c	-0.018271081
13	0xbbb052d6	-0.0053809686
14	0x3db16c57	0.08663242
15	0x3dbb64d4	0.09150091
16	0xbd244293	-0.040102553
17	0x3bb606c8	0.0055550076
18	0xbd910bc2	-0.07082321
19	0xbc0028de	-0.0078222435
20	0x3d4773eb	0.048694532
21	0xbd20c342	-0.039248712
22	0xbc55e5d2	-0.013055282
23	0x3c4aefc0	0.012386262
24	0xbce5bc9e	-0.028044041
25	0x3cc34acd	0.023839379
26	0xbd062143	-0.032746565
27	0x3d6c8a63	0.057749163
28	0x3c9f52a6	0.01944859
29	0x3c925d55	0.01786677
30	0xbcd60a4b	-0.026127955
31	0x3c335ae3	0.010946962
32	0x3cca50ec	0.02469679
33	0xbbdc83c2	-0.006729574
34	0xbc50196b	-0.012701373
35	0x3d31d229	0.043413315
36	0xbd52f31f	-0.05150139
37	0xb9a9c521	-0.00032381064
38	0xbaa16f6b	-0.001231653
39	0x3b8091e1	0.00392364
40	0xbb492939	-0.0030694737
41	0xbcbab4c1	-0.022791268
42	0x3dab5850	0.08366454
43	0xbc8a9c4f	-0.016920237
44	0x3cbfd838	0.02341853
45	0x3ce9d7aa	0.02854522
46	0xbcc9034f	-0.02453771
47	0xbca31725	-0.019908497
48	0x3d91f0cd	0.07126007
49	0xbb895ecd	-0.0041922093
50	0x3cb02471	0.021501752
51	0xbd13a4fe	-0.03604602
52	0x3d86c971	0.06581391
53	0x3b5087c1	0.0031819197
54	0xbcd13872	-0.02553961
55	0x3ca5d9b9	0.02024542
56	0xbcc690f4	-0.02423904
57	0xbc916a76	-0.01775096
58	0xbb23324a	-0.00249018
59	0xbd474246	-0.048647188
60	0x3d51eb83	0.051249992
61	0xbc37fc36	-0.011229565
62	0x3e276274	0.1634615
63	0xbd7b7b5e	-0.06139695
64	0x3dbcbdca	0.09215887
65	0x3c5e7a7a	0.013579005
66	0xbc8081c0	-0.01568687
67	0xbcad3192	-0.021141801
68	0xbc02ecbf	-0.007991015
69	0x3c880c29	0.01660736
70	0xbc727d4c	-0.014800381
71	0xbd2fd46e	-0.042927198
72	0x3cf67f47	0.030089987
73	0xbd8e83db	-0.06958743
74	0x3bcd3371	0.006262236
75	0x3c9444b5	0.018099168
76	0x3b972dc0	0.004613608
77	0x3ccdb5c0	0.02511108
78	0x3cae28c4	0.021259673
79	0x3cd4eb80	0.025991201
80	0xbc9f2e3a	-0.019431222
81	0xbc242620	-0.010018855
82	0xbc308a56	-0.010775169
83	0x3c94deac	0.018172584
84	0xbd5ed2bb	-0.054400187
85	0xbdc28f66	-0.09500007
86	0xbc41b76f	-0.011823519
87	0xbd52a94f	-0.051430997
88	0x3d0ad738	0.033896655
89	0xbb9aaffa	-0.004720685
90	0xbd0a9333	-0.033831786
91	0xbbe9a3e3	-0.0071301325
92	0x3bd987ea	0.0066385167
93	0xba31e3c7	-0.00067859556
94	0x3c6cb323	0.014447006
95	0x3bc8c2dd	0.006126745
96	0xbce9a224	-0.028519697
97	0xbd10e88d	-0.035378028
98	0xbcd490e9	-0.025948005
99	0x3c080639	0.008302265
100	0x3ce14657	0.027499361
101	0x3d01bb4c	0.03167276
102	0x3c5cdeff	0.013480901
103	0x3dd95d6f	0.10613524
104	0xbc18ed4c	-0.00933392
105	0xbcaf1803	-0.021373754
106	0xbe595897	-0.212252
107	0xbd1d08ed	-0.03833859
108	0xbd33d1c1	-0.04390121
109	0x3d58ed0a	0.052960433
110	0x3df3ecae	0.119103774
111	0xbcec7855	-0.028865973
112	0xbc84e280	-0.016221285
113	0xbbe29d59	-0.00691573
114	0xbcb55e7f	-0.022139786
115	0x3c55e5d9	0.013055288
116	0xbdc95790	-0.09831154
117	0xbc4ab995	-0.012373348
118	0xbc237832	-0.009977387
119	0x3c81797c	0.015804999
120	0xbd5d92d0	-0.05409509
121	0x3aaaeac0	0.0013039932
122	0xbc8548f8	-0.016270146
123	0x3d0e3cff	0.03472614
124	0xbcf0de7c	-0.029402964
125	0x3b89b0e6	0.004201996
126	0x3d58b8dd	0.052910674
127	0x3d727b61	0.059199695
128	0xbc8e3721	-0.017360272
129	0x3d58e387	0.052951362
130	0x3c23daaa	0.010000864
131	0x3c522d71	0.012828217
132	0xbc899295	-0.016793529
133	0xbc283ac7	-0.01026792
134	0xbb9483bd	-0.004532306
135	0xbd706215	-0.05868729
136	0x3d5bfcb8	0.05370781
137	0x3c95915c	0.01825779
138	0x3d70e6f9	0.058814023
139	0x3cbb85eb	0.022891006
140	0xbd8bf54b	-0.06833895
141	0x3dbcdaea	0.09221442
142	0xbbfd737f	-0.0077347155
143	0x3d4df770	0.050284803
144	0xbd0d5092	-0.034500666
145	0x3b35ddc1	0.0027750584
146	0x3d162308	0.036654502
147	0xbda13774	-0.07871905
148	0x3dc44d61	0.09585071
149	0xbd4bed25	-0.049786706
150	0xbc3e6f8a	-0.011623273
151	0x3c0cfff5	0.008605947
152	0xbbac6945	-0.0052615725
153	0xba69a041	-0.00089121243
154	0xbc9afd6d	-0.018919671
155	0x3d876b1c	0.06612226
156	0xbd8ed3f8	-0.069740236
157	0xbce78f01	-0.028266432
158	0x3df1cb27	0.11806326
159	0xbcb8bd50	-0.022551209
160	0x3cd4e70d	0.02598908
161	0xbc470b58	-0.012148701
162	0xbcd1814a	-0.025574345
163	0x3c98d857	0.018657846
164	0x3d48a727	0.048987534
165	0xbcd71d79	-0.02625917
166	0xbc30d06e	-0.010791881
167	0xbe9aedb0	-0.30259466
168	0xbd9262ab	-0.07147726
169	0x3d3dd3b3	0.04634447
170	0x3dd8dfdf	0.10589575
171	0x3d3ef766	0.046622656
172	0x3ce21711	0.02759889
173	0xbd054e68	-0.032545477
174	0x3d05d288	0.03267148
175	0xbe8b1024	-0.27160752
176	0x3cf2781f	0.029598294
177	0xbcc349aa	-0.023838837
178	0xbc58ed67	-0.013240195
179	0xbd31eb95	-0.04343756
180	0x3e565f4d	0.20934792
181	0x3d87f759	0.06638975
182	0xbd325f54	-0.043547943
183	0xbb8ee605	-0.0043609166
184	0xbcc38273	-0.023865914
185	0x3d770790	0.060309947
186	0x3ce228d0	0.027607352
187	0xbd1bab06	-0.038004898
188	0x3e478dab	0.19487636
189	0x3c1a4508	0.009415872
190	0x3d2a032b	0.041506927
191	0xbcaf2d74	-0.021383978
192	0xbd71e0d8	-0.05905232
193	0x3bbac6f5	0.005699987
194	0x3ba6c163	0.0050889715
195	0xbbeb64b1	-0.007183634
196	0x3e8286e6	0.25493544
197	0xbc2d65ed	-0.010583383
198	0x3c4ed147	0.012623138
199	0x3db0d8a5	0.08635072
200	0xbdb8efba	-0.09030099
201	0x3d5b9cb6	0.053616248
202	0x3d04be0d	0.03240781
203	0x3d1b782f	0.037956413
204	0xbd3741fd	-0.044740666
205	0x3d9aa0fa	0.07550235
206	0xbc1de147	-0.00963623
207	0x3d2c181b	0.042015176
208	0x3d846619	0.06464786
209	0x3d83bbbc	0.06432292
210	0x3e0d5249	0.1380092
211	0x3d3fc186	0.046815418
212	0x3e84195f	0.25800607
213	0x3e9a1845	0.3009664
214	0xbc1f5c8f	-0.0097266575
215	0x3cfebd9c	0.031096272
216	0x3d5f83f9	0.05456922
217	0xbcf3e5cf	-0.029772667
218	0x3d25fff3	0.040527295
219	0x3d07895e	0.033089988
220	0x3e5a0d0b	0.21294038
221	0xbd8d286b	-0.06892475
222	0x3d0550d2	0.03254778
223	0xbd003bbb	-0.031306963
224	0x3d2a5d81	0.04159308
225	0x3b5551c9	0.0032549968
226	0xbd1dafbe	-0.03849768
227	0xbb31c2b2	-0.0027124104
228	0xbc880a71	-0.016606541
229	0x3ddebd1a	0.10875912
230	0xbba41a99	-0.0050080535
231	0x3ced5cd7	0.028974934
232	0xba552f22	-0.00081323285
233	0x3c08c237	0.008347086
234	0x3d53e043	0.051727545
235	0x3a412176	0.0007367352
236	0x3cfc1b84	0.03077484
237	0x3c8692b0	0.016427368
238	0x3cfc1ea3	0.030776327
239	0xbe4fc402	-0.20289615
240	0x3ce8e632	0.028430078
241	0x3caddf15	0.021224538
242	0xbd815a9e	-0.06316112
243	0x3c8f4cc2	0.017492656
244	0x3c3f6886	0.011682635
245	0xbd940c63	-0.07228925
246	0x3d0c048c	0.034184024
247	0xbc9aa024	-0.01887519
248	0xbb91259f	-0.0044295336
249	0xbc67cbba	-0.014147693
250	0xbbf2062d	-0.00738599
251	0x3da54696	0.08070104
252	0xbb97d87f	-0.0046339626
253	0xbb792631	-0.0038017149
254	0xbd8dbbbb	-0.06920572
255	0xbd0c2547	-0.034215238

gcn_convs.1.path_weight_2.bias f4 [32]
0	0x3c9e1467	0.019296838
1	0xbcb022cc	-0.021500967
2	0xbd93fe6b	-0.07226261
3	0x3c9633bd	0.018335218
4	0xbcbb700a	-0.022880573
5	0xbbed609c	-0.0072441828
6	0x3d3d1cb2	0.046169944
7	0xbce51290	-0.027962953
8	0x3d688b95	0.05677374
9	0xbc269dfe	-0.010169504
10	0x3da11419	0.078651614
11	0xbc7c0af5	-0.015383472
12	0xbcc40ff1	-0.023933383
13	0xbd647519	-0.055775736
14	0x3d85ecca	0.065393046
15	0x3da636f0	0.08115947
16	0x3cc33c61	0.023832502
17	0xbc236344	-0.009972397
18	0xbc84645f	-0.016161142
19	0xbdaf4adb	-0.085591994
20	0x3c8f4592	0.017489228
21	0x3cc78be1	0.024358692
22	0xbd3346b3	-0.043768596
23	0xbd23395b	-0.03984962
24	0x3e0c0a2e	0.13675758
25	0x3cc7b626	0.024378847
26	0xbcd70100	-0.026245594
27	0xbda07be0	-0.07836127
28	0xbd07a553	-0.03311665
29	0xbd0e8c63	-0.034801852
30	0x3c963d75	0.018339852
31	0xbc82dff6	-0.015975934
