semi-supervised/cora_32_layers_.pt (torch, 561145 bytes, 196 tensors)

trans_feat.weight f4 [32, 1433]
0	0xbaf25906	-0.0018489666
1	0x3b0fac97	0.002192294
2	0x38caae74	9.664605e-05
3	0xbb9755a2	-0.0046183625
4	0x3c1622d0	0.009163573
5	0xbae50d3a	-0.0017475255
6	0xbaa79704	-0.0012786095
7	0x3a4434e8	0.000748469
8	0x39f51768	0.0004674748
9	0x39316244	0.00016916642
10	0x3a9c64f8	0.0011931947
11	0xbac8713a	-0.0015292533
12	0xb9d44d8e	-0.00040493574
13	0xba3e418f	-0.0007257694
14	0xb98f59e6	-0.00027342065
15	0xbaacfb87	-0.001319752
16	0x3a1139c9	0.00055399217
17	0xba6ce9d9	-0.00090375316
18	0xba909278	-0.0011029979
19	0xba367494	-0.00069601205
20	0xb96dd1ac	-0.0002268019
21	0xbbbaa9e6	-0.005696523
22	0xb9986532	-0.00029067096
23	0x389dcdcc	7.524676e-05
24	0x3a92b530	0.0011192914
25	0x3b73f142	0.0037222658
26	0x3b85643a	0.004070786
27	0xbaf81c7a	-0.0018929385
28	0xba8e4c8b	-0.0010856552
29	0x39417e14	0.00018452882
30	0xbb36623b	-0.0027829546
31	0xb842189c	-4.6276124e-05
32	0x39802e10	0.00024448382
33	0xba191f06	-0.00058411097
34	0xba7690f8	-0.00094057573
35	0xb9bd051b	-0.00036052693
36	0xba83120f	-0.0009999889
37	0x39fa3cb2	0.00047728937
38	0x3c0e73b1	0.008694575
39	0x3bc3c56d	0.0059744627
40	0xba20dbf4	-0.0006136291
41	0xba895b63	-0.0010479506
42	0xbb40aff7	-0.0029401758
43	0x3a5a2762	0.00083219085
44	0xb9096010	-0.00013101124
45	0xba7b0947	-0.00095762726
46	0x39adba82	0.0003313609
47	0x3b047335	0.002021027
48	0xbb0e5d66	-0.002172315
49	0xbb04de2f	-0.0020274033
50	0x3b39266d	0.0028251663
51	0x3b806156	0.0039178533
52	0xbb7fafb3	-0.0039014637
53	0x3a91279c	0.0011074427
54	0xba657518	-0.0008753105
55	0xbabf9a84	-0.0014618193
56	0x3c2cb3ba	0.010540897
57	0xbac6ee05	-0.0015177137
58	0xbb8c30bb	-0.00427827
59	0xbba3e0ed	-0.0050011785
60	0xba5c272c	-0.0008398171
61	0xbb47b2b5	-0.0030471508
62	0xbb565638	-0.00327052
63	0x3b1098c6	0.0022063716
64	0xb71c62e0	-9.321346e-06
65	0x3b59b226	0.0033217757
66	0xbb05f6b0	-0.0020441227
67	0xbb7bf34b	-0.0038444574
68	0xba2ff036	-0.00067115144
69	0xb8e13f38	-0.000107406115
70	0x3adf30c6	0.0017028085
71	0xba5ac779	-0.0008345764
72	0xbb63a62c	-0.0034736497
73	0x3b3e5060	0.0029039606
74	0xbb240707	-0.0025028603
75	0x3ac33db5	0.001489571
76	0xbde5560d	-0.111980535
77	0x39d9a63e	0.00041513325
78	0x3bce680c	0.0062990244
79	0xbb1c9670	-0.0023893379
80	0x3b942278	0.0045207106
81	0x3d2483ca	0.040164746
82	0x3b28df3f	0.002576783
83	0x3b8bbbee	0.0042643463
84	0x3acf9a7b	0.0015838885
85	0xbaeea60e	-0.0018207447
86	0x3bcc2be8	0.00623082
87	0xb8b79304	-8.753504e-05
88	0xbc44ea7e	-0.012018798
89	0x3c24fde9	0.0100703025
90	0x3a1c0de8	0.0005953
91	0x3ac5a8bc	0.0015080194
92	0xbaf71c99	-0.0018853127
93	0x3c4cc493	0.012498039
94	0x3a56b06a	0.000818974
95	0xbc29d6d8	-0.010366164
96	0xbaf308ca	-0.0018542048
97	0xbc0656eb	-0.008199434
98	0xbb68148e	-0.0035412642
99	0xbb9d7dbe	-0.0048062494
100	0xbabdf9bb	-0.0014493981
101	0x3aa4ce28	0.0012573646
102	0x3a520b52	0.0008012551
103	0xba174e65	-0.00057718746
104	0x3aa04ab7	0.0012229298
105	0xb93b1662	-0.00017842048
106	0xba80d02b	-0.0009827664
107	0xb95fc3c0	-0.0002133986
108	0xbb093a64	-0.0020939345
109	0x3b3bf689	0.0028680882
110	0x39a0c924	0.0003066744
111	0x39df6151	0.0004260638
112	0xba1f873d	-0.0006085521
113	0x3ac467f6	0.0014984596
114	0x398e949c	0.00027195073
115	0xba04a5ec	-0.00050601247
116	0xba7738d1	-0.00094307686
117	0xba9da805	-0.0012028223
118	0x3da3fb51	0.08006919
119	0xbafbd053	-0.0019211866
120	0xbac7efa2	-0.0015253911
121	0x3b3e32a5	0.0029021886
122	0xbc2b9f25	-0.010474955
123	0x3acae7ea	0.0015480493
124	0x3c180263	0.009277913
125	0xba09a61e	-0.00052508886
126	0xbbad895c	-0.0052959155
127	0x3b03e08e	0.0020122859
128	0x3b8e8edb	0.004350526
129	0xb9bb4706	-0.00035720336
130	0xbacde09d	-0.0015707199
131	0xba8873f9	-0.0010410539
132	0xbbc59c58	-0.0060306005
133	0x3aa4b59a	0.0012566329
134	0x39386917	0.00017586756
135	0x3bf68233	0.007522845
136	0x39278b74	0.00015978311
137	0xbaaba84d	-0.0013096422
138	0x390d0a4d	0.00013450645
139	0xba2b8934	-0.0006543577
140	0xb8c908e8	-9.586086e-05
141	0x39e60f98	0.00043880637
142	0xbac09ceb	-0.0014695203
143	0x3a8f5de6	0.0010938018
144	0x3a6b5a8d	0.00089780317
145	0xb9c5271b	-0.00037603904
146	0x3d26bdca	0.04070834
147	0xbb443fc5	-0.0029945236
148	0xba661e0b	-0.00087782805
149	0x3a97da5f	0.0011585465
150	0x3ab1ca2b	0.0013564279
151	0xb8c2a640	-9.281607e-05
152	0x3d869290	0.06570923
153	0xbb15d87e	-0.0022864635
154	0x3a6942f4	0.00088982214
155	0x3a1cc6a8	0.000598053
156	0xb99eb950	-0.00030274177
157	0xba6c54f0	-0.0009015342
158	0xb9811a86	-0.0002462456
159	0x3a662a8c	0.00087801437
160	0x3a8a8f80	0.0010571331
161	0xba3ab1df	-0.0007121842
162	0x393f3e48	0.00018238381
163	0x3aa43644	0.001252838
164	0x3945941b	0.00018842558
165	0xba4c28ca	-0.00077880605
166	0x3900385e	0.0001222803
167	0xbb4ee374	-0.0031568678
168	0x3e70587d	0.23471256
169	0xba8821c7	-0.0010386043
170	0x3a9a6218	0.0011778502
171	0x39577ebb	0.00020551209
172	0xba06a9bf	-0.00051369885
173	0xbaf3cc3b	-0.0018600294
174	0x3b1a579c	0.0023550754
175	0x3b1a115b	0.002350888
176	0x3b4e9bc4	0.003152595
177	0x3b4a62d6	0.0030881665
178	0xbadc094d	-0.001678744
179	0x3ad7065e	0.0016405096
180	0x3a1c5a57	0.00059643894
181	0x3aece6cc	0.0018074154
182	0x3b150065	0.002273583
183	0x3b70b9f5	0.0036731933
184	0xb9ca42ba	-0.00038578158
185	0xba86eef4	-0.0010294602
186	0xbb823243	-0.003973277
187	0xbbff7c9b	-0.0077968366
188	0x3b33be76	0.0027426756
189	0x3a85a7a2	0.0010197053
190	0xbbb10a17	-0.005402814
191	0xb91bb168	-0.00014848041
192	0xba4bfa00	-0.00077810884
193	0x3b2a3ca6	0.002597609
194	0xbb5c8098	-0.0033645984
195	0xbac26bcf	-0.0014833155
196	0x3af9ffeb	0.0019073462
197	0x3a629802	0.0008643867
198	0xbb053eed	-0.0020331696
199	0xbb1bc5c9	-0.0023769012
200	0xbb630cd7	-0.0034645104
201	0x38ef2a0a	0.000114042385
202	0x3b6b629c	0.003591693
203	0x3b932c4f	0.004491366
204	0xbb041102	-0.002015174
205	0x3c23fa69	0.010008433
206	0x3b06e063	0.0020580522
207	0xbb6bd892	-0.003598724
208	0x3bb1ca70	0.0054257438
209	0x399e9f6a	0.0003025488
210	0xbb1a42d9	-0.002353838
211	0xbadaab14	-0.0016683065
212	0xbbb755d6	-0.0055949492
213	0xbb992e52	-0.0046747113
214	0xb6a04900	-4.77687e-06
215	0x3a544582	0.00080975157
216	0x3aa9082f	0.0012896116
217	0x39556203	0.00020349775
218	0x3b027269	0.001990462
219	0x3b17edd0	0.0023182519
220	0xb8a99a30	-8.0872676e-05
221	0xbacecd6b	-0.0015777772
222	0xbb46cf96	-0.0030336133
223	0x3a8c4b2d	0.0010703556
224	0x3a95752b	0.0011402717
225	0xbb829e32	-0.0039861435
226	0xba72f076	-0.0009267399
227	0x399093dc	0.00027575984
228	0x3ae704d2	0.0017625338
229	0x3a202b26	0.0006109945
230	0xbad50195	-0.0016251082
231	0x3a878822	0.0010340253
232	0xba2ce094	-0.0006594744
233	0xbcb12656	-0.021624725
234	0xba311812	-0.0006755601
235	0x3b1c0b8a	0.0023810589
236	0x3b07db15	0.0020729948
237	0x3b27a90b	0.0025582935
238	0x3b4ed07e	0.0031557376
239	0x399bc889	0.00029713314
240	0x3910fd9f	0.00013827391
241	0xba298e1a	-0.0006468013
242	0x3aa9a527	0.0012942896
243	0xb978479c	-0.000236778
244	0xbb85bca4	-0.0040813256
245	0x3b624a06	0.0034528985
246	0xba03a2d2	-0.00050215155
247	0x3c2138b0	0.0098401755
248	0xbaa3361b	-0.0012452038
249	0xba0cac96	-0.00053662935
250	0xbc0642f6	-0.008194676
251	0xbb5c14e0	-0.0033581778
252	0x3b4b9c8a	0.0031068646
253	0xb96bc896	-0.0002248607
254	0x3b18d5e1	0.002332084
255	0x3b02f333	0.0019981384

trans_feat.bias f4 [32]
0	0xb93a1786	-0.00017747105
1	0xb997ad11	-0.0002892991
2	0x395839c8	0.0002062089
3	0x399c6721	0.00029831476
4	0x398f2ca4	0.00027308345
5	0xb99e65d9	-0.0003021199
6	0x398001a2	0.0002441528
7	0xb99b777c	-0.00029652927
8	0x3958d1cd	0.00020677522
9	0x3985571d	0.0002543264
10	0x398e36ed	0.00027125273
11	0x3921864e	0.00015404189
12	0x39abdea2	0.00032781536
13	0xb7c295f0	-2.3196422e-05
14	0xb98843c2	-0.00025990425
15	0x392b26c1	0.00016322268
16	0x3926abd3	0.00015895003
17	0x39a11b23	0.0003072853
18	0x398a3344	0.00026359607
19	0xb9723476	-0.00023098462
20	0xb8abd2e8	-8.1932e-05
21	0xb99ecd52	-0.00030289084
22	0x388de66e	6.766325e-05
23	0xb99ca0e1	-0.00029874503
24	0x399eaeb8	0.00030266284
25	0x398b649c	0.00026587106
26	0x3842aff8	4.6417088e-05
27	0x39964e54	0.00028668588
28	0x3837cec8	4.382318e-05
29	0x399722fc	0.0002882703
30	0xb99e065d	-0.0003014085
31	0x3870c714	5.7405865e-05

pred_trans.weight f4 [7, 1433]
0	0xbdb2b833	-0.087265395
1	0xbee1ebec	-0.44125307
2	0x3eb7da06	0.35908526
3	0xbe07d612	-0.13265255
4	0xbf15a885	-0.58460265
5	0xbdc6f2db	-0.0971429
6	0x3f0818f4	0.53163075
7	0xbb3f2def	-0.0029171666
8	0x3ce3811d	0.027771527
9	0x3c265d04	0.010154013
10	0xbd65a143	-0.056061994
11	0xbc25fdd1	-0.010131315
12	0x3e6737de	0.22579905
13	0xbd89f36b	-0.067358814
14	0x3d522cac	0.051312134
15	0x3ea4be11	0.3217626
16	0xbdd144a1	-0.10218168
17	0xbdcfb4a5	-0.10141877
18	0x3cbf47d7	0.023349686
19	0xbfc2c6cb	-1.5216917
20	0x3ca8fa4e	0.020627167
21	0x3dc1720f	0.09445583
22	0x3c426efa	0.011867279
23	0xbef063c6	-0.4695112
24	0xbb885dd0	-0.004161574
25	0x3f32d4dc	0.6985605
26	0x3e150f50	0.14556623
27	0xbe81aa32	-0.2532516
28	0xbe24c9c7	-0.16092597
29	0x3d678b70	0.056529462
30	0x3de111e7	0.10989743
31	0xbb7b9ab0	-0.0038391761
32	0xbc827e57	-0.015929384
33	0xbb51bf24	-0.0032004798
34	0xbc05681e	-0.008142499
35	0xbeabac6d	-0.33529988
36	0xbc24ac6c	-0.010050874
37	0x3b23629e	0.0024930607
38	0xbf03601d	-0.5131853
39	0xbf2dc747	-0.678822
40	0xbe2e4efb	-0.17022316
41	0x3ea1c1bf	0.3159313
42	0xbc9cde71	-0.019149037
43	0xbc3fa62c	-0.011697333
44	0xbe1f359c	-0.15547794
45	0xbea3810d	-0.31934395
46	0xbd796f5d	-0.06089722
47	0x3ecfc7e6	0.40582198
48	0xbeb1a0a2	-0.34692866
49	0x3c276fa0	0.010219485
50	0xbc992e3e	-0.018698808
51	0xbeb6c80e	-0.35699505
52	0x3f3f1dda	0.74654925
53	0x3d0f1c11	0.034938876
54	0xbec4376e	-0.3832354
55	0xbc9d6477	-0.019212944
56	0x3f656e5e	0.8962153
57	0xbb56ee18	-0.0032795724
58	0xbe74c62c	-0.23903722
59	0xbec56b0a	-0.38558227
60	0x3bd81d04	0.006595256
61	0xbeb6efce	-0.3572983
62	0x3ec610ce	0.38684696
63	0xbd2f6290	-0.042818606
64	0x3f0c501c	0.5480974
65	0x3e95d4a9	0.2926381
66	0xbca012ac	-0.019540153
67	0xbe70e167	-0.23523484
68	0xbce598c5	-0.028026948
69	0x3d276bf0	0.04087442
70	0xbe246081	-0.16052438
71	0x3d6cce6f	0.057814058
72	0xbddab654	-0.106793076
73	0xbadfe614	-0.0017082118
74	0xbbf156e4	-0.0073650945
75	0xbce9b848	-0.028530255
76	0xbdc1fa4a	-0.09471567
77	0xbe845440	-0.25845528
78	0xbe97f76c	-0.29680955
79	0x3ced0840	0.028934598
80	0xbe1ab464	-0.15107876
81	0xbee19ea0	-0.44066334
82	0xbd7fa398	-0.062411875
83	0xbe000cf4	-0.12504941
84	0xbc0d6a4e	-0.008631302
85	0xbe0d3b3f	-0.13792132
86	0xbebbf2e7	-0.36708757
87	0xbda78a6a	-0.08180697
88	0xbee8ee0d	-0.45494118
89	0x3e849313	0.2589346
90	0xbad71260	-0.0016408674
91	0xbe27f6f8	-0.16402805
92	0xbe2c8bd0	-0.16850209
93	0x3ed7f592	0.42179543
94	0x3cda1140	0.026619554
95	0x3d391054	0.045181587
96	0xbe058ae6	-0.13041267
97	0xbea8f104	-0.3299638
98	0x3ebd0aa5	0.36922184
99	0xbdc854b5	-0.097817816
100	0xbdadb610	-0.08481991
101	0xbc3efd49	-0.011657068
102	0xbdb2a5f0	-0.08723056
103	0xbe41cb9e	-0.1892533
104	0xbe1ecddf	-0.15508221
105	0xbdaf432c	-0.08557734
106	0xbdacd9ed	-0.084400035
107	0xbe1c5ace	-0.15269014
108	0xbe821825	-0.25409046
109	0xbd96fc86	-0.07372384
110	0xbd81394a	-0.06309755
111	0xbd7630f9	-0.060105298
112	0x3cc43dc6	0.023955237
113	0xbb4fc060	-0.0031700358
114	0xbc94a7ee	-0.018146481
115	0x3b178820	0.0023121908
116	0xbe191c92	-0.14952305
117	0xbd2e1e24	-0.042509213
118	0xbf05c92e	-0.522601
119	0xbe0b44f4	-0.13600522
120	0x3c868791	0.016422065
121	0x3e8cd17a	0.27503568
122	0x3ecb83b7	0.39748928
123	0xbd88b29a	-0.066746905
124	0xbdd1b818	-0.10240191
125	0xbe8860ca	-0.26636344
126	0x3dd323b7	0.103095464
127	0x3d06fcb5	0.032955844
128	0xbf37469d	-0.7159212
129	0xbd5a65e3	-0.053319823
130	0xbe0d6e02	-0.13811496
131	0x3e6ab1b3	0.2291935
132	0x3fa629e1	1.298153
133	0x3c0245e8	0.007951237
134	0xbc847a1c	-0.016171508
135	0xbecbc38d	-0.3979763
136	0x3e819e58	0.2531612
137	0x3d28f961	0.04125345
138	0xbc615799	-0.013753795
139	0xbd8004f4	-0.06250945
140	0xbece6046	-0.40307826
141	0x3d9a27f6	0.07527153
142	0xbbbfaa5c	-0.005849166
143	0xbdcda2ad	-0.100407936
144	0xbbed0420	-0.0072331578
145	0xbc866ca8	-0.016409233
146	0x3ed8bf77	0.42333576
147	0x3d9e2f40	0.07723856
148	0xbd65f7d4	-0.05614455
149	0xbe938503	-0.28812417
150	0xbe023d30	-0.12718654
151	0x3eead347	0.45864317
152	0x3dc2d182	0.09512617
153	0xbde5263d	-0.11188934
154	0xbe660a2b	-0.22464816
155	0xbe2cf73c	-0.16891187
156	0x3cafabde	0.021444257
157	0xbe797873	-0.24362354
158	0x3cd73552	0.026270542
159	0x3cda3a3b	0.026639095
160	0xbe45fc06	-0.1933442
161	0xbb6bd1b0	-0.0035983138
162	0xbe80ed12	-0.2518087
163	0x3c95ea94	0.018300332
164	0xbcb1bea2	-0.021697346
165	0x3d6a48b3	0.057198238
166	0xbbcae6a8	-0.006192047
167	0xbe0749fe	-0.1321182
168	0xbf0e78a2	-0.5565282
169	0xbd04712a	-0.032334484
170	0x3ac79680	0.0015227348
171	0xbdb9cc91	-0.09072221
172	0xbe33e059	-0.1756605
173	0xbedb512c	-0.42835367
174	0xbdcd6f2d	-0.10030971
175	0x3c7576d7	0.014981947
176	0xbe2ad0d4	-0.16681224
177	0x3d9dd0e4	0.07705858
178	0x3d8b4887	0.06800943
179	0x3f9b5d97	1.2137936
180	0x3c7b8f6c	0.015354019
181	0xbdd07daa	-0.101802185
182	0x3c927fa9	0.017883139
183	0xbce75a88	-0.02824141
184	0x3cb69c52	0.022291336
185	0xbd93f948	-0.07225281
186	0xbdf52ac7	-0.1197105
187	0xbf4f9fde	-0.8110331
188	0x3bbba8be	0.0057269027
189	0xbd390368	-0.045169264
190	0xbe0513c8	-0.12995827
191	0xbdadede7	-0.08492642
192	0xbea1fa62	-0.3163634
193	0xbd04b9dc	-0.03240381
194	0xbe1574a5	-0.14595278
195	0xbdf83b80	-0.12120724
196	0xbe9978dc	-0.2997502
197	0x3d7babd5	0.06144317
198	0x3d27ad6c	0.040936872
199	0x3c219a18	0.009863399
200	0x3d01466a	0.031561293
201	0xbaa9cc14	-0.0012954497
202	0x3c762ff0	0.015026078
203	0xbe542797	-0.20718227
204	0xbe0772f3	-0.13227443
205	0x3f8a2ab0	1.0794277
206	0xbc842c98	-0.016134545
207	0xbe1b44c7	-0.15162955
208	0xbe8a4d5a	-0.2701214
209	0xbb4af710	-0.0030970015
210	0xbc530d2a	-0.0128815565
211	0x3ed43106	0.41443652
212	0xbeac941b	-0.33706746
213	0xbde257b5	-0.11051885
214	0x3f165652	0.58725464
215	0x3d3573cb	0.044299882
216	0xbc7b13ec	-0.015324574
217	0xbe0f0f99	-0.13970794
218	0x3c052891	0.008127348
219	0x3d1ae6f8	0.037817925
220	0x3ccd0010	0.025024444
221	0xbd514f93	-0.05110128
222	0x3ec7805b	0.38965115
223	0xbd05837a	-0.03259609
224	0x3cbb9f66	0.022903156
225	0x3e225957	0.15854393
226	0xbdfd9492	-0.12381853
227	0xbcdd7fdf	-0.027038513
228	0x3f83c6a3	1.0294994
229	0xbd99ead3	-0.07515492
230	0xbd8ece98	-0.069729984
231	0x3cbaee1e	0.022818621
232	0xbe321654	-0.1739133
233	0x3ea10417	0.31448433
234	0x3db42185	0.08795456
235	0xbc3a0fd8	-0.0113563165
236	0xbc90eb9a	-0.017690469
237	0x3f8e55cd	1.1119934
238	0xbe0b92f7	-0.13630281
239	0xbd1e0900	-0.0385828
240	0xbdc4b4fb	-0.09604832
241	0xbc831d2e	-0.016005125
242	0xbdd62397	-0.10456007
243	0x3a5412e0	0.0008089971
244	0xbd16ad34	-0.036786273
245	0x3c7cd006	0.015430456
246	0xbbb8a078	-0.0056343637
247	0xbeb22f34	-0.34801638
248	0xbd031e7d	-0.032011498
249	0xbdb5ad34	-0.088709265
250	0x3ea3b18a	0.3197139
251	0xbdaea3aa	-0.0852731
252	0x3cba850b	0.022768518
253	0xbc041cc4	-0.008063499
254	0xbd14d75e	-0.036338203
255	0x3d658e0c	0.05604367

pred_trans.bias f4 [7]
0	0xbd77c821	-0.060493592
1	0xbd6f93b2	-0.058490463
2	0xbcb46dea	-0.022025067
3	0x3d8e70ab	0.069550835
4	0x3d829371	0.063757785
5	0xbc40f8cf	-0.011778071
6	0xbb7e5222	-0.003880628

gcn_convs.0.path_weight_1.weight f4 [32, 32]
0	0xb95d184d	-0.00021085255
1	0xbc22d5fb	-0.009938712
2	0xbb84e689	-0.0040558022
3	0x3c2aba95	0.010420461
4	0xba8f7849	-0.0010945882
5	0x3b753c06	0.003741981
6	0x3b2c7757	0.002631625
7	0xba0d6999	-0.00053944584
8	0xbc8e6036	-0.017379861
9	0x3d370d0f	0.044690188
10	0x3b4067a8	0.002935866
11	0xbb88ebf5	-0.004178519
12	0x3814916e	3.542139e-05
13	0x3807b6b9	3.2356682e-05
14	0x3d3ca2cb	0.04605369
15	0x3b310662	0.002701186
16	0xbb7b7385	-0.0038368416
17	0xbb2f484c	-0.0026745973
18	0x3b1a7c6c	0.0023572696
19	0xbd8e48e4	-0.069474965
20	0xbbbe5c4d	-0.005809343
21	0x3aa809a2	0.0012820254
22	0x3c8b0c6b	0.016973695
23	0x3bd7f399	0.0065903184
24	0xbc90373d	-0.017604465
25	0xbc0ee20a	-0.008720884
26	0xba432a95	-0.0007445005
27	0xbb51b9c9	-0.0032001606
28	0x3dae7977	0.08519261
29	0xbb7b42a8	-0.003833929
30	0x3afc7c3b	0.0019263098
31	0xbc2002d2	-0.009766297
32	0xb9743dff	-0.00023292749
33	0x3adf33e3	0.0017029013
34	0xba84c52c	-0.0010129563
35	0xba62b657	-0.00086483866
36	0x3bab4d8c	0.00522775
37	0xbb0cc243	-0.0021478094
38	0xb9f2e1ab	-0.00046325973
39	0x39d5df8f	0.0004079309
40	0xbb0daaad	-0.0021616623
41	0x3c3141f5	0.010818948
42	0x3a36e5b3	0.0006976977
43	0xbb269a02	-0.0025421386
44	0xbbbdc308	-0.005791072
45	0xbbe0f091	-0.0068646153
46	0x3b99316d	0.0046750815
47	0xbb4cba4c	-0.0031238971
48	0xbb52a726	-0.0032143085
49	0xbb1bdd2d	-0.0023782954
50	0x3bfba816	0.0076799495
51	0x3aaa3ae4	0.0012987521
52	0xb806e239	-3.2158776e-05
53	0xba0667cf	-0.0005127163
54	0x3b331f94	0.0027332054
55	0x3a5a2579	0.0008321624
56	0x3be6c980	0.0070430636
57	0xb907d9e1	-0.0001295577
58	0xbb1596a6	-0.002282539
59	0xba150236	-0.00056842284
60	0x3c35fb45	0.011107271
61	0xba823fd3	-0.0009937234
62	0xbae63f41	-0.0017566459
63	0x3ad4cb2d	0.0016234868
64	0x3adc39b0	0.001680186
65	0xbb4446b2	-0.0029949364
66	0xba8955de	-0.0010477861
67	0x3d8147a5	0.06312493
68	0x3d76b196	0.060227953
69	0xbbda7896	-0.006667207
70	0x38a99eff	8.088163e-05
71	0x3a5de3f1	0.0008464447
72	0xbb1146c0	-0.0022167414
73	0x3b0e0f8a	0.0021676742
74	0xbb7401da	-0.003723255
75	0x3bfa99bd	0.0076477216
76	0x3c2a700d	0.010402692
77	0x3ebbdfa6	0.36694068
78	0x3d695c88	0.05697301
79	0x3cb4ca48	0.022069111
80	0xbe16a4dc	-0.14711326
81	0x3b325937	0.002721382
82	0x3bf63476	0.007513578
83	0xbbb7d575	-0.005610163
84	0xbe1dc003	-0.15405278
85	0xbc4dd9b2	-0.01256411
86	0xbbe0a0af	-0.0068550925
87	0x3b118dea	0.0022209832
88	0x3adedff4	0.0017003999
89	0x3aac7f83	0.001316056
90	0xbcc8e3dd	-0.024522716
91	0xbcf80af6	-0.030278664
92	0xbaae8f2d	-0.0013317816
93	0x3d904328	0.07044059
94	0xbbce4256	-0.006294529
95	0x39bf5909	0.00036496695
96	0x3b856d1e	0.0040718457
97	0xbab5f12d	-0.001388108
98	0xbb7960fb	-0.003805219
99	0xba596642	-0.00082931307
100	0x3d0c53e9	0.03425971
101	0x39aa2236	0.00032450416
102	0xbbb32741	-0.005467326
103	0x3cf30190	0.029663831
104	0x3bc2b2f5	0.0059417435
105	0xba50fec2	-0.0007972532
106	0x3b54b263	0.003245496
107	0xbe5bffa1	-0.21484233
108	0xbbeef1e7	-0.0072920206
109	0x3d8591c3	0.065219425
110	0x3a502e17	0.0007941438
111	0x3a1214e1	0.0005572569
112	0xbc008ade	-0.0078456085
113	0xb9e32336	-0.00043323048
114	0xbb571a5b	-0.0032822106
115	0xbb7506f9	-0.003738819
116	0xbb34ba04	-0.0027576694
117	0xb9a1035a	-0.0003071081
118	0xbaae6ed8	-0.001330818
119	0xbbe68888	-0.0070353188
120	0x3b8534f8	0.0040651523
121	0xbd713182	-0.058885105
122	0x3b5d2ae8	0.0033747498
123	0xbbf7c3b2	-0.0075611705
124	0xbab452c6	-0.0013757579
125	0xba96d584	-0.0011507724
126	0xbd4150f1	-0.047196332
127	0x3d6d88e3	0.057991873
128	0x3af9297a	0.0019009553
129	0xbb0adaf5	-0.0021187637
130	0xbad32922	-0.0016110281
131	0xb98eb5fe	-0.00027219945
132	0xb8c0e139	-9.1972244e-05
133	0x3a251925	0.00062979973
134	0x3b5f4ce7	0.0034072937
135	0xbc0ad4fb	-0.00847363
136	0xbb9febb1	-0.0048803915
137	0xbb698c78	-0.0035636704
138	0x3a412e8f	0.00073693035
139	0x3b681cd1	0.0035417567
140	0x39f80d90	0.0004731235
141	0xba943200	-0.0011306405
142	0xbb0e785c	-0.002173922
143	0xbab2d348	-0.0013643289
144	0xbb0c4fb4	-0.0021409811
145	0x3b001be4	0.0019547874
146	0x3baff829	0.005370159
147	0x3aa755ad	0.0012766622
148	0x3aef623c	0.0018263529
149	0xbb899511	-0.0041986783
150	0x3acdeea2	0.0015711377
151	0xbb20fcfb	-0.002456485
152	0xbb45ad5d	-0.0030163147
153	0x3b48db66	0.003064835
154	0xba822329	-0.0009928691
155	0xba91f2fd	-0.0011135038
156	0xbb4418b1	-0.0029921944
157	0xbaa269a3	-0.0012391101
158	0xbb9b0b35	-0.0047315606
159	0xb8633eab	-5.417938e-05
160	0x3a93e71d	0.0011284087
161	0xbba792b4	-0.005113924
162	0x3cc0b77c	0.023524992
163	0x3dae2e39	0.0850491
164	0x3dcb11e1	0.099155195
165	0xbe0c9504	-0.1372872
166	0x39db530d	0.00041832813
167	0xbd46dd1c	-0.04855071
168	0xba512762	-0.0007978586
169	0xbb8100b3	-0.003936851
170	0x3d54eace	0.05198174
171	0x3db66e26	0.08907728
172	0x3d20c335	0.039248664
173	0x3b47f0f8	0.0030508619
174	0xbb1507b6	-0.0022740192
175	0xba61fd96	-0.0008620856
176	0x3d044013	0.03228767
177	0xbe5252a2	-0.20539334
178	0x3e66aeca	0.22527614
179	0x39577c35	0.00020550269
180	0xba3b0d39	-0.0007135454
181	0x3b644af0	0.0034834705
182	0xbaef422c	-0.0018253974
183	0xbda90efc	-0.08254811
184	0x3dd3b36c	0.103369564
185	0x3a92550d	0.0011164263
186	0x3dbc654c	0.09199008
187	0xbe1fb129	-0.15594925
188	0x3aa33eae	0.0012454593
189	0xbe66e5f7	-0.22548662
190	0xbad0a044	-0.0015916904
191	0xbeaec9c5	-0.34138313
192	0xb9861c5f	-0.0002557961
193	0xbd8e2eba	-0.06942506
194	0x3acd770e	0.001567574
195	0xb9da47c7	-0.00041633678
196	0xbe3d3178	-0.18475902
197	0xbb050a68	-0.0020300392
198	0xb9c961fc	-0.00038410712
199	0x3add4053	0.0016880132
200	0xbbc28fd7	-0.005937557
201	0xbb8ed570	-0.00435894
202	0xba150500	-0.0005684644
203	0x3b439f35	0.0029849533
204	0x3b0ca33e	0.0021459605
205	0xbe97c8a1	-0.29645255
206	0x3c3fad21	0.011698992
207	0xb9a0585f	-0.0003058342
208	0xbd027ee3	-0.03185929
209	0x3b945511	0.0045267423
210	0x3df41872	0.11918725
211	0x3b9a485b	0.0047083325
212	0xbc236115	-0.009971877
213	0xbacff455	-0.0015865663
214	0x3b93e287	0.004513088
215	0xbd9c7143	-0.076387905
216	0x3b1bf6ab	0.0023798149
217	0xbb568218	-0.003273135
218	0x39433888	0.00018617709
219	0xbbbde143	-0.0057946756
220	0xba511c67	-0.00079769496
221	0xbac54d63	-0.001505297
222	0xbbea12db	-0.007143361
223	0x3b0f836c	0.0021898402
224	0x3bcbdf01	0.0062216525
225	0xbb7d8ff3	-0.0038690537
226	0xbc2150c8	-0.00984592
227	0xba8d1cdd	-0.0010766048
228	0xbc9c9db4	-0.019118167
229	0x3b81ef60	0.0039653033
230	0x39e2a610	0.00043229805
231	0xbb8139fa	-0.003943679
232	0xbb43e57a	-0.0029891417
233	0x3aeb2569	0.0017940226
234	0x3b4a6d49	0.0030887893
235	0xbafed0ab	-0.001944085
236	0xbcf06108	-0.029343143
237	0xbd1982de	-0.03747832
238	0xb95600d8	-0.00020408945
239	0xbabcd092	-0.001440542
240	0x3c18e46f	0.009331807
241	0xbbc41f1f	-0.0059851552
242	0x3a825595	0.0009943718
243	0xbc0d0e6f	-0.008609398
244	0x3a917df6	0.0011100161
245	0xbb03954b	-0.0020078
246	0xbab0d35e	-0.0013490727
247	0xbad7bc04	-0.0016459231
248	0x39bca8e2	0.00035983982
249	0xbc350409	-0.011048325
250	0xbb2fc45d	-0.0026819922
251	0xbb2e38c5	-0.002658413
252	0x3ac7802c	0.0015220693
253	0xbc1568b9	-0.009119206
254	0x3a1a213d	0.00058795867
255	0xbbfed699	-0.007777047

gcn_convs.0.path_weight_1.bias f4 [32]
0	0x3e8a4e74	0.2701298
1	0x3f80ea67	1.0071534
2	0x3fb1ef77	1.3901204
3	0x3c3858b3	0.011251616
4	0xbe4b1579	-0.1983241
5	0x3f80bfe1	1.0058557
6	0x3f156ba7	0.5836739
7	0xbf350882	-0.70716107
8	0x3e0e7bf5	0.13914473
9	0x3c9a2158	0.018814728
10	0x3dd1af70	0.1023854
11	0x3faaae7a	1.3334496
12	0x3f3220b2	0.6958114
13	0xbf405083	-0.7512285
14	0x3f191832	0.59802544
15	0xbf4c649e	-0.7984103
16	0xbf86586f	-1.0495738
17	0x3fa01fe6	1.2509735
18	0xbea08116	-0.31348485
19	0x3fb5d4cb	1.4205564
20	0xbf8e946d	-1.1139046
21	0xbf334f3c	-0.7004278
22	0xbf962805	-1.1730963
23	0x3e657802	0.2240906
24	0x3f7b5dac	0.98189807
25	0x3f99e7fb	1.202392
26	0xbf8e8d33	-1.113684
27	0xbf86f7bb	-1.0544351
28	0xbf15fa8f	-0.5858545
29	0x3f27ba51	0.6551867
30	0x3f154908	0.5831456
31	0xbf877832	-1.0583556

gcn_convs.0.path_weight_2.weight f4 [32, 32]
0	0xb9005e54	-0.00012242171
1	0xb92db5df	-0.00016566318
2	0xb91e91d4	-0.0001512238
3	0x38d09be1	9.9472476e-05
4	0xb882ef3f	-6.243446e-05
5	0xb88bdf6f	-6.669654e-05
6	0xb8c17f96	-9.226722e-05
7	0xb8c42593	-9.353007e-05
8	0xb8d4b6c0	-0.000101429876
9	0x388e5aa7	6.787973e-05
10	0x3911661e	0.00013866319
11	0xb92c1ac9	-0.00016413176
12	0xb93829a6	-0.00017563123
13	0x38fa2c3f	0.000119291704
14	0x394510a9	0.0001879359
15	0x38f46c43	0.00011654992
16	0x38f20da2	0.000115419985
17	0x3917dd7b	0.0001448299
18	0x395901cf	0.00020695406
19	0x3999500c	0.00029242074
20	0x38a00160	7.629651e-05
21	0xb827bdc1	-3.9992625e-05
22	0xb965d211	-0.00021917398
23	0x393e3037	0.00018137773
24	0x397c1aa9	0.00024042524
25	0xb93c6372	-0.00017966123
26	0xb8f3ec41	-0.00011631149
27	0x39aab5db	0.0003256042
28	0xb90e9005	-0.00013595827
29	0x398ed33d	0.00027241735
30	0x38fcb2be	0.0001204959
31	0x3915a28a	0.00014270298
32	0xb98d9556	-0.0002700488
33	0x394741f6	0.00019002691
34	0xb8a3aca3	-7.804602e-05
35	0x37b3ae92	2.1419753e-05
36	0x391a3569	0.00014706481
37	0x34c3e11f	3.6485378e-07
38	0xb985abb0	-0.00025495654
39	0xb9553c19	-0.00020335651
40	0xb8fc3428	-0.00012026011
41	0x3988dff7	0.00026106808
42	0x393a0810	0.00017741346
43	0xb8a4b10c	-7.853107e-05
44	0x3976bf92	0.00023531754
45	0xb992ba06	-0.00027985888
46	0x3929722b	0.00016159627
47	0x39338553	0.00017120437
48	0xb94802ce	-0.00019074531
49	0x383424b6	4.2949534e-05
50	0x3949381c	0.00019189756
51	0x3968253d	0.00022139116
52	0xb7997529	-1.8293578e-05
53	0x38ab3f5e	8.1657185e-05
54	0x38a574cb	7.8895675e-05
55	0xb9742aef	-0.00023285647
56	0xb8e00f33	-0.000106839834
57	0x393856cf	0.00017579946
58	0xb8ba0c8e	-8.8715096e-05
59	0xb8e0b500	-0.00010714866
60	0xb93bb963	-0.00017902772
61	0xb96be9fc	-0.00022498512
62	0x3901f22c	0.00012392615
63	0xb9721123	-0.00023085302
64	0x3949f17e	0.00019258817
65	0xb944d46c	-0.0001877115
66	0x38763a1c	5.870509e-05
67	0xb9122583	-0.00013937619
68	0x3977a811	0.00023618365
69	0x39466bd4	0.0001892292
70	0x388b47b3	6.6413915e-05
71	0xb813b699	-3.521759e-05
72	0x38b26b39	8.507673e-05
73	0xb93cafb5	-0.00017994533
74	0xb9498dea	-0.00019221721
75	0x38323ada	4.2493317e-05
76	0xb94652fd	-0.00018913667
77	0x39591dc7	0.00020705826
78	0x3959f76c	0.00020786904
79	0xb90105ee	-0.00012304608
80	0xb70bd987	-8.335693e-06
81	0x3815900b	3.565852e-05
82	0xb69a1346	-4.5918014e-06
83	0xb6e6bc2b	-6.87644e-06
84	0xb94ede4f	-0.00019728507
85	0xb95903e8	-0.00020696188
86	0x394f01c5	0.00019741718
87	0xb95b7bf4	-0.00020931644
88	0xb81bf9a3	-3.7187372e-05
89	0xb8682300	-5.5345707e-05
90	0xb92fe9e2	-0.00016776429
91	0xb87fb64a	-6.0966508e-05
92	0x3802c7af	3.1180385e-05
93	0x39248389	0.0001568926
94	0x39614663	0.00021483893
95	0x3946d475	0.00018961898
96	0x39697d0c	0.00022267195
97	0xb89794a4	-7.2279276e-05
98	0xb9484dd7	-0.00019102484
99	0x39466f32	0.00018924175
100	0xb8c2c3a8	-9.287085e-05
101	0x392f2ae6	0.00016705281
102	0x394833cd	0.00019092784
103	0x3922f7f4	0.00015541894
104	0x3928e306	0.00016106301
105	0xb94ab354	-0.00019331026
106	0x38f82ed0	0.00011834281
107	0xb9033b80	-0.00012515299
108	0xb92a2773	-0.0001622716
109	0x38ec3f76	0.000112651775
110	0xb8de154a	-0.0001058975
111	0xb8284208	-4.0115818e-05
112	0xb935aec4	-0.0001732661
113	0xb99ecbee	-0.00030288048
114	0xb892dccc	-7.002949e-05
115	0x3942bd67	0.0001857184
116	0xb943af1f	-0.00018661887
117	0x38edc544	0.00011337784
118	0xb78d0ea0	-1.681532e-05
119	0x397292df	0.00023133632
120	0xb8995b54	-7.31262e-05
121	0xb7ec8a3b	-2.8197761e-05
122	0xb94848b3	-0.00019100569
123	0xb97afcf8	-0.00023936096
124	0xb9472d3c	-0.0001899497
125	0xb887b63c	-6.4712454e-05
126	0x38d26ec9	0.00010034216
127	0xb935642c	-0.00017298822
128	0x38fc9906	0.00012044799
129	0xb5fa68c4	-1.8656942e-06
130	0xb9680a15	-0.00022129
131	0xb9118a99	-0.00013879909
132	0xb819f8a6	-3.6709615e-05
133	0xb9446454	-0.00018729392
134	0x3945add6	0.00018852143
135	0xb986c73b	-0.0002570691
136	0xb99f8653	-0.00030426923
137	0x39483d80	0.00019096397
138	0xb9192bbe	-0.00014607512
139	0x38aabc50	8.1413076e-05
140	0xb94677b2	-0.00018927341
141	0xb973c649	-0.00023248153
142	0x38b1f525	8.4856794e-05
143	0x39627c9a	0.00021599457
144	0xb95a6285	-0.00020826801
145	0xb90c078f	-0.00013354256
146	0xb976e6e5	-0.00023546403
147	0xb9747447	-0.0002331297
148	0xb98e4b52	-0.0002714047
149	0xb7744cbf	-1.4561402e-05
150	0xb99c9238	-0.0002986358
151	0xb82c5f25	-4.1096606e-05
152	0xb9a9f077	-0.00032413352
153	0x395667f2	0.00020447353
154	0x392f2a58	0.00016705075
155	0xb9466b33	-0.00018922686
156	0x3956f771	0.0002050081
157	0xb8ca23f4	-9.6388074e-05
158	0xb9929f78	-0.00027966104
159	0x39ab8771	0.00032716573
160	0xb865f01d	-5.4821478e-05
161	0xb7889e6a	-1.628623e-05
162	0xb7dc068b	-2.622909e-05
163	0xb8b3121b	-8.5387575e-05
164	0x393f0362	0.0001821644
165	0x39368334	0.0001740575
166	0xb817bcb4	-3.617695e-05
167	0x39744261	0.00023294381
168	0xb98284d4	-0.00024894497
169	0xb92cf7fa	-0.00016495577
170	0xb90da01f	-0.00013506458
171	0xb976f07a	-0.00023549973
172	0x38a2a20e	7.754947e-05
173	0x399dd5f7	0.0003010479
174	0x3915bd22	0.00014280205
175	0xb9317a1b	-0.00016925523
176	0xb78698cc	-1.6045196e-05
177	0x3844e687	4.6944737e-05
178	0x3927520e	0.00015956929
179	0xb9101181	-0.00013739431
180	0xb8ca8e4e	-9.658617e-05
181	0x399358a0	0.00028104056
182	0xb99bd760	-0.0002972437
183	0x38e871e7	0.00011083838
184	0xb910fc53	-0.00013826908
185	0xb9146555	-0.00014152129
186	0x394661b5	0.0001891915
187	0xb9457f39	-0.00018834778
188	0xb9366ced	-0.0001739745
189	0x39117859	0.0001387311
190	0x394acdd8	0.00019340904
191	0x39263878	0.0001585203
192	0xb94f1d23	-0.00019751913
193	0x3858514a	5.157412e-05
194	0xb8ba3531	-8.879079e-05
195	0xb905c405	-0.00012756891
196	0xb978eddb	-0.00023739731
197	0xb942a4f5	-0.00018562733
198	0x3824a0c2	3.9250364e-05
199	0x36735c1c	3.6263436e-06
200	0x38ee60e2	0.0001136677
201	0x37fd0d18	3.0166048e-05
202	0xb8cf65c3	-9.889484e-05
203	0xb9732894	-0.00023189402
204	0xb8daa215	-0.0001042524
205	0x38f86f61	0.000118463075
206	0x35570a92	8.0109123e-07
207	0xb9885c55	-0.00026008734
208	0xb90518df	-0.00012693134
209	0xb8669334	-5.4973367e-05
210	0x394f9342	0.00019795916
211	0xb9442734	-0.00018706621
212	0xb815ac68	-3.5684934e-05
213	0x39988ffc	0.00029098976
214	0xb93c8d48	-0.00017981709
215	0xb94f8d23	-0.00019793636
216	0xb9508950	-0.00019887579
217	0xb981806d	-0.00024700482
218	0x399de44f	0.00030115477
219	0xb7d336fe	-2.5178768e-05
220	0x38ba7499	8.890889e-05
221	0xb94e4728	-0.00019672199
222	0xb6863250	-3.9993683e-06
223	0x391af61d	0.00014778269
224	0xb969af23	-0.00022285855
225	0xb97e12f0	-0.00024230382
226	0xb9406a82	-0.00018350224
227	0x39919687	0.00027768707
228	0x38673809	5.512688e-05
229	0x39527ee3	0.0002007443
230	0xb9228aa6	-0.00015501174
231	0xb933858c	-0.0001712052
232	0xb9a8b08a	-0.0003217499
233	0xb8b77da7	-8.7495246e-05
234	0xb8ddecfa	-0.000105822415
235	0xb94651ae	-0.0001891318
236	0x388dcad7	6.761186e-05
237	0x394fdb33	0.00019822716
238	0xb9537e7e	-0.0002016965
239	0x394e876b	0.00019696138
240	0x38e3b029	0.00010857016
241	0x38d5d771	0.000101967606
242	0x393cdb0f	0.00018010683
243	0x38b18024	8.463886e-05
244	0xb935dcc9	-0.00017343754
245	0xb99d4e8f	-0.00030003904
246	0x38aa56ce	8.1224e-05
247	0x398d4394	0.00026943965
248	0xb9463980	-0.00018904172
249	0xb84371d8	-4.6597648e-05
250	0x396ad419	0.00022394992
251	0xb95e091a	-0.0002117496
252	0xb93ecbd5	-0.00018195745
253	0xb98b46ea	-0.0002656498
254	0x39936afb	0.00028117732
255	0x3916faa8	0.00014398491

gcn_convs.0.path_weight_2.bias f4 [32]
0	0x3fa0dffb	1.2568353
1	0xbf84e54c	-1.0382476
2	0x3fb290cd	1.395044
3	0x3fa03aa8	1.25179
4	0xbf217954	-0.6307576
5	0x3f668794	0.90050626
6	0x3f1cf8f1	0.61317354
7	0xbf3370e0	-0.7009411
8	0x3ecbea78	0.39827323
9	0xbb494f9d	-0.003071762
10	0x3f168bfa	0.5880734
11	0x3fa4f10c	1.2886062
12	0x3f5319cc	0.8246124
13	0xbf3578a6	-0.7088722
14	0x3f9bbd9f	1.2167243
15	0xbf5ad60c	-0.8548286
16	0x3f686c99	0.90790707
17	0xbf46113b	-0.7737004
18	0x3fae42c8	1.361413
19	0x3fbb5561	1.463543
20	0xbf848aaf	-1.0354823
21	0xbf88b82e	-1.0681207
22	0xbf82bac4	-1.0213246
23	0x3fa8d2b7	1.3189305
24	0x3f7baaa9	0.9830728
25	0x3fd52001	1.6650392
26	0xbf81b074	-1.0131974
27	0x3f6b3b76	0.91887605
28	0xbf4a4e03	-0.79025286
29	0x3ec86280	0.3913765
30	0xbf843b2f	-1.0330561
31	0xbef7275a	-0.4827221

gcn_convs.1.path_weight_1.weight f4 [32, 32]
0	0xbb23077c	-0.0024876287
1	0x39673b3c	0.00022051943
2	0xba36d574	-0.0006974556
3	0x3b2dcff4	0.0026521655
4	0xbb0d2d9b	-0.0021542076
5	0x3adc22ae	0.0016795003
6	0xbb850011	-0.004058846
7	0xba89a07f	-0.0010500102
8	0xb82c3807	-4.1060175e-05
9	0xba7afa5a	-0.00095740485
10	0xb8e36313	-0.000108426575
11	0x3abcf755	0.0014416972
12	0x3b246492	0.0025084359
13	0x38a054bd	7.645178e-05
14	0x3ba5aff2	0.0050563747
15	0x3b5b8a02	0.0033499007
16	0x3b3a45d0	0.002842296
17	0xbb132f25	-0.002245852
18	0xba8e0b0e	-0.0010837035
19	0xbacee6d0	-0.001578534
20	0xb9fa56aa	-0.00047748286
21	0xba4ec3aa	-0.00078874326
22	0x3ac6aae1	0.0015157127
23	0x3a0544b8	0.0005083787
24	0xbb30b10b	-0.0026960995
25	0x3b2ec67d	0.0026668601
26	0xbb96882c	-0.0045938697
27	0x3b8ca38b	0.004291957
28	0x39dcb896	0.00042099197
29	0xbb526b01	-0.0032107236
30	0xbaba2b60	-0.0014203601
31	0xba17c850	-0.0005790042
32	0x3793c5bf	1.7615848e-05
33	0xbb697e23	-0.0035628162
34	0x3ae3489e	0.0017340367
35	0xbb04eeea	-0.0020284005
36	0xb9cf2fc3	-0.00039517702
37	0x3b2a19d0	0.0025955327
38	0xb9d77ad9	-0.00041099524
39	0x3a85facb	0.0010221837
40	0x3ab5c84a	0.0013868895
41	0xbb01cc16	-0.0019805483
42	0xbad2ee5c	-0.0016092765
43	0xb8725d8f	-5.778443e-05
44	0xb9ab5b24	-0.00032683567
45	0x395096a3	0.00019892542
46	0x3a3ef0b5	0.0007283793
47	0x39f0b5d4	0.0004591184
48	0x3aac57ee	0.0013148764
49	0xbaf6f622	-0.0018841664
50	0x3b24a49c	0.002512253
51	0x3b10832b	0.0022050838
52	0x3842b0a9	4.6417732e-05
53	0x3b2e6439	0.002661003
54	0x3aa55873	0.0012614861
55	0xb8da066a	-0.00010396245
56	0x3a9a6685	0.0011779821
57	0xba750c47	-0.0009347838
58	0xbb137860	-0.002250217
59	0x39d27505	0.00040141508
60	0xb97ca8e7	-0.00024095514
61	0x3ae8b558	0.001775424
62	0xb9771f4c	-0.00023567415
63	0x3915c8df	0.00014284578
64	0x3a603103	0.0008552225
65	0x3ad43ccd	0.0016192436
66	0x3b225f72	0.0024776128
67	0xba5c7f65	-0.0008411317
68	0xbaa51bd7	-0.0012596798
69	0xbb105283	-0.0022021837
70	0xb9cde54b	-0.00039271484
71	0xbade1431	-0.0016943273
72	0xb9c26d1f	-0.00037083865
73	0x3a5b50f7	0.0008366252
74	0xbab5c42a	-0.0013867666
75	0xbada0f86	-0.0016636706
76	0x39ad406b	0.00033045126
77	0xba223811	-0.0006188164
78	0x3ac02e0b	0.0014662159
79	0xba6b163d	-0.00089678523
80	0x3afb2efd	0.0019163784
81	0xb9d278c5	-0.00040144302
82	0xba8fd7c6	-0.001097434
83	0x396c301b	0.00022524635
84	0xbaad0090	-0.001319902
85	0x3a143571	0.00056537153
86	0xba2a07b2	-0.0006486132
87	0xba36f501	-0.00069792575
88	0xb9b01934	-0.00033588114
89	0xba893915	-0.0010469282
90	0x3afa59ef	0.0019100289
91	0xb8dc357e	-0.00010500381
92	0x3a62dbc4	0.00086539635
93	0x3a962d1b	0.0011457534
94	0xbafaab11	-0.0019124468
95	0x3a578589	0.00082214974
96	0x3a008f63	0.0004904179
97	0x3b1c1c73	0.0023820668
98	0x39754ccd	0.00023393631
99	0x3a015d15	0.000493483
100	0xb9abdd36	-0.00032780477
101	0xba418efd	-0.00073836726
102	0xbb610ea4	-0.0034341002
103	0xbb10944d	-0.002206105
104	0xbaced67c	-0.0015780474
105	0x39a4d7f3	0.00031441412
106	0xbb2270a7	-0.0024786384
107	0xbaf6748d	-0.0018803045
108	0xb981fca2	-0.00024793023
109	0x393cc0b8	0.0001800087
110	0xbb4c8dd3	-0.0031212464
111	0x3b348219	0.0027543365
112	0x3ac06a89	0.0014680187
113	0x3b3e7ca0	0.0029065982
114	0x3aee96ef	0.0018202941
115	0x3a81e6fd	0.0009910759
116	0x3b299a2d	0.002587925
117	0xbaad293c	-0.0013211141
118	0xbaae30a9	-0.0013289648
119	0xbb24daad	-0.0025154755
120	0xbabe37be	-0.0014512462
121	0xbb51aa92	-0.0031992537
122	0xbb0faca3	-0.0021922968
123	0xbaa1631b	-0.0012312861
124	0xba28f5ea	-0.00064453355
125	0x3b0adbe4	0.0021188194
126	0xbaa54fa1	-0.0012612232
127	0xbb291721	-0.002580114
128	0xbb14a7e5	-0.002268308
129	0xbab0ce39	-0.0013489194
130	0xbb33ee3c	-0.0027455231
131	0xba22032c	-0.0006180282
132	0xbb097274	-0.002097276
133	0x3ac3b972	0.0014932586
134	0xbaf6f734	-0.0018841983
135	0x3987c55f	0.0002589626
136	0x39df997c	0.0004264823
137	0xba8b1ea9	-0.0010613996
138	0xbac7aa58	-0.0015233262
139	0xb92d6495	-0.00016536035
140	0xbac45eaf	-0.0014981831
141	0xba775682	-0.0009435193
142	0x3b004795	0.0019573916
143	0x3a42ef7e	0.00074362
144	0xba593e6c	-0.00082871947
145	0x3a191f54	0.0005841155
146	0x3ab9bf91	0.0014171471
147	0xbab7cb96	-0.0014022465
148	0x383d7267	4.5167657e-05
149	0xba847814	-0.0010106587
150	0xbae8341b	-0.0017715724
151	0x3a96fbf6	0.0011519182
152	0xbb1be731	-0.0023788924
153	0xbb636329	-0.0034696555
154	0x38a54463	7.880551e-05
155	0xbb3ad218	-0.0028506573
156	0xb9ecef98	-0.0004519194
157	0x36d12e8b	6.2341037e-06
158	0xbacc8e03	-0.0015606288
159	0x3b0d3418	0.0021545943
160	0xb9b2f73d	-0.00034135013
161	0x3a870f35	0.0010304215
162	0x38984aa8	7.2618306e-05
163	0x39ef7c34	0.0004567817
164	0xba583b58	-0.0008248589
165	0xba0ea26b	-0.0005441072
166	0x3a97ec7a	0.0011590861
167	0xbb195c02	-0.0023400788
168	0x3ac66239	0.0015135474
169	0x3acdc472	0.0015698804
170	0x3accd20b	0.0015626563
171	0xba87f55a	-0.0010372803
172	0x38c5a020	9.4235176e-05
173	0x39c83920	0.00038189534
174	0xb80718f0	-3.2209733e-05
175	0x3b652b41	0.0034968408
176	0xba2cf82f	-0.00065982615
177	0x3b1b0353	0.0023653104
178	0x3b5a6b79	0.003332822
179	0xbafc4de7	-0.0019249291
180	0xba1cdc3e	-0.00059837464
181	0xba8488d4	-0.0010111579
182	0x3a980f09	0.001160116
183	0x3b200edc	0.002442292
184	0xbb1e96d2	-0.0024198783
185	0x392e596e	0.00016627248
186	0x3b1e62e4	0.002416783
187	0x3b7d57d7	0.0038657093
188	0xbad7c2f9	-0.0016461305
189	0xba2791cf	-0.00063922716
190	0x3b756326	0.003744313
191	0xbb1f5c0a	-0.0024316334
192	0x394e85f8	0.00019695598
193	0xba8741a8	-0.001031925
194	0xbb817c2a	-0.003951569
195	0x39ab6783	0.00032692784
196	0xba936da8	-0.001124789
197	0xbae74eda	-0.0017647401
198	0xb95d6474	-0.00021113624
199	0x397c72bf	0.00024075339
200	0x392b3285	0.00016326651
201	0x3b18b8d6	0.002330353
202	0x38f64955	0.00011743853
203	0x3aca5837	0.0015437667
204	0xbb1baabb	-0.0023752886
205	0xba94163a	-0.0011298128
206	0x3929face	0.00016210528
207	0x39c3c8dc	0.0003734295
208	0xbb4c83ca	-0.0031206482
209	0xbadbb3e1	-0.0016761982
210	0x3b857fb8	0.004074063
211	0xba9e246e	-0.00120653
212	0x3a044609	0.00050458364
213	0x3b640529	0.0034793115
214	0x3ad87182	0.001651332
215	0x3a85a87a	0.0010197305
216	0x3b153e88	0.0022772867
217	0xb940f7fc	-0.00018402928
218	0xbb1042cb	-0.0022012468
219	0xba1a6d49	-0.00058909185
220	0xb8997ead	-7.319204e-05
221	0x3aadc3c2	0.0013257193
222	0x3a3500d7	0.0006904727
223	0x3a2c2c70	0.0006567901
224	0x3b02c0d6	0.0019951365
225	0x3aff0e01	0.001945913
226	0xbb1cebc8	-0.0023944248
227	0x3b0460b6	0.0020199246
228	0xb9f6a1a5	-0.0004704121
229	0xbb214843	-0.0024609722
230	0x3ae7cea9	0.0017685491
231	0xbaa6d989	-0.0012729625
232	0x3b13b976	0.0022540963
233	0x3a426d2e	0.0007416782
234	0xb9e61543	-0.0004388486
235	0xbaba5a35	-0.0014217558
236	0xba8854e0	-0.0010401271
237	0x39da527d	0.0004164166
238	0xba64d762	-0.00087296043
239	0x39cbb54e	0.0003885426
240	0xbab88898	-0.0014078794
241	0xbaa034ea	-0.0012222801
242	0x39a29f97	0.00031017952
243	0xbab7c4fe	-0.00140205
244	0xbb156cca	-0.002280044
245	0x3a723549	0.00092395075
246	0xb8b4effd	-8.62777e-05
247	0x3b27d2ff	0.0025607941
248	0xbb493f64	-0.003070795
249	0xbb00718f	-0.0019598936
250	0xba72a6a6	-0.00092564
251	0x3a91105d	0.0011067499
252	0xb82895dc	-4.019389e-05
253	0xbac02cb3	-0.0014661759
254	0x3a202e8d	0.0006110452
255	0x3a56ee7a	0.0008198988

gcn_convs.1.path_weight_1.bias f4 [32]
0	0xbf865b75	-1.049666
1	0x3d53154d	0.051533986
2	0xbbd32a8f	-0.0064442824
3	0x3f93d1bc	1.1548381
4	0xbbed1dd1	-0.0072362204
5	0x3f881de2	1.063412
6	0xbea4d7f3	-0.32196006
7	0xba2a4152	-0.0006494719
8	0x3f17216a	0.5903536
9	0xbda9f8f6	-0.08299439
10	0xbf235afa	-0.63810694
11	0x3fa31fa6	1.2744033
12	0xbf8163f2	-1.0108626
13	0x3fa4d290	1.2876759
14	0xbae782f0	-0.0017662924
15	0x3da661ac	0.08124098
16	0x3b44057d	0.0029910498
17	0xbf5e2a99	-0.8678375
18	0xbf3a411d	-0.72755605
19	0xbf73119d	-0.9494875
20	0x3f92ab5a	1.1458542
21	0xbe9b1071	-0.3028598
22	0x3a1e355e	0.0006035174
23	0xbf93ec44	-1.1556478
24	0x3f9b8c97	1.215228
25	0x3bb83ff3	0.0056228577
26	0xbb436d3f	-0.0029819754
27	0x3f9511ca	1.1646054
28	0xbf87f116	-1.0620449
29	0x3f8c515b	1.0962328
30	0x3c803010	0.015647918
31	0xbf707a5c	-0.93936706

gcn_convs.1.path_weight_2.weight f4 [32, 32]
0	0x3f681f98	0.9067321
1	0xbf0f15c7	-0.55892605
2	0x3f64f0df	0.8943004
3	0x3f452f02	0.77024853
4	0x3f6ccc1b	0.9249894
5	0xbba9442d	-0.005165598
6	0xbf92735d	-1.1441456
7	0x3f59140d	0.8479622
8	0x3f89a319	1.0752898
9	0x3f42f595	0.7615598
10	0x3f8229cf	1.0169009
11	0xbf8bd7b2	-1.09252
12	0x3f5e1e29	0.8676477
13	0xbdd77ce7	-0.1052187
14	0x3f8438c2	1.0329821
15	0x3f74ff16	0.9570173
16	0xbebc3255	-0.3675715
17	0xbf531727	-0.824572
18	0xbf5fa1f4	-0.87356496
19	0xbd291585	-0.04128029
20	0xbf7ad977	-0.97988075
21	0x3f7a705e	0.9782771
22	0xbf2f2cff	-0.68428034
23	0x3c96a2e8	0.018388227
24	0x3f4c0d2b	0.7970759
25	0xba6dccac	-0.0009071331
26	0xbf80ff72	-1.0077956
27	0xbf7a2566	-0.97713315
28	0x3f6ff457	0.9373221
29	0x3f870dc0	1.0551071
30	0x3b0a06b5	0.0021061127
31	0xbe995e89	-0.29954937
32	0x3f8b3584	1.0875707
33	0xbf523b01	-0.8212128
34	0xbf651523	-0.8948538
35	0x3f80e256	1.0069072
36	0x3f9b8cb4	1.2152314
37	0xbec9e7d9	-0.39434698
38	0xbf5fb07a	-0.87378657
39	0x3fa8476c	1.3146796
40	0x3f91adac	1.1381125
41	0x3f93740f	1.1519793
42	0xbf854c9d	-1.0414006
43	0x3f9ffc36	1.2498844
44	0xbf9bb8b7	-1.2165745
45	0x3f83f5ce	1.0309389
46	0x3f9b1c3b	1.211799
47	0xbf51376e	-0.81725204
48	0xbea6ccbc	-0.32578075
49	0xbf9e2e2f	-1.2357844
50	0xbfa03ac8	-1.2517939
51	0xbf36201d	-0.7114275
52	0xbf8d8389	-1.1055766
53	0xbf7453be	-0.9544028
54	0xbf89b660	-1.0758781
55	0xbf9f7e5d	-1.2460438
56	0x3f947ea1	1.1601144
57	0xbf08ede5	-0.53488
58	0x3f85e106	1.0459297
59	0xbfa30e9c	-1.2738833
60	0xbf6d0e92	-0.9260036
61	0x3f8235b1	1.0172635
62	0xbf75b0e8	-0.9597306
63	0xbf882b16	-1.0638149
64	0x3f70e855	0.9410451
65	0x3b315258	0.0027057137
66	0xbf7bcd40	-0.9836006
67	0x3f9b0770	1.2111645
68	0x3fa9bfb8	1.3261633
69	0x3f7fc9c3	0.9991724
70	0x3f6f65d9	0.9351478
71	0x3fa111fc	1.2583613
72	0x3f813ac2	1.0096056
73	0x3f7dd608	0.9915471
74	0x3f694251	0.91116816
75	0xbfaa452d	-1.3302361
76	0x3f23837e	0.63872516
77	0x3f84caaa	1.0374348
78	0x3f886d4d	1.0658356
79	0x3f5a1dc5	0.85201675
80	0xbeab80be	-0.3349666
81	0xbf95c36e	-1.1700265
82	0xbf99f407	-1.2027596
83	0xbf2e6114	-0.6811688
84	0xbf8a6df4	-1.0814805
85	0x3f10c9f1	0.5655814
86	0xbf934d23	-1.1507915
87	0xbf906ba5	-1.128285
88	0x3f482d1c	0.7819383
89	0xbe13ae9b	-0.14422075
90	0xbf8057ee	-1.0026834
91	0xbf885645	-1.0651327
92	0x3f5f5c60	0.8725033
93	0x3fa312a0	1.2740059
94	0xbefd983a	-0.49530202
95	0xbf8e1b42	-1.1102068
96	0xbf67c862	-0.90540135
97	0x3ceac05d	0.02865618
98	0x3faba83d	1.3410717
99	0xbf6f1775	-0.9339517
100	0xbf8da22b	-1.1065115
101	0x3e8ab006	0.2708742
102	0xbf610f4c	-0.87913966
103	0xbf802ddc	-1.0013995
104	0xbf60f60d	-0.87875444
105	0xbd2acb14	-0.041697577
106	0xbf967e3f	-1.1757277
107	0x3f9e8b6c	1.2386298
108	0xbf45216b	-0.77004117
109	0x3f5f8877	0.87317604
110	0xbf7e67f2	-0.9937736
111	0xbf8859ed	-1.0652443
112	0x3f64b346	0.8933605
113	0x3eec7fa8	0.46191144
114	0x3f900ea7	1.1254472
115	0x3f4edee3	0.8080885
116	0x3f420361	0.75786406
117	0xbfab2713	-1.33713
118	0x3f6a1ee8	0.9145341
119	0x3f3aa41f	0.7290668
120	0xbf89a35b	-1.0752977
121	0x3b903841	0.0044012372
122	0x3f874c19	1.0570098
123	0x3f90fe8a	1.1327679
124	0xbf90cf70	-1.1313305
125	0x3f75f769	0.9608064
126	0x3f431641	0.7620583
127	0x3f5a1455	0.85187274
128	0xbee88e41	-0.4542103
129	0x3c403f40	0.01173383
130	0x3f77c61a	0.96786654
131	0xbf40babd	-0.7528494
132	0xbf906c58	-1.1283064
133	0xbf756e0a	-0.9587103
134	0x3f78b2c6	0.97147787
135	0x3f7b7143	0.982197
136	0x3beda016	0.0072517497
137	0x3e9237c3	0.28558168
138	0xbdd2c958	-0.102923095
139	0xbf966f0b	-1.1752638
140	0x3f9c9b0a	1.2234814
141	0x3f81f213	1.0152
142	0xbf870452	-1.0548193
143	0xbf4b0966	-0.79311216
144	0x3e405459	0.18782176
145	0x3d505e15	0.050870974
146	0x3f09f4ad	0.5388897
147	0xbf3d644e	-0.7398118
148	0x3f5f0c64	0.8712828
149	0xbf25d71d	-0.6478136
150	0xbf6a6166	-0.9155487
151	0x3dd55b8f	0.10417854
152	0x3e2dc9b4	0.16971475
153	0xba9fef51	-0.0012202059
154	0x3ebd1c99	0.3693588
155	0x3f56ce59	0.8390861
156	0x3f576aea	0.8414751
157	0x3f1c651a	0.6109177
158	0x3dd5e020	0.10443139
159	0xbea07887	-0.31341955
160	0xbf8ebeba	-1.1151955
161	0x3f655d85	0.89595824
162	0x3f961dca	1.1727841
163	0xbf8bf8d6	-1.0935314
164	0xbce9f046	-0.028556954
165	0xbf042c40	-0.5163002
166	0x3f8bff71	1.093733
167	0xbf592bce	-0.84832466
168	0xbf82e23a	-1.0225289
169	0xbf9e5716	-1.2370327
170	0xbf6fb88d	-0.9364098
171	0xbe809beb	-0.25118956
172	0x3e9ab256	0.30214185
173	0x3c05deaf	0.008170768
174	0xbfa96b8e	-1.3235948
175	0x3f6bde9b	0.92136544
176	0x3f852afa	1.040374
177	0xbf5d2af2	-0.86393654
178	0x3f8b938a	1.09044
179	0xbf7c18d1	-0.98475367
180	0xbf86361d	-1.0485264
181	0xbedc59be	-0.43037218
182	0x3fa79a75	1.3094012
183	0xbeb7bd55	-0.35886636
184	0xbfa07159	-1.2534591
185	0xbe9ed396	-0.31020802
186	0xbf5d2ba2	-0.86394703
187	0xbe9fe6f4	-0.3123089
188	0xbf45e039	-0.7729526
189	0x3f645fa7	0.89208454
190	0x3f8dc001	1.107422
191	0xbeecebd2	-0.46273667
192	0xbf9198f3	-1.1374801
193	0xbf6928c7	-0.91077846
194	0xbfa8ce81	-1.318802
195	0xbf8f2060	-1.1181755
196	0xbf935170	-1.1509228
197	0xbf8749e2	-1.0569422
198	0xbf9839ec	-1.1892676
199	0xbfa8d5af	-1.3190211
200	0xbf9b023e	-1.2110059
201	0xbfa5b990	-1.2947254
202	0xbe878a33	-0.26472625
203	0x3f4dd97a	0.8040997
204	0x3ed93978	0.42426658
205	0xbf8369eb	-1.0266699
206	0xbfa09e2d	-1.2548271
207	0xbf4091a2	-0.7522222
208	0xbc57f682	-0.013181331
209	0x3f8fb928	1.122838
210	0x3fa44c46	1.2835777
211	0xbec0abb0	-0.37630987
212	0x3f9c46b9	1.2209083
213	0xbf04488e	-0.5167321
214	0xbed62176	-0.41822404
215	0x3fa610f9	1.297393
216	0xbf5ae8f7	-0.85511726
217	0x3db1aa68	0.086750805
218	0x3ee3a1f7	0.44459507
219	0x3f82e882	1.0227206
220	0x3f33eb59	0.7028099
221	0xbf9acd79	-1.2093955
222	0xbf8c056b	-1.0939153
223	0x3f824cc3	1.0179676
224	0x3f5ead60	0.869833
225	0x3f556b2a	0.83366644
226	0x3f8b024c	1.0860076
227	0xbe94773b	-0.28997216
228	0xbf98bb3b	-1.1932138
229	0xbf9bd063	-1.217297
230	0x3f8837b6	1.0642002
231	0x3f481c8f	0.78168577
232	0xbf7cb73d	-0.987171
233	0xbf4131cf	-0.75466627
234	0x3f8c07f6	1.093993
235	0xbf82dbe4	-1.0223355
236	0xbf026d96	-0.50948465
237	0xbf94bac5	-1.1619498
238	0xbf909f49	-1.129861
239	0xbf84f61c	-1.0387607
240	0xbeb86f86	-0.36022586
241	0x3f9f46ed	1.244352
242	0x3fa2e87c	1.2727199
243	0x3f962fbf	1.1733321
244	0x3f925a59	1.1433822
245	0x3f366c2c	0.7125881
246	0x3f5a56f8	0.85288954
247	0x3f38ea92	0.72232926
248	0x3f7502a7	0.9570717
249	0xbb064455	-0.0020487506
250	0xbfabae4d	-1.3412567
251	0xbf93f048	-1.1557703
252	0xbf700555	-0.93758136
253	0xbf926bb7	-1.1439122
254	0x3f77d1a7	0.9680428
255	0x3cf4f6dd	0.02990287

gcn_convs.1.path_weight_2.bias f4 [32]
0	0xbf5d3aeb	-0.86418027
1	0xbfa893c2	-1.3170092
2	0xbf7ef469	-0.9959169
3	0x3f96cb4a	1.1780789
4	0x3b843b20	0.0040353686
5	0x3f9594d6	1.1686046
6	0x3f9a5f45	1.2060324
7	0x3f70cd8e	0.9406365
8	0x3f72c582	0.94832623
9	0xbd3a0f6f	-0.045424875
10	0xbf67bfe4	-0.90527177
11	0xbf5741df	-0.84084886
12	0xbfa0c7b1	-1.2560941
13	0x3f98fe2b	1.1952566
14	0xbf380f14	-0.7189801
15	0x3f78c8b1	0.9718123
16	0xbe0b08e0	-0.13577604
17	0xbf7e8d61	-0.9943448
18	0xbf83c334	-1.0293946
19	0xbf78a2da	-0.9712349
20	0x3f90730a	1.1285107
21	0xbf670ba8	-0.9025216
22	0x3f486e21	0.78293043
23	0xbf8dc4bb	-1.1075662
24	0x3f92d7b2	1.1472075
25	0x3f800e5c	1.0004382
26	0xbf7db767	-0.99107975
27	0x3fa43346	1.2828147
28	0xbcae5bbd	-0.021283979
29	0x3f03762e	0.513522
30	0x3f337977	0.70107216
31	0xbf7d382f	-0.98913854
