semi-supervised/cora_64_layers_.pt (torch, 905081 bytes, 388 tensors)

trans_feat.weight f4 [32, 1433]
-1.1806636 1.2186548 -1.2151066 -1.2282106 1.2202766 1.0492573 -1.0605885 -1.2006189
1.1579773 -0.7705224 -0.67444086 -0.30968928 1.207485 1.0330359 0.9976779 -1.1503476
1.1963984 1.0827087 1.1675296 -1.5202309 0.24452731 -1.0678546 -0.54695725 1.1898967
-1.0124218 -1.2482425 1.2519636 1.171016 1.1526257 -1.0541619 0.22990763 0.52392083
-0.9696473 -0.23415995 1.3665973 -1.1733246 -1.1467235 0.98210496 -1.1768304 -1.2251544
-1.2196681 1.1666512 1.0497608 0.7630047 -1.1385862 -0.7083966 -0.997293 1.1923132
1.1825887 -0.61636746 1.1240833 -1.1967027 -1.2034534 0.20176417 1.1947402 -1.1768909
-1.134217 -1.1979344 1.1086289 -0.9546617 0.5609979 1.2340269 -1.1516404 1.1207163
1.1490715 -1.2440265 -0.89761895 1.1942064 -0.0016462379 -0.17436942 -1.2033706 -1.1196216
-0.8652686 0.5943654 0.99503005 -1.0591197 1.0730529 0.45600584 -1.2159319 0.44420022
-1.2028842 1.2027103 1.1451598 -1.1631118 -1.1737746 -1.1349275 1.1773646 1.0634502
1.1593229 1.1137675 -0.29271606 -1.1299471 1.2021416 -1.22186 -1.1533147 -1.1361945
-1.1628481 -1.2092558 -1.0935774 -1.1897582 1.2415229 0.68819404 -1.1500837 -1.166406
-1.0354296 -0.504619 1.1285412 -1.1715394 1.0651579 1.1496501 0.4109702 0.9642987
-1.1959736 0.0020303766 -0.8143936 1.066369 -0.98545146 0.24096058 -1.199704 -1.1098416
1.1452096 -1.1501131 -1.1602552 -1.2207906 1.1430326 -1.196703 -1.1268693 -0.86734056
-1.1951784 1.1044836 1.1836458 -1.1460958 1.2038083 1.2182775 -0.9835284 1.185922
1.1906236 0.93565184 0.289664 1.1878035 1.0939794 -1.1802953 1.1261535 -1.1971194
-0.29619962 0.98186433 1.2208375 0.0015514331 0.19143336 1.0932584 1.074374 -1.1252095
1.1274155 1.2085574 -1.1760485 -1.2000071 -1.111782 1.2007272 -0.80039173 -0.788764
1.18078 -0.5394196 1.1680031 1.0460074 0.9040691 -0.8912348 -1.0444152 -1.1567322
-1.2179531 1.192929 -1.208586 -0.55992484 -1.1688902 1.2246966 -1.1161906 0.32717994
-1.2135218 1.1653932 1.1739603 0.83487594 -0.018489754 0.99266195 1.215994 0.6324982
-1.0035448 0.018682526 -1.2062798 1.1344533 1.161884 0.37266612 -0.9511218 0.83305043
-1.171578 -1.009596 -1.210456 1.1693465 1.1570028 0.6329654 1.2071822 1.2182875
-1.1675256 -0.0028141295 -1.2006596 1.2967165 1.3466942 -1.1736426 -0.6926628 1.0667859
1.136051 -0.00086606934 -0.96987736 1.1994934 1.1848062 1.1369247 -1.1401956 0.94443494
-0.13014148 1.167437 1.2021105 -0.54757494 -0.17572963 -0.8455032 1.1560401 0.9452495
1.1747591 -1.1558974 -1.2057711 0.47989145 1.1177747 -1.0426954 -1.1710379 -1.1364155
0.5170991 1.3075563 1.1804563 -0.97467685 -1.2168057 1.2071449 1.1638222 -1.0958232
-1.2093319 1.1233208 -0.9337868 0.8426355 -1.0928365 -1.1895573 0.0011614681 -1.1606921
1.17729 1.0725974 -1.1584637 0.68712723 1.1806391 -1.1007403 -1.1179656 -1.0736382
00000000: fc1f 97bf e1fc 9b3f 9d88 9bbf 0136 9dbf
00000010: 0632 9c3f 104e 863f 5dc1 87bf e1ad 99bf
00000020: 9a38 943f f540 45bf 28a8 2cbf 988f 9ebe
00000030: de8e 9a3f 853a 843f d267 7f3f 973e 93bf
00000040: 9523 993f 3396 8a3f 9c71 953f ed96 c2bf
00000050: 5e65 7a3e 76af 88bf 6405 0cbf 894e 983f
00000060: 0a97 81bf 69c6 9fbf 5840 a03f dae3 953f
00000070: 3d89 933f c7ee 86bf e86c 6b3e ad1f 063f
00000080: ce3a 78bf a0c7 6fbe a9ec ae3f 802f 96bf
00000090: d6c7 92bf 3b6b 7b3f 61a2 96bf dcd1 9cbf
000000a0: 161e 9cbf d454 953f 905e 863f 4754 433f
000000b0: 31bd 91bf 7b59 35bf 984e 7fbf b89d 983f
000000c0: 115f 973f 42ca 1dbf f6e1 8f3f 8e2d 99bf
000000d0: c30a 9abf 449b 4e3e 3fed 983f 5ca4 96bf
000000e0: 062e 91bf ea55 99bf 8de7 8d3f b664 74bf
000000f0: 8f9d 0f3f 98f4 9d3f f468 93bf a273 8f3f
00000100: c614 933f 433c 9fbf 5bca 65bf c1db 983f
00000110: 94c6 d7ba e68d 32be 0c08 9abf c34f 8fbf
00000120: 3e82 5dbf 5528 183f 4aba 7e3f 3c91 87bf
00000130: cc59 893f 9979 e93e a8a3 9bbf 366e e33e
00000140: 1cf8 99bf 69f2 993f 9994 923f d9e0 94bf
00000150: 3f3e 96bf 4e45 91bf e2b3 963f 231f 883f
00000160: b164 943f ef8f 8e3f e1de 95be 1ba2 90bf
00000170: c7df 993f e965 9cbf d19f 93bf d26e 91bf
00000180: 35d8 94bf e5c8 9abf 58fa 8bbf ff49 98bf
00000190: 39ea 9e3f 7c2d 303f f135 93bf cb4c 95bf
000001a0: f588 84bf b62e 01bf 0a74 903f 01f5 95bf
000001b0: 1857 883f bc27 933f b06a d23e 48dc 763f
000001c0: aa15 99bf 1110 053b 197c 50bf c87e 883f
000001d0: 8c46 7cbf 5fbe 763e e78f 99bf 4a0f 8ebf
000001e0: 3a96 923f e836 93bf 3e83 94bf de42 9cbf
000001f0: e44e 923f 902d 99bf 413d 90bf 080a 5ebf
00000200: 9bfb 98bf b85f 8d3f b581 973f 44b3 92bf
00000210: 6416 9a3f 84f0 9b3f 84c8 7bbf 4bcc 973f
00000220: 5b66 983f e186 6f3f d74e 943e f209 983f
00000230: 8407 8c3f eb13 97bf cc25 903f 353b 99bf
00000240: 7aa7 97be 765b 7b3f 6744 9c3f 7559 cb3a
00000250: 1b07 443e e4ef 8b3f 1685 893f dd06 90bf
00000260: 274f 903f 02b2 9a3f c288 96bf d599 99bf
00000270: df4e 8ebf 6eb1 993f 79e6 4cbf 70ec 49bf
00000280: cd23 973f 6717 0abf 2081 953f 92e3 853f
00000290: 1371 673f f727 64bf 66af 85bf cd0f 94bf
000002a0: e3e5 9bbf e6b1 983f f2b2 9abf 3c57 0fbf
000002b0: 329e 95bf dcc2 9c3f 55df 8ebf 2184 a73e
000002c0: af54 9bbf 9b2b 953f 5544 963f 6eba 553f
000002d0: d377 97bc 181f 7e3f b1a5 9b3f 67eb 213f
000002e0: 2874 80bf 190c 993c 6067 9abf c435 913f
000002f0: 9db8 943f 18ce be3e b87c 73bf cb42 553f
00000300: 45f6 95bf 713a 81bf 39f0 9abf 25ad 953f
00000310: ab18 943f 050a 223f f284 9a3f d8f0 9b3f
00000320: 7b71 95bf 426d 38bb 37af 99bf cefa a53f
00000330: 7a60 ac3f ec39 96bf 5952 31bf 718c 883f
00000340: 1f6a 913f ee08 63ba e249 78bf 0089 993f
00000350: bba7 973f c086 913f eef1 91bf 7dc6 713f
00000360: cf43 05be 936e 953f c2de 993f df2d 0cbf
00000370: 78f2 33be e672 58bf 1ff9 933f dffb 713f
00000380: 825e 963f 72f4 93bf b556 9abf 55b4 f53e
00000390: 3e13 8f3f 0b77 85bf 92e4 95bf 1076 91bf
000003a0: 9b60 043f 015e a73f 3119 973f 6c84 79bf
000003b0: 4ac0 9bbf b983 9a3f 20f8 943f ef43 8cbf
000003c0: 63cb 9abf fac8 8f3f a70c 6fbf f6b6 573f
000003d0: 11e2 8bbf 6a43 98bf 673c 983a 8f91 94bf
000003e0: 70b1 963f df4a 893f 8a48 94bf 92e7 2f3f
000003f0: 2f1f 973f 0fe5 8cbf 7f19 8fbf fa6c 89bf

trans_feat.bias f4 [32]
-6.485179e-05 0.00014709886 -8.035505e-05 0.00025079935 -0.00042054494 0.0001519971 2.5026238e-06 -0.00025857578
-5.723031e-05 -7.356456e-05 6.0446095e-05 0.00017045655 -0.00045313974 0.00016569682 8.642187e-05 0.00012136379
-0.0002460562 0.00022492869 -0.00025685877 6.652826e-05 9.787426e-05 0.00022480976 -0.00024649347 -0.00025853404
-0.00033270655 -9.803072e-05 0.00025493815 0.0002694352 -0.0003984369 -0.0003478088 -0.0002190807 0.00029951078
00000000: 0a01 88b8 8d3e 1a39 4a84 a8b8 b87d 8339
00000010: 967c dcb9 6961 1f39 c0f2 2736 7491 87b9
00000020: 940a 70b8 ac46 9ab8 8087 7d38 95bc 3239
00000030: 6393 edb9 e7be 2d39 633d b538 b084 fe38
00000040: 1b01 81b9 d6da 6b39 00ab 86b9 1685 8b38
00000050: d841 cd38 e9ba 6b39 cb3b 81b9 da8b 87b9
00000060: 1e6f aeb9 d895 cdb8 38a9 8539 fb42 8d39
00000070: 4ce5 d0b9 1b5a b6b9 07b9 65b9 a807 9d39

pred_trans.weight f4 [7, 1433]
-0.02608641 -0.31729898 0.13536212 -0.37425166 -0.678794 -0.067434125 0.5997515 -0.017697223
0.00068833726 0.002339214 -0.027999071 0.01610425 0.25968587 -0.17030673 0.038019776 0.31917292
-0.00399594 -0.024353307 0.08126837 -1.3899555 -0.021243406 0.04945442 -0.0019199015 -0.41923937
0.022613708 0.68454117 0.22927153 -0.30000773 -0.18054016 -0.026709795 0.03196712 -0.0016156202
0.022956971 0.0070725027 -0.009462997 -0.31691924 -0.045613766 0.012069025 -0.46487272 -0.7421445
-0.25331992 0.3713555 -0.033576578 -0.038347863 -0.204756 -0.25617123 0.030555965 0.35263097
-0.35574618 0.005974306 -0.012071877 -0.33120924 0.90213645 0.009827755 -0.36684445 0.051502764
0.7808009 -0.1843268 -0.31712666 -0.4260397 0.0022444576 -0.25208116 0.40609336 -0.083577774
0.41629213 0.20995165 0.040526412 -0.31828916 0.013820541 -0.031684384 -0.16540998 0.0011701062
-0.10457161 -0.012067612 0.0298904 0.018709727 -0.15992972 -0.19289696 -0.27052984 0.02230474
-0.11579791 -0.35684508 -6.1865896e-05 -0.20492922 0.03511942 -0.05826132 -0.3575036 0.0058480375
-0.47725144 0.29342845 -0.011929849 -0.07176288 -0.12993409 0.4832518 -0.092948094 0.1408387
-0.061181165 -0.3504078 0.3408568 -0.056481473 -0.053923994 -0.004225189 -0.11627388 -0.17933245
-0.13326368 -0.039848678 -0.086823225 -0.11254995 -0.23179454 -0.16233772 0.012878863 -0.008545915
0.05377903 -0.0060796817 -0.022164319 -0.05938432 -0.11545564 -0.018999143 -0.6313986 -0.09401188
-0.015939962 0.28008384 0.48848948 -0.14531015 -0.08960721 -0.3921548 -0.028941484 -0.014447514
-0.6162813 -0.10302803 -0.09911342 0.24461545 1.4803358 0.05894047 0.0051961374 -0.52970046
0.32632124 -0.016604595 -0.00662994 -0.048185173 -0.39292473 0.059785545 0.0035295389 -0.074836016
-0.0061627827 -0.01083242 0.53855747 -0.027438216 -0.07738795 -0.24559267 -0.048712913 0.3467952
0.05510469 -0.18295182 -0.110318124 -0.13665397 -0.01681327 -0.31975928 -0.04889777 -0.052676626
-0.18228365 -0.049114868 -0.27242315 0.0070899837 -0.0120969545 0.009886293 0.04009837 -0.049645707
-0.655829 -0.057399232 0.038132526 -0.05898653 -0.1777992 -0.40373835 -0.04847016 -0.021410337
-0.14039385 -0.0018697325 -0.06986731 1.2558973 0.006571578 -0.11470626 -0.055774685 -0.08054526
0.03328836 -0.058669448 -0.06834529 -0.93324476 -0.018515691 -0.03238087 -0.17794389 -0.0057304585
-0.36667225 0.022251155 -0.17612408 -0.089314535 -0.3433569 -0.010668032 0.038765166 0.0060039693
-0.03638001 0.015589671 -0.022157568 -0.16263936 -0.062568024 0.7042878 0.0018124804 -0.08434906
-0.20995769 -0.015010143 -0.013513008 0.3864004 -0.3198359 -0.2573936 0.61386603 0.008577513
-0.018387692 -0.25930095 -0.037008196 -0.04728455 -0.04799793 -0.0092379 0.45474324 -0.036214735
-0.062759906 0.19994709 -0.12926717 -0.0080416165 1.0803995 0.021435123 -0.05583625 0.039490063
-0.17058244 0.23596404 0.06912053 -0.011193691 0.039902624 1.0101362 -0.2906495 -0.0262997
0.009072929 0.06319115 -0.09896431 0.050053436 0.0046619717 0.042766586 0.03659389 -0.32093692
-0.017904729 -0.101392984 0.21870282 0.029251704 0.0046727546 -0.0025404915 0.022649499 -0.036976166
00000000: 2bb3 d5bc 0375 a2be 5e9c 0a3e ea9d bfbe
00000010: 72c5 2dbf e71a 8abd 5089 193f c4f9 90bc
00000020: 8871 343a 804d 193b 4f5e e5bc 0fed 833c
00000030: 8cf5 843e e364 2ebe a0ba 1b3d a26a a33e
00000040: 60f0 82bb 9680 c7bc 0870 a63d 10ea b1bf
00000050: a706 aebc b890 4a3d 34a5 fbba 8ba6 d6be
00000060: 6240 b93c 173e 2f3f 28c6 6a3e 9d9a 99be
00000070: 85df 38be 80ce dabc f4ef 023d 38c3 d3ba
00000080: 4210 bc3c 74c0 e73b b00a 1bbc 3d43 a2be
00000090: 80d5 3abd 29bd 453c cc03 eebe 2ffd 3dbf
000000a0: 26b3 81be 4f22 be3e 9887 09bd a612 1dbd
000000b0: 8fab 51be e028 83be 8150 fa3c 0c8c b43e
000000c0: 5d24 b6be 1cc4 c33b 1fc9 45bc 4294 a9be
000000d0: 6af2 663f 9804 213c 09d3 bbbe 90f4 523d
000000e0: 91e2 473f 2ac0 3cbe 6d5e a2be e021 dabe
000000f0: c017 133b c810 81be 78eb cf3e d32a abbd
00000100: 3e24 d53e 91fd 563e 06ff 253d ccf6 a2be
00000110: 8d6f 623c 7cc7 01bd 3c61 29be 405e 993a
00000120: a429 d6bd 3cb7 45bc b6dc f43c 2445 993c
00000130: 9ec4 23be c886 45be e382 8abe 6eb8 b63c
00000140: 7427 edbd 66b4 b6be 00be 81b8 f7d8 51be
00000150: 62d9 0f3d 6ca3 6ebd b60a b7be e5a0 bf3b
00000160: 4d5a f4be 413c 963e 6a75 43bc 6bf8 92bd
00000170: 710d 05be c86c f73e 925b bebd 0538 103e
00000180: 1a99 7abd a768 b3be c884 ae3e 1e59 67bd
00000190: 68df 5cbd 7473 8abb 0021 eebd eda2 37be
000001a0: 4676 08be 5e38 23bd 60d0 b1bd 9780 e6bd
000001b0: 8c5b 6dbe dc3b 26be de01 533c 2a04 0cbc
000001c0: 6647 5c3d 1138 c7bb f291 b5bc f93c 73bd
000001d0: 0274 ecbd 17a4 9bbc 57a3 21bf 4d89 c0bd
000001e0: 8694 82bc 2667 8f3e 4b1b fa3e 2fcc 14be
000001f0: fc83 b7bd 84c8 c8be b116 edbc 44b5 6cbc
00000200: 9cc4 1dbf 5c00 d3bd fafb cabd 797c 7a3e
00000210: a57b bd3f 906b 713d 5c44 aa3b 739a 07bf
00000220: 9413 a73e 5c06 88bc f83f d9bb d15d 45bd
00000230: 6e2d c9be b0e1 743d d64f 673b a043 99bd
00000240: 2bf1 c9bb 767a 31bc e7de 093f 1cc6 e0bc
00000250: 937d 9ebd a57c 7bbe 3187 47bd 248f b13e
00000260: 75b5 613d b957 3bbe 78ee e1bd 05ef 0bbe
00000270: fcbb 89bc 7db7 a3be 0749 48bd 72c3 57bd
00000280: 91a8 3abe ac2c 49bd 0c7b 8bbe 1853 e83b
00000290: 4e32 46bc 1efa 213c 303e 243d 4c59 4bbd
000002a0: 69e4 27bf 751b 6bbd da30 1c3d dc9b 71bd
000002b0: fe10 36be cbb6 cebe a688 46bd bb64 afbc
000002c0: 68c3 0fbe d011 f5ba 9816 8fbd 3ec1 a03f
000002d0: 6456 d73b 1eeb eabd ff73 64bd eaf4 a4bd
000002e0: 6059 083d 604f 70bd 9ef8 8bbd 21e9 6ebf
000002f0: 38ae 97bc cea1 04bd ec36 36be 92c6 bbbb
00000300: 77bc bbbe 0e48 b63c df59 34be 8aea b6bd
00000310: 7acc afbe f8c8 2ebc 39c8 1e3d f2bc c43b
00000320: 3503 15bd d26b 7f3c ca83 b5bc ef8a 26be
00000330: aa23 80bd 354c 343f c090 ed3a 33bf acbd
00000340: 26ff 56be 1aed 75bc aa65 5dbc 46d6 c53e
00000350: 88c1 a3be 18c9 83be 5326 1d3f b288 0c3c
00000360: c9a1 96bc 18c3 84be e895 17bd 72ad 41bd
00000370: 7a99 44bd 905a 17bc 1bd4 e83e e755 14bd
00000380: 4488 80bd eebe 4c3e 9d5e 04be fcc0 03bc
00000390: 884a 8a3f b698 af3c 8db4 64bd 55c0 213d
000003a0: 2aad 2ebe 8fa0 713e 108f 8d3d be65 37bc
000003b0: ef70 233d 254c 813f 03d0 94be 7872 d7bc
000003c0: 9fa6 143c 5d6a 813d cdad cabd d504 4d3d
000003d0: 74c3 983b 042c 2f3d 7ae3 153d d851 a4be
000003e0: f0ac 92bc 20a7 cfbd a2f3 5f3e 45a1 ef3c
000003f0: e81d 993b 607e 26bb 718b b93c 5274 17bd

pred_trans.bias f4 [7]
-0.08722989 -0.0859433 -0.013816517 0.04545142 0.080055706 -0.018669877 -0.018481571
00000000: 96a5 b2bd 0a03 b0bd ac5e 62bc 452b 3a3d
00000010: 3ff4 a33d 92f1 98bc aa66 97bc

gcn_convs.0.path_weight_1.weight f4 [32, 32]
0.73393774 1.2326821 0.8339047 -1.1872121 -1.1489207 1.2056516 -1.0779604 0.65805423
-1.0497644 0.51838297 0.88951415 -0.31293973 -0.86654824 0.86392766 0.36013624 0.98586965
-0.99404263 0.84930843 -0.96115816 1.0062276 0.7035153 -0.9873693 1.0803657 1.227517
-1.1780214 1.0484203 0.91995037 0.95791376 1.1780772 0.47417077 0.832251 -1.0362252
1.2310243 1.1148697 -1.1845193 -1.1144483 -0.22863829 1.1793512 1.1936358 1.1225454
-1.0729424 1.0382277 1.0413408 -1.3671037 1.1703358 -1.3399783 -1.0915818 0.6831565
-1.2108045 1.3630369 1.5013196 -1.1129159 -1.4873345 -1.0961541 0.8008113 1.4278252
1.7823094 -1.109178 -1.3358406 1.2772868 1.3181651 1.1708835 1.657993 -1.2125105
-1.341541 -1.1327829 -1.3958178 -0.6501077 -1.1036437 1.3066872 1.1997797 -1.0752985
-1.1101605 1.2404418 -1.2866932 1.3546382 -1.162632 -1.417205 -1.0563524 1.2207845
1.2945018 -1.2080612 1.4137392 -1.3276094 1.3630636 1.1536634 -1.2881423 1.0538894
-1.4165246 -1.3423448 1.1705754 0.83964264 -1.3186133 -1.3288018 1.332649 -1.1956625
-1.1463681 -1.1199203 -1.5683953 0.60562384 1.0801766 1.0288051 1.3302625 -0.71520746
-0.30100065 0.8703921 -0.9025319 1.053326 -1.0077126 1.5308099 -0.37789947 1.286841
-1.3296827 -1.5074749 0.47919807 -1.1061496 0.9432059 -1.1627502 -1.447079 0.6904701
0.40723312 1.3212446 1.2779676 -1.2229303 -1.2360331 -1.108561 1.250774 1.2830242
1.272828 -1.0504545 -1.1434275 -1.1322845 -1.2305464 1.3028014 1.0876933 1.0061986
-1.0355972 1.201501 -1.1128802 0.9658887 1.3551873 1.0967709 -1.049336 1.3196145
1.3236175 1.091194 -0.97123265 1.0265841 -1.3089211 1.3749797 -1.0909326 1.1900237
1.1127881 -1.0465364 -1.5873535 0.9914468 -1.2953075 -1.4669268 1.2560102 -1.1107827
1.0942138 -1.5376258 -1.3166016 1.1438243 -0.97033316 1.0648407 1.2410047 -0.007814063
1.1851099 1.3206881 0.18276092 -0.887154 1.4754568 -1.7099588 -1.3482003 1.2170402
-0.91689265 1.1781367 -0.2311052 -1.4623692 0.95467424 -0.50323105 1.4649625 1.4968112
0.8991302 -1.1142575 -1.2356067 0.62510985 -1.1633465 0.9664829 -1.3366277 -0.9706876
-1.2605771 -0.52180797 -1.6760101 -1.0372589 -1.0143464 1.1264662 1.5635253 1.2445556
1.320791 1.1915969 -1.311645 1.1042322 -1.4364219 -1.364064 -1.4541703 1.1618359
-0.83029497 -1.2986585 1.4201263 1.5538143 1.1233593 1.08675 -1.3107468 -1.0427169
1.609211 0.77122045 -1.0602905 -1.3891392 -1.271014 1.3693842 -1.1565125 1.1110138
-1.026313 0.2645456 -1.2355098 -0.48417926 0.89574 1.0801885 1.1824609 1.1180497
0.9325897 -0.8209563 -0.41158935 -1.1706736 -1.1786247 0.40002573 -0.901417 -0.9084475
-1.0827576 -0.8470907 0.90839523 1.1398466 -0.7100611 0.9120863 -0.8093922 0.9836819
1.060386 0.82216346 -0.65632683 -0.7577605 1.0099419 1.2370675 -0.72877204 0.5943257
00000000: 58e3 3b3f 87c8 9d3f c77a 553f 91f6 97bf
00000010: d50f 93bf cb52 9a3f 9bfa 89bf 3e76 283f
00000020: ae5e 86bf bfb4 043f 33b7 633f a339 a0be
00000030: 1bd6 5dbf 5d2a 5d3f c763 b83e f461 7c3f
00000040: 9479 7ebf 476c 593f 760e 76bf 11cc 803f
00000050: 9419 343f 3cc4 7cbf 6c49 8a3f 471f 9d3f
00000060: 68c9 96bf a332 863f de81 6b3f d639 753f
00000070: 3ccb 963f 83c6 f23e 670e 553f 07a3 84bf
00000080: 3492 9d3f 0db4 8e3f 549e 97bf 3ea6 8ebf
00000090: 2820 6abe fbf4 963f 0fc9 983f 91af 8f3f
000000a0: 2d56 89bf a5e4 843f a84a 853f 41fd aebf
000000b0: 90cd 953f 6984 abbf f4b8 8bbf 58e3 2e3f
000000c0: a4fb 9abf fe77 ae3f 3e2b c03f 0774 8ebf
000000d0: fa60 bebf c74e 8cbf f801 4d3f fac2 b63f
000000e0: b722 e43f 8bf9 8dbf d3fc aabf 227e a33f
000000f0: a2b9 a83f 83df 953f 1d39 d43f 8b33 9bbf
00000100: 9eb7 abbf 08ff 90bf 28aa b2bf 756d 26bf
00000110: 3244 8dbf 8741 a73f 6292 993f 62a3 89bf
00000120: bd19 8ebf ccc6 9e3f 5db2 a4bf c964 ad3f
00000130: 20d1 94bf f966 b5bf 8e36 87bf ab42 9c3f
00000140: 3cb2 a53f c0a1 9abf 68f5 b43f 1bef a9bf
00000150: de78 ae3f 3eab 933f d9e1 a4bf d9e5 863f
00000160: ae50 b5bf f4d1 abbf 6ad5 953f d2f2 563f
00000170: 52c8 a8bf 2d16 aabf 3e94 aa3f 780b 99bf
00000180: 31bc 92bf 8c59 8fbf 2dc1 c8bf 2a0a 1b3f
00000190: 3a43 8a3f e3af 833f 0b46 aa3f d617 37bf
000001a0: c21c 9abe 04d2 5e3f 550c 67bf 63d3 863f
000001b0: bafc 80bf 94f1 c33f 0a7c c1be 35b7 a43f
000001c0: 0b33 aabf f0f4 c0bf 7359 f53e 4f96 8dbf
000001d0: f175 713f 00d5 94bf e239 b9bf a6c2 303f
000001e0: dc80 d03e 8b1e a93f 7194 a33f fb88 9cbf
000001f0: 5536 9ebf 54e5 8dbf 5d19 a03f 233a a43f
00000200: 07ec a23f 4b75 86bf d55b 92bf b3ee 90bf
00000210: 8b82 9dbf 32c2 a63f 8939 8b3f 1ecb 803f
00000220: 738e 84bf c9ca 993f dc72 8ebf 7b44 773f
00000230: c776 ad3f fd62 8c3f a450 86bf 21e9 a83f
00000240: 4c6c a93f 3fac 8b3f b4a2 78bf 1c67 833f
00000250: ba8a a7bf 56ff af3f aea3 8bbf b252 983f
00000260: d76f 8e3f e8f4 85bf 662e cbbf 75cf 7d3f
00000270: a3cc a5bf 42c4 bbbf f1c4 a03f 212e 8ebf
00000280: 330f 8c3f ecd0 c4bf 6786 a8bf d668 923f
00000290: c167 78bf b34c 883f 3ed9 9e3f 8e06 00bc
000002a0: aeb1 973f 4f0c a93f ae25 3b3e 861c 63bf
000002b0: c5db bc3f eedf dabf d491 acbf f9c7 9b3f
000002c0: 7ab9 6abf 2fcd 963f d7a6 6cbe ea2e bbbf
000002d0: 8865 743f c0d3 00bf e483 bb3f 8297 bf3f
000002e0: 662d 663f fd9f 8ebf 5c28 9ebf 3307 203f
000002f0: 8ae8 94bf 6c6b 773f 9e16 abbf fc7e 78bf
00000300: 975a a1bf 3595 05bf 8087 d6bf e6c4 84bf
00000310: 1ad6 81bf 0b30 903f 9921 c83f 994d 9f3f
00000320: ae0f a93f 3f86 983f fce3 a7bf 7b57 8d3f
00000330: acdc b7bf a699 aebf 4122 babf 0ab7 943f
00000340: 368e 54bf 713a a6bf b3c6 b53f 63e3 c63f
00000350: 3dca 8f3f a01a 8b3f 8dc6 a7bf bf77 85bf
00000360: a0fa cd3f b46e 453f 99b7 87bf 50cf b1bf
00000370: 96b0 a2bf fb47 af3f 9a08 94bf b335 8e3f
00000380: 395e 83bf 8572 873e 2f25 9ebf 58e6 f7be
00000390: 374f 653f 9e43 8a3f e15a 973f 411c 8f3f
000003a0: 33be 6e3f 312a 52bf d7bb d2be a2d8 95bf
000003b0: 2ddd 96bf 2cd0 cc3e 44c3 66bf 0490 68bf
000003c0: cd97 8abf f0da 58bf 978c 683f 7ee6 913f
000003d0: 90c6 35bf 7d7e 693f 5434 4fbf 94d2 7b3f
000003e0: baba 873f 4e79 523f 0905 28bf 98fc 41bf
000003f0: c745 813f 3a58 9e3f ce90 3abf bb25 183f

gcn_convs.0.path_weight_1.bias f4 [32]
0.84378374 -1.1569779 -1.0847317 1.2199265 -1.0341836 1.2770981 1.2147684 1.1738391
1.1741924 1.2812757 -0.96356344 -1.1500462 -1.0696025 -1.0630333 1.2854893 1.0518394
-0.9340921 1.2517527 1.2861404 1.1223733 -1.1391264 1.2547292 -0.9718258 1.2942822
1.1870501 -1.0505295 1.0272394 1.3157457 -0.961306 -1.1815158 -1.0888493 -0.9788654
00000000: 3602 583f da17 94bf 7dd8 8abf 8d26 9c3f
00000010: 2160 84bf f377 a33f 887d 9b3f 5c40 963f
00000020: f04b 963f d800 a43f 18ac 76bf b734 93bf
00000030: bce8 88bf 7a11 88bf ea8a a43f aca2 863f
00000040: a920 6fbf 6f39 a03f 40a0 a43f eea9 8f3f
00000050: e5ce 91bf f79a a03f 93c9 78bf 0aab a53f
00000060: 42f1 973f c077 86bf 957c 833f 5b6a a83f
00000070: 2618 76bf e93b 97bf 6a5f 8bbf ec96 7abf

gcn_convs.0.path_weight_2.weight f4 [32, 32]
0.00012737417 8.2547136e-05 -0.000112505826 0.00010441949 -7.86226e-06 -9.1289054e-05 -4.406225e-05 -4.7222675e-05
-8.348773e-05 -4.788781e-05 0.000109423105 4.835865e-05 3.498371e-06 1.7538885e-06 7.8106335e-05 0.0001281492
0.00010444483 -3.228588e-05 -9.720148e-05 -9.490694e-05 2.3120316e-05 -0.00013471779 -5.274232e-05 0.00016051532
-4.8476642e-05 -0.0001238138 -0.00012869164 2.4959236e-05 -2.672152e-05 -0.00013967018 -0.00012932924 -0.00011550185
1.8134422e-05 -0.00012658082 -0.00013364242 -7.3253956e-05 3.373974e-05 -0.000102284415 -0.00015211814 9.202283e-05
-0.000122531 -8.7226144e-05 0.00012891907 0.000110465146 -2.3765842e-05 8.745666e-05 -0.00012358732 -9.542538e-05
-0.00014936541 -6.244084e-05 -8.838936e-05 4.3643024e-05 0.00011664061 9.783325e-05 -2.2599064e-05 7.2329865e-05
-4.6660818e-05 0.00011289416 4.364513e-05 -4.0121875e-05 -5.821019e-05 7.440964e-05 -0.00014009001 9.971646e-05
-6.9579287e-06 -5.231157e-05 0.000102755905 6.0752638e-05 -6.619172e-05 8.548084e-05 6.574042e-06 -0.00012892106
-1.838899e-05 -6.66094e-05 -2.0709325e-05 6.737351e-05 -0.00013269963 5.1490562e-05 -4.9197264e-05 9.2485905e-05
1.8601003e-07 -8.2779814e-05 0.00011955866 -2.6761672e-05 -0.00010915926 -0.00013156058 -0.00015208154 2.9574361e-05
0.00011246112 -0.000107534484 3.4135406e-05 8.6356835e-05 7.054659e-05 9.7327145e-05 0.00010245037 -0.00011099771
-0.0001564821 -5.6516474e-05 -2.8220818e-05 0.00011005697 4.229864e-05 -9.654875e-05 -2.2834529e-05 -0.00014387305
0.000111936 0.00014914671 0.00012136251 -0.00011324912 2.9237426e-06 6.225046e-05 -9.15432e-05 -7.937931e-05
6.182374e-05 -7.195259e-05 3.492053e-05 0.00010137609 -9.929264e-05 -4.3802056e-06 -0.000108138745 5.096342e-05
-0.000106249034 -8.686178e-05 6.695665e-05 -4.6922185e-05 -2.4146286e-05 -9.8729e-05 0.00012068282 -4.4070952e-05
-0.00011734671 -4.2746356e-05 0.0001069752 8.1766855e-05 -0.00013049762 0.00012106277 0.00012046318 7.139535e-05
6.974768e-05 9.3877075e-05 -8.6834196e-05 0.00014091135 -8.730685e-05 8.260541e-05 -7.9284284e-05 -7.4009884e-05
2.9494859e-05 -6.94512e-05 -7.8320554e-05 8.108755e-05 -6.122408e-05 0.00010802791 -4.2577383e-05 -3.806196e-05
-3.2683492e-05 -4.416341e-07 7.3247924e-05 6.0280618e-06 0.00012459392 6.524993e-05 4.1267594e-05 -2.3065357e-05
9.718955e-05 0.00012301403 -6.939245e-05 -5.0026738e-05 8.977453e-05 -9.095006e-05 -5.754302e-05 -3.77123e-05
8.181829e-05 -9.084506e-05 4.5104265e-05 0.00011884539 6.334964e-05 -0.00010663191 -3.1872445e-05 0.00012741746
-0.00011094901 0.00011648266 -5.9867252e-05 0.00012223712 -0.00012317912 8.850916e-05 -5.2087173e-05 0.000113997165
9.676444e-05 9.522884e-05 -8.744387e-05 8.802742e-05 -0.000104422594 5.789852e-05 9.4050876e-05 2.284056e-05
6.258772e-05 -0.000100515725 -8.56281e-05 0.00012388671 3.8607373e-05 3.2035856e-05 -8.47329e-05 0.00012444568
-8.413958e-06 0.00013721472 -4.6659046e-05 -9.896243e-05 -8.528887e-05 -6.598109e-05 -6.9368856e-05 0.00010033233
-0.00010416511 -0.00011060354 -0.00012623938 -0.00010655694 5.540444e-05 -1.7929324e-05 -9.6503354e-05 0.000121161276
-5.5320645e-05 -7.5751464e-05 3.870809e-05 0.00013321616 1.7697177e-05 0.00013440281 7.046092e-05 9.354077e-05
0.00011604738 5.08138e-05 -6.4731285e-05 8.915162e-05 1.1094822e-05 0.00012336229 4.8923397e-05 4.633089e-05
-9.3575945e-05 -9.758276e-05 9.561274e-05 -8.4182066e-05 -0.000114367234 3.7955797e-05 9.341559e-05 -0.00013922542
8.359989e-05 5.0466882e-05 -9.707906e-05 0.00012447503 4.4907505e-05 -1.5060862e-05 4.620189e-05 0.000115986186
1.5885138e-05 -8.436553e-05 9.517705e-05 -8.7373744e-05 -9.7439806e-05 -9.821383e-05 -0.00010170746 0.000105456646
00000000: be8f 0539 281d ad38 1bf1 ebb8 c9fb da38
00000010: 26e8 03b7 7072 bfb8 7bcf 38b8 f610 46b8
00000020: 2216 afb8 25db 48b8 157a e538 b4d4 4a38
00000030: 8ec5 6a36 2667 eb35 05cd a338 ca5f 0639
00000040: 6409 db38 b36a 07b8 a6d8 cbb8 c708 c7b8
00000050: 80f2 c137 0843 0db9 a337 5db8 0150 2839
00000060: 6653 4bb8 04d4 01b9 66f1 06b9 8d5f d137
00000070: 0728 e0b7 6e74 12b9 8e9c 07b9 9539 f2b8
00000080: 601f 9837 c8ba 04b9 5d22 0cb9 eb9f 99b8
00000090: c583 0d38 8781 d6b8 e781 1fb9 61fc c038
000000a0: aa7b 00b9 2eed b6b8 732e 0739 86a9 e738
000000b0: c25c c7b7 f068 b738 3897 01b9 1c1f c8b8
000000c0: f99e 1cb9 acf2 82b8 ad5d b9b8 570d 3738
000000d0: f39c f438 d32b cd38 1f93 bdb7 cdaf 9738
000000e0: acb5 43b8 97c1 ec38 9a0f 3738 8948 28b8
000000f0: b726 74b8 5f0c 9c38 20e5 12b9 de1e d138
00000100: 2778 e9b6 1f69 5bb8 a87e d738 a6d0 7e38
00000110: 69d0 8ab8 2d44 b338 9796 dc36 fc2e 07b9
00000120: 0e42 9ab7 a6b0 8bb8 f0b8 adb7 e14a 8d38
00000130: 4925 0bb9 92f7 5738 2959 4eb8 fef4 c138
00000140: 0cba 4734 139a adb8 91bb fa38 417e e0b7
00000150: 6eec e4b8 86f3 09b9 1478 1fb9 7516 f837
00000160: 1bd9 eb38 2384 e1b8 9d2c 0f38 791a b538
00000170: 6af2 9338 1d1c cc38 a0da d638 71c7 e8b8
00000180: 5815 24b9 1a0c 6db8 bfbb ecb7 63ce e638
00000190: d269 3138 377a cab8 c78c bfb7 a1dc 16b9
000001a0: 2fbf ea38 4464 1c39 0084 fe38 2980 edb8
000001b0: 8435 4436 768c 8238 e2fa bfb8 7178 a6b8
000001c0: 5ea7 8138 41e5 96b8 a277 1238 e099 d438
000001d0: 553b d0b8 aef9 92b6 8cc8 e2b8 8ec1 5538
000001e0: 04d2 deb8 9029 b6b8 146b 8c38 50ce 44b8
000001f0: c18d cab7 ba0c cfb8 1817 fd38 d3d8 38b8
00000200: 0918 f6b8 8d4a 33b8 e057 e038 3f7a ab38
00000210: 30d6 08b9 14e3 fd38 2da1 fc38 16ba 9538
00000220: 8045 9238 dfdf c438 c11a b6b8 9ac1 1339
00000230: 8218 b7b8 713c ad38 6d45 a6b8 c135 9bb8
00000240: ba6b f737 54a6 91b8 0740 a4b8 8c0d aa38
00000250: 6d65 80b8 0b8d e238 1e95 32b8 b8a4 1fb8
00000260: a215 09b8 bb19 edb4 ae9c 9938 a844 ca36
00000270: 6da5 0239 cad6 8838 be16 2d38 7a7c c1b7
00000280: 3ed2 cb38 54fd 0039 ca86 91b8 cdd3 51b8
00000290: 5545 bc38 71bc beb8 595a 71b8 462d 1eb8
000002a0: dc95 ab38 1284 beb8 562e 3d38 a23c f938
000002b0: 94da 8438 929f dfb8 c7ae 05b8 5d9b 0539
000002c0: 4cad e8b8 2748 f438 f919 7bb8 c72c 0039
000002d0: a529 01b9 fe9d b938 2d78 5ab8 c311 ef38
000002e0: 03ee ca38 98b5 c738 1262 b7b8 5c9b b838
000002f0: 74fd dab8 10d8 7238 2e3d c538 bb99 bf37
00000300: 8741 8338 f8cb d2b8 3c93 b3b8 96e7 0139
00000310: 5aee 2138 3d5e 0638 a1b2 b1b8 a27d 0239
00000320: ad29 0db7 4ce1 0f39 c5b3 43b8 0d8a cfb8
00000330: 1ddd b2b8 545f 8ab8 1f7a 91b8 8269 d238
00000340: 3873 dab8 d3f3 e7b8 205f 04b9 5277 dfb8
00000350: 1162 6838 ee66 96b7 d861 cab8 f717 fe38
00000360: 1708 68b8 c2dc 9eb8 7f5a 2238 f1af 0b39
00000370: 6674 9437 7bee 0c39 6bc4 9338 522b c438
00000380: 765e f338 e720 5538 58c0 87b8 e9f6 ba38
00000390: e623 3a37 d05a 0139 1933 4d38 6a53 4238
000003a0: 343e c4b8 58a5 ccb8 b383 c838 e78a b0b8
000003b0: 71d8 efb8 ba32 1f38 1de8 c338 0afd 11b9
000003c0: 5952 af38 67ac 5338 ec96 cbb8 8385 0239
000003d0: 115b 3c38 e9ad 7cb7 e7c8 4138 9c3d f338
000003e0: 1341 8537 66ed b0b8 ca99 c738 6c3c b7b8
000003f0: 9958 ccb8 26f8 cdb8 c74b d5b8 9b28 dd38

gcn_convs.0.path_weight_2.bias f4 [32]
-1.0425551 1.2164345 -0.89111376 1.3523548 -0.9946539 -1.0259479 1.2132375 1.1753279
-1.1046189 1.2390085 -1.1836598 -1.0880718 -1.0860876 1.1372514 1.2684808 -0.54064447
-0.9020836 1.2627274 1.3254607 -0.92927825 1.0181358 -0.88089216 1.3128384 1.2933872
-1.149645 1.1920271 -1.0086926 1.2028644 -0.9382958 1.1886401 -1.0101306 1.2913772
00000000: 7272 85bf 20b4 9b3f 0820 64bf f619 ad3f
00000010: a3a1 7ebf 4352 83bf 5e4b 9b3f 2571 963f
00000020: 2764 8dbf d597 9e3f 2a82 97bf f045 8bbf
00000030: eb04 8bbf 7491 913f 945d a23f ad67 0abf
00000040: f3ee 66bf 0da1 a13f b2a8 a93f 2ee5 6dbf
00000050: 4652 823f 2682 61bf 170b a83f b68d a53f
00000060: 9127 93bf 5894 983f d71c 81bf 76f7 993f
00000070: 2734 70bf 5c25 983f f64b 81bf d94b a53f

gcn_convs.1.path_weight_1.weight f4 [32, 32]
-0.8120571 -0.06394201 -0.0035295011 -0.5760779 -0.9475389 0.6295647 0.36902997 0.69794285
-0.102201976 -0.61320704 0.49243248 -0.063033365 0.54011875 -0.081721716 -0.32080257 0.052610923
0.001217696 -0.7551627 -0.7664447 0.5991112 -0.43716577 0.18456593 0.8255759 -0.9361576
0.509605 -0.025134418 -0.68760717 0.8401036 0.5919899 0.6969901 0.005279832 0.5990392
0.966144 0.62875754 -1.0683416 1.3411978 -1.0532717 1.0452822 1.3473402 1.33084
-1.2375356 -1.1843002 -1.074069 -1.4410425 1.4365077 -1.2097645 -1.0952169 -1.0592419
-1.0954444 -1.0810367 1.2079796 -1.0261374 1.025244 1.0802916 -1.2209752 -1.0821258
0.7200117 1.0366406 0.7951796 -0.90226394 -1.2619971 -1.2753438 1.4913237 0.9482919
1.0092821 -1.130971 -0.78212804 -1.2003161 -1.1143622 1.0606633 1.1292607 -1.3380876
-1.3771054 1.366842 -1.2592373 -1.2842864 -1.3632411 -1.0015215 -1.088244 -1.2663683
-1.0327951 -1.3896189 0.86170435 -1.1847922 1.1927553 0.6749335 -1.4757938 -0.5593915
-1.3495755 1.281755 1.054642 -1.2098081 -1.1332847 -1.0354408 0.93673855 0.964395
-0.8336666 -0.607375 0.5570033 0.21753256 -0.8278532 -0.36185598 -0.5583514 0.94649893
-0.67337155 -0.23729484 -0.65903574 0.58161986 0.4843405 -0.6420756 -0.5621344 -0.8009682
-0.84536654 0.9701949 0.17914653 -0.02698425 -9.10457e-05 -0.78026485 -0.63597727 -0.50439996
-0.16477728 0.69406796 0.002282641 -0.0040813996 0.0063811685 -0.8568544 0.8133564 -0.85955304
1.043343 -0.8501162 1.1980507 -1.3331249 0.5918662 1.2278286 1.0977383 -1.1961874
-1.2022763 1.1350157 -1.0947181 -1.3717389 -0.9830554 1.3251308 -1.1117964 1.3656862
1.1301299 0.0048400015 0.14792052 -1.0387355 -1.277326 1.0273026 -0.9281648 -1.138892
-1.2244644 -1.2906731 -1.6223615 -0.66059643 1.1765662 -1.2121618 -0.97040325 1.5030631
1.0875033 0.7244181 1.2731599 1.0208316 -1.0995642 -1.1593857 -1.0173692 -1.0006198
-1.0463845 1.1448897 -1.243894 1.1035023 1.0128082 1.194584 -0.99216336 -1.2318953
0.9648257 -1.2861851 -1.0328617 1.1014256 1.0925609 -1.0673434 -1.3522213 -1.1352285
-1.1883124 -1.2623814 -1.253217 1.2883072 1.0736352 -1.3363284 -1.105139 -1.3052288
0.6537305 -0.39290324 -0.39500296 -1.1908964 1.3636501 1.523111 1.2147372 -0.36005202
1.0467708 -0.8538261 1.1688794 -0.765015 -1.3171369 -1.3572234 -1.5829597 1.1261518
-0.50034827 1.1887492 1.1491933 -1.2472754 -0.6268757 1.0199676 0.9213595 0.46605915
1.2768502 1.3925518 1.260119 -1.3463986 -1.075285 1.0444268 0.91064304 1.220422
0.65657175 -0.86650187 -0.7721732 -0.006962662 0.9131434 -0.86510426 -0.16157854 -0.6454882
0.75977325 -0.5723852 -0.46977738 -0.20178281 -0.8801341 1.0905119 -0.8566658 -0.6107305
-0.84756356 -0.0029366962 0.4263479 0.6959389 0.87329006 -0.74285233 -0.80689627 0.83551
1.0291119 0.7004856 1.0502942 -0.96817327 0.67028415 0.00028527362 0.47073013 -1.0505022
00000000: f9e2 4fbf 07f4 82bd 344f 67bb d779 13bf
00000010: e991 72bf 272b 213f 7ff1 bc3e 62ac 323f
00000020: 454f d1bd 23fb 1cbf 1c20 fc3e a317 81bd
00000030: 3945 0a3f b75d a7bd 3c40 a4be 8d7e 573d
00000040: 199b 9f3a 5852 41bf b835 44bf 5a5f 193f
00000050: 31d4 dfbe dafe 3c3e f158 533f 06a8 6fbf
00000060: 7975 023f b2e6 cdbc 0607 30bf 0811 573f
00000070: a68c 173f f16d 323f 7102 ad3b a25a 193f
00000080: 3755 773f 41f6 203f 6bbf 88bf 5fac ab3f
00000090: 9bd1 86bf cfcb 853f a575 ac3f f758 aa3f
000000a0: 9167 9ebf 2697 97bf 187b 89bf 1574 b8bf
000000b0: 7cdf b73f 90d9 9abf 1130 8cbf 3d95 87bf
000000c0: 8637 8cbf 695f 8abf 139f 9a3f 7858 83bf
000000d0: 323b 833f ff46 8a3f ea48 9cbf 1983 8abf
000000e0: b052 383f a4b0 843f e490 4b3f c5fa 66bf
000000f0: 1f89 a1bf 773e a3bf b2e3 be3f 42c3 723f
00000100: 2830 813f a8c3 90bf 8b39 48bf f5a3 99bf
00000110: 6ca3 8ebf d1c3 873f 9d8b 903f 7446 abbf
00000120: fd44 b0bf aef4 ae3f b02e a1bf 7f63 a4bf
00000130: af7e aebf db31 80bf 944b 8bbf 5b18 a2bf
00000140: a132 84bf 08df b1bf a898 5c3f 45a7 97bf
00000150: 35ac 983f 71c8 2c3f d0e6 bcbf 4834 0fbf
00000160: e4be acbf 8c10 a43f 82fe 863f feda 9abf
00000170: 790f 91bf 5389 84bf 19ce 6f3f 97e2 763f
00000180: 2d6b 55bf ee7c 1bbf c597 0e3f dbc0 5e3e
00000190: 30ee 53bf 3045 b9be 1ef0 0ebf c14d 723f
000001a0: 1462 2cbf 6bfd 72be 91b6 28bf 0ae5 143f
000001b0: 7afb f73e 115f 24bf 0ae8 0fbf 410c 4dbf
000001c0: f169 58bf b15e 783f 3072 373e 130e ddbc
000001d0: caef beb8 70bf 47bf 68cf 22bf 5b20 01bf
000001e0: 60bb 28be 70ae 313f 5c98 153b 43bd 85bb
000001f0: 1f19 d13b cf5a 5bbf 2038 503f ab0b 5cbf
00000200: 438c 853f 37a1 59bf ba59 993f d6a3 aabf
00000210: 8b84 173f 7d29 9d3f b082 8c3f ab1c 99bf
00000220: 31e4 99bf 3248 913f b91f 8cbf 2495 afbf
00000230: 85a9 7bbf e39d a93f 584f 8ebf cece ae3f
00000240: 19a8 903f e098 9e3b 7a78 173e 49f5 84bf
00000250: 6b7f a3bf a77e 833f 359c 6dbf 37c7 91bf
00000260: 40bb 9cbf c734 a5bf 8ba9 cfbf d91c 29bf
00000270: b999 963f 1e28 9bbf 596c 78bf 5f64 c03f
00000280: 4f33 8b3f 7773 393f e7f6 a23f 9caa 823f
00000290: 85be 8cbf c066 94bf 2739 82bf 4f14 80bf
000002a0: edef 85bf bf8b 923f eb37 9fbf 903f 8d3f
000002b0: b3a3 813f 21e8 983f 6bfe 7dbf bfae 9dbf
000002c0: d1fe 763f b7a1 a4bf d034 84bf 84fb 8c3f
000002d0: 09d9 8b3f b59e 88bf 9615 adbf 2b4f 91bf
000002e0: 9f1a 98bf b795 a1bf 6a69 a0bf 40e7 a43f
000002f0: e16c 893f cf0c abbf 3275 8dbf bd11 a7bf
00000300: e25a 273f 9d2a c9be d43d cabe 4b6f 98bf
00000310: 168c ae3f 4df5 c23f 827c 9b3f bd58 b8be
00000320: 96fc 853f 5994 5abf d79d 953f 06d8 43bf
00000330: f197 a8bf 7fb9 adbf 6c9e cabf be25 903f
00000340: d316 00bf ef28 983f c418 933f b8a6 9fbf
00000350: ed7a 20bf 4c8e 823f 37de 6b3f 4e9f ee3e
00000360: d46f a33f 233f b23f 944b a13f ca56 acbf
00000370: f0a2 89bf c7af 853f e71f 693f ca36 9c3f
00000380: 1615 283f 11d3 5dbf 25ad 45bf 0b27 e4bb
00000390: c4c3 693f 7977 5dbf d874 25be b73e 25bf
000003a0: 8080 423f d687 12bf a986 f0be 27a0 4ebe
000003b0: 7850 61bf e595 8b3f 734e 5bbf d658 1cbf
000003c0: edf9 58bf 9675 40bb 464a da3e 0d29 323f
000003d0: f08f 5f3f 922b 3ebf c190 4ebf fce3 553f
000003e0: f0b9 833f 0653 333f 0a70 863f 34da 77bf
000003f0: be97 2b3f c790 9539 8a03 f13e db76 86bf

gcn_convs.1.path_weight_1.bias f4 [32]
1.0109706 1.3261122 1.2894945 1.1064326 1.2228982 -1.1959953 1.3138299 1.223322
-1.0155765 -1.0116935 1.2575042 -1.1421422 1.340907 1.2517893 1.1912423 -1.0499986
-1.1920098 -0.9528961 1.314767 -1.0783648 -1.1407894 -1.1205623 -1.0184094 1.1891506
-0.9757439 -0.9120002 -1.159333 -0.9701159 1.0574871 -1.0482237 0.47274885 -0.9990247
00000000: 7c67 813f 0bbe a93f 280e a53f 959f 8d3f
00000010: ee87 9c3f 6016 99bf 942b a83f d195 9c3f
00000020: 69fe 81bf 2c7f 81bf e6f5 a03f b731 92bf
00000030: d7a2 ab3f a23a a03f a17a 983f 5b66 86bf
00000040: c793 98bf 00f1 73bf 494a a83f dc07 8abf
00000050: 6305 92bf 966e 8fbf 3d5b 82bf 1636 983f
00000060: 5aca 79bf d878 69bf 0665 94bf 8459 78bf
00000070: bd5b 873f 322c 86bf 230c f23e 15c0 7fbf

gcn_convs.1.path_weight_2.weight f4 [32, 32]
-1.2472513 0.83554363 -1.0472193 1.1079317 1.0265318 -1.1519923 -1.2255433 0.9988692
-1.3441547 -0.88031346 -1.2697104 0.8318789 -1.2597051 1.0346595 1.3757716 1.0934333
-1.1237075 -1.1671791 1.5058628 1.1721772 0.38771853 -1.2587708 -0.70145303 -0.76466477
0.97801065 1.0158999 1.356932 -1.0580574 1.3295603 0.5154375 -1.3200327 -1.1800374
1.0911541 0.8448773 1.275339 -1.3666562 1.0529914 -0.99231625 -1.5374678 -0.60999876
1.0884854 -1.2235178 0.97922915 1.6304011 -1.1536183 -0.6762062 -0.6461155 -1.0943942
-1.1143951 -1.0630834 0.88714343 -1.4556462 0.99947524 0.5385787 0.29412636 -1.555919
0.015928892 0.7242136 -1.2692121 -0.55004257 -1.3254321 0.017914996 1.1429198 0.46859547
1.1551039 1.2177764 1.3483443 -1.177793 1.1734519 -1.1873851 -1.335311 -1.2517734
1.2338468 -1.0918031 1.2490485 1.0219905 -1.347395 -1.1971207 -1.0380933 1.2975208
-1.3001299 1.3409953 1.3353302 -1.1813667 1.270716 -1.1973982 1.2200179 -1.2783296
-1.0533193 -1.21483 -1.0948651 1.0299878 1.2557471 -1.2098881 1.3217547 1.3082483
-1.2541063 0.4510241 -1.4159628 1.3776753 -1.1626998 -1.1056297 1.3267748 1.310693
-1.3289331 1.2255291 1.0246654 -1.208477 1.4689775 1.2391391 1.192545 1.0499667
1.3024485 1.3127466 1.1149858 1.3072515 -0.47058958 1.6099637 -1.3399394 1.1944736
1.1240392 -1.1192378 1.1364317 -1.1143436 -1.0736554 0.8073873 -1.2576185 -1.1843635
1.0830317 -1.2906846 1.0211178 1.1310561 1.299907 1.2972938 -1.0719638 -1.4474072
1.165606 -1.2574811 -1.1115808 1.2715154 0.8617228 -1.3073592 -1.010593 -1.2268982
-1.3118726 1.1710978 1.0758356 -1.4944465 1.306162 -0.66196924 1.1610107 -1.3735849
-1.4208473 1.2521267 -1.0935595 1.0438251 1.3642905 -1.2778615 1.1253371 0.99970216
-1.342365 0.9949005 1.2749219 1.2784486 -1.0291228 -1.3089224 1.150978 1.1530449
1.2587359 -1.183464 -1.3281815 -1.0770242 1.2822063 1.3172427 -1.0538421 -1.2207413
-1.094547 -1.3085382 1.2956074 1.0858128 -1.1819847 1.0016387 -1.1362834 1.2287234
1.2041036 1.0242116 1.2022036 -1.1229203 -1.157991 1.0780456 -1.0776049 -1.2889874
-1.0600156 1.261623 1.4347345 1.2913342 -1.1956058 -1.3375967 1.0670911 1.2844826
-1.1482103 1.1003233 1.2939904 1.0221498 -1.0489336 -1.057928 1.3507768 1.3078198
1.1599376 -1.1215659 1.2847209 1.1629387 -1.3165108 1.2333065 1.2315292 1.2755587
-1.3327247 0.9688393 1.0767804 1.255899 1.3584673 1.2542609 -0.93915015 -1.0297568
-0.34642005 0.74287224 0.030485965 1.4151233 0.70177186 1.5089085 -1.2683147 1.6088924
-1.0289863 -1.3623568 1.4174579 -0.96290386 0.76106435 1.2101355 1.1016965 -1.0967968
-1.0765413 1.250981 -1.5253752 1.5346957 1.3249457 -0.7966215 1.1323378 -1.1569018
0.4543802 -1.1772913 1.4115366 1.3868873 -1.3614223 -0.6256648 -1.2509146 1.1441591
00000000: eea5 9fbf 30e6 553f 480b 86bf b5d0 8d3f
00000010: 6565 833f 7c74 93bf 9ade 9cbf e4b5 7f3f
00000020: 430d acbf 395c 61bf df85 a2bf 04f6 543f
00000030: 043e a1bf b96f 843f 4919 b03f 9ff5 8b3f
00000040: a6d5 8fbf 2066 95bf 1dc0 c03f e709 963f
00000050: 0b83 c63e 671f a1bf 6d92 33bf 12c1 43bf
00000060: e85e 7a3f 0209 823f f3af ad3f 6d6e 87bf
00000070: 082f aa3f b6f3 033f d5f6 a8bf 770b 97bf
00000080: f0aa 8b3f e149 583f 4f3e a33f 97ee aebf
00000090: 6cc8 863f 7008 7ebf bfcb c4bf e128 1cbf
000000a0: 7d53 8b3f 3b9c 9cbf c3ae 7a3f fcb0 d03f
000000b0: c4a9 93bf d91b 2dbf d367 25bf 1c15 8cbf
000000c0: 80a4 8ebf 1e13 88bf d51b 633f 9d52 babf
000000d0: 9cdd 7f3f 4be0 093f bb97 963e 5b28 c7bf
000000e0: 4f7d 823c 1066 393f 8b75 a2bf 97cf 0cbf
000000f0: c2a7 a9bf 78c2 923c 324b 923f bfeb ef3e
00000100: 72da 933f 19e0 9b3f 8c96 ac3f ecc1 96bf
00000110: ac33 963f 3cfc 97bf 79eb aabf 1c3a a0bf
00000120: b1ee 9d3f 34c0 8bbf d2e0 9f3f 96d0 823f
00000130: 7077 acbf 403b 99bf 3ee0 84bf 2915 a63f
00000140: a86a a6bf bca5 ab3f 1aec aa3f 0637 97bf
00000150: d2a6 a23f 5844 99bf 8c29 9c3f 4ea0 a3bf
00000160: 2bd3 86bf 8d7f 9bbf 8a24 8cbf a4d6 833f
00000170: 52bc a03f 9ddd 9abf 422f a93f ae74 a73f
00000180: 8e86 a0bf a1ec e63e 453e b5bf aa57 b03f
00000190: 59d3 94bf 4685 8dbf c2d3 a93f cac4 a73f
000001a0: 7b1a aabf 23de 9c3f 3c28 833f 60af 9abf
000001b0: 7407 bc3f 1c9c 9e3f 51a5 983f 4f65 863f
000001c0: a2b6 a63f 1508 a83f dbb7 8e3f 0454 a73f
000001d0: 1ef1 f0be 4a13 ce3f 2283 abbf 83e4 983f
000001e0: 84e0 8f3f 2f43 8fbf 9876 913f d0a2 8ebf
000001f0: 8a6d 89bf efb0 4e3f a5f9 a0bf 3999 97bf
00000200: c8a0 8a3f 2735 a5bf fdb3 823f 72c6 903f
00000210: 5a63 a63f b90d a63f 1c36 89bf a444 b9bf
00000220: 9432 953f 24f5 a0bf 4848 8ebf 04c1 a23f
00000230: de99 5c3f 8c57 a7bf 1d5b 81bf 000b 9dbf
00000240: 71eb a7bf 88e6 953f fbb4 893f 064a bfbf
00000250: 5130 a73f d176 29bf 009c 943f a1d1 afbf
00000260: 53de b5bf b045 a03f c2f9 8bbf 109c 853f
00000270: 12a1 ae3f f790 a3bf 0c0b 903f 7bec 7f3f
00000280: 9ed2 abbf cdb1 7e3f a430 a33f 34a4 a33f
00000290: 4cba 83bf c58a a7bf 3f53 933f fa96 933f
000002a0: 421e a13f c07b 97bf da01 aabf eedb 89bf
000002b0: 561f a43f 699b a83f 4ce4 86bf 4041 9cbf
000002c0: 1e1a 8cbf 2e7e a7bf 77d6 a53f eafb 8a3f
000002d0: 464b 97bf b235 803f bc71 91bf cf46 9d3f
000002e0: 1120 9a3f 5e19 833f cfe1 993f dabb 8fbf
000002f0: 0d39 94bf 66fd 893f f5ee 89bf 8afd a4bf
00000300: 97ae 87bf dd7c a13f 61a5 b73f 704a a53f
00000310: 9c09 99bf 5e36 abbf 7196 883f ed69 a43f
00000320: 8ef8 92bf 65d7 8c3f 7aa1 a53f ced5 823f
00000330: 7543 86bf 2f6a 87bf 41e6 ac3f a466 a73f
00000340: d678 943f 798f 8fbf bc71 a43f 2ddb 943f
00000350: 6d83 a8bf fddc 9d3f c0a2 9d3f 8245 a33f
00000360: b996 aabf da05 783f f1d3 893f 4cc1 a03f
00000370: 42e2 ad3f 9f8b a03f 256c 70bf 12cf 83bf
00000380: f85d b1be e02c 3e3f b4bd f93c c322 b53f
00000390: 52a7 333f ea23 c13f 2358 a2bf 30f0 cd3f
000003a0: d3b5 83bf b561 aebf 436f b53f de80 76bf
000003b0: 1dd5 423f b8e5 9a3f 6404 8d3f d663 8cbf
000003c0: 1bcc 89bf 2520 a03f 7f3f c3bf e970 c43f
000003d0: d297 a93f 63ef 4bbf 72f0 903f 5c15 94bf
000003e0: 86a4 e83e 7bb1 96bf 3bad b43f 8685 b13f
000003f0: 1643 aebf 912b 20bf f81d a0bf ce73 923f

gcn_convs.1.path_weight_2.bias f4 [32]
-1.2154872 0.31507683 1.3657761 -0.9809396 1.1168381 -1.0675014 -1.1447662 1.1135144
1.2165743 -1.218175 -1.2700539 -1.1939777 1.357087 1.1144961 1.1513091 1.1201917
-1.1444336 -1.5338124 1.2422642 -1.0815884 1.1778986 1.3066443 1.1275885 1.1800983
-1.0878806 -1.2192563 -1.0578635 1.1977721 -1.1582832 -1.3383622 1.1798795 1.2022293
00000000: 1695 9bbf c051 a13e c0d1 ae3f dc1e 7bbf
00000010: 8df4 8e3f e3a3 88bf b387 92bf a487 8e3f
00000020: b5b8 9b3f 29ed 9bbf 2091 a2bf 43d4 98bf
00000030: 07b5 ad3f cfa7 8e3f 195e 933f 7162 8f3f
00000040: cd7c 92bf f753 c4bf 8302 9f3f 7d71 8abf
00000050: 62c5 963f 1f40 a73f d254 903f 760d 973f
00000060: ac3f 8bbf 9710 9cbf 1268 87bf 9950 993f
00000070: a042 94bf 744f abbf 4b06 973f a6e2 993f

gcn_convs.2.path_weight_1.weight f4 [32, 32]
-0.60506123 0.0011222367 -0.23501848 -0.46478513 -0.73027843 0.6270114 0.0008422873 0.005922101
0.7715043 -0.14554471 0.80368495 -0.00035295854 0.913852 -0.80583864 0.39055246 0.81967497
1.0989311 -1.0903559 0.71626353 -0.8929252 -0.8224045 0.7118448 0.7657371 -0.97395587
-1.0023824 1.0144401 -0.40618485 -0.7216955 -0.9622352 -0.81321126 0.38781285 0.69359833
0.5046996 0.65016854 0.71752435 -0.45244616 0.8215607 0.5079229 -0.7319265 -0.6892876
0.1178906 0.61002 0.99394894 0.43109062 0.00041022355 0.59075093 -0.6209035 0.7666923
0.2455463 -0.007630694 0.0013875982 -0.44741413 0.45123637 -0.0034456314 -0.0060948073 0.799906
0.4638495 -0.7078713 -0.00063409685 -0.61636627 0.24845204 0.001417528 -0.2247769 -0.24851932
0.53096896 1.0687162 -0.7762583 0.31187642 0.1397408 0.80853236 -0.55593234 -0.8643023
-0.054785594 -0.9533162 -0.28877586 -0.77301234 -0.11572333 0.9836403 0.7307663 0.7725361
0.27986738 -1.08281 -0.0011207518 -0.8056053 0.4259801 -0.500145 -0.12904115 0.7046841
0.5382006 0.26960605 0.70286876 -0.03906863 -1.0572865 -0.68107307 0.8633375 -0.72396845
-1.1459293 0.7862697 0.91519123 -1.2962854 1.1863254 -1.1974261 -1.1384468 -1.2320108
1.0821744 1.168475 1.1399658 1.2552797 -1.2887545 1.2318654 0.86680835 1.1990336
1.3587732 1.1312847 -1.1441749 0.9865433 -1.301709 -1.1334983 1.2720795 1.3311181
-1.2536924 -1.3391585 -0.99116784 0.8995552 1.0982409 0.5699435 -0.85097814 -1.3308132
1.1762714 -1.2024441 0.99336547 -0.7727089 0.08898643 0.8057874 -0.6715923 -0.9075347
-1.2874148 -0.0034079861 1.0023825 -1.009909 1.1587303 0.9587448 0.97038984 -0.95925856
0.59552634 -1.2265403 -0.6519924 -1.2497432 0.8321991 0.057367943 -1.0025799 -1.0324854
1.019861 0.9421977 -1.0837324 0.9808381 -1.0135632 1.2661679 0.90580493 1.0180376
0.70759094 -0.8430789 0.77681607 0.8148919 -0.0019807697 -1.00068 0.79254323 -0.0012799582
0.9459764 0.15015551 0.0100435065 -0.0047767744 0.46239525 -0.72019583 -0.37167504 -0.0026905886
0.007548402 -0.42060006 0.8135794 -0.6485665 0.29600415 0.13977213 0.5951047 0.17415
-0.74761254 0.059987668 -0.8733842 -0.7463447 -0.8050856 -0.3583241 0.7954951 0.9199607
0.4963742 -0.5813999 0.0030091186 -0.6299211 0.0019103211 -0.5054708 0.61947775 -0.18421522
0.0006812733 0.00052278663 -0.46319473 0.53507787 -0.5442634 0.67724115 -0.7002669 -0.10295972
-0.40268776 -0.1498167 0.04353191 0.21962264 0.72336584 -0.037609704 0.3899956 0.9370838
-0.0053241095 -0.81590617 0.8636671 -0.6453357 0.019169908 -0.0004996073 0.25442466 -0.5946029
1.2593542 1.0850568 1.241027 0.5448887 -1.383787 1.0334945 -1.1929576 -1.0778761
-1.220091 0.8956435 -0.93680584 0.74388117 -1.2135732 -1.1698936 -1.3505411 -0.8394192
-0.9340095 -0.86555296 1.060833 -1.2867106 1.3181585 1.1619143 -1.1891599 -0.713702
1.0763518 1.0061259 1.0106452 1.0841802 0.6808667 -1.1899787 -1.1536628 0.92612743
00000000: 4be5 1abf 0418 933a afa8 70be 51f8 edbe
00000010: 87f3 3abf d283 203f f2cc 5c3a 2f0e c23b
00000020: 4e81 453f ac09 15be 4cbe 4d3f 4b0d b9b9
00000030: 34f2 693f 714b 4ebf 7ef6 c73e 38d6 513f
00000040: c6a9 8c3f c890 8bbf 0c5d 373f bf96 64bf
00000050: 1a89 52bf 763b 363f 5907 443f 2c55 79bf
00000060: 114e 80bf 2cd9 813f 76f7 cfbe 09c1 38bf
00000070: 0c55 76bf 9d2e 50bf 688f c63e a98f 313f
00000080: fe33 013f 7271 263f adaf 373f 06a7 e7be
00000090: cd51 523f 3c07 023f 895f 3bbf 2775 30bf
000000a0: a070 f13d 452a 1c3f 7073 7e3f e9b7 dc3e
000000b0: 4613 d739 743b 173f 88f3 1ebf f245 443f
000000c0: 7d70 7b3e e70a fabb 12e0 b53a 7713 e5be
000000d0: 7408 e73e 1ad0 61bb f3b6 c7bb a4c6 4c3f
000000e0: af7d ed3e 0e37 35bf 8539 26ba 2eca 1dbf
000000f0: 366a 7e3e 59cc b93a ea2b 66be d97b 7ebe
00000100: 95ed 073f b1cb 883f ddb8 46bf 44ae 9f3e
00000110: 3618 0f3e fafb 4e3f 9551 0ebf ea42 5dbf
00000120: dc66 60bd 880c 74bf 6eda 93be 23e4 45bf
00000130: 5a00 edbd dacf 7b3f 8013 3b3f edc4 453f
00000140: c74a 8f3e 8599 8abf 31e6 92ba 263c 4ebf
00000150: 101a da3e 8109 00bf 5d23 04be 2d66 343f
00000160: 84c7 093f ce09 8a3e 35ef 333f 6e06 20bd
00000170: 2a55 87bf ce5a 2ebf b003 5d3f ff55 39bf
00000180: d0ad 92bf f948 493f f949 6a3f aeec a5bf
00000190: 83d9 973f 4245 99bf a0b8 91bf 88b2 9dbf
000001a0: b184 8a3f 9790 953f 66ea 913f 01ad a03f
000001b0: e8f5 a4bf c4ad 9d3f 27e7 5d3f ef79 993f
000001c0: 48ec ad3f f0cd 903f 5374 92bf 1a8e 7c3f
000001d0: 679e a6bf 7916 91bf 80d3 a23f 1462 aa3f
000001e0: fe78 a0bf 8c69 abbf 2dbd 7dbf 4049 663f
000001f0: 2893 8c3f d1e7 113f b4d9 59bf 1658 aabf
00000200: 1090 963f b0e9 99bf 334d 7e3f 40d0 45bf
00000210: 843e b63d 1548 4e3f 79ed 2bbf 3254 68bf
00000220: 02ca a4bf 8558 5fbb 124e 803f b344 81bf
00000230: 4651 943f 4d70 753f 786b 783f f891 75bf
00000240: 6a74 183f 46ff 9cbf f9e8 26bf 96f7 9fbf
00000250: 000b 553f a6fa 6a3d 8a54 80bf 7b28 84bf
00000260: ce8a 823f de33 713f beb7 8abf 3518 7b3f
00000270: 70bc 81bf ca11 a23f d5e2 673f 0e4f 823f
00000280: ae24 353f 05d4 57bf 6bdd 463f c19c 503f
00000290: cdcf 01bb 4816 80bf 1de4 4a3f 45c4 a7ba
000002a0: 822b 723f 5ec2 193e 858d 243c 7d86 9cbb
000002b0: 12bf ec3e c15e 38bf 314c bebe 9654 30bb
000002c0: 9658 f73b e458 d7be bd46 503f 7408 26bf
000002d0: db8d 973e 6d20 0f3e c858 183f 6154 323e
000002e0: 8963 3fbf a1b5 753d 1b96 5fbf 7210 3fbf
000002f0: 171a 4ebf 4276 b7be 91a5 4b3f 8b82 6b3f
00000300: c224 fe3e a0d6 14bf a234 453b 8242 21bf
00000310: bd63 fa3a 8966 01bf 1896 1e3f eaa2 3cbe
00000320: 7a97 323a 9e0b 093a dc27 edbe ddfa 083f
00000330: d954 0bbf ad5f 2d3f b144 33bf 8cdc d2bd
00000340: 172d cebe 8d69 19be 844e 323d c2e4 603e
00000350: 812e 393f a20c 1abd 81ad c73e b9e4 6f3f
00000360: de75 aebb 3adf 50bf 4919 5d3f b834 25bf
00000370: 360a 9d3c 14f8 02ba f343 823e e537 18bf
00000380: 8532 a13f 24e3 8a3f f9d9 9e3f d37d 0b3f
00000390: ef1f b1bf 8c49 843f d6b2 98bf d8f7 89bf
000003a0: f12b 9cbf e448 653f 82d2 6fbf ff6e 3e3f
000003b0: 5e56 9bbf 13bf 95bf 88de acbf 2de4 56bf
000003c0: 3f1b 6fbf e194 5dbf 60c9 873f efb2 a4bf
000003d0: 6bb9 a83f 9cb9 943f 6436 98bf 2db5 36bf
000003e0: e5c5 893f bcc8 803f d25c 813f 6bc6 8a3f
000003f0: 484d 2e3f 3951 98bf 39ab 93bf b016 6d3f

gcn_convs.2.path_weight_1.bias f4 [32]
-1.0367738 1.2154871 1.1521266 1.2262076 -1.0931648 1.2447331 1.093117 -1.0666698
1.1938092 -1.1060839 -0.95647645 1.0414712 1.3412032 1.198641 -1.075506 1.2368475
1.3749611 -0.33292863 -1.0676211 1.2104396 -1.1291595 -1.0339408 -0.99095225 -0.84541225
-0.9175716 1.2948382 -1.0615999 -0.8035728 1.2455884 -1.0606917 -0.9136972 -0.9129994
00000000: 01b5 84bf 1595 9b3f e278 933f 5ff4 9c3f
00000010: d3ec 8bbf 6a53 9f3f 42eb 8b3f a388 88bf
00000020: bdce 983f 2894 8dbf a4db 74bf ee4e 853f
00000030: 8cac ab3f 116d 993f 2eaa 89bf 0551 9e3f
00000040: bafe af3f 9f75 aabe cfa7 88bf afef 9a3f
00000050: 4c88 90bf 2c58 84bf 0caf 7dbf f06c 58bf
00000060: f9e5 6abf 42bd a53f 81e2 87bf f2b6 4dbf
00000070: 716f 9f3f bfc4 87bf 0fe8 69bf 54ba 69bf
