semi-supervised/pubmed_64_layers_.pt (torch, 750521 bytes, 388 tensors)

trans_feat.weight f4 [32, 500]
0	0xbf9879b7	-1.1912144
1	0xbf995a4c	-1.1980681
2	0x3f921238	1.141181
3	0xbf94d109	-1.1626292
4	0x3f97ec19	1.1868926
5	0xbf9eabe6	-1.2396209
6	0xbf9a945a	-1.2076523
7	0x3f986df3	1.1908554
8	0xbf882d0d	-1.0638748
9	0xbf7de2c0	-0.9917412
10	0xbeba40c2	-0.3637753
11	0x3fa005a6	1.2501724
12	0xbf99ae68	-1.200635
13	0x3fab5534	1.3385377
14	0xbf974eae	-1.1820886
15	0xbf968a7a	-1.176101
16	0x3f930744	1.1486592
17	0x3f9be2a9	1.2178546
18	0x3f9c0d78	1.219161
19	0xbf8e1d03	-1.1102604
20	0xbf8d4934	-1.1037965
21	0x3f509036	0.8147005
22	0x3fa04981	1.2522432
23	0xbf99a3fb	-1.2003168
24	0x3f91ded7	1.139613
25	0x3f863eb9	1.0487891
26	0xbe5ce122	-0.21570256
27	0xbf99ca89	-1.2014934
28	0x3f20a806	0.62756383
29	0x3f8b1e74	1.0868669
30	0xbf8e167a	-1.1100609
31	0xbee44c4a	-0.44589454
32	0xbf9973c5	-1.1988455
33	0xbf954138	-1.1660528
34	0xbf943cab	-1.1581014
35	0xbf93df6f	-1.1552562
36	0x3f98f2b9	1.1949073
37	0xbf90089c	-1.1252627
38	0x3f9329ee	1.1497171
39	0xbf917f6f	-1.1367015
40	0x3e78a8be	0.2428312
41	0x3f94d63d	1.162788
42	0xbf00ea32	-0.50357354
43	0xbf9a11e5	-1.2036711
44	0xbf46ed85	-0.77706176
45	0x3f9961cb	1.1982969
46	0xbf9d83c2	-1.2305834
47	0xbf922fdd	-1.1420857
48	0x3f91b3fa	1.138305
49	0xbf93f18e	-1.1558092
50	0xbf93b45a	-1.1539414
51	0xbf91754e	-1.1363924
52	0xbfce9c4b	-1.6141447
53	0xbf987c51	-1.1912938
54	0xbf8e6e91	-1.1127492
55	0xbf9c430f	-1.2207965
56	0x3f9a0fb7	1.2036046
57	0x3f9ae2cc	1.2100463
58	0x3f5fdaae	0.87443054
59	0xbf94a27b	-1.1612085
60	0x3f9305d1	1.148615
61	0x3f9b62f1	1.213957
62	0xbf98d488	-1.1939859
63	0x3f990bcc	1.1956725
64	0xbf8f2c39	-1.1185371
65	0x3f9f93c7	1.2466973
66	0xbfae45b2	-1.3615019
67	0xbf94984d	-1.1608979
68	0xbf9b2c7d	-1.2122952
69	0xbf803eb4	-1.0019135
70	0x3f984a68	1.1897707
71	0x3f99fbb8	1.2029943
72	0xbf86b481	-1.0523835
73	0x3f9a6db5	1.206473
74	0xbf95c10d	-1.169954
75	0x3f908a5d	1.1292225
76	0x3f4f26b3	0.80918425
77	0x3f9ddd2e	1.2333124
78	0x3f87d15f	1.061077
79	0xbf83d33e	-1.0298841
80	0x3f987ff4	1.1914048
81	0xbf990d42	-1.1957171
82	0xbf9021cf	-1.1260318
83	0x3f9c57ed	1.2214333
84	0xbf9de671	-1.233595
85	0x3ec71756	0.3888499
86	0xbfce7e01	-1.6132203
87	0xbf65a446	-0.89703786
88	0xbf93f537	-1.1559209
89	0xbf2f01bf	-0.6836204
90	0x3f98a303	1.1924747
91	0x3f96e05b	1.1787218
92	0xbf753807	-0.95788616
93	0xbf952f8b	-1.1655134
94	0x3f9914f7	1.1959523
95	0xbf4e0cb9	-0.80488163
96	0x3f98b642	1.1930621
97	0xbfb6a544	-1.4269185
98	0x3f9f248a	1.2433026
99	0x3f953a85	1.1658484
100	0x3f92f691	1.1481496
101	0xbf369077	-0.71314186
102	0xbf90c83d	-1.1311108
103	0x3f9f416c	1.244184
104	0xbf930306	-1.1485298
105	0x3f974a59	1.1819564
106	0x3f98cc48	1.1937342
107	0xbf9ef4af	-1.2418422
108	0x3f90ade5	1.1303068
109	0x3f945c5b	1.1590685
110	0xbf9979df	-1.1990317
111	0xbf9a8d6a	-1.2074406
112	0x3f919102	1.1372378
113	0xbfc4e9a3	-1.53838
114	0xbf995189	-1.1978008
115	0x3f8f8c87	1.121476
116	0xbfa372c1	-1.2769395
117	0x3f964f16	1.1742885
118	0xbf900ffc	-1.1254878
119	0xbfaf0ee3	-1.3676418
120	0x3f828216	1.0195949
121	0xbf39296d	-0.72328836
122	0xbfa4d85d	-1.2878529
123	0xbfc71a24	-1.5554852
124	0xbf8dc935	-1.1077029
125	0x3f92e1a6	1.1475112
126	0x3f87a22d	1.0596367
127	0xbf913211	-1.1343404
128	0xbf8c3fac	-1.0956931
129	0x3f92f20f	1.148012
130	0xbf93e470	-1.1554089
131	0x3f9fc1af	1.2480983
132	0xbf8fb673	-1.1227554
133	0x3f91c7e2	1.1389124
134	0xbf9cbcbe	-1.22451
135	0x3f9009f5	1.1253039
136	0x3f9dfd72	1.234297
137	0xbf933567	-1.1500672
138	0x3f97efa7	1.1870011
139	0x3f9c2ade	1.2200582
140	0x3f98bf61	1.1933404
141	0x3f952371	1.1651441
142	0xbf90ab2b	-1.1302236
143	0xbf8080d7	-1.0039319
144	0xbf8a579c	-1.0807986
145	0x3f98ffa8	1.195302
146	0xbf96de79	-1.1786643
147	0x3f6ad91c	0.9173753
148	0x3f9e4424	1.2364545
149	0x3f95968f	1.1686572
150	0x3f381807	0.7191166
151	0xbf95d6c8	-1.1706171
152	0xbf98e5c5	-1.194512
153	0xbf885bdb	-1.0653032
154	0x3f92fc6f	1.1483287
155	0xbf8cb5c7	-1.0992974
156	0x3f901a6a	1.1258061
157	0xbf9526bc	-1.1652446
158	0x3f9cb96c	1.2244086
159	0x3f8b0e14	1.0863671
160	0x3f98390d	1.189241
161	0xbeff236d	-0.49831715
162	0x3f9c0897	1.2190121
163	0xbf91298b	-1.1340803
164	0xbf8e1b0a	-1.1102002
165	0xbf951ae2	-1.1648829
166	0xbfca4c2d	-1.5804497
167	0xbf450d2d	-0.7697323
168	0x3f925933	1.1433471
169	0xbf9d8395	-1.2305781
170	0xbf9a36bc	-1.2047954
171	0xbf9a0204	-1.2031865
172	0x3f94f327	1.1636704
173	0x3e0efafa	0.13962927
174	0xbf8aca93	-1.0843071
175	0xbf66886d	-0.9005192
176	0x3f8f142c	1.1178031
177	0xbf874108	-1.0566721
178	0x3f90a9d9	1.1301833
179	0xbe4fcca8	-0.20292914
180	0x3f926dba	1.1439736
181	0xbf9333c4	-1.1500173
182	0x3f9670d5	1.1753184
183	0xbf8350a5	-1.0258986
184	0x3f9c8ff4	1.2231431
185	0x3f90fad9	1.1326553
186	0x3f8eccba	1.1156228
187	0xbf92b2b0	-1.1460781
188	0xbf9c7950	-1.2224522
189	0x3f9b8ed0	1.2152958
190	0xbf8cbed8	-1.0995741
191	0x3f9986ce	1.1994264
192	0x3f9ac2b3	1.2090667
193	0xbf978ec7	-1.1840447
194	0x3f86f10a	1.0542309
195	0xbf905cc7	-1.1278313
196	0xbf9e55b3	-1.2369903
197	0x3f847a1b	1.0349764
198	0xbf964902	-1.174103
199	0xbf68fd38	-0.9101138
200	0xbf9df892	-1.2341483
201	0x3f990a7c	1.1956325
202	0xbf99f5ff	-1.2028197
203	0xbf9335ce	-1.1500795
204	0x3f8aef35	1.085425
205	0x3f9b328d	1.2124802
206	0xbf89443b	-1.0723947
207	0x3f9f34b2	1.2437956
208	0xbf91a373	-1.1378006
209	0xbf62315f	-0.88356584
210	0x3f98ef95	1.1948115
211	0x3f96c943	1.178017
212	0x3f95502d	1.1665093
213	0x3f9d8dbd	1.230888
214	0x3f951e20	1.1649818
215	0x3f32e455	0.6987966
216	0x3f50b0b1	0.8151961
217	0xbf943550	-1.157877
218	0x3f9770c7	1.1831292
219	0xbf99cc0c	-1.2015395
220	0x3f87bf70	1.0605297
221	0x3f8b9926	1.0906112
222	0x3f96e113	1.1787437
223	0x3f90885a	1.1291611
224	0xbf9b9e18	-1.2157621
225	0xbf9b8c18	-1.2152128
226	0x3f54b0cb	0.83082265
227	0x3f99d0d8	1.2016859
228	0xbf996465	-1.1983763
229	0x3f98a4bd	1.1925274
230	0x3f9d48f2	1.2287886
231	0x3f232a3c	0.6373632
232	0xbfa0795f	-1.253704
233	0x3f9bc299	1.2168761
234	0x3fa6e74f	1.303934
235	0xbf125c17	-0.5717177
236	0xbfbb6c7b	-1.4642481
237	0xbf6cf3ef	-0.92559713
238	0x3f80086a	1.0002568
239	0x3f5d663f	0.8648414
240	0x3f8991ce	1.0747621
241	0x3fa3433b	1.2754892
242	0xbf90ea34	-1.1321473
243	0xbf7f514a	-0.9973341
244	0xbf8d3ccb	-1.1034178
245	0x3f9b3a0b	1.2127088
246	0xbf6e7e2e	-0.93161285
247	0x3fa59b12	1.2937949
248	0x3f901b0c	1.1258254
249	0x3f7f65a8	0.9976449
250	0xbf99c20d	-1.2012345
251	0x3fa4779f	1.2849005
252	0x3f8e6cd0	1.1126957
253	0x3f926925	1.1438338
254	0xbf9bfce9	-1.2186557
255	0x3f9cb9c4	1.2244191

trans_feat.bias f4 [32]
0	0xb79f119a	-1.8962473e-05
1	0x3714f19c	8.8777415e-06
2	0x35ff9660	1.9042745e-06
3	0x37cc77c5	2.4374467e-05
4	0x37e51418	2.7308284e-05
5	0x37d8c170	2.5839283e-05
6	0xb761fd04	-1.3469955e-05
7	0xb6d4c388	-6.340855e-06
8	0x38220742	3.863057e-05
9	0xb7a64c54	-1.9824285e-05
10	0xb7c00c3c	-2.289388e-05
11	0x36ffba57	7.621285e-06
12	0xb83f49ba	-4.5606612e-05
13	0xb7f43974	-2.911382e-05
14	0x3810c40c	3.451486e-05
15	0xb7f5e458	-2.9312607e-05
16	0x37af8f34	2.092831e-05
17	0x3795ee35	1.7873108e-05
18	0x37fd2fd6	3.0182226e-05
19	0xb748ebfe	-1.1975875e-05
20	0x37c6497c	2.3637658e-05
21	0xb7e247c2	-2.6974714e-05
22	0x3789aa36	1.6410933e-05
23	0xb7a38436	-1.949268e-05
24	0x372f9e35	1.0467648e-05
25	0xb7e896be	-2.772675e-05
26	0xb78e09d9	-1.6932305e-05
27	0x37b28329	2.128033e-05
28	0x3716bf87	8.98529e-06
29	0xb76d4781	-1.4142949e-05
30	0x375fce11	1.3339814e-05
31	0xb7bdda86	-2.2632314e-05

pred_trans.weight f4 [3, 500]
0	0x4102e455	8.180745
1	0xbcd0bedc	-0.025481634
2	0xbef116f6	-0.4708783
3	0xbf1f731e	-0.6228503
4	0x3d296e01	0.041364674
5	0xbf344f3d	-0.7043341
6	0xbe32514c	-0.17413825
7	0xbf0aea8f	-0.5426416
8	0x401c744b	2.444598
9	0xbd6e39dd	-0.05816065
10	0xbf29463e	-0.66122806
11	0xbead9d88	-0.3390925
12	0x3f11435c	0.5674341
13	0xbd9fbfd3	-0.078002594
14	0x3f462587	0.7740101
15	0x3cb3a04d	0.021927023
16	0xbf10f14b	-0.56618184
17	0xbf3d79db	-0.7401406
18	0x3e007932	0.12546232
19	0xbd80538b	-0.062659346
20	0xbedbdd53	-0.42942294
21	0x3f1c50bc	0.6106069
22	0xbe62564b	-0.2210323
23	0x3eeeecb2	0.4666496
24	0x3f51580d	0.8177498
25	0x3fff894c	1.9963775
26	0xbea1e4b2	-0.31619793
27	0x3eb70b6f	0.3575091
28	0x3cd2a415	0.025713006
29	0x3f0b3d5c	0.543905
30	0x3e1c5e08	0.15270245
31	0x3fe2d641	1.7721635
32	0x40693d10	3.644352
33	0x3f7fc59b	0.99910897
34	0x3f8f13f2	1.1177962
35	0xbe96e53e	-0.29471773
36	0x3ed28ed2	0.41124588
37	0xbe7288ee	-0.23685047
38	0x3fd4d322	1.6626933
39	0xbfad9a0c	-1.3562636
40	0x3fd68a5e	1.6760976
41	0xbeba3c06	-0.3637392
42	0x3f02e792	0.511346
43	0x3d9e135e	0.07718538
44	0xbea00260	-0.31251812
45	0x3d2ac28d	0.041689444
46	0xbdb2d000	-0.08731079
47	0x3ea76ebf	0.3270168
48	0xbdb14898	-0.08656424
49	0x3e708331	0.23487546
50	0xbdbf4982	-0.093401924
51	0xbed73b5f	-0.42037484
52	0xbe7f6120	-0.24939394
53	0x3ecb1b6f	0.39669368
54	0x3f291c56	0.6605886
55	0xbe94068c	-0.28911245
56	0xbd8007b9	-0.06251473
57	0xbf096d41	-0.53682333
58	0x3e66b70d	0.22530766
59	0xbbe17d4c	-0.0068813916
60	0x3f603ca8	0.87592554
61	0xbf23eecd	-0.64036256
62	0x3f2cae9d	0.6745394
63	0x3e9765ea	0.29569942
64	0xbe813580	-0.2523613
65	0x3e846a7e	0.25862497
66	0x3f04803a	0.5175816
67	0x3f87bfbc	1.0605388
68	0xbe87208d	-0.26392022
69	0x3e05128a	0.12995353
70	0xbf85ebfc	-1.0462642
71	0x3d5e1a96	0.054224573
72	0x3e7b65cb	0.2455055
73	0x3e9ae7a8	0.30254865
74	0x3f236351	0.6382342
75	0x3e0da5d0	0.13832784
76	0x3dfc8cbf	0.12331533
77	0x3ee391ea	0.4444726
78	0x3f5abcb5	0.85444194
79	0xbe5288a7	-0.20559941
80	0x3cc6cfc3	0.02426899
81	0x3e0d624c	0.13807029
82	0x3e98cb4e	0.2984261
83	0x3dd7c753	0.10536065
84	0x3dc690de	0.096956
85	0xbf40d953	-0.7533161
86	0x3e26b267	0.16278993
87	0xbef83657	-0.48478958
88	0x3da16cd5	0.07882086
89	0xc01693ea	-2.352778
90	0xbf114def	-0.5675954
91	0xbfb05788	-1.3776712
92	0x3f9b30b9	1.2124244
93	0x3ff2f124	1.897984
94	0x3f015a83	0.50528735
95	0x3ee0aa38	0.43879867
96	0xbe2e954c	-0.1704914
97	0x3c97cdd6	0.018530767
98	0xbe6f93d8	-0.23396242
99	0x3ecb88f3	0.3975292
100	0xbe00d080	-0.12579536
101	0x3e1c6682	0.15273479
102	0x3dcee9fc	0.10103223
103	0xbf21a99e	-0.6314944
104	0xbdb76cfd	-0.08956335
105	0x3ef483a0	0.47756672
106	0x3d8a43bd	0.06751201
107	0x3eeb1ee0	0.45921993
108	0xbd58ef23	-0.052962434
109	0x3dc61e5e	0.09673761
110	0x401eed5d	2.4832375
111	0x3dab5258	0.08365315
112	0xbee4e68c	-0.44707143
113	0x3d3420c9	0.04397658
114	0x3e14d49a	0.14534226
115	0xbedae539	-0.42753008
116	0x3e36f77b	0.17867844
117	0xbf0df1da	-0.5544716
118	0x3bcf4f92	0.006326624
119	0x3fb20579	1.390792
120	0xbf1c83f9	-0.61138874
121	0xbf003194	-0.5007565
122	0x3e8b33b0	0.27187872
123	0xbd5f3317	-0.054492082
124	0x3d67e5c3	0.056615602
125	0xbebeb1ae	-0.37244934
126	0xbedc3336	-0.4300782
127	0xbb700f94	-0.003663038
128	0xbc5c8abd	-0.013460812
129	0xbe6d5d91	-0.23180224
130	0xbe336705	-0.17519768
131	0xbf0fbc9d	-0.56147176
132	0xbc6393aa	-0.013890186
133	0xbe11cc41	-0.14238073
134	0xbe8f7063	-0.28015432
135	0xbebcff91	-0.36913732
136	0xbef68257	-0.48146316
137	0xbe972f5e	-0.29528326
138	0xbf86ee3d	-1.0541455
139	0xbdab1b2e	-0.083547935
140	0xbde3ebf6	-0.1112899
141	0xbea445de	-0.32084554
142	0x3ed59c46	0.4172079
143	0xbbdccf7a	-0.0067386003
144	0xbf16d5f9	-0.58920246
145	0xbe34d78d	-0.17660351
146	0x3fb1f2d0	1.3902225
147	0xbe670555	-0.22560628
148	0xbd9a0a10	-0.075214505
149	0x3e811357	0.25210068
150	0xbbcdad58	-0.0062767677
151	0xbeb79d8a	-0.3586238
152	0x3e437aeb	0.19089858
153	0x3ed81ac9	0.42207935
154	0xbf1e993f	-0.61952585
155	0xbe555731	-0.20834042
156	0x3e897a2b	0.2685102
157	0xbe81ea09	-0.25373867
158	0xbe11887c	-0.14212221
159	0x3f838095	1.0273615
160	0xbf62f088	-0.8864827
161	0x3e720bd0	0.23637319
162	0xbf151b10	-0.5824442
163	0x3e65b55b	0.22432463
164	0x3fdfb7e7	1.7477998
165	0x3e0e0d5b	0.13872282
166	0x3c2818a8	0.010259785
167	0x3d91952f	0.07108533
168	0x3d1c61b4	0.038179114
169	0x3f8187c2	1.0119555
170	0xbd0ced68	-0.034406096
171	0x3fc9fcc5	1.5780264
172	0x3df0f82f	0.11766087
173	0x3ecd5891	0.40106633
174	0xbeb37ca5	-0.35056034
175	0x3f1c1e9a	0.60984194
176	0xbc523472	-0.012829887
177	0xbe4ce05b	-0.2000746
178	0x3f72e1be	0.94875705
179	0x3fc0528b	1.502519
180	0x3bdf6b70	0.0068182275
181	0x3d618e28	0.05506721
182	0xbe87e42c	-0.2654127
183	0x3f7684f2	0.9629661
184	0x4024f53e	2.5774684
185	0x3f672b91	0.9030085
186	0xbe9aad50	-0.30210352
187	0x3ea7fb5b	0.32808957
188	0x3ca57272	0.020196173
189	0xbdf62648	-0.1201902
190	0xbf45a34a	-0.77202284
191	0xbe8865be	-0.26640123
192	0x3e58698d	0.21134014
193	0xbede5afe	-0.43428797
194	0x3ea20669	0.31645516
195	0xbf1cbf16	-0.61229074
196	0xbf39a828	-0.7252221
197	0xbd76ac81	-0.060223106
198	0x3f4d4be3	0.8019392
199	0x3ecf5160	0.40491772
200	0x3ec9a9d0	0.3938737
201	0xbf5371e2	-0.82595646
202	0x3f0e1c4b	0.5551192
203	0xbf123fd5	-0.5712865
204	0xbeb43530	-0.3519683
205	0xbeeaea31	-0.458818
206	0x3d32f898	0.04369411
207	0xbea3312f	-0.31873462
208	0xbd1fd7e4	-0.03902425
209	0x3e151e33	0.14562301
210	0xbd58ae61	-0.052900676
211	0x3b93aae5	0.004506456
212	0xbe43a068	-0.19104159
213	0xbf7528a5	-0.95765144
214	0xbe4a2094	-0.1973899
215	0xbe7b85a1	-0.24562694
216	0x3cb4faab	0.022092184
217	0xbe6ef328	-0.23334944
218	0xbe86c6c6	-0.26323527
219	0xbf44541e	-0.7669085
220	0xbe6c5e72	-0.23082903
221	0xbf448c6b	-0.7677676
222	0xbde3d970	-0.11125457
223	0x3f31d9a5	0.69472724
224	0xbefc3485	-0.4925882
225	0xbced6987	-0.028980983
226	0xbeb6821d	-0.35646144
227	0xbee96fc5	-0.45593086
228	0x3da8c5aa	0.082408264
229	0x3e1f5c70	0.15562606
230	0xbe5e904e	-0.21734735
231	0xbd57488e	-0.052559428
232	0xbf8492cf	-1.0357302
233	0xbe6db55f	-0.23213719
234	0xbf2942b3	-0.661174
235	0xbf80610e	-1.0029619
236	0x3f0ff75c	0.56236815
237	0xbec9ba04	-0.3939973
238	0x3f1c8716	0.61143625
239	0xbfcc8c5f	-1.5980338
240	0xbf41c59d	-0.7569216
241	0xbf2a1822	-0.66443074
242	0xbdd63390	-0.104590535
243	0xbdc690e1	-0.09695602
244	0xbe8fe89f	-0.28107163
245	0xbea21460	-0.3165617
246	0xbedf626d	-0.4362978
247	0xbf814082	-1.0097811
248	0x3fb7d0f0	1.4360638
249	0x3d90e340	0.070745945
250	0x3dee84e2	0.11646439
251	0xbfa4dffb	-1.2880853
252	0x3d8d8a40	0.06911135
253	0x3e5a5cd7	0.21324478
254	0xbf13728c	-0.5759666
255	0xbe61aa90	-0.2203772

pred_trans.bias f4 [3]
0	0xbcb66fd8	-0.022270128
1	0x3d95ead0	0.073201776
2	0x3d2fb230	0.042894542

gcn_convs.0.path_weight_1.weight f4 [32, 32]
0	0xbf90e9b2	-1.1321318
1	0x3f627cbc	0.8847158
2	0x3f8e9a76	1.1140888
3	0xbfa674d0	-1.3004398
4	0xbf892bac	-1.0716453
5	0xbf426542	-0.7593576
6	0xbf81f0c8	-1.0151606
7	0xbf823048	-1.0170984
8	0xbf923380	-1.1421967
9	0x3f7cedfb	0.9880063
10	0xbf86b5be	-1.0524213
11	0x3f7ff489	0.99982506
12	0xbf922d10	-1.1420002
13	0xbf6dbe8d	-0.9286888
14	0x3f96367d	1.1735379
15	0xbfa202a0	-1.2657051
16	0xbf710d53	-0.94160956
17	0x3f82e03f	1.0224684
18	0x3f905c47	1.1278161
19	0xbf9d1d5b	-1.2274584
20	0x3f7999e8	0.9750047
21	0xbfa53a37	-1.2908391
22	0xbf84b4e0	-1.0367699
23	0xbf770a02	-0.96499646
24	0xbf73ec58	-0.95282507
25	0x3f95453d	1.1661755
26	0xbf6bc999	-0.9210449
27	0x3fa01668	1.2506838
28	0x3f79e522	0.97615254
29	0x3f742297	0.9536528
30	0x3f7808f6	0.96888673
31	0xbf9874dc	-1.1910663
32	0x3e832f89	0.25622204
33	0x3eaf3b57	0.3422496
34	0xbd93c960	-0.072161436
35	0xbe0a6e03	-0.13518529
36	0x3f0a5526	0.54036176
37	0xbf768d66	-0.96309507
38	0x3f6442eb	0.8916461
39	0x3f1558b6	0.5833849
40	0xbf90e484	-1.1319737
41	0x3f0dd9d9	0.55410534
42	0xbe11984a	-0.1421825
43	0x3a65bc1c	0.0008763687
44	0x3ede71f6	0.4344632
45	0xbe554418	-0.20826757
46	0xbeb0ed07	-0.34555838
47	0xbf181ba6	-0.5941719
48	0x3eb4e7bc	0.3533305
49	0x3f347473	0.7049019
50	0x3f132d47	0.5749096
51	0xbf4a044c	-0.78912807
52	0x3ef62f89	0.4808314
53	0x3f2e8a6e	0.68179977
54	0x3f791e18	0.97311544
55	0x3f4881bf	0.78322977
56	0xbf56edb6	-0.8395647
57	0x3f4c07bb	0.79699296
58	0x3f3b1fe6	0.7309555
59	0x3f4c7800	0.79870605
60	0x3e6f6e64	0.23381954
61	0xb7ed0988	-2.825704e-05
62	0xbf5747fe	-0.84094226
63	0xbf90a978	-1.1301718
64	0x3f3416a9	0.70347077
65	0xbf1f5394	-0.62236905
66	0xbf5b9807	-0.8577885
67	0xbec3c16e	-0.38233513
68	0xbf1e14e5	-0.6175063
69	0xbeb0c524	-0.34525406
70	0xb97aecdd	-0.00023930096
71	0x3e49a535	0.19691928
72	0x3f0e46cd	0.55576783
73	0xbf142633	-0.5787079
74	0x3f5d0acf	0.8634462
75	0x3e1e2615	0.15444215
76	0xb7e41f49	-2.7194286e-05
77	0xbb39652e	-0.0028289068
78	0xbe2666ec	-0.16250199
79	0xbcec4ffc	-0.028846733
80	0x3ec15aed	0.37764683
81	0xbf09ec2d	-0.53876
82	0xbedf44b5	-0.43607107
83	0xbe07a6e5	-0.13247259
84	0x3f193754	0.5985005
85	0xbf055096	-0.5207609
86	0xbf139cfd	-0.5766142
87	0xbf0af78b	-0.5428397
88	0xbc8a0d38	-0.016852006
89	0x3f115daa	0.56783545
90	0x3f4522ea	0.770064
91	0xbf48cf94	-0.7844174
92	0xbe9f9d7d	-0.31174842
93	0xbf08bcd7	-0.53413147
94	0xbf2e7910	-0.68153477
95	0xbf062822	-0.5240499
96	0xbf809a59	-1.0047103
97	0xbf8da5dd	-1.1066242
98	0xbfc3a80d	-1.528566
99	0x3fb4744f	1.4097995
100	0xbf9a9aaf	-1.2078456
101	0x3fa5ffc3	1.2968677
102	0x3f99e0d6	1.202174
103	0xbf9b0833	-1.2111877
104	0x3fb91174	1.4458451
105	0xbfa7305e	-1.3061635
106	0x3f84fd63	1.0389827
107	0x3f91b083	1.1381992
108	0xbed74f06	-0.42052478
109	0xbf90c375	-1.1309649
110	0x3f8f9923	1.1218609
111	0x3f7f9795	0.9984067
112	0x3f92242d	1.141729
113	0x3f852adb	1.0403703
114	0x3fafb2b9	1.3726417
115	0xbf8da0dc	-1.1064715
116	0x3fa3afb3	1.2787994
117	0x3f849190	1.0356922
118	0xbf6efe73	-0.9335701
119	0xbf9b560a	-1.2135632
120	0x3f8d86b0	1.1056728
121	0x3faecc12	1.3656027
122	0x3f82fc0a	1.0233166
123	0xbf9c2ffb	-1.2202142
124	0x3f9823d9	1.188594
125	0x3f9e01ed	1.2344338
126	0x3f9a6044	1.2060628
127	0x3fc99109	1.5747386
128	0xbf79a02d	-0.97510034
129	0x3f941289	1.1568156
130	0xbfb18a75	-1.3870379
131	0xbf7307ae	-0.94933593
132	0xbf9eaaeb	-1.239591
133	0xbfa56048	-1.2920008
134	0x3f878319	1.0586883
135	0x3f87b88e	1.0603197
136	0x3f994768	1.1974916
137	0xbfa5a945	-1.2942282
138	0xbf921016	-1.1411159
139	0x3fa6fc68	1.3045778
140	0xbf969b57	-1.1766156
141	0x3fa11756	1.2585247
142	0x3f94f5f3	1.1637558
143	0x3fa4d6dc	1.287807
144	0x3faaf7db	1.335689
145	0x3f753a7c	0.95792365
146	0x3fa45299	1.2837707
147	0x3fa12806	1.2590339
148	0xbf864ece	-1.0492799
149	0x3fa62e36	1.2982852
150	0x3f9bbf1f	1.21677
151	0xbf9d8f6b	-1.2309393
152	0x3f9c0598	1.2189207
153	0x3f93fbb9	1.1561195
154	0xbf817c7b	-1.0116113
155	0x3facfbf9	1.3514396
156	0xbf83106f	-1.023939
157	0xbfb708b9	-1.4299537
158	0x3f9e9354	1.2388711
159	0x3fa411f0	1.2817974
160	0x3f9e3cb3	1.2362274
161	0xbf6b7dbb	-0.91988724
162	0xbf8ecde6	-1.1156585
163	0x3f74396b	0.9540011
164	0x3f8319f0	1.024229
165	0x3f5302bf	0.82426065
166	0x3f5f616e	0.8725804
167	0x3f89e735	1.0773684
168	0x3f999705	1.1999213
169	0xbf60f884	-0.87879205
170	0x3f90f7f9	1.1325675
171	0xbf661f78	-0.8989177
172	0x3faa4a1d	1.3303868
173	0x3f69c22f	0.91311926
174	0xbf728ad7	-0.947431
175	0x3f71c61a	0.94442904
176	0x3f61bff6	0.88183534
177	0xbf92706a	-1.1440556
178	0xbf7d1dcf	-0.9887361
179	0x3f94c987	1.1624001
180	0xbf93edb6	-1.1556919
181	0x3f96350a	1.1734936
182	0x3f92ade4	1.1459317
183	0x3f9d95e8	1.2311373
184	0x3f6df336	0.92949235
185	0xbf93a153	-1.1533607
186	0x3f8e6b56	1.1126506
187	0xbf933d1c	-1.1503024
188	0xbf6feb2c	-0.9371822
189	0xbf7aa509	-0.97908074
190	0xbf9837f1	-1.1892072
191	0x3f8c382f	1.0954646
192	0xbf9ecba6	-1.2405899
193	0x3f8e63c7	1.11242
194	0xbf33e8c5	-0.70277053
195	0xbf6fe524	-0.93709016
196	0xbf8e8cc4	-1.1136708
197	0x3f537459	0.8259941
198	0xbf6d3611	-0.92660624
199	0xbf7c0adf	-0.9845409
200	0xbf93f79e	-1.1559942
201	0x3f939da4	1.1532483
202	0xbf96bc50	-1.1776218
203	0x3f8bf032	1.0932677
204	0xbeaf7ea9	-0.34276322
205	0xbf62a7f4	-0.88537526
206	0x3f70f38c	0.94121623
207	0xbf5c834e	-0.86137855
208	0xbf66209e	-0.8989352
209	0x3f8c2372	1.0948317
210	0x3f8c2317	1.0948209
211	0xbf97b660	-1.1852531
212	0x3f85398b	1.0408186
213	0xbf7a89ff	-0.97866815
214	0xbf90a6da	-1.1300919
215	0xbf8d0302	-1.1016543
216	0xbf9c75f1	-1.2223493
217	0xbf5c0009	-0.85937554
218	0xbf690da2	-0.9103643
219	0x3df01524	0.11722782
220	0x3f24032b	0.64067334
221	0x3f80b88d	1.005632
222	0x3f977800	1.1833496
223	0xbf74fe25	-0.95700294
224	0xbf066efa	-0.52513087
225	0x3f3fe899	0.7496429
226	0xbf2d9350	-0.67802906
227	0x3f614cdd	0.8800791
228	0x3f5eceeb	0.8703448
229	0x3f5cf65b	0.8631341
230	0xbeb70ada	-0.35750467
231	0x3ee88e51	0.4542108
232	0x3f667381	0.90019995
233	0x3e9a731c	0.30165946
234	0x3fc6b631	1.552435
235	0xbf039c62	-0.51410496
236	0xbf47a02c	-0.7797878
237	0x3f9e7ce5	1.2381865
238	0xbf45845e	-0.771551
239	0x3f7caa73	0.98697585
240	0xbf75cc80	-0.9601517
241	0xbf8b1eef	-1.0868815
242	0x3f0b343c	0.5437658
243	0x3f6ad281	0.91727453
244	0xbf73e7d0	-0.9527559
245	0xbf5bc4cb	-0.8584716
246	0xbf8c7442	-1.0972979
247	0x3f4d2fe6	0.8015121
248	0x3d19a56d	0.037511278
249	0xbf783921	-0.9696217
250	0xbf98ffb5	-1.1953036
251	0xbf1c9717	-0.61168045
252	0xbf0028e4	-0.50062394
253	0x3f3e14bc	0.7425039
254	0x3f0b0b17	0.54313797
255	0x3f171ae2	0.59025395

gcn_convs.0.path_weight_1.bias f4 [32]
0	0xbf7528fe	-0.95765674
1	0x3f7d0bc8	0.988461
2	0xbf8857d3	-1.0651802
3	0x3fad889b	1.3557314
4	0x3fb00083	1.3750156
5	0x3f976f18	1.1830778
6	0xbf7e7895	-0.99402744
7	0x3efe48ea	0.49665004
8	0x3f99e549	1.2023097
9	0x3fab25ac	1.3370872
10	0x3fa3d27a	1.2798607
11	0x3f939864	1.1530881
12	0xbf837c6f	-1.0272349
13	0xbf97fb0b	-1.1873487
14	0xbf817dc7	-1.0116509
15	0xbf84c3f7	-1.0372304
16	0x3faa709e	1.3315618
17	0xbf7b6200	-0.9819641
18	0xbf874ae0	-1.0569725
19	0xbf83679c	-1.0265994
20	0x3faa40b9	1.3301002
21	0xbf998978	-1.1995077
22	0xbf8fc574	-1.1232133
23	0x3f9bafb1	1.2162992
24	0x3fa77375	1.308211
25	0x3fadbf04	1.3573918
26	0xbf9a5ed7	-1.2060193
27	0x3fa18b3e	1.2620618
28	0x3fa87e0c	1.3163466
29	0x3fafa1a3	1.3721203
30	0x3f66cbf8	0.9015498
31	0x3f9d01ba	1.2266152

gcn_convs.0.path_weight_2.weight f4 [32, 32]
0	0xb70c6984	-8.3692175e-06
1	0xb70e8b9b	-8.496364e-06
2	0x37239bb8	9.751813e-06
3	0x370b9232	8.319084e-06
4	0xb722b8eb	-9.699007e-06
5	0x36f6eadd	7.358713e-06
6	0xb7019e95	-7.725922e-06
7	0xb729b414	-1.0115113e-05
8	0x33bfdbc6	8.934107e-08
9	0x37175d04	9.021958e-06
10	0xb6195fcf	-2.2854545e-06
11	0xb703b31d	-7.8499115e-06
12	0x3712c0d8	8.747178e-06
13	0xb707429c	-8.062136e-06
14	0xb6cb4934	-6.0583934e-06
15	0xb727eb56	-1.0008769e-05
16	0x373124cc	1.055859e-05
17	0xb58f5a62	-1.0680635e-06
18	0x36c84ab5	5.9691615e-06
19	0xb74ef46d	-1.2335467e-05
20	0x365b3766	3.266579e-06
21	0x370468f6	7.892251e-06
22	0x370ef6c1	8.521311e-06
23	0xb6bf776e	-5.706147e-06
24	0xb64bd653	-3.037411e-06
25	0x36c0aebf	5.742389e-06
26	0xb5468204	-7.3949946e-07
27	0x3751cd9b	1.2505242e-05
28	0x372a5e7a	1.0154787e-05
29	0xb4e37ae8	-4.237147e-07
30	0xb6aa3b3e	-5.0732915e-06
31	0x36d94ee3	6.4762876e-06
32	0xb6fd54dc	-7.5498665e-06
33	0x362b52ce	2.5529184e-06
34	0x3710bb99	8.626747e-06
35	0xb6dde0cf	-6.6124844e-06
36	0xb71c1e62	-9.305399e-06
37	0x37392243	1.10348365e-05
38	0x370ecd16	8.51161e-06
39	0x3708a704	8.145118e-06
40	0x36ea2933	6.9785397e-06
41	0x3703ed36	7.863438e-06
42	0xb660e7d6	-3.3513547e-06
43	0xb700d64f	-7.679292e-06
44	0x36efcfa5	7.146928e-06
45	0x37276ad9	9.978853e-06
46	0xb6972036	-4.5039005e-06
47	0x36f5ab73	7.3215283e-06
48	0xb6aa3c4c	-5.0734143e-06
49	0xb7089ed1	-8.143209e-06
50	0x36bccd50	5.626738e-06
51	0x362b884b	2.5560319e-06
52	0x3736ca81	1.08951945e-05
53	0xb708eaae	-8.160872e-06
54	0xb61605ca	-2.2355111e-06
55	0x37012971	7.698648e-06
56	0x371a92f1	9.213328e-06
57	0xb7130b2c	-8.764484e-06
58	0x37353e89	1.0803001e-05
59	0xb70cce86	-8.392735e-06
60	0x3357a3ba	5.0207497e-08
61	0xb69440a5	-4.4182693e-06
62	0x37199059	9.153119e-06
63	0xb6db7a9a	-6.5409813e-06
64	0xb64d7a8d	-3.0618714e-06
65	0x37178a77	9.03254e-06
66	0xb6a9a6cc	-5.05601e-06
67	0x37521b36	1.2523311e-05
68	0xb58640ec	-1.0002673e-06
69	0xb6ef26d1	-7.127274e-06
70	0x371b6369	9.261866e-06
71	0x3693d7ba	4.4060553e-06
72	0xb7148d01	-8.8543175e-06
73	0xb7495a2d	-1.2001529e-05
74	0x353445ed	6.715698e-07
75	0x36e266b5	6.7472815e-06
76	0x3721c774	9.642787e-06
77	0xb71c96ae	-9.333407e-06
78	0x36751846	3.6521974e-06
79	0xb6fde8ec	-7.5671032e-06
80	0x36709ba6	3.5853386e-06
81	0xb2d46f8d	-2.4730776e-08
82	0xb6771b9b	-3.6821937e-06
83	0xb70998f3	-8.201448e-06
84	0xb750e59a	-1.2451224e-05
85	0xb5c28e77	-1.4495589e-06
86	0x37568ff9	1.2788915e-05
87	0xb5a00b3b	-1.1924197e-06
88	0xb739aff3	-1.1067826e-05
89	0x371fb81e	9.520007e-06
90	0xb603380f	-1.9553152e-06
91	0x36db6005	6.5378867e-06
92	0x371123af	8.650982e-06
93	0x37076113	8.069229e-06
94	0xb5e38859	-1.69525e-06
95	0xb513f484	-5.5117584e-07
96	0x35cbb7eb	1.5178206e-06
97	0x358ffb7d	1.0727523e-06
98	0xb4829291	-2.4321028e-07
99	0xb6cbea57	-6.077152e-06
100	0x37089f50	8.1433245e-06
101	0x36ef9de0	7.141134e-06
102	0x375931a1	1.2945763e-05
103	0x364530fa	2.9383796e-06
104	0xb5a19b9b	-1.2040722e-06
105	0xb71537b8	-8.894065e-06
106	0xb69415d2	-4.413284e-06
107	0xb71105c2	-8.644014e-06
108	0xb72f8b03	-1.0463179e-05
109	0xb6c539de	-5.877794e-06
110	0x35627781	8.436546e-07
111	0xb31d3d13	-3.6609958e-08
112	0xb6925bf8	-4.3618456e-06
113	0xb545f03d	-7.373781e-07
114	0xb59904fe	-1.1400841e-06
115	0x36fc4e7b	7.5193216e-06
116	0x36c409c1	5.8423907e-06
117	0xb730807b	-1.0520332e-05
118	0xb735ab77	-1.0828363e-05
119	0x3649b0e3	3.0054296e-06
120	0xb715936d	-8.915417e-06
121	0x371f7ed3	9.506667e-06
122	0x3713fa07	8.820097e-06
123	0x362dc17a	2.5891627e-06
124	0xb7121d6d	-8.709129e-06
125	0x37008c33	7.662037e-06
126	0x36c33f35	5.818811e-06
127	0xb7494485	-1.1996487e-05
128	0x37011e6b	7.696081e-06
129	0xb614b296	-2.215767e-06
130	0xb6e8ab68	-6.934093e-06
131	0xb6548718	-3.1669097e-06
132	0xb6a3bcbd	-4.8797506e-06
133	0xb71834ea	-9.072226e-06
134	0xb72955c4	-1.0093154e-05
135	0x36f31522	7.2444245e-06
136	0xb705b106	-7.968634e-06
137	0xb6fe823c	-7.584951e-06
138	0xb6e3c811	-6.788418e-06
139	0xb556233a	-7.9772474e-07
140	0xb6e17a42	-6.719755e-06
141	0x368aac18	4.132755e-06
142	0x37427008	1.1589385e-05
143	0x36a08de2	4.784889e-06
144	0x35daf265	1.6312812e-06
145	0xb4267b5e	-1.5504835e-07
146	0x3462c403	2.1119199e-07
147	0x37202437	9.545175e-06
148	0xb6f5395f	-7.308248e-06
149	0x3615e8ab	2.233816e-06
150	0x3714b818	8.86435e-06
151	0xb6d93c52	-6.474126e-06
152	0xb7200309	-9.53745e-06
153	0xb6914ee4	-4.330521e-06
154	0xb59f2a3c	-1.1858715e-06
155	0x370fda6e	8.574321e-06
156	0x3733ae90	1.0709875e-05
157	0xb59bc4d2	-1.1605682e-06
158	0xb530adcb	-6.581801e-07
159	0xb6a67207	-4.96046e-06
160	0xb5bb806e	-1.3969964e-06
161	0x36d82505	6.4416113e-06
162	0xb6e801d8	-6.9143534e-06
163	0x36caac3f	6.040121e-06
164	0xb6f083f0	-7.167917e-06
165	0xb5ba60b7	-1.3886228e-06
166	0x370e01fd	8.4643225e-06
167	0x37228d1f	9.68881e-06
168	0xb5d37ff5	-1.5757965e-06
169	0x36afab25	5.2353303e-06
170	0xb69e753e	-4.7224157e-06
171	0xb6dccd87	-6.5804375e-06
172	0xb65a7c38	-3.2556836e-06
173	0x36932dde	4.386281e-06
174	0x36c50b7e	5.8723954e-06
175	0xb5aeacbf	-1.3014286e-06
176	0xb6f4d65c	-7.2967214e-06
177	0xb6945315	-4.4204157e-06
178	0x367ecbad	3.7967504e-06
179	0xb51b0070	-5.7742636e-07
180	0x3701b74b	7.731675e-06
181	0xb687f92f	-4.0523223e-06
182	0x35611b5c	8.3858845e-07
183	0xb706f0d2	-8.043093e-06
184	0xb476cac3	-2.29843e-07
185	0xb61b2035	-2.3115547e-06
186	0x3702e042	7.800818e-06
187	0xb5b089dc	-1.3153144e-06
188	0xb6e580a4	-6.8397076e-06
189	0x35a3e4ba	1.2211015e-06
190	0xb6eee4e5	-7.1195996e-06
191	0x369532a2	4.4464405e-06
192	0x367544eb	3.654796e-06
193	0xb711d661	-8.6925875e-06
194	0xb71c0bdb	-9.301085e-06
195	0xb5a91f73	-1.2600634e-06
196	0x36189b96	2.2740328e-06
197	0xb66ee613	-3.5598684e-06
198	0x3632e8e9	2.6659638e-06
199	0xb7345fc4	-1.0751133e-05
200	0x3590aff5	1.0780046e-06
201	0x36a803e3	5.0072426e-06
202	0x367031eb	3.5791843e-06
203	0x36a5c4cf	4.9402947e-06
204	0xb6c69545	-5.918237e-06
205	0x36d1d184	6.253076e-06
206	0x35d7f13b	1.6088956e-06
207	0xb6e2db29	-6.7608385e-06
208	0x36afde4b	5.2412847e-06
209	0xb6e9e333	-6.9703906e-06
210	0xb61c208c	-2.3264756e-06
211	0xb751bfa6	-1.2501992e-05
212	0xb7576059	-1.2837431e-05
213	0xb67d2141	-3.7719294e-06
214	0x3705cd02	7.97515e-06
215	0x36d76499	6.4192104e-06
216	0x36c0a22e	5.740926e-06
217	0xb735ee9f	-1.0843999e-05
218	0xb5211907	-6.0013593e-07
219	0xb71d27b2	-9.3671715e-06
220	0xb6e4f892	-6.823867e-06
221	0xb71986b8	-9.150877e-06
222	0xb6ed35e2	-7.069423e-06
223	0x35d80951	1.6095966e-06
224	0x36736606	3.6269207e-06
225	0x373457a7	1.0749244e-05
226	0xb7169d8a	-8.977377e-06
227	0xb6f00dc4	-7.15416e-06
228	0xb5dc9027	-1.6433231e-06
229	0xb70443b7	-7.883579e-06
230	0x36f976d2	7.434611e-06
231	0x3707f5e2	8.103876e-06
232	0xb6cdd249	-6.1339565e-06
233	0x368007bf	3.815599e-06
234	0xb6f12684	-7.1868435e-06
235	0xb6aad52d	-5.0912117e-06
236	0x3701e779	7.742893e-06
237	0xb6ec4f51	-7.0425817e-06
238	0xb6a6689a	-4.9593627e-06
239	0xb70556a5	-7.947591e-06
240	0x371ba45f	9.276991e-06
241	0x360afcde	2.071079e-06
242	0x3698d443	4.5546635e-06
243	0xb73827b2	-1.0976497e-05
244	0xb701b18d	-7.730338e-06
245	0x370f1679	8.5286965e-06
246	0x369b8409	4.634731e-06
247	0xb71d70c2	-9.384183e-06
248	0xb694bed9	-4.4329613e-06
249	0x371b691c	9.263193e-06
250	0x370d64ef	8.427755e-06
251	0x36bbc139	5.5955284e-06
252	0xb6c1b172	-5.7725056e-06
253	0x36cd4453	6.11743e-06
254	0x36d16c87	6.2413196e-06
255	0x36f10afd	7.183639e-06

gcn_convs.0.path_weight_2.bias f4 [32]
0	0x3f6f5815	0.9349378
1	0xbf876191	-1.057665
2	0xbf876022	-1.0576212
3	0x3fac9543	1.3483051
4	0x3f8f9da3	1.1219982
5	0x3f9fbaa3	1.2478832
6	0xbf7ccbdf	-0.9874858
7	0x3f9b1722	1.2116435
8	0x3fa237a9	1.2673236
9	0x3f9b8b13	1.2151817
10	0xbf867015	-1.0502955
11	0x3f9e9e0e	1.2391984
12	0x3f942ec6	1.1576774
13	0x3f9533b4	1.1656404
14	0xbf8081a8	-1.0039568
15	0xbf8073fc	-1.0035396
16	0x3fa11331	1.2583982
17	0xbf707471	-0.93927675
18	0xbf841e61	-1.0321771
19	0xbf8fd227	-1.1236008
20	0xbf8c4167	-1.0957459
21	0xbf95a3d9	-1.1690627
22	0xbf8f70e7	-1.120633
23	0x3f82da41	1.0222856
24	0x3f9c19fb	1.2195429
25	0x3f9642d7	1.1739148
26	0x3fa05e11	1.2528707
27	0x3fafb704	1.3727727
28	0x3f9d234b	1.2276396
29	0x3fa9fe42	1.3280718
30	0x3fa08147	1.2539452
31	0xbf8791bb	-1.0591348

gcn_convs.1.path_weight_1.weight f4 [32, 32]
0	0x3f8789aa	1.0588887
1	0xbf1c5c29	-0.61078125
2	0xbebc0000	-0.3671875
3	0xbf90fc74	-1.1327043
4	0xbf7eae96	-0.99485147
5	0x3f6b80b6	0.9199327
6	0x3f5f681d	0.8726824
7	0x3f94da05	1.1629034
8	0x3f52fa62	0.82413304
9	0xbf75fc50	-0.96088123
10	0x3f71d03c	0.94458365
11	0xbf84d3ef	-1.0377177
12	0xbf94390d	-1.157991
13	0x3f983ed6	1.1894176
14	0x3f95a609	1.1691295
15	0x3f966a6f	1.1751231
16	0x3fa03304	1.2515569
17	0x3f442ed8	0.7663398
18	0xbf6a5883	-0.9154131
19	0xbf9a9656	-1.2077129
20	0xbf7b06af	-0.98057073
21	0xbf72c5ad	-0.9483288
22	0x3f1c0363	0.6094267
23	0xbf460e27	-0.77365345
24	0xbf849d18	-1.0360441
25	0x3f9fdd0b	1.2489332
26	0xbfa8ca5c	-1.3186755
27	0xbda38bea	-0.07985671
28	0xbf9b51e7	-1.213437
29	0x3f897230	1.0737972
30	0xbf7894fc	-0.9710233
31	0x3f930c58	1.1488142
32	0x380193b6	3.0893563e-05
33	0x3e745044	0.23858744
34	0x3bc507c5	0.006012889
35	0x3f333bb6	0.70012987
36	0x3ee44125	0.4458095
37	0x3ef87753	0.48528537
38	0x3a517d1d	0.00079913606
39	0x3e4f4e72	0.20244768
40	0x3f21ea29	0.63247925
41	0xbd58f95a	-0.052972175
42	0x3dfda6e3	0.12385347
43	0xbeacac51	-0.33725217
44	0xbe104c8c	-0.140917
45	0x3f350a1f	0.7071857
46	0x3d08b103	0.033371937
47	0x3ead430d	0.33840218
48	0xbf08aac0	-0.53385544
49	0xbed81291	-0.42201665
50	0xbe916622	-0.28398234
51	0x3ad437f3	0.001619099
52	0xbf072147	-0.5278515
53	0x3f47e8d4	0.7808964
54	0xbeb457da	-0.35223275
55	0xb950a406	-0.0001989753
56	0x3d7079fd	0.058710087
57	0xbf5489fc	-0.8302305
58	0xbf34e478	-0.70661116
59	0xbe69a49d	-0.22816701
60	0xbf120a55	-0.57047015
61	0x3d42ba08	0.047540694
62	0xbe571886	-0.21005449
63	0x3e9f9797	0.3117034
64	0x3f5eaeb5	0.8698533
65	0xbf91dec6	-1.139611
66	0x3e774b3f	0.24149798
67	0xbf8f3d07	-1.1190499
68	0x3e4906d5	0.19631512
69	0x3f8a7834	1.0817933
70	0x3ecac5f5	0.39604154
71	0xbf9cec52	-1.2259619
72	0x3fa61f61	1.2978326
73	0xbf90a9dd	-1.1301838
74	0x3f940cc7	1.1566399
75	0xbf7aa4fb	-0.9790799
76	0x3f116e13	0.56808585
77	0x3f43ec72	0.7653266
78	0xbf8676ae	-1.0504968
79	0x3f8d4ddb	1.1039385
80	0x3fa37dbc	1.2772746
81	0x3f830984	1.0237279
82	0x3f9f813a	1.2461312
83	0xbf2ef37f	-0.68340296
84	0x3f9a41c5	1.2051321
85	0x3f95be84	1.1698766
86	0xbf80eb6a	-1.0071843
87	0x3f84cc3b	1.0374826
88	0x3f7018d3	0.9378788
89	0x3f64d441	0.89386374
90	0x3f4c9c73	0.7992622
91	0xbef0b0bd	-0.4700984
92	0xbf66484b	-0.8995406
93	0x3ed33a2b	0.41255316
94	0xbf996b2a	-1.1985829
95	0x3fa843a6	1.3145645
96	0x3ecbeaf2	0.39827687
97	0x3eef9490	0.46793032
98	0xbf302595	-0.68807346
99	0xbd1cc9f1	-0.038278524
100	0x3f354cd6	0.7082037
101	0x3d442cb6	0.047894202
102	0xbf1c3307	-0.6101536
103	0xbf039394	-0.5139706
104	0xbece2214	-0.40260375
105	0x3f4feffa	0.8122555
106	0xbf7375e1	-0.95101744
107	0x3ec05e7f	0.37572095
108	0x3e8289bc	0.25495708
109	0xbf14eb9e	-0.58172023
110	0xbed42938	-0.41437697
111	0x3f053197	0.52028793
112	0x3e13e2ad	0.14441939
113	0x3ed5549c	0.41666114
114	0x3e680301	0.22657396
115	0xbf0390df	-0.5139293
116	0x3f60961b	0.8772904
117	0xbf43d472	-0.7649604
118	0xbf6411b4	-0.8908951
119	0xbe7a6f48	-0.24456513
120	0xbf559522	-0.83430684
121	0x3d438ec4	0.047743574
122	0x3f0551cd	0.52077943
123	0xbf222076	-0.6333078
124	0x3efffeef	0.49999186
125	0x3ebb4efb	0.36583695
126	0x3f1971b0	0.599391
127	0x3f33e139	0.7026554
128	0xbf8fe041	-1.1240312
129	0xbf82c53b	-1.021644
130	0xbf6b2c5c	-0.9186456
131	0xbf8f5ce2	-1.120022
132	0x3f8a7218	1.0816069
133	0xbf992ee1	-1.1967431
134	0x3f39e44c	0.7261398
135	0xbf800f06	-1.0004585
136	0x3f88d130	1.0688839
137	0xbf93b7a0	-1.1540413
138	0xbf7a93cd	-0.97881776
139	0x3f9b04ac	1.2110801
140	0x3f711f90	0.94188786
141	0x3f9edb5c	1.2410693
142	0xbf9193b7	-1.1373204
143	0x3fa1c4d5	1.2638193
144	0x3f834380	1.0254974
145	0xbf96ea25	-1.1790205
146	0x3f8b5c7e	1.0887601
147	0x3f74d546	0.9563793
148	0x3f8de74d	1.1086212
149	0x3e5c4eab	0.21514384
150	0xbfa59b7b	-1.2938074
151	0x3f8c9d07	1.0985421
152	0xbf7f1955	-0.9964803
153	0xbf835539	-1.0260383
154	0xbf188af3	-0.5958702
155	0xbf8c0608	-1.093934
156	0x3f314f24	0.69261384
157	0xbf5793ab	-0.842097
158	0xbedc275e	-0.42998785
159	0xbf6fa733	-0.936145
160	0xbf0b9211	-0.54519755
161	0xbf356c87	-0.70868725
162	0x3f281906	0.6566318
163	0xbf0245d0	-0.50887775
164	0xbf0f8915	-0.56068546
165	0xbf308057	-0.6894583
166	0x3f38916c	0.72096896
167	0xbd31ebfe	-0.04343795
168	0xbf1f45b8	-0.6221576
169	0xba695484	-0.00089008384
170	0xb68e4b45	-4.2406923e-06
171	0xbc8336a8	-0.016017273
172	0xbab88612	-0.0014078042
173	0x3df9be27	0.12194472
174	0x3db9714a	0.09054811
175	0xbf221cb7	-0.63325065
176	0x39387bd4	0.00017593737
177	0xb925cebc	-0.00015812641
178	0x3e8a3b30	0.2699828
179	0x3eb29f35	0.3488709
180	0xbea8be8b	-0.32957873
181	0xbddf0407	-0.1088944
182	0x3f3aec32	0.73016655
183	0x3c412deb	0.011790733
184	0x3e64ae1c	0.22332042
185	0x3f1f69f5	0.6227105
186	0xbe86ad3e	-0.26304048
187	0x3e81b7f7	0.25335667
188	0x3cbaad82	0.022787813
189	0x3bf54b46	0.00748578
190	0x3e938d46	0.2881872
191	0xbf295cfb	-0.661575
192	0x3f88e875	1.069594
193	0xbf0d2a81	-0.5514298
194	0x3f993d8d	1.1971909
195	0x3f9469f2	1.1594832
196	0xbf10207a	-0.56299555
197	0x3f803ac5	1.0017935
198	0x3fa54314	1.2911096
199	0x3f34b5b3	0.7058975
200	0xbf8c6b75	-1.0970293
201	0xbf87104f	-1.0551852
202	0x3f5fcb9f	0.87420076
203	0xbf67b8d0	-0.90516376
204	0xbf9585fa	-1.1681511
205	0x3f9039d3	1.1267647
206	0x3f0ab989	0.54189354
207	0x3fa7070c	1.3049026
208	0x3fa35e9f	1.2763251
209	0xbe4f0a8f	-0.20218872
210	0x3f83059c	1.0236087
211	0xbf9d9cbe	-1.2313459
212	0x3f6eccae	0.93281066
213	0xbf3c26c4	-0.7349665
214	0x3f8ada11	1.0847799
215	0x3f97e03e	1.1865308
216	0x3f7090e0	0.9397106
217	0x3f8b5258	1.0884504
218	0x3f812789	1.009019
219	0xbf667e58	-0.90036535
220	0x3f87e002	1.0615237
221	0x3f94ddc3	1.1630176
222	0xbf7a6838	-0.97815275
223	0x3f951fa2	1.1650279
224	0x3ed1bc57	0.40964004
225	0xbe80ba42	-0.25142103
226	0x3e84377e	0.25823587
227	0x3e18571f	0.14876984
228	0xbee45dd4	-0.44602835
229	0x3c50e846	0.012750691
230	0x3e038350	0.1284306
231	0x3ed5d542	0.41764265
232	0x3eb246e0	0.34819698
233	0xbf317b75	-0.69329005
234	0x3e956ff7	0.29186985
235	0x3dbb8366	0.09155922
236	0xbb57080d	-0.0032811195
237	0x3f125b62	0.5717069
238	0x38290b1f	4.0303097e-05
239	0xb971860c	-0.00023033487
240	0x3e5e3e4b	0.2170345
241	0xbeb26b86	-0.3484766
242	0xbded13b4	-0.11576024
243	0x3e83a090	0.25708437
244	0xbec0339b	-0.37539372
245	0x3f18940e	0.59600914
246	0x3f5589ac	0.83413196
247	0x3bdf9edf	0.006824359
248	0x3e93c17a	0.28858548
249	0xbd9a7880	-0.07542515
250	0xb9b54cab	-0.00034580132
251	0xb8c96c03	-9.6045456e-05
252	0x3d99846c	0.074959606
253	0xbeb7714e	-0.35828632
254	0xbf143702	-0.57896435
255	0xbe366307	-0.17811213

gcn_convs.1.path_weight_1.bias f4 [32]
0	0xbf94125a	-1.15681
1	0x3f9e4395	1.2364374
2	0xbf8ad7d3	-1.0847114
3	0x3f88fd41	1.0702287
4	0xbf8414f4	-1.0318894
5	0xbf7f9ccc	-0.9984863
6	0xbf862269	-1.0479251
7	0xbf810316	-1.0079067
8	0x3fa43d47	1.28312
9	0xbf9069fa	-1.1282341
10	0xbf833b79	-1.0252525
11	0x3f8237de	1.0173299
12	0x3f9b79de	1.2146566
13	0x3f92529a	1.1431458
14	0xbf8bd487	-1.0924233
15	0xbf8cb3d0	-1.0992374
16	0xbf747160	-0.95485497
17	0x3f986bb7	1.1907872
18	0x3f9b741b	1.2144808
19	0xbf8aea96	-1.085284
20	0xbf945bcd	-1.1590515
21	0xbf96ffc1	-1.17968
22	0x3fa581fc	1.2930293
23	0xbf5f3b0e	-0.87199485
24	0xbf89b50d	-1.0758377
25	0xbf764d3c	-0.962116
26	0xbf846666	-1.034375
27	0x3f9d6884	1.2297521
28	0x3fa3fe6a	1.2812016
29	0xbf8da5f9	-1.1066276
30	0xbf5db5e3	-0.8660566
31	0x3f873bbb	1.0565103

gcn_convs.1.path_weight_2.weight f4 [32, 32]
0	0xbf9df43e	-1.2340162
1	0x3f9bbacb	1.216638
2	0x3f9c1a98	1.2195616
3	0x3fb20751	1.3908483
4	0x3f969c10	1.1766376
5	0xbf9be3c7	-1.2178887
6	0xbfac4dbb	-1.3461221
7	0xbf997826	-1.1989791
8	0x3f82e284	1.0225377
9	0xbf9d7765	-1.2302061
10	0xbf93e372	-1.1553786
11	0xbf831632	-1.0241148
12	0x3f8c559d	1.0963627
13	0x3f978ca7	1.1839799
14	0x3fa15e4e	1.2606905
15	0xbf8e2ace	-1.1106813
16	0xbf907634	-1.1286073
17	0xbfa27d77	-1.2694539
18	0xbfa14715	-1.2599818
19	0xbfa6000c	-1.2968764
20	0x3f65e7b2	0.89806664
21	0xbf9eddc8	-1.2411432
22	0xbfb32ab0	-1.3997402
23	0xbf8c4176	-1.0957477
24	0x3f9baab3	1.2161468
25	0xbf96972d	-1.1764885
26	0xbfad34bc	-1.3531718
27	0xbfa107ac	-1.2580466
28	0x3fa2753b	1.2692026
29	0xbf45283e	-0.7701453
30	0xbfa54612	-1.2912009
31	0xbfa7c88c	-1.3108077
32	0xbf9e7fd7	-1.2382764
33	0x3fab70a5	1.3393751
34	0x3fa4c25e	1.2871816
35	0xbf9e3629	-1.2360278
36	0xbf91ed60	-1.1400566
37	0xbf9d273b	-1.2277597
38	0x3fa99a10	1.3250141
39	0xbfaab836	-1.3337467
40	0xbf934ea2	-1.1508372
41	0xbf9a6e28	-1.2064867
42	0xbfa405fc	-1.2814326
43	0xbf90fdf2	-1.1327498
44	0x3fafa06b	1.3720831
45	0xbfa57538	-1.2926397
46	0xbfa38fdf	-1.2778281
47	0xbf8c0435	-1.0938784
48	0x3fa3e7d8	1.2805128
49	0xbfaaef1e	-1.3354223
50	0x3f93aeae	1.1537683
51	0xbf86e0e5	-1.0537382
52	0x3f96907c	1.1762843
53	0xbf905f32	-1.1279051
54	0x3faf2c3f	1.3685378
55	0xbf9deff8	-1.2338858
56	0x3fa21f75	1.266585
57	0x3fa0c708	1.256074
58	0xbf99f807	-1.2028817
59	0x3f8cf751	1.1012975
60	0x3f910902	1.1330874
61	0x3fac25f0	1.3449078
62	0xbf9b99b0	-1.2156277
63	0x3fae8321	1.3633767
64	0xbf9ba753	-1.2160438
65	0xbf8d4bc7	-1.103875
66	0xbf857d4e	-1.0428865
67	0x3f4da9ff	0.8033752
68	0x3fa8cdaf	1.318777
69	0x3fa28343	1.2696308
70	0xbf871ecb	-1.0556272
71	0xbf9db2c8	-1.2320185
72	0x3f9429bc	1.1575236
73	0x3f8ef03b	1.1167063
74	0x3f99be5e	1.201122
75	0x3f935bbc	1.151237
76	0xbf90431d	-1.1270481
77	0x3fa3a634	1.2785096
78	0x3fa1757a	1.2613976
79	0x3f9f814d	1.2461334
80	0x3f9135ca	1.134454
81	0x3f8fdd87	1.123948
82	0x3f9075cc	1.1285949
83	0xbf9212b3	-1.1411957
84	0xbfadb67a	-1.3571312
85	0x3f8e8f76	1.1137531
86	0xbf8860ba	-1.0654519
87	0x3f773063	0.9655821
88	0xbf934d6d	-1.1508003
89	0xbf858d4d	-1.0433747
90	0x3f84bcdf	1.0370139
91	0x3ea4adff	0.32163998
92	0xbf92d4a8	-1.1471148
93	0xbfa21f45	-1.2665793
94	0x3fabdc3a	1.3426583
95	0xbf942479	-1.157363
96	0x3f974985	1.1819311
97	0xbf979081	-1.1840974
98	0xbfa24828	-1.267827
99	0xbf8c22e8	-1.0948153
100	0xbf850a06	-1.0393684
101	0x3fb00970	1.375288
102	0x3f89e3fd	1.0772702
103	0x3f8e012b	1.1094106
104	0x3f9b5382	1.213486
105	0x3f831546	1.0240867
106	0x3fa3e3a9	1.2803851
107	0x3f95d39e	1.1705205
108	0x3fa50c58	1.2894392
109	0x3fa558fa	1.2917778
110	0x3f8466ea	1.0343907
111	0x3f8c58f1	1.0964643
112	0xbf861d10	-1.0477619
113	0x3fa64103	1.298859
114	0xbf8d486f	-1.103773
115	0xbfafef2c	-1.3744864
116	0x3faf1e28	1.3681078
117	0x3f97e155	1.1865641
118	0xbf9cda42	-1.2254107
119	0x3f8fae4d	1.1225067
120	0xbfa0f8e9	-1.2575961
121	0xbfafd12d	-1.373571
122	0x3f8b2cc4	1.0873036
123	0xbfafb82e	-1.3728082
124	0xbf990244	-1.1953816
125	0x3f91b8a8	1.1384478
126	0x3f94ca6c	1.1624274
127	0x3faea191	1.3643056
128	0x3fa59065	1.2934691
129	0xbfaeb572	-1.3649123
130	0xbf83eb1f	-1.0306128
131	0xbfa1912c	-1.2622428
132	0xbf3ce328	-0.7378411
133	0x3f94d754	1.1628213
134	0x3f872119	1.0556976
135	0x3f942512	1.1573813
136	0x3f874063	1.0566524
137	0x3f89affa	1.0756829
138	0x3fa914d6	1.3209484
139	0x3f998fc7	1.1997002
140	0xbf933231	-1.1499692
141	0x3f8ced64	1.1009946
142	0x3fa0d2b2	1.2564299
143	0x3fa7b6b2	1.3102629
144	0xbf9418a4	-1.157002
145	0x3f9f4032	1.2441466
146	0x3fa35f17	1.2763394
147	0xbfa54127	-1.2910508
148	0xbf96b835	-1.1774966
149	0x3f954423	1.1661419
150	0xbf923143	-1.1421283
151	0x3f948a7e	1.1604764
152	0xbf92084d	-1.1408783
153	0xbf99a050	-1.2002048
154	0x3fa919b9	1.3210975
155	0xbf9f40b1	-1.2441617
156	0xbf98d64c	-1.1940398
157	0xbf8e3669	-1.1110355
158	0x3f8aa83f	1.0832595
159	0xbf82fc9d	-1.0233341
160	0x3f9fbf7d	1.2480313
161	0xbf89918a	-1.074754
162	0xbfa4382c	-1.2829642
163	0xbfa5f124	-1.2964215
164	0xbf9cd078	-1.225112
165	0x3f843595	1.0328852
166	0x3f9cef1e	1.2260473
167	0x3f85fbdb	1.0467485
168	0xbf8a3c2e	-1.0799615
169	0x3f91c2fd	1.1387631
170	0x3f95cc15	1.1702906
171	0x3facd4b4	1.3502412
172	0xbf8a6386	-1.0811622
173	0x3fae59df	1.3621176
174	0xbf7c7bfb	-0.9862668
175	0xbfab9118	-1.3403654
176	0xbf940b41	-1.1565934
177	0x3f92b3a1	1.1461068
178	0x3f974618	1.1818266
179	0x3f85b6e9	1.0446445
180	0x3f8fb2d4	1.1226449
181	0x3f9b8bce	1.215204
182	0xbfa69263	-1.3013424
183	0x3fa5f573	1.296553
184	0xbf96bdb4	-1.1776643
185	0xbf916bb2	-1.1360991
186	0x3fa3349c	1.275043
187	0x3f8de49a	1.1085389
188	0xbf8bb57c	-1.091476
189	0xbf86764c	-1.0504851
190	0x3fa277e6	1.269284
191	0xbf9b9d2b	-1.2157339
192	0x3fab90ce	1.3403566
193	0xbf8bed7a	-1.0931847
194	0xbf8a7247	-1.0816125
195	0xbf9e239e	-1.235462
196	0xbf922e5a	-1.1420395
197	0xbf96c045	-1.1777426
198	0x3fab0c37	1.3363103
199	0x3faa7440	1.3316727
200	0x3faa55ab	1.3307394
201	0xbf8748ca	-1.0569088
202	0x3f8b94e3	1.0904812
203	0x3f9009fc	1.1253047
204	0xbf90f113	-1.132357
205	0x3faf4c6f	1.3695201
206	0x3f8a8ac5	1.0823599
207	0x3f8d47d9	1.1037551
208	0xbf958f78	-1.1684408
209	0x3f8c8268	1.0977297
210	0x3fa6ac82	1.3021395
211	0xbf9b80a2	-1.2148631
212	0xbf98e964	-1.1946225
213	0x3f86ef25	1.0541731
214	0xbf8b57b0	-1.0886135
215	0x3f9fd036	1.2485416
216	0xbf9c330a	-1.2203076
217	0xbf9cc9d3	-1.2249092
218	0x3faad1ec	1.3345313
219	0xbf3186c9	-0.6934629
220	0xbf8f7cc2	-1.1209948
221	0xbf97a5f5	-1.1847521
222	0x3f263da3	0.649378
223	0xbf83083e	-1.023689
224	0xbf93801b	-1.152347
225	0x3f890ab3	1.070639
226	0x3f90b9bc	1.1306682
227	0x3fa4eb6c	1.2884345
228	0x3f86799c	1.0505862
229	0xbfa82e8f	-1.3139209
230	0xbf9bd520	-1.2174416
231	0xbf863e34	-1.0487733
232	0xbf9eb272	-1.2398207
233	0xbfa57dd3	-1.2929024
234	0xbfaba148	-1.3408594
235	0xbf8d3e1a	-1.1034577
236	0xbf8ded87	-1.1088113
237	0xbfa80c4c	-1.3128753
238	0xbf81fa23	-1.0154461
239	0xbf84eed1	-1.0385381
240	0x3fa80987	1.3127908
241	0xbf83854f	-1.0275058
242	0xbfaa596e	-1.3308542
243	0x3faa30dd	1.3296162
244	0xbf76e16c	-0.96437716
245	0x3fbc85ce	1.4728334
246	0x3f9818da	1.1882584
247	0xbf9dae52	-1.2318823
248	0xbf8a6afa	-1.0813897
249	0xbfa72fde	-1.3061483
250	0xbfab83d2	-1.3399603
251	0x3f09f2c6	0.5388607
252	0xbf9a61b8	-1.2061071
253	0xbf9267c8	-1.1437922
254	0x3fa1db52	1.2645056
255	0xbf587c45	-0.8456462

gcn_convs.1.path_weight_2.bias f4 [32]
0	0x3f9d97fe	1.2312009
1	0x3f845198	1.03374
2	0xbf99be46	-1.2011192
3	0xbfaa6b9e	-1.3314092
4	0xbfaba8a6	-1.3410842
5	0xbfad7901	-1.3552552
6	0xbf90cde6	-1.1312835
7	0x3fa8d048	1.3188562
8	0x3fa57996	1.292773
9	0xbfa52c2c	-1.2904105
10	0xbfa1a7f5	-1.2629381
11	0xbf9ff736	-1.2497318
12	0x3f8b01e1	1.0859948
13	0x3fb32cb8	1.3998022
14	0xbf8a6bf6	-1.0814197
15	0xbf95c8f1	-1.1701947
16	0xbf971de8	-1.1806002
17	0xbf904154	-1.1269937
18	0xbf9ac400	-1.2091064
19	0xbf9e76ee	-1.2380044
20	0xbfa0f562	-1.2574885
21	0xbf8f8658	-1.1212873
22	0xbfba8588	-1.4572
23	0x3f9371a4	1.1519055
24	0xbf877c00	-1.0584717
25	0xbf9de5f1	-1.2335798
26	0xbfb024fc	-1.3761287
27	0x3fa604b3	1.2970184
28	0xbfca1c28	-1.5789843
29	0xbfa40d6e	-1.2816598
30	0xbfced3e1	-1.615841
31	0xbfa02d51	-1.251383
