semi-supervised/pubmed_2_layers_.pt (torch, 84725 bytes, 16 tensors)

trans_feat.weight f4 [32, 500]
0	0x3eb1ba7b	0.34712586
1	0x3e408234	0.18799669
2	0xbd33e1a2	-0.043916352
3	0x3bd172fc	0.006391881
4	0x3c00f8e4	0.00787184
5	0x3d9aea2c	0.07564196
6	0x3d52f2c9	0.05150107
7	0xbd4cd3f5	-0.050006825
8	0xbe8a2c42	-0.2698689
9	0x3defddf8	0.11712259
10	0x3dab886c	0.0837563
11	0xbdd4a082	-0.10382177
12	0xbdda44e5	-0.10657672
13	0x3e3838da	0.17990437
14	0x3e42e86c	0.19033974
15	0x3ea8a388	0.32937264
16	0x3d247a60	0.04015577
17	0xbe130c10	-0.1436007
18	0x3d923a5c	0.071400374
19	0xbd50b53f	-0.0509541
20	0x3d22c459	0.039738033
21	0xbd3541a4	-0.044252053
22	0xbd7eb3a7	-0.06218305
23	0x3babd650	0.005244054
24	0xbe73e523	-0.23817877
25	0x3d5c5684	0.053793445
26	0xbe459151	-0.19293715
27	0x3bd72e28	0.0065667816
28	0xbe3f5d61	-0.18687965
29	0xbdadf71b	-0.08494397
30	0xbcfb0b2a	-0.030644972
31	0xbe8b8676	-0.27251023
32	0x3eb23556	0.34806317
33	0xbc9d8866	-0.019230079
34	0xbd980c64	-0.07424238
35	0x3d75d4e8	0.060017496
36	0xbe7719c1	-0.24130918
37	0x3b9affac	0.0047301855
38	0x3d8f58a0	0.06999326
39	0x3d8fe3ff	0.07025909
40	0xbd396796	-0.045264803
41	0x3d2bbcfc	0.041928276
42	0x3e13e251	0.14441802
43	0x3e3bbcbc	0.18333715
44	0x3d4b33c8	0.04960993
45	0x3d2a3a9e	0.041559808
46	0x3d84650c	0.06464586
47	0xbc2a2cfd	-0.010386703
48	0x3e1c2704	0.15249258
49	0x3d4664ca	0.048435964
50	0xbc8c88c0	-0.017155051
51	0x3df5ad1b	0.11995908
52	0xbe0556fe	-0.13021466
53	0xbd9613f4	-0.073280245
54	0xbda0b87a	-0.07847686
55	0x3dd9f196	0.10641782
56	0xbcddbef9	-0.027068602
57	0xbe159439	-0.14607324
58	0x3d6a0548	0.057133943
59	0x3de2dadc	0.110769
60	0xbdf84fb6	-0.12124579
61	0xbda884f8	-0.08228487
62	0x3e52f4e4	0.20601231
63	0xbd1812d2	-0.037127323
64	0x3dde0a3b	0.10841795
65	0xbd85e360	-0.06537509
66	0xbdbad116	-0.09121911
67	0x3e71e5c2	0.23622802
68	0x3db2dcae	0.087334976
69	0x3da5c66e	0.08094488
70	0xbd35f9ac	-0.04442756
71	0x3cf3ae74	0.029746272
72	0xbe291b79	-0.16514386
73	0x3cdd4d42	0.027014378
74	0x3d2a04e8	0.041508585
75	0x3d7e581e	0.062095754
76	0xbcb1dd55	-0.021711985
77	0x3bac8f38	0.0052660964
78	0xbe264414	-0.16236907
79	0x3d6b0fd0	0.057388127
80	0xbdaea736	-0.08527987
81	0x3d3b1a4d	0.04567938
82	0xbc76fad0	-0.015074447
83	0x3d6f5259	0.058428142
84	0x3a66da80	0.0008806363
85	0x3e428e44	0.18999583
86	0xbd305559	-0.043050144
87	0xbe12cd70	-0.1433618
88	0x3c89c890	0.016819268
89	0xbd0610c4	-0.032730833
90	0x3d698433	0.05701084
91	0x3e137f09	0.14403929
92	0xbe76b887	-0.24093829
93	0xbd0ee316	-0.034884535
94	0xbcdb0242	-0.026734475
95	0xbe170b11	-0.14750315
96	0x3d8d182b	0.06889375
97	0xbe6850b8	-0.22687042
98	0xbe216435	-0.15760882
99	0xbd85c1bc	-0.065310925
100	0x3d6d3853	0.057915043
101	0xbd8c059a	-0.06837006
102	0xbd9192ac	-0.071080536
103	0xbe85b5f0	-0.2611537
104	0xbe02063a	-0.12697688
105	0xbe5c1cae	-0.21495315
106	0xbd062983	-0.032754432
107	0xbbb5e790	-0.005551286
108	0x3e1becf8	0.15227115
109	0x3db1fc47	0.08690696
110	0x3dbfff19	0.09374828
111	0x3e04ad6e	0.12956783
112	0x3bb3c1c8	0.005485747
113	0x3d8592ed	0.065221645
114	0x3db1139c	0.08646318
115	0xb9a04800	-0.00030571222
116	0x3c9b0270	0.01892206
117	0x3d9031a4	0.07040718
118	0xbc398f7c	-0.011325713
119	0xbe073b8c	-0.13206309
120	0x3d9d1c4d	0.076714136
121	0xbd1a381d	-0.03765117
122	0xbdaf2e69	-0.08553774
123	0xbe5fc818	-0.21853673
124	0xbd23bfd4	-0.039977863
125	0x3d88ffe7	0.066894345
126	0x3d2c5342	0.04207159
127	0x3d2a030f	0.041506823
128	0x3da84f4d	0.082182504
129	0x3c4072bc	0.011746105
130	0x3dca0f7e	0.09866236
131	0x3c9ab552	0.018885288
132	0x3f02459c	0.50887465
133	0x3e013eb3	0.12621574
134	0x3c927aba	0.017880786
135	0xbdbd72f9	-0.09250445
136	0xbe3eb5c2	-0.18624023
137	0x3d0af1d7	0.033922043
138	0x3e5fb80a	0.21847549
139	0x3e51ad9b	0.20476381
140	0xbd3c1994	-0.04592283
141	0xbe3e9d7d	-0.18614765
142	0x3df0cf06	0.117582366
143	0xbda5c8d6	-0.08094947
144	0xbceb3495	-0.028711597
145	0xbe01b001	-0.12664796
146	0x3cef2d70	0.029196471
147	0xbcf2e3ea	-0.029649694
148	0x3d5519c5	0.05202653
149	0xbd8f08be	-0.06984089
150	0xbdde02b2	-0.10840358
151	0xbe0669b3	-0.13126259
152	0xbdbb1405	-0.09134678
153	0xbdd7ba00	-0.105335236
154	0xbd7c9b17	-0.061671343
155	0xbdfa41c6	-0.122195765
156	0x3dc1849f	0.094491236
157	0x3cb64502	0.022249702
158	0xbe85d35d	-0.2613782
159	0xbdac0a2a	-0.08400376
160	0x3e1ddf59	0.15417232
161	0x3d6492a6	0.055803917
162	0xbe4231f8	-0.18964374
163	0x3df4f990	0.11961663
164	0x3cdc18d4	0.026867308
165	0x3d8daa5b	0.06917258
166	0x3dc3a419	0.095527835
167	0xbc124de0	-0.0089297
168	0xbd87db01	-0.066335686
169	0xbdbbc613	-0.09168639
170	0xbdc3eb45	-0.095663585
171	0xbe3fb028	-0.18719542
172	0xbdd3b4a9	-0.103371926
173	0x3cbb1051	0.022834929
174	0xbd0ff216	-0.03514298
175	0xbb982af0	-0.0046437904
176	0x3df60df0	0.12014377
177	0x3d8f0a36	0.069843695
178	0xbd29cdb2	-0.041455932
179	0xbe148da9	-0.14507164
180	0x3df7fc6d	0.12108693
181	0xbcde6b92	-0.027150903
182	0xbd316c2e	-0.04331606
183	0xbdcbb533	-0.099466704
184	0xbe105e3e	-0.1409845
185	0xbdb467cc	-0.0880886
186	0xbd3c0dc0	-0.04591155
187	0x3d7c2b26	0.061564587
188	0xbe67e5fc	-0.22646326
189	0xbde4548c	-0.111489385
190	0xbde33252	-0.11093582
191	0xbd6d4f72	-0.057937093
192	0x3db3c6fe	0.08778189
193	0xbbb61050	-0.005556144
194	0x3da29bbf	0.079398625
195	0x3d625f05	0.0552664
196	0xbc9a4112	-0.018829856
197	0x3d6595c6	0.05605104
198	0xbcffcb1d	-0.031224782
199	0xbde2339c	-0.11045
200	0xbf1b4756	-0.60655725
201	0x3cfc138b	0.030771038
202	0xbd5c4761	-0.05377901
203	0x3e9bc645	0.30424705
204	0xbcfc0ecb	-0.030768773
205	0x3e490c12	0.1963351
206	0x3d377f55	0.044799168
207	0x3dbb73bd	0.09152935
208	0x3deff7fc	0.11717221
209	0xbbffc800	-0.0078058243
210	0xbc81c342	-0.015840176
211	0x3e09d9f2	0.13462046
212	0xbc979bd8	-0.01850693
213	0xbdca4514	-0.09876457
214	0x3e539e74	0.20665914
215	0x3af79060	0.0018887632
216	0xbd18b329	-0.037280235
217	0x3d836e41	0.06417514
218	0xbd74c162	-0.059754737
219	0xbd3cc4b8	-0.046086043
220	0xbde2ef55	-0.11080805
221	0xbe01a4fc	-0.12660593
222	0x3c8ed0d8	0.017433569
223	0x3dcea73e	0.10090493
224	0xbde1673c	-0.110060185
225	0xbd61c5cb	-0.05512027
226	0x3c117072	0.008876907
227	0x3ca4ec7c	0.020132296
228	0xbd5b07c4	-0.053474203
229	0xbe25bf6a	-0.161863
230	0x3d327120	0.043564916
231	0x3d95c6cf	0.0731331
232	0xbc6ab5a6	-0.014325535
233	0xbe0df34c	-0.13862342
234	0xbd63aac2	-0.05558277
235	0xbd2213aa	-0.039569534
236	0x3d593e6a	0.05303804
237	0xbe5d1250	-0.21589017
238	0x3d36fe36	0.04467603
239	0xbe27209b	-0.16321032
240	0x3da71236	0.0815777
241	0x3da1e2c8	0.07904583
242	0x3da92f72	0.082610026
243	0x3d25ec8e	0.0405088
244	0x3d3a99b1	0.045556728
245	0xbe1b350a	-0.15156952
246	0xbd95b978	-0.07310766
247	0x3e57da5f	0.21079396
248	0xbe878d4b	-0.26474985
249	0xbd48a9b6	-0.048989974
250	0xbe412d7b	-0.18865006
251	0xbe742c61	-0.23845054
252	0xbe06a869	-0.13150181
253	0xbd261b19	-0.040553186
254	0xbdc2873b	-0.094984494
255	0xbd03c01e	-0.03216564

trans_feat.bias f4 [32]
0	0xbc9f727d	-0.019463772
1	0x3ca15f7c	0.01969885
2	0xbc5738dc	-0.013136115
3	0x3caba376	0.020951968
4	0xbc930348	-0.0179459
5	0x3bfecea0	0.0077760965
6	0x3c07e256	0.008293709
7	0x3c703f7e	0.014663575
8	0xbc5b4c1a	-0.013384843
9	0x3c701278	0.014652841
10	0xbcbd1eef	-0.02308604
11	0xbcc2a981	-0.023762466
12	0xbc2e254c	-0.010629009
13	0xbceb7ae1	-0.028745117
14	0x3d0272f0	0.031847894
15	0xbcbcba91	-0.02303818
16	0xbd00a2fe	-0.03140544
17	0x3cb082a6	0.021546673
18	0xbcb0f2e6	-0.021600198
19	0xbb5929b0	-0.003313642
20	0xbc6ff260	-0.014645189
21	0x3cd89c0e	0.0264416
22	0xba2fc480	-0.0006705001
23	0x3cd1c21b	0.025605252
24	0x3c57ff32	0.013183402
25	0x3cdf5cda	0.027265955
26	0xbc64ffd2	-0.013977008
27	0xbce6cb9e	-0.028173264
28	0xbbd83d94	-0.0065991376
29	0xbd04dd08	-0.032437354
30	0x3cb96d30	0.022635072
31	0xbcf9ea95	-0.030507365

pred_trans.weight f4 [3, 500]
0	0x4029748e	2.647739
1	0x3d5b5aa0	0.053553224
2	0xbf43e1fb	-0.76516694
3	0xbf5fa3ad	-0.87359124
4	0xbdc98946	-0.09840636
5	0xbef3ee8f	-0.47642943
6	0xbdccccdc	-0.10000011
7	0xbf353c8d	-0.7079552
8	0x4001b6af	2.0267751
9	0xbecf55bd	-0.404951
10	0xbf538609	-0.82626396
11	0xbf069add	-0.5258005
12	0x3f1153c4	0.5676844
13	0xbf1a3484	-0.6023638
14	0x3f47965b	0.779638
15	0x3c8410b4	0.016121246
16	0xbf4a4fc7	-0.7902798
17	0xbf34de04	-0.7065127
18	0xbe102f7f	-0.14080618
19	0x3ec2a5b5	0.3801705
20	0xbe80d928	-0.25165677
21	0x3f8d81ed	1.1055275
22	0xbe301c8f	-0.17198394
23	0x3f126ab5	0.5719407
24	0x3f9111c0	1.1333542
25	0x400d71a0	2.2100601
26	0xbe846eb7	-0.2586572
27	0x3e09a078	0.1344012
28	0xbec97e14	-0.39354002
29	0x3faaf829	1.3356982
30	0x3f7dafb1	0.9909621
31	0x400c946e	2.1965594
32	0x400583cb	2.086169
33	0x3fae5cef	1.3622111
34	0x3fd446e6	1.6584136
35	0xbe676dc8	-0.22600472
36	0x3ed9afd6	0.42516965
37	0xbed43ea2	-0.41454035
38	0x3fffec00	1.9993896
39	0xbf96791f	-1.1755713
40	0x3ffe7a07	1.988099
41	0xbec56ffa	-0.38561994
42	0x3f852a68	1.0403566
43	0x3f13b6c8	0.5770078
44	0xbe92ccf4	-0.28671992
45	0xbcd41ba8	-0.025892094
46	0xbe886114	-0.26636565
47	0x3eca95f6	0.39567536
48	0xbe16f8d8	-0.14743364
49	0xbe3fbbe7	-0.18724023
50	0xbe635994	-0.2220214
51	0xbecfc0ef	-0.40576884
52	0xbf08f4fe	-0.5349883
53	0x3e9cfe26	0.3066265
54	0x3f8652de	1.0494039
55	0xbeb95876	-0.36200303
56	0xbe09a828	-0.13443053
57	0xbf616099	-0.8803802
58	0x3e0359ae	0.12827179
59	0xbf252fb2	-0.645259
60	0x3fb3c812	1.4045432
61	0xbf440ea6	-0.7658485
62	0x3c937d85	0.018004188
63	0x3e4b129c	0.19831318
64	0xbeb9a2b9	-0.3625696
65	0x3ea9cea7	0.33165476
66	0x3f6409c4	0.890774
67	0x3fc927b4	1.5715241
68	0xbe3163f4	-0.17323285
69	0x3e5d398f	0.21603988
70	0xbfa7b4e1	-1.3102075
71	0x3dc7b556	0.09751384
72	0xbbd43900	-0.0064765215
73	0x3f2b650e	0.6695107
74	0x3f2e3c3c	0.6806066
75	0xbeaf2f2e	-0.34215683
76	0xbe5aa05c	-0.21350235
77	0x3e9ce204	0.30641186
78	0x3f954181	1.1660615
79	0xbf32e5df	-0.69882005
80	0xbd2b2026	-0.041778706
81	0x3e28387c	0.16427797
82	0x3eec671a	0.4617241
83	0xbe914fdb	-0.28381237
84	0xbecd10a0	-0.40051746
85	0xbf4abd4e	-0.79195106
86	0x3dac8e34	0.084255606
87	0xbee0d7da	-0.43914682
88	0xbd1281bc	-0.035768256
89	0xc0015209	-2.020632
90	0xbf757236	-0.958774
91	0xbfafbd4b	-1.3729643
92	0x3fc0be0d	1.5057999
93	0x3fffacec	1.9974647
94	0x3f148e16	0.58029306
95	0xbe4af9fc	-0.19821924
96	0x3ee0edfe	0.43931574
97	0xbf19885c	-0.5997369
98	0xbecbda8e	-0.39815181
99	0x3ed11ed3	0.4084383
100	0xbe6f8f96	-0.23394617
101	0x3ead0722	0.33794504
102	0xbed2af5e	-0.4114942
103	0xbf870f96	-1.0551631
104	0xbebe0378	-0.3711202
105	0x3edf0332	0.43557125
106	0x3e144f70	0.14483428
107	0x3f5f9722	0.87339985
108	0xbc8af15a	-0.016960789
109	0x3e87aa5c	0.2649716
110	0x3ff6d4c4	1.9283681
111	0x3e7c2182	0.24622157
112	0xbf2d6a26	-0.67740095
113	0xbd825b55	-0.063650765
114	0xbf3fb750	-0.7488909
115	0xbee76465	-0.45193782
116	0x3efe6c2a	0.49691898
117	0xbf7c61c1	-0.9858666
118	0xbd752e42	-0.059858568
119	0x3fbd7e81	1.4804231
120	0xbf2c9c59	-0.6742607
121	0xbf7dcc0a	-0.99139464
122	0x3d30ddfc	0.04318045
123	0x3f1b9f08	0.6078954
124	0xbdabadb7	-0.08382743
125	0xbd9ffb32	-0.078115836
126	0xbe6415b3	-0.22273903
127	0x3e4b2af0	0.19840598
128	0xbda7e7e0	-0.081985235
129	0xbe561b28	-0.20908797
130	0xbe528331	-0.20557858
131	0xbf574061	-0.8408261
132	0x3e5439cf	0.20725177
133	0x3cd4e489	0.02598788
134	0xbdbd4c22	-0.09243037
135	0xbf2116df	-0.62925524
136	0xbf535b13	-0.82560843
137	0xbe9c6d9b	-0.30552372
138	0xbf8cc4f9	-1.0997611
139	0xbdfe900f	-0.12429821
140	0xbe5ad6df	-0.2137103
141	0x3d8bf786	0.06834321
142	0x3f0c5156	0.5481161
143	0xbe407071	-0.18792893
144	0xbf79592b	-0.97401685
145	0xbe98d9d0	-0.29853678
146	0x3fd8d843	1.6940998
147	0xbe562e51	-0.20916106
148	0x3d9befd7	0.07614105
149	0xbe25f013	-0.16204862
150	0x3bed4370	0.007240705
151	0xbe44f282	-0.19233134
152	0x3bbaa938	0.005696442
153	0x3ec0354f	0.3754067
154	0xbf1e5768	-0.6185212
155	0xbeefd14e	-0.46839374
156	0x3f20d304	0.62821984
157	0xbd4b1ebc	-0.049589857
158	0xbdbbd7a6	-0.09171991
159	0x3f590218	0.8476882
160	0xbf9e5b7b	-1.2371668
161	0x3f309080	0.6897049
162	0xbf3dc823	-0.7413351
163	0xbdedc362	-0.11609532
164	0x3fd8303c	1.688972
165	0x3d7b82c6	0.061404012
166	0xbd3c7386	-0.04600861
167	0x3e1964e8	0.14979899
168	0xbd1d274a	-0.038367547
169	0x3fcece46	1.61567
170	0xbece43c2	-0.4028607
171	0x3ff44b31	1.9085447
172	0x3f00e1c5	0.50344497
173	0x3f0117a4	0.504267
174	0xbeec3fed	-0.46142522
175	0x3f725a18	0.9466872
176	0x3f0262c7	0.5093197
177	0xbf379aea	-0.71720755
178	0x3f6a0b6e	0.9142369
179	0x3fd8d510	1.6940022
180	0x3ddb2a14	0.10701385
181	0xbe3a80ac	-0.18213147
182	0xbd98dfac	-0.07464537
183	0x3fb1ffe1	1.3906213
184	0x4019a99b	2.400977
185	0x3f931e32	1.149359
186	0xbe7dda00	-0.24790192
187	0x3f78a5e9	0.9712816
188	0xbe9ad0a8	-0.30237317
189	0xbe566c8c	-0.20939845
190	0xbf95399f	-1.165821
191	0xbe00daf1	-0.1258352
192	0x3d1626e6	0.03665819
193	0xbf0bb8f5	-0.545791
194	0xbf21e164	-0.63234544
195	0xbdadda10	-0.08488858
196	0x3ea0f03e	0.3143329
197	0xbea46b29	-0.32113007
198	0x3f09f754	0.5389302
199	0xbe995dec	-0.2995447
200	0x3f483653	0.7820789
201	0xbf849a6f	-1.0359629
202	0x3f48911a	0.7834641
203	0xbf3c8131	-0.7363463
204	0xbc33d2e8	-0.010975577
205	0xbedce778	-0.43145347
206	0x3e2470e4	0.1605869
207	0xbf05ac06	-0.5221561
208	0xbec4389f	-0.38324448
209	0xbdd9b9f5	-0.106311716
210	0xbedbde6f	-0.4294314
211	0xbe7094b6	-0.23494229
212	0xbf39a0b2	-0.72510827
213	0xbf8d5bd8	-1.1043653
214	0xbf68ad42	-0.9088937
215	0xbeeb54d4	-0.45963156
216	0x3cf2d3e6	0.029642057
217	0xbe5e0c71	-0.21684434
218	0xbecc808e	-0.3994183
219	0xbf86f67c	-1.0543971
220	0xb92c3200	-0.00016421825
221	0xbf5cc31c	-0.86235213
222	0xbf288413	-0.6582653
223	0x3f36463c	0.7120092
224	0xbefdd28f	-0.49574706
225	0xbda0d3a1	-0.07852865
226	0x3dbda783	0.09260466
227	0xbf606dbe	-0.87667453
228	0xbe5ca388	-0.21546757
229	0x3cdff176	0.027336817
230	0xbe377bb5	-0.17918284
231	0xbe92423f	-0.28566167
232	0xbfa83096	-1.3139827
233	0xbeb41224	-0.3517009
234	0xbf7c665e	-0.985937
235	0xbfa11adb	-1.2586321
236	0x3f3b84ac	0.73249316
237	0xbf70c6f9	-0.9405361
238	0x3ecba84a	0.39776832
239	0xbff54cb6	-1.9164035
240	0xbf64a1a1	-0.89309126
241	0xbf74145a	-0.95343554
242	0x3dda6f5c	0.10665771
243	0xbd1bb4fd	-0.0380144
244	0xbefd93db	-0.49526867
245	0xbdc5bbe4	-0.09654978
246	0xbecc3950	-0.39887476
247	0xbf999ba7	-1.2000626
248	0x3f9e6e2c	1.2377372
249	0xbe522d4e	-0.20525095
250	0x3d74805d	0.05969273
251	0xbfc9268f	-1.5714892
252	0x3ecd7aa2	0.40132624
253	0x3eb704ed	0.35745946
254	0xbf582741	-0.84434897
255	0xbf1c9162	-0.61159337

pred_trans.bias f4 [3]
0	0x3e4be0dd	0.19909997
1	0x3d9933e0	0.074805975
2	0x3e5daad8	0.21647203

gcn_convs.0.path_weight_1.weight f4 [32, 32]
0	0xbd510fa5	-0.05104031
1	0x3de0f8b9	0.1098494
2	0xbe8d4a07	-0.2759554
3	0x3d48a092	0.048981257
4	0xbd994b36	-0.074850485
5	0xbe1897a0	-0.1490159
6	0x3d1dd2b3	0.038531017
7	0xbe00e4fe	-0.12587354
8	0x3e333d91	0.17503954
9	0x3c409ab4	0.011755634
10	0x3e82d15c	0.25550354
11	0xbcd2c954	-0.025730766
12	0xbe65e089	-0.22448935
13	0x3eaea67c	0.34111392
14	0xbe2fd891	-0.17172457
15	0xbe2a1ac4	-0.16611773
16	0xbd2542a4	-0.040346757
17	0x3dacf52a	0.08445199
18	0xbe41ecff	-0.18938063
19	0x3de5f7bc	0.11228892
20	0x3e26b0c3	0.16278367
21	0xbe688135	-0.22705539
22	0xbdd09e3d	-0.101864316
23	0x3bf3e9e4	0.0074436534
24	0x3e2e24f8	0.1700629
25	0x3e6c3a4a	0.2306911
26	0x3e077e74	0.13231832
27	0x3e1cf142	0.15326408
28	0xbda1d704	-0.07902339
29	0xbafa0e37	-0.0019077723
30	0x3e14e84d	0.1454174
31	0xbdb1a1b2	-0.08673419
32	0xbe09b4dd	-0.134479
33	0xbea3fe54	-0.32029974
34	0x3d8896b5	0.0666937
35	0x3ea4c3ba	0.32180578
36	0xbe0de2d6	-0.13856062
37	0xbe6b163e	-0.22957703
38	0x3d9998df	0.07499861
39	0x3e10b27f	0.14130591
40	0x3e7a5720	0.24447298
41	0x3d3795c1	0.04482055
42	0xbe1437e6	-0.14474449
43	0xbca96637	-0.020678623
44	0xbe855b2b	-0.26046118
45	0xbc76d1ba	-0.015064651
46	0xbea69c72	-0.32541233
47	0x3dc9c6a1	0.098523386
48	0xbd033a45	-0.032037992
49	0xbdca6465	-0.0988243
50	0xbdc10212	-0.09424223
51	0xbd79e388	-0.061008006
52	0xbc8cf035	-0.017204383
53	0xbecc04b8	-0.3984735
54	0xbcc027dc	-0.023456506
55	0xbdccae11	-0.09994138
56	0xbe94987a	-0.2902258
57	0xbdf7febc	-0.121091336
58	0xbd7d9db3	-0.06191797
59	0xbdd455a2	-0.10367896
60	0xbd593c78	-0.053036183
61	0x3e7bdba3	0.24595504
62	0x3e4ec2e7	0.20191537
63	0xbddc5de5	-0.107600965
64	0x3da83853	0.08213868
65	0x3e2debb9	0.16984452
66	0xbd947f68	-0.07250863
67	0xbe50f1df	-0.20404766
68	0x3c3fc72d	0.011705202
69	0xbe43cf8c	-0.19122142
70	0xbdd9fa04	-0.1064339
71	0xbce2993a	-0.027660955
72	0xbdad4a7c	-0.084614724
73	0x3d8c9320	0.06863999
74	0x3c75cf30	0.015003011
75	0xbe3574c8	-0.1772033
76	0xbaad863c	-0.0013238858
77	0xbe09cc99	-0.13456954
78	0x3dc21b2b	0.09477838
79	0xbdf1cc00	-0.11806488
80	0x3e76ac26	0.24089107
81	0xbe120a3e	-0.1426172
82	0xbd8a7f9f	-0.06762623
83	0xbe709373	-0.23493747
84	0xbd7746b9	-0.06037018
85	0xbe2d25d2	-0.16908959
86	0x3d72ede0	0.059308887
87	0x3a829e7d	0.0009965446
88	0x3dfb0eed	0.12258706
89	0x3af761c1	0.0018873737
90	0x3cb42cff	0.021994112
91	0x3cebb159	0.02877109
92	0x3d9a4a91	0.07533754
93	0x3e8cbdd7	0.27488586
94	0xbe05240e	-0.13002035
95	0x3e35e14e	0.17761728
96	0x3ccfa4fd	0.025347227
97	0x3e4c6276	0.19959435
98	0xbeda5803	-0.42645273
99	0x3e8c1ebc	0.27367198
100	0xbeac8586	-0.3369562
101	0x3e09d706	0.13460931
102	0x3e515fd3	0.2044671
103	0xbeaaf537	-0.3339021
104	0xbeb799b4	-0.35859454
105	0x3d364f1b	0.044509035
106	0x3cb28b60	0.021794975
107	0x3d600ff4	0.054702714
108	0x3f03ee3f	0.5153541
109	0xbdfe89cd	-0.12428627
110	0xbc9b76a8	-0.018977478
111	0xbe535fc5	-0.20642002
112	0xbde63a3d	-0.11241577
113	0x3e7bc673	0.24587421
114	0xbe9bdab9	-0.3044031
115	0x3e82d355	0.2555186
116	0x3d5b413b	0.053529005
117	0xbdd54e77	-0.104153566
118	0xbe171929	-0.14755692
119	0xbe808391	-0.25100377
120	0x3e68c3e2	0.22730973
121	0x3de561dd	0.112003066
122	0x3e1916c6	0.14950094
123	0xbd2fece3	-0.042950522
124	0x3f094579	0.5362163
125	0xbe444772	-0.19167879
126	0x3e817484	0.25284207
127	0x3e564d94	0.20928031
128	0xbf50547d	-0.8137892
129	0x3f2df330	0.679492
130	0xbc852071	-0.01625082
131	0xbed36bf6	-0.41293305
132	0xbef2fe42	-0.47459608
133	0x3eeec854	0.46637213
134	0xbef5e95c	-0.48029602
135	0xbf3ac066	-0.72949827
136	0x3db83cee	0.089959964
137	0xbf340c7d	-0.70331556
138	0x3f43cfc4	0.764889
139	0x3eeb36f9	0.45940378
140	0x3f396812	0.72424424
141	0xbe52c826	-0.20584163
142	0x3ee226af	0.44170138
143	0xbdebe6ac	-0.115186065
144	0xbedeade5	-0.43492046
145	0x3e0a7a7b	0.13523285
146	0x3d371edc	0.044707164
147	0x3f4f75d6	0.8103918
148	0x3db2376e	0.087019786
149	0x3ece474b	0.40288767
150	0xbec3097d	-0.38093176
151	0x3ecd5801	0.40106204
152	0x3f489dbf	0.783657
153	0x3dc60bab	0.09670194
154	0x3f330ffa	0.69946253
155	0xbedabea1	-0.42723563
156	0x3ced0b5d	0.028936082
157	0xbeb11717	-0.3458793
158	0xbec2d204	-0.38050854
159	0x3ed2065d	0.4102048
160	0x3dade13c	0.08490226
161	0xbe51e629	-0.20497955
162	0x3d7a4796	0.061103426
163	0x3e8ec4a6	0.27884406
164	0x3d24f447	0.040272024
165	0xbe0298e2	-0.12753633
166	0x3e4e3037	0.2013558
167	0x3de38d33	0.11110916
168	0xbe0c3e9f	-0.13695763
169	0x3cb97d3f	0.02264273
170	0xbd67c150	-0.05658084
171	0xbd996314	-0.07489601
172	0xbe9a19e8	-0.3009789
173	0x3d618528	0.05505863
174	0xbe5b679c	-0.21426243
175	0x3e606bb3	0.21916084
176	0x3d9847ef	0.07435595
177	0xbe24b252	-0.16083649
178	0xbd9d4d0c	-0.07680711
179	0x3b8de155	0.00432984
180	0xbe998c66	-0.29989928
181	0xbdc8e519	-0.09809322
182	0x3b631f83	0.0034656234
183	0xbdfb8aef	-0.12282359
184	0xbc1da79e	-0.009622483
185	0xbdd1e002	-0.10247804
186	0xbd9e67d9	-0.07734651
187	0x3dd67014	0.10470596
188	0x3c289034	0.010288287
189	0x3e51d6eb	0.20492141
190	0x3e241c55	0.16026433
191	0x3e013de8	0.12621272
192	0xbe17aa1e	-0.14810988
193	0x3e357673	0.17720966
194	0x3b523a26	0.0032078116
195	0xbd93b094	-0.07211414
196	0x3de97af5	0.11400405
197	0x3c5e3aaa	0.013563791
198	0xbd340c49	-0.04395703
199	0xbe269ed9	-0.16271533
200	0x3cd840da	0.026398111
201	0xbc971804	-0.018444069
202	0x3ddd35e6	0.10801296
203	0x3d0a7dcf	0.033811387
204	0x3dfd2bbc	0.12361857
205	0xbd47b997	-0.048760977
206	0xbdcacec3	-0.09902718
207	0x3d9d0921	0.07667757
208	0x3db14890	0.08656418
209	0xbd8a4e19	-0.06753177
210	0x3c70cebb	0.014697726
211	0x3d260a82	0.040537365
212	0x3cc99c78	0.024610743
213	0x3ddeba4f	0.10875379
214	0xbc25713a	-0.010097796
215	0x3e005252	0.12531403
216	0x3d5f3745	0.05449607
217	0xbd9c3f77	-0.076292925
218	0xbe15ae8f	-0.1461737
219	0xbc85f216	-0.016350787
220	0x3d66927d	0.056292046
221	0xbe7fa6c9	-0.24965967
222	0xbe546d44	-0.20744807
223	0xbcb80dcd	-0.022467518
224	0x3e01789c	0.12643665
225	0x3dffc6ba	0.12489076
226	0xbcf183eb	-0.029481849
227	0xbe039d3a	-0.12852946
228	0x3af7ff2e	0.0018920654
229	0x3cff97a3	0.031200236
230	0xbd69fc12	-0.05712516
231	0xbe3e6b89	-0.18595709
232	0xbd4e2c0e	-0.050334983
233	0xbde76d42	-0.11300136
234	0x3e640569	0.22267689
235	0x3e3ef4b9	0.18648042
236	0xbd5bb4f1	-0.053639356
237	0xbe0946c9	-0.13405909
238	0xbe3f045f	-0.18654011
239	0xbd99fda1	-0.07519079
240	0x3cd3a1ea	0.025834043
241	0x3d14b451	0.036304776
242	0xbe1864a8	-0.14882147
243	0x3be1b503	0.0068880334
244	0x3d83ddf7	0.06438821
245	0x3c0557d8	0.008138619
246	0xbe3dda1a	-0.1854023
247	0xbdf9370c	-0.121687025
248	0x3d84c23b	0.06482359
249	0x3e1efb17	0.1552547
250	0x3e346bc1	0.1761923
251	0x3dd7d0e3	0.10537889
252	0xbcd0a8c3	-0.025471097
253	0xbe1bc666	-0.15212402
254	0xbd5a1cc7	-0.0532501
255	0x3e293ff2	0.165283

gcn_convs.0.path_weight_1.bias f4 [32]
0	0x3f8416e9	1.0319492
1	0x3f48af41	0.78392416
2	0xbf6fd52a	-0.9368464
3	0x3f712d2f	0.9420957
4	0x3f8e0802	1.1096194
5	0x3f2c23b7	0.67241997
6	0x3f939fb9	1.1533118
7	0xbf1b308a	-0.6062094
8	0xbf48f290	-0.7849512
9	0xbe9d61c0	-0.3073864
10	0xbdefaeac	-0.11703238
11	0xbf6048de	-0.87611187
12	0x3f68f1b0	0.90993786
13	0x3f87b39d	1.0601689
14	0x3f36aa78	0.71353865
15	0x3f513603	0.8172304
16	0xbf7d27e5	-0.98889
17	0x3f70ca9f	0.94059175
18	0xbf892ee7	-1.0717438
19	0xbf653f83	-0.89550036
20	0xbf297fe3	-0.66210765
21	0x3f9e32f3	1.2359298
22	0x3f4e9e95	0.80710727
23	0x3dd8e76e	0.10591017
24	0xbf0bee8f	-0.54660887
25	0xbf3457a9	-0.7044626
26	0x3f690883	0.9102861
27	0xbf1fad35	-0.6237367
28	0xbf705202	-0.93875134
29	0xbf35cee7	-0.7101883
30	0x3f90eb76	1.1321857
31	0x3f8b9d7d	1.0907437

gcn_convs.0.path_weight_2.weight f4 [32, 32]
0	0xbd03ca41	-0.032175306
1	0xbcfd4e95	-0.03092126
2	0xbce59cd9	-0.028028892
3	0x3cf66fc1	0.030082585
4	0x3b6ea305	0.0036413085
5	0x3a2e9373	0.0006659545
6	0x3c6c2c8d	0.014414919
7	0x3c77e819	0.01513102
8	0xbcf61ad4	-0.03004209
9	0x3cf18bce	0.02948561
10	0x3cea8e52	0.028632317
11	0xbcb8fa5b	-0.022580316
12	0xbce81552	-0.028330479
13	0xbd27dd71	-0.040982667
14	0x3ce83410	0.028345138
15	0xbc533779	-0.012891644
16	0xbc56c239	-0.01310783
17	0xbce7be45	-0.02828897
18	0x3b189928	0.0023284648
19	0xbcea987b	-0.028637161
20	0x3d283b65	0.041072268
21	0xbced957c	-0.029001944
22	0xbd054ab4	-0.032541946
23	0x3c0cebe3	0.008601162
24	0xbcea4263	-0.028596109
25	0xbcf0f822	-0.029415194
26	0xbc94f578	-0.018183455
27	0x3ce37c73	0.027769303
28	0x3cf172c4	0.02947367
29	0xbc3d0e79	-0.011539095
30	0x3ce5b0d1	0.028038414
31	0xbbeaf67a	-0.0071704956
32	0x3ca46293	0.020066535
33	0xbcfa4cbb	-0.030554166
34	0x3d0bfdc3	0.034177553
35	0xbcef67e5	-0.029224345
36	0x3d0ff685	0.03514721
37	0xbb6ea08d	-0.0036411614
38	0xbcf002b4	-0.029298164
39	0x3d26f2e7	0.040758993
40	0xbd0ff867	-0.035149004
41	0x3d0f49c0	0.034982443
42	0x3cf18f3c	0.029487245
43	0xbcecce0a	-0.02890684
44	0xbceaed3a	-0.028677572
45	0xbce40b4e	-0.027837422
46	0xbc817f27	-0.015807701
47	0xbd00d717	-0.031455126
48	0xbcebfe90	-0.028807908
49	0x3cf0be11	0.029387506
50	0xbcfe196f	-0.031017987
51	0xbcb27d3a	-0.021788228
52	0xbd1b6c51	-0.037945095
53	0x3ceb8b05	0.028752813
54	0x3cf18e2a	0.029486734
55	0xbcc64631	-0.024203392
56	0xbced9237	-0.029000385
57	0xbce87c47	-0.028379573
58	0x3cb0301e	0.021507319
59	0x3b812602	0.0039412985
60	0xbd26ab6a	-0.040690817
61	0xbce8f2f7	-0.028436167
62	0xbcec1374	-0.02881787
63	0x3d0beb20	0.03415978
64	0xbb715efd	-0.00368303
65	0x3cf9bf2f	0.030486671
66	0x3b0d9c13	0.002160792
67	0xbc014eb2	-0.007892298
68	0xbc0040a9	-0.007827916
69	0x3ca5e8dd	0.02025264
70	0x3c25818f	0.01010169
71	0xbc72420b	-0.014786254
72	0xbcfc9c1f	-0.030836163
73	0xbbe4db49	-0.0069841486
74	0xbd16120b	-0.0366383
75	0x3d285475	0.04109617
76	0xbcf1878d	-0.029483581
77	0xbd0c528a	-0.034258403
78	0xbca147b6	-0.019687515
79	0x3ccf010e	0.025269058
80	0xbce68488	-0.028139368
81	0x3ce83192	0.02834395
82	0xbcd1df06	-0.025619041
83	0x3cc59661	0.024119558
84	0xbd0fda30	-0.03512019
85	0xbd294e97	-0.041334715
86	0x3cdd9683	0.027049309
87	0xbd294a0e	-0.04133039
88	0xbc657ceb	-0.014006834
89	0xbd277f05	-0.04089262
90	0x3d0a8d48	0.033826143
91	0xbb7d532a	-0.0038654306
92	0x3d18b321	0.037280206
93	0x3d057b67	0.03258839
94	0x3c998ec2	0.01874483
95	0xbc144a71	-0.009050951
96	0x3c875fbf	0.016525147
97	0x3b76a3de	0.0037634294
98	0xbce58f56	-0.02802245
99	0x3cfc59d9	0.030804561
100	0x3cc79a99	0.02436571
101	0x3ce5d8f9	0.028057562
102	0x3cfdfa86	0.031003248
103	0xbce74f73	-0.028236127
104	0xbd246805	-0.040138263
105	0xbc0672ad	-0.008206052
106	0xbcd57155	-0.026055017
107	0x3b95d72f	0.004572771
108	0x3ce1c8a2	0.02756149
109	0x3d26b7af	0.040702518
110	0x3d03a104	0.03213598
111	0xbc8bb8cf	-0.017055897
112	0x3d05245a	0.03250537
113	0xbd224a64	-0.039621726
114	0xbd19451c	-0.037419423
115	0xbd0ad81d	-0.033897508
116	0x3c80a59e	0.015703972
117	0xbd21947d	-0.03944825
118	0x3d28636c	0.04111044
119	0x3d007313	0.031359743
120	0x3cc0b767	0.023524953
121	0x3c8f27cf	0.017475037
122	0xbcdb3587	-0.026758922
123	0x3cf17b5d	0.02947777
124	0x3d00f783	0.031486046
125	0x3cef62b6	0.029221874
126	0xbd21a10e	-0.039460234
127	0xbcd512df	-0.026009975
128	0xbd09246c	-0.033482
129	0x3d25fa05	0.04052164
130	0xbc4277b9	-0.011869364
131	0xbce8ed04	-0.02843333
132	0xbd0fb401	-0.035083774
133	0xbb0a098f	-0.0021062826
134	0x3cc5d7b7	0.024150712
135	0x3d28a137	0.04116937
136	0x3cf7d3ed	0.030252421
137	0xbbd4f641	-0.0064990823
138	0xbbdefd7f	-0.0068051214
139	0xbd257d7d	-0.040402878
140	0xbd0df712	-0.034659453
141	0xbcc5046a	-0.024049956
142	0x3b50f386	0.0031883433
143	0x3d2907cc	0.0412672
144	0xbd257e01	-0.04040337
145	0xbceabf4d	-0.028655672
146	0x3cc6ac2a	0.024252016
147	0x3cf836b7	0.030299528
148	0xbcea5f88	-0.028610006
149	0xbd0cf25e	-0.034410827
150	0x3c8727b2	0.01649842
151	0xbce53b96	-0.027982514
152	0xbd095868	-0.033531576
153	0xbc206756	-0.009790262
154	0xbd0f5491	-0.03499276
155	0x3d294eaa	0.041334786
156	0x3caa0775	0.020755509
157	0xbc872da7	-0.01650126
158	0xbbe72631	-0.0070541133
159	0xbd1d1c0b	-0.038356822
160	0x3d0ff6aa	0.035147347
161	0x3d0c3b16	0.034236036
162	0x3ce84674	0.028353907
163	0xbc3ea30c	-0.011635553
164	0x3cec0a72	0.028813574
165	0xbd07a797	-0.03311881
166	0x3d290e7c	0.04127358
167	0x3cf18f0a	0.029487152
168	0xbce3ae72	-0.027793143
169	0x3ced2d61	0.028952302
170	0x3c7050ed	0.014667732
171	0xbcf8ba8d	-0.030362392
172	0x3ceb69d8	0.028736994
173	0x3b8e9927	0.0043517533
174	0x3d2721a4	0.040803567
175	0x3d0c66e3	0.034277808
176	0xba5fcd9d	-0.00085374137
177	0x3c40ae6f	0.011760338
178	0x3c16e634	0.009210158
179	0x3ce45be5	0.02787585
180	0x3d0f8b4d	0.035044957
181	0xbbb6c4b4	-0.005577648
182	0xbc86d441	-0.016458632
183	0xbcaad85e	-0.020855125
184	0xbb92781c	-0.0044698846
185	0xbcf43156	-0.029808681
186	0x3d0ee660	0.03488767
187	0x3d0ee08a	0.034882106
188	0x3cedb098	0.02901487
189	0x3cf49323	0.029855317
190	0x3900fe53	0.00012301774
191	0x3d13142c	0.03590791
192	0x3d0f5d08	0.03500083
193	0x3cd003aa	0.025392372
194	0xbd0d10eb	-0.034439962
195	0xbcfdda27	-0.030987812
196	0xbd052315	-0.03250416
197	0xbd0d1973	-0.0344481
198	0xbd0c83b5	-0.034305293
199	0x3d0f8953	0.035043072
200	0x3cf9fb56	0.030515354
201	0x3c75d212	0.015003698
202	0x3d0cbaaa	0.034357704
203	0xbc928306	-0.017884742
204	0xbcac9e76	-0.021071654
205	0xb9a5ad33	-0.00031600296
206	0xbcb0aec3	-0.021567708
207	0x3cf0096a	0.029301364
208	0x3cf11786	0.029430162
209	0x3cb91c7b	0.022596588
210	0xbce94c11	-0.028478654
211	0xbd188d92	-0.037244387
212	0xbce59527	-0.028025223
213	0xbd206490	-0.039158404
214	0x3ce9ee12	0.028555904
215	0x3cecb708	0.02889587
216	0x3ca94f60	0.020667732
217	0x3cf18d5b	0.029486349
218	0xbd099ded	-0.033597875
219	0xbd285d83	-0.041104805
220	0xbce33a83	-0.027737861
221	0xbd0df8d3	-0.034661125
222	0xbd08a65f	-0.03336179
223	0x3ce75301	0.028237822
224	0x3d233d9e	0.039853685
225	0x3c7fc92c	0.015611928
226	0xbcf0a7f2	-0.029376958
227	0xbbec535e	-0.0072120866
228	0xbd2937a7	-0.04131284
229	0xbd276eb2	-0.04087705
230	0xbc076cd8	-0.0082656965
231	0xbd0f3321	-0.03496087
232	0x3ced3e6e	0.028960433
233	0xbce64c14	-0.028112449
234	0x3d13e2fc	0.03610514
235	0xbc80aa82	-0.015706304
236	0xbd028e10	-0.031873763
237	0x3cef4dde	0.029211935
238	0xbd269f0f	-0.040679034
239	0x3d0ff32a	0.03514401
240	0xbcfe8047	-0.031067027
241	0xbd0a66a8	-0.033789307
242	0x3d2165db	0.039403778
243	0x3b2d24f2	0.0026419726
244	0xbc73f1f1	-0.014889226
245	0xbc1e6857	-0.009668431
246	0xbd0fb436	-0.035083972
247	0x3d26ac22	0.040691502
248	0xbd06ca51	-0.032907788
249	0xbcb57f20	-0.022155344
250	0xbcee8595	-0.029116431
251	0x3c82923f	0.015938876
252	0x3c20891d	0.009798315
253	0x3cd4e0c8	0.02598609
254	0x3cf7820a	0.030213375
255	0xbb2beaa9	-0.0026232398

gcn_convs.0.path_weight_2.bias f4 [32]
0	0x3f9667fe	1.1750486
1	0x3f944f6c	1.1586738
2	0xbf831ad0	-1.0242558
3	0x3fa4afc7	1.2866143
4	0xbf5f116e	-0.8713597
5	0x3f93c82d	1.1545464
6	0xbf74a870	-0.95569515
7	0xbef9d5d7	-0.4879596
8	0xbe450959	-0.19241847
9	0x3f9161d3	1.1357979
10	0xbf793e83	-0.9736101
11	0x3f75e6ce	0.96055305
12	0x3f45cb5e	0.7726344
13	0x3f4e8252	0.80667603
14	0x3facea97	1.3509091
15	0x3f20a88b	0.62757176
16	0xbf8053d1	-1.0025579
17	0x3e929da1	0.28635886
18	0xbf70c952	-0.9405719
19	0xbf6624b6	-0.89899766
20	0xbf2ac94a	-0.6671339
21	0xbf667b3f	-0.9003181
22	0xbe4e819c	-0.2016663
23	0xbf344bfd	-0.7042845
24	0xbf6928c2	-0.91077816
25	0xbf34d1ef	-0.70632833
26	0x3f57b512	0.84260666
27	0xbf364453	-0.71198004
28	0x3f6c0a77	0.9220347
29	0xbf781612	-0.96908677
30	0x3fa389d6	1.2776439
31	0x3e9f7b14	0.3114859

gcn_convs.1.path_weight_1.weight f4 [3, 32]
0	0xbef496d0	-0.4777131
1	0x3df454fe	0.119302735
2	0xbf1a72ec	-0.60331607
3	0xbe7f264a	-0.2491695
4	0x3c9e54b0	0.019327492
5	0xbe8a42ce	-0.27004093
6	0xbec64045	-0.3872091
7	0xbec42c5e	-0.383151
8	0x3deee462	0.11664654
9	0xbf055116	-0.5207685
10	0x3ee11f92	0.439694
11	0xbe38c594	-0.1804412
12	0xbe543e79	-0.20726956
13	0x3f0e32a4	0.5554602
14	0xbdf8223f	-0.12115907
15	0xbdf97f68	-0.12182504
16	0xbf01d334	-0.50712895
17	0xbec012bc	-0.37514293
18	0x3e21e50a	0.15810028
19	0x3f42c0df	0.7607555
20	0xbecee064	-0.4040557
21	0xbebdd92f	-0.3707976
22	0xbeec4eeb	-0.4615396
23	0x3e92b5f8	0.28654456
24	0x3ea5277f	0.32256696
25	0x3ec1afea	0.37829524
26	0x3f0a31f8	0.53982496
27	0xbe310058	-0.17285287
28	0x3da33598	0.079692066
29	0xbbdf696f	-0.0068179886
30	0x3f0c8819	0.5489517
31	0x3e67551c	0.2259106
32	0x3df3c93d	0.119036175
33	0xbe4cef61	-0.20013191
34	0xbd976d50	-0.073938966
35	0xbbd8927b	-0.0066092587
36	0x3dddc970	0.10829437
37	0x3ec98402	0.39358526
38	0xbda55559	-0.080729194
39	0xbe411ed8	-0.18859422
40	0xbe59bb99	-0.21262969
41	0x3e20b414	0.15693694
42	0xbc890189	-0.016724365
43	0xbb961be4	-0.0045809615
44	0x3dfb34da	0.1226594
45	0xbe7eda32	-0.24887922
46	0xbd7a1a51	-0.061060254
47	0xbd8bab52	-0.06819786
48	0x3ec52f74	0.38512766
49	0xbc967f22	-0.018371169
50	0x3cb75675	0.022380093
51	0xbdcac161	-0.09900165
52	0x3d493f9d	0.049132932
53	0x3d09fda7	0.033689167
54	0x3ea13c63	0.31491384
55	0xbeb558b8	-0.3541925
56	0x3dfdfa64	0.12401274
57	0xbebfbc67	-0.37448427
58	0xbe432337	-0.19056402
59	0xbde86956	-0.11348216
60	0x3eb27d98	0.34861445
61	0x3de27348	0.110571444
62	0xbed30cd9	-0.4122074
63	0xbeac1d1a	-0.33615953
64	0xbd70cc74	-0.05878873
65	0xbdf86f4f	-0.121306054
66	0x3e39005b	0.18066542
67	0x3d89402f	0.06701695
68	0xbd96d445	-0.07364706
69	0xbe5aa1e5	-0.2135082
70	0xbe32002a	-0.17382875
71	0x3d639bad	0.055568386
72	0xbe81670f	-0.2527394
73	0xbe0d86da	-0.13820973
74	0xbd61dc3a	-0.055141665
75	0x3e4a90bf	0.19781779
76	0xbe9d9efd	-0.3078536
77	0x3e1b2d8c	0.15154094
78	0xbdc46373	-0.09589281
79	0x3c232c30	0.009959266
80	0x3e0f1fa5	0.13976915
81	0xbe99663e	-0.29960817
82	0x3d634f45	0.05549552
83	0xbe635b2f	-0.22202753
84	0xbdac9b10	-0.08428013
85	0x3d8ddcef	0.06926905
86	0x3cb990a1	0.022651972
87	0xbdc48408	-0.095954955
88	0xbdf9c56b	-0.121958576
89	0x3e38fd9f	0.18065499
90	0x3c1837f5	0.009290685
91	0x3e7daf92	0.24774006
92	0xbee72c15	-0.4515082
93	0xbeb97543	-0.36222276
94	0x3e6b4ffa	0.22979727
95	0x3da2a9b6	0.07942526

gcn_convs.1.path_weight_1.bias f4 [3]
0	0x3f48b1ae	0.7839612
1	0x3f947170	1.1597118
2	0x3f80f5c0	1.0074997

gcn_convs.1.path_weight_2.weight f4 [3, 32]
0	0x3eb41252	0.35170227
1	0xbf92fc2b	-1.1483206
2	0x3eef0266	0.46681517
3	0xbf7f4e37	-0.9972872
4	0xbf18e87d	-0.5972975
5	0x3f4a6433	0.7905914
6	0x3f2f4b67	0.6847443
7	0xbf7e433c	-0.9932134
8	0xbe690eff	-0.22759627
9	0xbf8f6161	-1.1201593
10	0x3d6a2ce6	0.057171725
11	0x3e445bdc	0.19175667
12	0x3f5da389	0.8657766
13	0xbf55db95	-0.8353818
14	0xc007ba29	-2.1207373
15	0x3d35330e	0.044238143
16	0x3f813adb	1.0096086
17	0x3f641cb3	0.8910629
18	0xbf5040dc	-0.8134897
19	0x3f9a7ede	1.2069967
20	0xbee6030b	-0.44924197
21	0x3f433b18	0.76262045
22	0x3ef5a765	0.47979274
23	0x3f39f987	0.72646374
24	0x3fb2f7a2	1.3981822
25	0x3f8f3354	1.1187539
26	0x3f84628b	1.0342573
27	0x3f829c54	1.0203958
28	0xbe1af816	-0.151337
29	0x3fa5222f	1.2901057
30	0xbf8c0355	-1.0938517
31	0xbf307666	-0.6893066
32	0x3fc66862	1.5500605
33	0xbf3eb0af	-0.7448835
34	0x3f488dd7	0.7834143
35	0x3f385a94	0.7201321
36	0xbfeeb03e	-1.8647535
37	0xbf5a1e02	-0.8520204
38	0x3f0d7a03	0.552643
39	0xbf341ca0	-0.7035618
40	0xbe7f914e	-0.24957773
41	0x3f8267d3	1.0187935
42	0xbf005487	-0.5012898
43	0x3dd60a41	0.104511745
44	0xbf904d0d	-1.1273514
45	0xbf5681e9	-0.8379198
46	0x3f54079d	0.82824117
47	0xbf8e08ad	-1.1096398
48	0x3f26c890	0.65149784
49	0xbf9149cd	-1.1350647
50	0x3f362626	0.7115196
51	0x3ebae8d7	0.36505768
52	0x3f5673d2	0.8377048
53	0x3f08f208	0.5349431
54	0xbf44ffa8	-0.769526
55	0xbf6e693e	-0.93129337
56	0xbf796313	-0.974168
57	0xbf9ebaab	-1.2400717
58	0x3fb43e3f	1.4081496
59	0xbeb05738	-0.34441543
60	0xbeac4622	-0.33647257
61	0xbf819d16	-1.0126064
62	0x3f2f82ae	0.68558776
63	0xbf0f06e1	-0.5586987
64	0x3f52ee4a	0.8239485
65	0x3e895153	0.26819858
66	0x3e5d45fc	0.21608728
67	0x3f8f1ec5	1.1181265
68	0xbeb08433	-0.3447586
69	0xbf1de079	-0.61670643
70	0xbf22c852	-0.63586915
71	0x3cb3244c	0.021867894
72	0x3f085593	0.53255576
73	0x3f66d0d8	0.9016242
74	0xbf99302f	-1.196783
75	0x3ee563c1	0.4480267
76	0xbf8bc803	-1.0920414
77	0x3f5978a9	0.8494974
78	0xbed41237	-0.41420147
79	0x3f76a0ca	0.96339095
80	0xbf52f7dd	-0.8240946
81	0x3fa5d64b	1.2956022
82	0xbf3dcb0f	-0.7413797
83	0x3f999958	1.1999922
84	0x3f68f4e2	0.9099866
85	0x3e0af97f	0.13571738
86	0x3f9a74d5	1.2066904
87	0xbf1d62fb	-0.6147916
88	0xbfa18352	-1.2618201
89	0xbf687975	-0.9081033
90	0xbf5e0607	-0.86727947
91	0xbf8218de	-1.0163839
92	0x3da0f8fd	0.07859991
93	0xbe5d5481	-0.21614267
94	0x3f4ca430	0.7993803
95	0xbefd805c	-0.49511993

gcn_convs.1.path_weight_2.bias f4 [3]
0	0xbf976925	-1.1828963
1	0x3f733169	0.9499727
2	0x3f6004b1	0.8750716

lns.0.weight f4 [32]
0	0x3f367d90	0.71285343
1	0x3e1b500d	0.15167256
2	0xbe7a65fa	-0.24452963
3	0x3fa687d0	1.3010197
4	0x3faeb927	1.3650254
5	0xbe7b78f6	-0.24557862
6	0xbd8f04ed	-0.069833614
7	0xbe9e988e	-0.30975765
8	0x3dd9bffc	0.10632321
9	0x3e9c8432	0.30569607
10	0x3f849629	1.0358325
11	0xbebdf198	-0.37098384
12	0xbebda52f	-0.37040088
13	0x3fa3fe8c	1.2812057
14	0x3fe05851	1.7526952
15	0x3f63e7db	0.8902566
16	0xbed3a6b2	-0.41338116
17	0x3fbbad54	1.466227
18	0xbef9d834	-0.48797762
19	0x3e9c8059	0.30566671
20	0x3f36ab8f	0.7135553
21	0xbf2814d4	-0.6565678
22	0x3f8de12e	1.1084344
23	0xbe356d19	-0.17717399
24	0x3fee33a4	1.860951
25	0x3f93f028	1.1557665
26	0x3fd6f647	1.6793908
27	0x3f7eddef	0.99557394
28	0xbec5195f	-0.3849592
29	0x3f42294b	0.7584426
30	0x3f03a703	0.51426715
31	0xbf2ea5e3	-0.68221873

lns.0.bias f4 [32]
0	0x3ef1cd3c	0.47226894
1	0x3e5eef57	0.21770988
2	0xbe1e077e	-0.15432546
3	0x3ef51f64	0.47875512
4	0x3e89a8ac	0.268865
5	0x3f366d00	0.7126007
6	0xbbdfedbf	-0.0068337615
7	0x3eb1deaa	0.34740192
8	0xbeb0b502	-0.34513098
9	0x3f2d9af7	0.6781458
10	0xbf4d8108	-0.8027501
11	0xbe12ece1	-0.14348175
12	0x3dccc3f1	0.0999831
13	0x3db6b1af	0.08920609
14	0x3f5ad57f	0.8548202
15	0x3dedf7b4	0.11619511
16	0xbe3d29d7	-0.18472992
17	0xbe967f0e	-0.2939381
18	0xbefaa92f	-0.48957202
19	0xbf45bdfd	-0.77243024
20	0xbec4bb69	-0.38424233
21	0xbe85afcf	-0.26110694
22	0xbee00bcd	-0.43759003
23	0xbf396f43	-0.72435397
24	0xbfac4518	-1.3458586
25	0xbf9ddb40	-1.2332535
26	0xbcbdbb9f	-0.023160754
27	0xbf685713	-0.90757865
28	0xbdb35dc8	-0.08758122
29	0xbf606028	-0.8764672
30	0x3d97288a	0.07380779
31	0x3ebc2b54	0.36751807

lns.1.weight f4 [32]
0	0x3f800000	1.0
1	0x3f800000	1.0
2	0x3f800000	1.0
3	0x3f800000	1.0
4	0x3f800000	1.0
5	0x3f800000	1.0
6	0x3f800000	1.0
7	0x3f800000	1.0
8	0x3f800000	1.0
9	0x3f800000	1.0
10	0x3f800000	1.0
11	0x3f800000	1.0
12	0x3f800000	1.0
13	0x3f800000	1.0
14	0x3f800000	1.0
15	0x3f800000	1.0
16	0x3f800000	1.0
17	0x3f800000	1.0
18	0x3f800000	1.0
19	0x3f800000	1.0
20	0x3f800000	1.0
21	0x3f800000	1.0
22	0x3f800000	1.0
23	0x3f800000	1.0
24	0x3f800000	1.0
25	0x3f800000	1.0
26	0x3f800000	1.0
27	0x3f800000	1.0
28	0x3f800000	1.0
29	0x3f800000	1.0
30	0x3f800000	1.0
31	0x3f800000	1.0

lns.1.bias f4 [32]
0	0x00000000	0.0
1	0x00000000	0.0
2	0x00000000	0.0
3	0x00000000	0.0
4	0x00000000	0.0
5	0x00000000	0.0
6	0x00000000	0.0
7	0x00000000	0.0
8	0x00000000	0.0
9	0x00000000	0.0
10	0x00000000	0.0
11	0x00000000	0.0
12	0x00000000	0.0
13	0x00000000	0.0
14	0x00000000	0.0
15	0x00000000	0.0
16	0x00000000	0.0
17	0x00000000	0.0
18	0x00000000	0.0
19	0x00000000	0.0
20	0x00000000	0.0
21	0x00000000	0.0
22	0x00000000	0.0
23	0x00000000	0.0
24	0x00000000	0.0
25	0x00000000	0.0
26	0x00000000	0.0
27	0x00000000	0.0
28	0x00000000	0.0
29	0x00000000	0.0
30	0x00000000	0.0
31	0x00000000	0.0
