semi-supervised/pubmed_16_layers_.pt (torch, 234617 bytes, 100 tensors)

trans_feat.weight f4 [32, 500]
00000000: e385 473c d111 00bd 707f 1f3c 29ee e93b
00000010: e9f7 a23b 924b 3e3c 8e30 e63b eeae d63c
00000020: 3e1b 43bb 309b 0f3b e939 4cbc b4c7 073b
00000030: 4825 ce3a acbc 08bc a183 2abc e8d4 c139
00000040: 9c9e 803d 067f dfbc e5b4 893c eade 25bc
00000050: 6d0a 723b 9f1f 00bc d281 073c e713 403c
00000060: c9a4 c1bb 9f57 803d 54a8 8abc 32b7 a03c
00000070: 90ba 1d3c 80e2 bcb7 ac8c c5bb 603e 99bb
00000080: 1dcd c7bb 5231 d5bc d0af 26bb 9aff 83bb
00000090: 6520 1c3c 9058 dc39 8214 0ebd e3fd 83bb
000000a0: cb0a bf3b 92bd d53b f842 52bb 2800 1d3b
000000b0: 21c0 2dbc 64d0 ddbb 84d0 e53a d625 3fbc
000000c0: 2475 9dbc e97f 10bd f253 363c 992c 3f3c
000000d0: f8f3 f5bb 86d7 49bc e80b 143d 4dcf 2e3c
000000e0: 620a 133d bb22 57bc 4852 243d 74eb f0bc
000000f0: eed9 b63c 3381 d6bc 2c4c d33b a9f8 233c
00000100: e062 6f3c 6e57 f33c ee96 273b abff 103d
00000110: bf18 57bd 80e2 3038 91bb 2bbd c849 b03b
00000120: e683 3bbb 00bc acb8 eaa7 a2bc 769d 493b
00000130: cc9e 17bd 1264 9f39 c38c 9fbc f19d f6bb
00000140: 2765 12bd 58bf abbc 6a83 eabc 0e1a 543c
00000150: 775e 593b 00b3 0bb9 5cbc e8bb a5c5 18bb
00000160: a895 74bb bb61 83bc 904a d33c bfb4 f83b
00000170: 65e2 8d3c e013 76bc f0ca 323c f662 12bd
00000180: 3ab2 40bc 86ce af3b 1428 44bc d78b a53b
00000190: ebf1 ef3c 21ab 8fbc 3661 43bd e0f6 16bb
000001a0: 3ea1 323c 9af2 4a3c 207c 3f3d 5228 cebc
000001b0: 6b52 083b c6e9 b5bc 92d2 a83c 047f 38bc
000001c0: 5eb7 4d3c 29bf 5d3b 7c98 b03c ddd9 0c3c
000001d0: 0523 9bbc 65ec 88bb a2b8 8fbb 2c86 ebbb
000001e0: 7742 aebc 3a5c 813c d61b 2dbd d4c4 653d
000001f0: 1289 9b3c a4f8 0b3d 3ac0 b83c e057 4abc
00000200: 9a29 5cbc 633f e1bc 7d52 afbc 5b82 92bb
00000210: 183d 1a3d 3eaa 173d 4055 99b9 beb0 793b
00000220: ddd2 a8bc 8977 7ebc 1c3d 90bc 8322 8b3b
00000230: 2f12 0e3c 910f bf3b 5710 833d 09c8 8dbb
00000240: 74fd da3c 201d e338 9f8c 813c 8680 db3c
00000250: 10e4 59bc 8cff 733b 602b cd3c 8a90 b13c
00000260: d078 903c a471 8e3b 6eec b6bc fbaa 9fbc
00000270: c480 52bb 085c ffbb 8f72 b2bc 17af 22bd
00000280: 672a cabc e00d 6a3b 2b32 dc3c 86b0 d23c
00000290: 4340 dc3c b70a 3bbc ebb1 03bd 1982 253c
000002a0: 267a 0f3c 1a81 463d 8284 8d3c 46e6 04bd
000002b0: e4a3 593a db19 763d ae14 e03c 9545 5e3c
000002c0: 298f 2abc 9c66 2abc 6165 fe3c 56c8 303c
000002d0: f1a8 20bc 68f1 cebc 12f4 ec3b 5246 b13c
000002e0: a039 04b9 f74e 873c b4a3 0fbd a1dd edbc
000002f0: b064 e7bb b836 7eba edf3 10bf dd19 19bc
00000300: 80a1 fcbc 526b 823d 4828 133c 5aa3 adbc
00000310: c8de 08bf 8e02 65bc e09e 55bc f329 35bd
00000320: dc95 2d3c 0cef 4a3c 9c39 21bd 224d f4bc
00000330: 2b08 edbc 0d58 78bd 6582 35bc 550a 48bd
00000340: 5e34 a0bc 83d7 d5bb c0f8 cfbb 013c bfbc
00000350: 50e4 5dbd 1a67 88bc 49d3 0e3d 64fc 0f3d
00000360: 0c9b c2bb c276 3f3b bf8e 18bd 0cd5 86bc
00000370: 80e5 37bc c0d7 103b 92d1 56bc d6a0 57bc
00000380: 4e3f 41bc a43a 723b 7891 2e3b 4b44 b33c
00000390: e4c6 b4bc b654 acba 9874 ae3c f5dc 843b
000003a0: e52e a7bc 05b5 bd3c 2aa8 d03c 4059 e7b8
000003b0: d4a5 baba c0af 21b9 cc39 923b 0443 8e3b
000003c0: 025f 9abc 046a ccbc e5ad 113c 7f7d 02bc
000003d0: ec41 b53c 3eaf c43c c97c 173d fc8c 3ebc
000003e0: a0fd 0aba f55b b13b 0e1c 653c c040 9aba
000003f0: 309b 65bd f263 43bc 840d 34bc 29d9 c03b
0.012177917 -0.03126699 0.009734973 0.0071389866 0.004973401 0.011614697 0.007024831 0.02620646
-0.0029770876 0.0021912567 -0.012464979 0.0020718398 0.0015727663 -0.008345764 -0.010407359 0.00036970456
0.06280252 -0.02728225 0.01680989 -0.010123948 0.0036932484 -0.007820039 0.008270698 0.011723495
-0.0059095365 0.062667124 -0.016925968 0.019618604 0.0096269995 -2.2516819e-05 -0.0060287323 -0.004676625
-0.0060974495 -0.026024494 -0.0025434382 -0.004028273 0.009529208 0.00042027654 -0.034687527 -0.0040280684
0.005830144 0.0065228427 -0.0032083374 0.0023956392 -0.010604889 -0.006769227 0.0017533456 -0.011666736
-0.019220896 -0.035278235 0.011128413 0.011668348 -0.00750589 -0.012319451 0.036144167 0.010669542
0.035898574 -0.013130839 0.040117532 -0.029409148 0.022320714 -0.026184654 0.0064482894 0.010008016
0.014610976 0.029704776 0.002557214 0.035400074 -0.052513834 4.2172614e-05 -0.041926924 0.005379889
-0.0028612553 -8.236617e-05 -0.019855458 0.003076402 -0.037016675 0.000304014 -0.0194763 -0.0075261523
-0.035740998 -0.020965263 -0.028627116 0.012945665 0.0033167878 -0.00013322756 -0.0071025323 -0.0023311165
-0.0037320647 -0.016037812 0.02579239 0.007589906 0.017319867 -0.015019387 0.010912642 -0.035738908
-0.0117612425 0.0053651957 -0.011972446 0.0050520706 0.02929016 -0.017537655 -0.04770013 -0.0023035333
0.010902701 0.012386942 0.046749234 -0.02516571 0.0020801078 -0.022206198 0.02060822 -0.011260752
0.012555925 0.0033835864 0.021557085 0.0085968645 -0.018937597 -0.004178571 -0.0043860236 -0.0071876254
-0.021271927 0.015791047 -0.042262875 0.056095913 0.018986259 0.03417267 0.022552598 -0.012350053
-0.013437653 -0.027496045 -0.021401638 -0.004471106 0.03765592 0.03702759 -0.0002924595 0.0038099731
-0.02060836 -0.015531429 -0.017607264 0.0042460575 0.0086713275 0.005830713 0.06399601 -0.0043268246
0.026732184 0.000108296284 0.015814124 0.026794683 -0.013299003 0.0037231175 0.025045097 0.021675367
0.017635733 0.004347043 -0.022329535 -0.01949071 -0.0032120207 -0.0077929534 -0.021783141 -0.03971776
-0.024678422 0.0035713837 0.02687939 0.025718939 0.026886111 -0.011416129 -0.032152098 0.0101018185
0.00875715 0.048462965 0.017275099 -0.03244617 0.00083023147 0.06008325 0.02735361 0.013566394
-0.010410109 -0.010400441 0.0310542 0.010789951 -0.009805904 -0.025261596 0.007231244 0.021639977
-0.00012609968 0.016517146 -0.03506823 -0.029036345 -0.0070615634 -0.0009697485 -0.566222 -0.009344545
-0.030838728 0.06368126 0.008981772 -0.021196056 -0.5346494 -0.01397766 -0.013038367 -0.04422946
0.010594811 0.012386095 -0.03936158 -0.029821936 -0.028934559 -0.060630847 -0.011078452 -0.04883798
-0.01955622 -0.006525935 -0.006346792 -0.023344042 -0.054172814 -0.016650725 0.034869466 0.035152808
-0.005938893 0.0029215072 -0.03724551 -0.01645901 -0.011224151 0.0022101253 -0.013111489 -0.013160905
-0.011794878 0.0036961222 0.0026637 0.02188315 -0.022067495 -0.0013147804 0.02129583 0.0040546604
-0.020408103 0.023157606 0.025470812 -0.000110315625 -0.0014240094 -0.00015419628 0.0044624563 0.004341485
-0.018844131 -0.024952896 0.008891557 -0.007964491 0.02212616 0.024009343 0.03698424 -0.011630293
-0.00053020753 0.0054125735 0.01398374 -0.0011768565 -0.0560562 -0.011925684 -0.0109895505 0.0058852625

trans_feat.bias f4 [32]
00000000: 50a8 a23b 9047 973b 4e17 64bb 14ae 70ba
00000010: baf8 983b f0d1 403b 6af8 3ebb f32f 4b3b
00000020: d2b5 86bb ed55 973b 4b35 3e3b 658a 8f3b
00000030: 908f 5f3a f627 97bb e6c0 91bb a0c1 73b9
00000040: cc74 e33a 3299 5dbb 3067 133a a484 78bb
00000050: c15a 4f3b f922 70bb 6b11 b43b c08e 49ba
00000060: 293a b43b c175 87bb c01a d538 66a0 fd3a
00000070: d40f b4bb aef1 76bb 8222 91bb 44e2 cf3a
0.004963912 0.004616685 -0.003480393 -0.0009181213 0.0046683224 0.0029422008 -0.0029139766 0.0031003922
-0.00411103 0.0046183974 0.0029023464 0.0043805116 0.00085281674 -0.004612918 -0.004448044 -0.00023246417
0.0017353534 -0.0033813235 0.0005622981 -0.0037920857 0.0031639787 -0.003664194 0.0054952404 -0.0007688813
0.0055000973 -0.0041339104 0.00010161614 0.0019350171 -0.005495051 -0.0037680673 -0.0044291625 0.0015860279

pred_trans.weight f4 [3, 500]
00000000: 1d56 5340 481a 2d3c 2e9e eebe dd06 ffbe
00000010: 6a9b de3c 1455 5ebf c0fc 1abd 38a3 fcbe
00000020: 4b5a 0940 9424 82be 7bea 27bf 5f90 90be
00000030: 98bb e13e 07fd 76be 2829 453f a4ae 0abd
00000040: fe47 33bf 5393 1bbf 807c 3038 4196 413e
00000050: 17b0 abbe a013 173f d41a b3bd 178d 773e
00000060: 7627 183f b549 0a40 ad68 10be 27ae 203e
00000070: cf2a 85be 124e dc3e 5038 893e 9e12 e23f
00000080: 600f 1b40 61f0 833f 0f07 8e3f 1012 813e
00000090: a1d1 5c3e 08fe 83be fb65 bb3f 1f71 9ebf
000000a0: 2a42 cc3f ef5b 5abe 31eb e53e 84d0 5dbd
000000b0: 701f a2be b9ca cfbd 1847 afbd 6161 193e
000000c0: e21a 50be af33 833e 28ba 87bd 2894 38bd
000000d0: b0d0 2fbe 2538 a73e b088 053f 50f6 edbd
000000e0: 56f2 d7bd 770e 12bf 92d9 0b3e 6a1b adbe
000000f0: 62a5 4a3f 5f18 12bf 3899 0c3f 013a eb3e
00000100: 3580 0fbe f64c 833e 710b a43e 232b 443f
00000110: 9216 16be c416 42bd 0eae 8cbf 8a4e a6bd
00000120: 92a9 833d cc37 8bbd 3ffc f43e 826c 623e
00000130: 2efe 813d eda3 4e3e c72d 133f ab57 5fbe
00000140: f697 8e3e df66 c23e 0207 623e 2f25 3fbe
00000150: 8114 783e dc78 0ebf 211b cabd aaf2 07bd
00000160: 40c0 2d3d 0337 f7bf 4b8c 74bf 88cd 7ebf
00000170: bfb5 823f 0c3d d63f 6816 503e c210 7f3e
00000180: 0906 b1be 1ff4 5ebe a998 22be 16e9 803e
00000190: fdf5 6fbe 9f69 473e 1b8e 9bbd b014 25bf
000001a0: 7e7a afbe 3108 da3e 063e cbbd eedd b03e
000001b0: 61e0 61be 4422 6f3e 95f6 ec3f 8802 a2bd
000001c0: 17e8 cfbe b04b 2bbd be6b 9a3d f836 12bf
000001d0: 6d62 aa3d ad93 1cbf 98b9 e7bb ecd1 923f
000001e0: c34d eebe 05d4 70bf ef7f 73be 420d e3bd
000001f0: 58b5 d23d 2e94 46be 0d7b 8bbe 55b2 7abe
00000200: 70c8 9dbc 5f0e 5bbe a4d2 52be f990 a5be
00000210: 2ec1 57be dc81 aebe 7cc0 45be c785 3fbe
00000220: f7dd d9be 80ac 9bbe c3a4 11bf a618 4cbe
00000230: 04d3 adbd 23a8 cabd f19c 013f 2e1e a8bc
00000240: 2923 20bf dd26 9ebd 1877 8d3f a0c3 11be
00000250: e8f2 33be a177 2e3e 9042 02be 6631 5ebe
00000260: de69 aebc 39ae 0a3e 4cc8 e8be 4ec0 4dbd
00000270: 54fc b23e 53cc 58be 5b59 d6be 9710 103f
00000280: 03f7 6ebf f625 8dbd 5657 1cbf fe0b 8cbd
00000290: 1637 c83f 2ed1 5e3e 7d73 8fbd 6d67 e4bd
000002a0: b46f efbd 52b2 753f c3bc 30be 4aae d93f
000002b0: cb83 f13d a8da 053f 106e a3be d142 023f
000002c0: bc63 96bd 13a4 50be 86aa 3b3f 7426 973f
000002d0: 8177 24be 1e1b 2cbd c013 adbe 9a69 753f
000002e0: 683d 1640 d4a6 5c3f 0ab1 f2bd 2e58 0d3f
000002f0: 2406 fbbd f043 2d3e cc43 3fbf f48d 3dbe
00000300: d205 963b 0409 a6be e840 883d a7d5 d1be
00000310: bdbe 40bf 3ae7 d73d 64df e33e f1a2 f13e
00000320: 1c89 833e 5e2f 34bf 6044 f03e 053e 4fbf
00000330: 8132 dabd a1c9 07bf d900 93be eeaf d8bd
00000340: 808b 013e d07f 0d3c c064 75be 58ca 64be
00000350: 9ace 05bf de01 58bf 202f 8cbe 1cb2 bcbe
00000360: 106f 653d 885d 62be 249e 1cbe cd29 4ebf
00000370: 721b 663e 124f 27bf 2e15 753d 88c8 2c3f
00000380: b2d4 45be b043 18be aee4 c7bd 6754 20be
00000390: 3d36 bcbd 1ad2 18be 7ffa 863e 4f40 183e
000003a0: 04c1 5dbf fec8 42be 587e 2fbf d5b0 47bf
000003b0: 7f38 fd3e 5efd 18bf 86a2 9d3e 4cfa a9bf
000003c0: c951 e2be 1cf8 1dbf 1fad bc3d 50ec 85be
000003d0: c4d4 1abf 885e 4cbe 877e 8fbe 3d11 81bf
000003e0: a173 823f 98ef 2f3d 86c2 733e bd7f 57bf
000003f0: 7a49 6dbe 0bb6 c83d c479 26bf d4bd 18be
3.302131 0.010565348 -0.46605057 -0.49809924 0.027173717 -0.8684857 -0.037838697 -0.49343276
2.146136 -0.25418532 -0.65592164 -0.28235146 0.44088435 -0.2411996 0.77015924 -0.033857957
-0.70031726 -0.60771674 4.207762e-05 0.18904974 -0.33532783 0.5901432 -0.087453514 0.24174915
0.5943521 2.1607487 -0.1410243 0.15691434 -0.26009223 0.43028313 0.26800776 1.7661932
2.4228134 1.0307733 1.1095904 0.25209093 0.21564342 -0.25779748 1.4640497 -1.2378272
1.5957692 -0.21324132 0.44906 -0.054153934 -0.3166461 -0.10146088 -0.08558482 0.14978553
-0.20322755 0.2562537 -0.06627303 -0.045063168 -0.17169452 0.32660022 0.52161694 -0.11619246
-0.10544269 -0.5705332 0.13657215 -0.33809978 0.79158604 -0.5706844 0.54921293 0.4594269
-0.14013751 0.25644654 0.3203998 0.7662832 -0.14657047 -0.047384992 -1.0990617 -0.08120449
0.06428827 -0.06797752 0.47848698 0.22111705 0.06347309 0.2017972 0.57491726 -0.21810786
0.27850312 0.3796911 0.22072986 -0.18666528 0.24226572 -0.55653167 -0.09868456 -0.033190407
0.042419672 -1.9313663 -0.9552657 -0.99532366 1.0211715 1.673738 0.20321047 0.24908736
-0.34574917 -0.21772812 -0.15878548 0.2517783 -0.23433681 0.19473885 -0.07595464 -0.6448469
-0.34273142 0.42584375 -0.099239394 0.3454432 -0.2205825 0.23352915 1.8512751 -0.07910639
-0.40606758 -0.041820228 0.075400814 -0.57115126 0.083195545 -0.61162835 -0.007071685 1.1470313
-0.46543702 -0.94073516 -0.23779272 -0.11086513 0.10288495 -0.19392464 -0.27242318 -0.24482091
-0.019260615 -0.21392201 -0.20588166 -0.32337168 -0.21069786 -0.3408345 -0.19311708 -0.18703376
-0.42552158 -0.30405045 -0.5689203 -0.19931278 -0.08487514 -0.09895351 0.506301 -0.020522203
-0.6255365 -0.07722256 1.105197 -0.14234781 -0.1757313 0.17037822 -0.12720704 -0.21698532
-0.021290716 0.13543023 -0.45465314 -0.050232224 0.34958136 -0.21171694 -0.41865048 0.56275314
-0.9334566 -0.06892006 -0.61070764 -0.06838225 1.5641811 0.21759483 -0.070044495 -0.111525394
-0.116912276 0.9597522 -0.17259507 1.7006314 0.11792716 0.5228677 -0.3191991 0.50883204
-0.073432416 -0.2037509 0.73307073 1.180861 -0.16061212 -0.04201805 -0.3380413 0.9586426
2.347498 0.8619206 -0.11850174 0.55212677 -0.122570306 0.16920447 -0.74712825 -0.18511182
0.0045783306 -0.32428753 0.06653005 -0.40983316 -0.75291044 0.1054215 0.4450637 0.47194627
0.25690544 -0.70384777 0.46927166 -0.8095401 -0.10654164 -0.53042036 -0.28711584 -0.10580431
0.12650871 0.00863643 -0.23964214 -0.22342813 -0.52268374 -0.8437785 -0.27379704 -0.36854637
0.05601412 -0.22105992 -0.15294701 -0.8053253 0.22471407 -0.65355027 0.05983465 0.67493486
-0.19319418 -0.1486957 -0.09760414 -0.15657197 -0.09190033 -0.14923897 0.26362988 0.14868282
-0.86622643 -0.19021985 -0.6855216 -0.780042 0.49457166 -0.5976161 0.30788058 -1.327951
-0.44203022 -0.6170671 0.09212708 -0.26156855 -0.60480905 -0.19957936 -0.2802622 -1.0083386
1.0191537 0.042953104 0.23804674 -0.8417929 -0.2317256 0.09800347 -0.6502955 -0.14916164

pred_trans.bias f4 [3]
00000000: f4be bc3c 91bb ac3c d170 023d
0.023040272 0.021085532 0.03184587

gcn_convs.0.path_weight_1.weight f4 [32, 32]
00000000: a706 1bbd 3215 3739 4d44 a639 35ac aa3c
00000010: f450 23bd 1ce8 1c3a 4389 643c af6d 893b
00000020: 10eb 273d bcb4 34bd 49a4 43bc 0da5 fabc
00000030: afb1 10bb 01b1 babc 290b 5ebd 1375 573d
00000040: 178c e63b bf2a aabd a200 45bd e3c7 173d
00000050: 84fc 763c 6ea6 72bb f45d 683c d878 d7bb
00000060: 68a6 373d 15fd 91bd 3615 6cbc 3880 19bd
00000070: 7d0e 4f3c 77ad 753d 56b0 7bbd d034 01bc
00000080: ba1d 67bc 6cf5 68bc 0556 58bc aaac a33c
00000090: 6a9b fcbc 8ccf 14bc acb3 b83c bacf 4a3b
000000a0: ca9f 653b a041 e73c f342 54bc b9ee c53c
000000b0: 1725 dbbc e46f 56bc 8701 e93b 0266 8d3a
000000c0: 0918 6abb 727c 033c 5b13 1fbd 5f35 febc
000000d0: 6de4 24bd 25ac 4a3c 6ecf ca3b 9686 523b
000000e0: e463 00bd 45c7 973c 61d6 333d 8f0e b7bc
000000f0: d5b9 833d 90c6 90bb 55a3 fbbc 77b7 c73b
00000100: 0256 003d de69 62bb d716 923c bb53 bfbc
00000110: 2ceb 703d 6f9e dc3c e837 f93b b4c3 c1b9
00000120: d646 ba3a f61c 32bb 86cd 5cbb 68ac 07bc
00000130: 6031 16bc 922d e93c c8be a1bb 642a 76bc
00000140: d161 3d3c 797d 01bd 7910 733c 9be1 a7bc
00000150: afb4 983c d869 b93c 18a6 ee3b d274 c4bc
00000160: d3bc df3c d379 b53c 15fe 453c 9e11 02bc
00000170: 88b8 a3bb ba85 b73c 1fbc 45bc b2de 07bc
00000180: 5020 5c3b 67dd 6fbd 899f 77bd 6234 bfbc
00000190: 7f85 bebb 81f0 05bc 58b4 5c3b ce7e fbbc
000001a0: af8d 7e3a 1f50 afbc 261b 8c3a 00bf b0bc
000001b0: e9ee 2dbb 5b0b 87bc e1b2 23bc 13fa 0d3d
000001c0: 676e 0cba 0148 d83c 2b46 24bb ed9b 01bc
000001d0: a4c5 28bb d93a 2f3c b606 bfbc d928 34bd
000001e0: db9c ffbc a7f2 893b db93 8e3b b6cb 85bc
000001f0: 827c 873c c616 873c 137e 88bc 60b9 f3bc
00000200: 4fa6 d03c c751 963b 23f5 64bd 5893 20bc
00000210: bc44 aebc 4b28 7bbc eedf b43c 2e6a 32bd
00000220: 7154 c2ba 6624 b739 b6c2 a5bc 5187 623c
00000230: bb52 503d 57b5 6e3b 3323 91bd ff48 8ebb
00000240: 4079 e33c 3813 83bc 4d1c 55bc a293 2f3b
00000250: 1f29 763b f888 41bc e780 d1bc 565e 64bd
00000260: 25e0 53bc a064 663b 5961 b6ba e535 f7bc
00000270: 0000 97b9 7daf 56bd c0f8 f33b e6fe 9f3c
00000280: 3265 8bbc f1af 5cbc 763c afbb 0af1 dd3c
00000290: c10d 29bb 1ecf 05bd d223 583c f771 dbbc
000002a0: b9b0 e2bb ff68 923a 56e9 02bd 22b7 8f3b
000002b0: 1b43 783c a5cf 2cbc 9e9f 643c 0593 fc3b
000002c0: 5954 ad3c 05a8 f03c 9e2b bbbc 9f36 c93c
000002d0: bc6f e5bb 20ec a33c c1d4 a9bc 86a4 e7bc
000002e0: 2ba7 8e3c a17f a9bc c993 d537 1efe 65bc
000002f0: 1cd1 3e3c e3d0 59bc c83d bc3c a4a1 3cbd
00000300: 41c8 2fbc bb19 1e3c 4ba0 7fbc 4ef8 c3bc
00000310: 6877 913c 96de 2c3c 94ab a63c fbe2 a4b8
00000320: 9c13 f13b 2725 c03c 563d 3dbc 4357 c33b
00000330: 142f 123d 4811 97bc aa1f 38bc ec62 99bc
00000340: 741f 5fbc 2b9b 833c aa30 b0b9 4f70 443c
00000350: 3dd3 fbb6 0d9b 503c e4ee 30ba 86e5 0d3c
00000360: b0cd da3b 940d e33b f55c 2db9 0395 5fbb
00000370: 6539 bcbc 4d60 f1bc b2b4 02bc d162 10bc
00000380: 3be7 423c 5284 b9bc 7640 373c dd3c 14bc
00000390: 24b1 633d d04a 993c a5b0 1e3c 39ef 6f3c
000003a0: e972 ff3c f689 6ebc 9e79 77bd 8eb6 8c3c
000003b0: 4347 9fbc 2733 033c 6685 4bbd 80b3 213d
000003c0: eb0d 82bd 5e5e 2dbd c410 5a3d 71ba 01bd
000003d0: a3a9 663c 8b7f 06bd 5220 8a3b 45ab 85bd
000003e0: d317 3abd b501 29bc 4fb5 2e3d 4769 8abb
000003f0: e014 163d 501f bd3c 2bfc c5bb e91b 133d
-0.03784814 0.00017460136 0.00031712875 0.020834068 -0.039872125 0.0005985515 0.013948741 0.0041939835
0.040995657 -0.044117674 -0.011941024 -0.03059628 -0.0022078564 -0.02278948 -0.054209862 0.052601885
0.007035743 -0.083089344 -0.048096307 0.03705586 0.015074853 -0.003702547 0.014182556 -0.006575685
0.04483643 -0.0712835 -0.014409354 -0.037475795 0.012637732 0.059979882 -0.061447464 -0.007886127
-0.014106208 -0.014218669 -0.013204102 0.019979794 -0.030835826 -0.009082686 0.022546612 0.0030946569
0.0035037869 0.028229535 -0.012955415 0.024161683 -0.026751084 -0.0130882 0.007110778 0.0010787847
-0.0035719892 0.008025276 -0.03883682 -0.031031309 -0.040256906 0.012370144 0.0061892783 0.0032123677
-0.031345263 0.018527636 0.04390562 -0.02234581 0.06431929 -0.0044182017 -0.030717531 0.0060948688
0.031332023 -0.0034547965 0.017833157 -0.023355355 0.058818027 0.026931016 0.0076055415 -0.0003695764
0.0014211785 -0.0027177907 -0.0033691837 -0.008280851 -0.009167045 0.028464112 -0.004936073 -0.015024755
0.011558966 -0.0316138 0.01483547 -0.02049332 0.018640844 0.022633478 0.0072829835 -0.023981486
0.027311718 0.022152817 0.012084504 -0.007938771 -0.004996363 0.022402633 -0.012068777 -0.008292841
0.0033588596 -0.058560755 -0.06045488 -0.023340408 -0.005814254 -0.008175016 0.003367683 -0.030700114
0.00097104436 -0.02140051 0.0010689243 -0.02157545 -0.0026540107 -0.016484907 -0.0099913785 0.034662317
-0.00053570274 0.026401522 -0.0025066237 -0.007910711 -0.0025752569 0.010695183 -0.02331863 -0.043984268
-0.031202724 0.0042098346 0.004351122 -0.016332489 0.016538862 0.016490351 -0.01666168 -0.02975148
0.025469927 0.0045873853 -0.055897843 -0.0098007545 -0.02127301 -0.015329431 0.022079434 -0.043558292
-0.0014826191 0.000349316 -0.020234447 0.013826207 0.050860148 0.0036424005 -0.07086792 -0.004342198
0.027767777 -0.016000375 -0.013007236 0.0026790877 0.0037561131 -0.011812441 -0.02557416 -0.05575403
-0.012931858 0.0035155192 -0.001391451 -0.030177066 -0.00028800964 -0.052413452 0.007445425 0.019530725
-0.017016027 -0.013469682 -0.0053477837 0.027092475 -0.0025795551 -0.032668225 0.013192134 -0.026787741
-0.0069180396 0.0011170207 -0.031960808 0.004385845 0.015152718 -0.010547553 0.013954071 0.007707956
0.021158384 0.029376993 -0.022847947 0.024562178 -0.007001845 0.020010054 -0.020731332 -0.028276693
0.017413696 -0.020690741 2.5460397e-05 -0.014037637 0.011646535 -0.013294431 0.022978678 -0.04605259
-0.010728897 0.009649689 -0.015602182 -0.023922112 0.017757133 0.0105511155 0.020345487 -7.862408e-05
0.007357074 0.023455216 -0.011550268 0.00596133 0.03568943 -0.018440858 -0.011238018 -0.018723927
-0.013618339 0.0160652 -0.00033605593 0.011989667 -7.5049743e-06 0.0127322795 -0.00067494647 0.00866068
0.006677352 0.006929109 -0.00016533195 -0.0034115918 -0.022976587 -0.029464865 -0.007977651 -0.008812622
0.01189595 -0.022646103 0.011184802 -0.009047714 0.055588856 0.018712431 0.00968567 0.0146444375
0.031182723 -0.01455926 -0.060418718 0.017176893 -0.01944316 0.008007801 -0.049687766 0.039477825
-0.06350311 -0.042326324 0.053238645 -0.031671945 0.0140785305 -0.03283648 0.0042152787 -0.06526808
-0.045432877 -0.010315348 0.042653378 -0.004223976 0.036641 0.02308622 -0.0060420237 0.03591529

gcn_convs.0.path_weight_1.bias f4 [32]
00000000: 2584 7fbf 817e bbbe 4e2d 89bf 1744 923f
00000010: 18fb 963f 2c2e 76bf 1713 84bf 0a3a 27bf
00000020: 464f 5fbf e0c9 853f c522 b3be b761 833f
00000030: c28c 32bf 2fe4 b5be e019 b33f 2e11 c63f
00000040: 57b6 9cbb 9d5b 89bf b557 6abf f1a4 8f3f
00000050: 6e52 8bbf 3e18 4e3f e6e0 8c3f 4080 9f3f
00000060: afdb 4cbf 4e59 c4be d2c3 94bf 9219 d9be
00000070: f855 bd3f 186f f23c c1c6 75bf 60bc 80bf
-0.9981101 -0.36619952 -1.0716951 1.1427029 1.1795378 -0.961642 -1.0318326 -0.65322936
-0.87230337 1.0452232 -0.34987465 1.0264195 -0.6974603 -0.35525653 1.3992271 1.5473993
-0.004782479 -1.0731083 -0.9154008 1.1222211 -1.088453 0.8050574 1.1006134 1.2461014
-0.8002271 -0.38349384 -1.162226 -0.4240232 1.479186 0.02959399 -0.960064 -1.0057487

gcn_convs.0.path_weight_2.weight f4 [32, 32]
00000000: ecff efba b39e 12bb 1e49 ebba 4b20 ffb8
00000010: c1f1 7cbb 1b80 91ba 5892 4bbb 90a9 1d3b
00000020: d280 1ebb 2c9c 01bb 8ba1 f03a 3974 223b
00000030: 553b 703b 0c5d f3ba 9847 4c3b d3c6 443a
00000040: 5903 693b b1d7 223b bb2d 83bb 4bbb 03bb
00000050: 6509 3a3b 8228 d93a 7f19 acbb e701 54bb
00000060: 1b7e 86ba 3fdb 6abb 5e9d 003b 4f0a 2c3b
00000070: 2323 99bb 7767 373b ecca b3bb 826a 053b
00000080: badc 203b 0815 2cbb ee7b 1b3b 2984 0dbb
00000090: 09b6 83bb ef24 1abb 5b5d 223b 102a 59bb
000000a0: f885 deba 496a 2e3a 5b72 74ba e093 eb3a
000000b0: 112a 4cba a7b1 19bb 92d0 8cbb c7bc e1ba
000000c0: a523 99bb 85aa c2ba 6640 8eba b0d4 02bb
000000d0: df37 61bb f106 8e3b 3486 99bb 7a74 293b
000000e0: 9188 133b c6a7 3bbb f582 6abb 53c3 983b
000000f0: 4e52 123b a26d 18bb f842 b43b 2dc2 d7b8
00000100: bf62 b2ba 06d0 09bb 572e 1b3a f066 26ba
00000110: 1623 1d3b ebbc 2c3b 74e5 44bb 21d0 d23a
00000120: 4e17 de3a 154b 3e3b 6c22 493b 1b25 953b
00000130: 8d2f 213b 8c2a 0aba 54cf e33a 4a84 ab3b
00000140: 6c1d 943a e094 b2bb 506e 7239 2452 ddba
00000150: 7624 10bb 4f03 143b 850b 89bb 3010 c0ba
00000160: 9a70 b4ba 282a 843b 55ac 993b 8e99 5dbb
00000170: a902 3838 dab2 94bb df78 7ebb c2e6 633b
00000180: 84cb b4ba d836 29bb f8ac c5b8 6890 31ba
00000190: ab00 593a 50d7 253b 5346 50bb e9e5 1b3b
000001a0: f2b4 afbb 286a 53bb bc5f 873b e07c 18bb
000001b0: 2a83 82bb 738b 8cba 9425 a7ba f616 25bb
000001c0: 67b9 30bb 853a 6d3b d21a 4dbb 9464 483b
000001d0: 07b3 c53a 47b4 383b 6367 033b 344d 353b
000001e0: 373a 4dbb a739 b2ba 3e61 823b 68b0 d63a
000001f0: a298 2839 cf32 513b 4f12 be37 afb3 833a
00000200: 3c34 de3a 8318 1e3b 63ec 78bb bff7 ae3a
00000210: 6556 ff3a c206 d6ba 9f1d 85bb c004 4fbb
00000220: bad3 483b 9201 59bb cd9d 203b 3308 263b
00000230: 1d08 bdba 440b 063b e689 843b a054 22bb
00000240: e7ee 0cba 4f8d e5ba 3fba ed3a 83c1 db3a
00000250: 248c 4f3b 5476 7dbb 2b44 4bba 5d1a 83bb
00000260: aa57 49bb fc33 293b 77db 3dbb 53bf 3b3b
00000270: 4f3c e73a e47f 05bb eae6 feb9 b7d5 8d3a
00000280: 0418 83bb bb4c b3bb fa05 83bb e6e9 cb3a
00000290: ab68 7fbb 334e 72bb c6da 303b de8b 463b
000002a0: 1319 443b dbf5 b23b ef29 813b 1e8d 1f3b
000002b0: 4ea4 09bb 9184 343b 0d15 b33b 0170 803a
000002c0: 40aa 543b b9bd 063b 0e8b ba3a 8023 85b8
000002d0: 0a7d d038 3f6f 16bb 188f 84bb 18ad dbba
000002e0: 61b1 303b 5c4b 6039 5238 98bb a616 41bb
000002f0: ccda ac39 0d28 553b c75e f83a ad25 b43b
00000300: a250 27bb 6ac9 0b3a 0072 843a 8ab3 973b
00000310: 5193 f83a 4f19 5bbb 3444 2bbb 6d84 faba
00000320: 2652 493b 6fe1 1b3b 5cc4 70ba 2986 4cbb
00000330: 07e0 be3a 9f19 193b 0a88 d63a ef8f e13a
00000340: 42b2 e53a f6a5 a3bb 5eb1 473b be65 143b
00000350: 3346 dd3a bbfb 7b3b bab1 3abb 78ba 663b
00000360: f41b 493b e644 0fbb d0c1 04bb 9f21 fdba
00000370: 99df 4f3b f9a1 5dbb c5ac 99bb 464a 903b
00000380: 12f8 233b 7d4b d43a b7da 4bbb 5257 f03a
00000390: 0b0b b43b 3079 98ba 9fc2 29ba d0bb 1c3a
000003a0: 6d66 553b 1994 3839 398a 313b 704e 51bb
000003b0: 58ef 4fbb 2399 6a3a d593 35bb 2597 333a
000003c0: 80f2 4abb 3950 563b 9650 b1ba bb60 ad3a
000003d0: d269 80ba 0d61 db3a 4be1 20bb 89c7 51bb
000003e0: fd2e 243b a934 11b9 04fc ccba 0caf 33bb
000003f0: c43c ef3a b69f 89ba a22c 5b3b 455c 603b
-0.0018310524 -0.0022372424 -0.0017950868 -0.000121653626 -0.0038596245 -0.00111008 -0.003106257 0.0024057366
-0.002418567 -0.0019776924 0.001835869 0.0024788512 0.0036656458 -0.0018567159 0.0031170603 0.0007506434
0.0035554974 0.00248478 -0.004003254 -0.002010065 0.0028386947 0.0016567858 -0.005252063 -0.0032349767
-0.0010260971 -0.0035836247 0.0019625048 0.0026251262 -0.004673378 0.0027985254 -0.0054868367 0.0020357673
0.0024545626 -0.0026257653 0.002372499 -0.0021593666 -0.004019503 -0.002352055 0.0024774882 -0.0033136643
-0.0016977182 0.0006653411 -0.00093249016 0.0017973147 -0.0007788251 -0.0023451836 -0.0042973245 -0.0017222398
-0.0046734386 -0.0014851844 -0.0010852932 -0.0019963197 -0.0034365577 0.0043343236 -0.0046851877 0.002585678
0.002251182 -0.0028633936 -0.0035783623 0.0046619563 0.002232689 -0.0023258706 0.0055011474 -0.00010288167
-0.0013609751 -0.0021028533 0.0005919686 -0.00063477363 0.0023977212 0.002635772 -0.0030043991 0.0016083756
0.0016944201 0.0029036452 0.0030690683 0.0045515425 0.0024594993 -0.0005270622 0.0017380514 0.005234276
0.0011300272 -0.005449876 0.00023120013 -0.0016885442 -0.0021994389 0.002258498 -0.0041822814 -0.0014653262
-0.0013766468 0.0040333457 0.004689733 -0.003381345 4.3871496e-05 -0.0045379223 -0.003882937 0.0034774994
-0.0013793563 -0.0025820043 -9.42591e-05 -0.00067735324 0.00082779926 0.0025305338 -0.0031780198 0.002378816
-0.0053621465 -0.003225932 0.0041312855 -0.002326779 -0.003982921 -0.0010722711 -0.0012752288 -0.0025190688
-0.0026965977 0.003619821 -0.0031296504 0.0030577527 0.0015083262 0.0028183626 0.0020050637 0.0027664425
-0.0031315216 -0.0013597504 0.0039788773 0.0016379477 0.00016078589 0.0031921153 2.265829e-05 0.0010048057
0.0016952823 0.0024123497 -0.0037982694 0.001334898 0.0019480704 -0.0016328918 -0.004062369 -0.0031588525
0.0030643777 -0.0033112508 0.002450812 0.0025334477 -0.0014421974 0.0020453492 0.004044759 -0.0024769679
-0.00053761754 -0.0017513427 0.0018137171 0.0016766045 0.0031669224 -0.0038675265 -0.0007753993 -0.0040009455
-0.0030722418 0.0025818339 -0.0028969923 0.0028647974 0.0017641875 -0.0020370418 -0.000486187 0.0010821138
-0.0040006656 -0.0054717935 -0.003998515 0.0015557378 -0.00389723 -0.003697288 0.0026985868 0.003029577
0.0029922172 0.005461437 0.0039417665 0.0024345587 -0.0021002474 0.0027544836 0.005465156 0.0009799005
0.003245011 0.002055986 0.0014232115 -6.3485466e-05 9.941503e-05 -0.0022954491 -0.0040453784 -0.001675996
0.0026961195 0.00021390378 -0.004645386 -0.0029462962 0.00032969413 0.0032525093 0.0018949144 0.0054976554
-0.0025530239 0.0005332442 0.0010104775 0.004629557 0.0018964802 -0.0033431833 -0.0026133182 -0.0019112952
0.003071913 0.0023785492 -0.0009184533 -0.0031207895 0.0014562615 0.0023361219 0.0016367447 0.0017209033
0.0017524438 -0.0049941493 0.003047071 0.002264365 0.0016881883 0.0038449604 -0.002848728 0.003520636
0.0030686827 -0.0021861135 -0.0020257123 -0.0019312388 0.0031718968 -0.0033818467 -0.004689785 0.0044033853
0.0025019688 0.0016196814 -0.0031105706 0.001833657 0.0054944805 -0.0011632796 -0.0006475839 0.0005978914
0.0032562271 0.00017602778 0.0027090444 -0.0031937622 -0.0031728353 0.0008949211 -0.0027706523 0.00068508304
-0.0030967295 0.0032701625 -0.0013528045 0.001322768 -0.0009797162 0.0016737297 -0.0024548348 -0.0032009801
0.0025052421 -0.00013847895 -0.0015639071 -0.0027417568 0.0018252362 -0.0010499868 0.0033443351 0.0034234684

gcn_convs.0.path_weight_2.bias f4 [32]
00000000: 4362 62bf 1ed9 c9bd 937d 153c b308 e5be
00000010: 85e5 a0bd 94f1 7dbf 3a3b 62bf a0a1 6a3f
00000020: 671c 70bf 9e9b 843f 975f 9cbc e9ce 85bf
00000030: 8f59 53bf 11d1 6ebe 9e3e 953f 089d c03f
00000040: 0d50 9d3f 407a 8ebf 09b5 93bf 9a39 043d
00000050: 230d 873f 581d 4e3f 2d98 70bf f72e b03d
00000060: 3553 53bf d87f d7be 1470 553e 6559 8fbf
00000070: b431 bf3f 20b6 80bf e22d 80bf 94e7 7fbf
-0.88431185 -0.09855865 0.0091241775 -0.447332 -0.078562774 -0.99196744 -0.8837162 0.9165287
-0.9379334 1.0359991 -0.01908855 -1.0453769 -0.8255853 -0.2332194 1.1659734 1.5047922
1.2290055 -1.1131058 -1.1539623 0.032281496 1.0550884 0.80513525 -0.939822 0.08602708
-0.8254884 -0.42089725 0.20843536 -1.1199156 1.4937043 -1.005558 -1.0014002 -0.99962735

gcn_convs.1.path_weight_1.weight f4 [32, 32]
00000000: 30ab a33c 7bc3 763c ece2 753b 702e adbc
00000010: d532 77bc b142 b43b 512c 90bc 7282 aa3c
00000020: 9d1f 26bc 48f6 54bc 80be acbc 3a1f a13c
00000030: d2ff fabb d08b c4bb 2b34 babc 2998 8abb
00000040: 626b f9ba 9489 133c 481e e53c 2f47 473c
00000050: 6df9 cbbb 0e3a 743c dd64 3abc 1c6f adbb
00000060: 53e2 d33a c1d8 583c d250 3abb 6ea6 cdbc
00000070: 2536 9dbc 6d81 b4bc 898e e63b 6589 c83c
00000080: 94e6 afbc aa14 3ebc 84a2 5bbb e05d 8b3c
00000090: 1926 93bb 2f95 e8bc 14a1 8c3c 762d a0bc
000000a0: 611d 15bc 57a5 67bc c5f9 bf3c a2c2 153c
000000b0: f1a6 47bc 6e6a aebc b09a 193c 7cc6 2abc
000000c0: f197 85bb 3921 e13c 487b 683c 3dd4 17bc
000000d0: 4c33 003b 5af1 f8bb 083e 7cbd 719e 153c
000000e0: ace7 443c 7f9f 2b3c a61d 47bc ade0 79bc
000000f0: 0381 043c ff30 243c e983 1abc 4635 ad3c
00000100: d754 3d3c f6a7 a5bc fc0b 813c 674b 19bc
00000110: e906 8a3b 3eee 0e3c 32ca 0bbb c509 093c
00000120: e393 e9ba 1faf 50bc d47d fe3b 548d 513a
00000130: 7258 683c a600 af3c 24e3 6b3b 4939 553b
00000140: d10b 8c3b ad3f 32bc c6c7 053c ae60 103b
00000150: d65c 543c 8e6e e43b 8f78 82bc 8833 6d3c
00000160: b8c8 90bb 3f03 e43b 30f2 10bc 5e8d 0139
00000170: ebc1 dbba 19b4 a6bb 4b20 8a3c b72f b1bb
00000180: f093 69bc 6f68 993b 330a fd3b 7044 e4bb
00000190: 4b68 3a3c 0b98 a3bb 61b8 ef3b 431e b1bb
000001a0: d1a7 0837 a1bf f3bb 2152 eabb 5f8d 8dbb
000001b0: d461 933b 0328 c5bb fc70 7e3b 6352 a73b
000001c0: f0e3 a33c 4ec2 303b 6f7b 8abc 9bc3 8abc
000001d0: e0d3 7d3a 5d2e 373c a5b8 14bc 4b66 0b3c
000001e0: 7811 b0bc 2d43 33bb 5053 23bc e875 903b
000001f0: 614d b6bb 6a87 223c 94c1 cd3c ea3a 3ebc
00000200: d521 3a3c 7909 70bb 6ea4 3d3c c5cc a33b
00000210: 8ef6 393c 840e c33c 3015 cc3c a083 8abc
00000220: a63f 533c ab89 ac3a 6645 27b8 6d69 973c
00000230: 8145 72bc 903c 88bc b71a ce3a 846c f7bb
00000240: 4bbc b63b 0bb8 c73b 39c5 3c3c 822e a3bc
00000250: 3281 b7bc c165 a33a b3cb babc 8217 d1bc
00000260: bf2c 0f39 1435 94bb 3ce5 b6bc f4af ccba
00000270: 86d7 8dbc 0a4b 04bc 0b83 c53c 9470 ccbb
00000280: 8e7f 5f3b 3d5c 47bc 25d3 4b3c 2fed 2bbc
00000290: 54c6 01bb d4cb 59bc 79a1 86bc 0feb 1dbc
000002a0: f13f ae3b 214d 283c 5b40 8c3c 3cbe 53bb
000002b0: 8b18 8b3a 0ce3 943c f762 b13b 9e64 8dbc
000002c0: 1896 463c 71b9 913b d518 423b d5a2 b93a
000002d0: 4cd5 813c 7352 f33b ccd5 0b3c 5026 703c
000002e0: eca9 f63b 9c41 07bc 9c73 013c 4bf8 34bc
000002f0: f9df 9e3b 4e34 503b f23f 4038 5b64 17bb
00000300: d6b7 37bc 1170 dcbb f5c3 073c 604e a5bb
00000310: 5ce9 0fbc 2c77 86bc ed44 723c 0228 6abc
00000320: c620 a23c 1a48 05bb d131 d93b 03de 5d3b
00000330: b788 93bc 7e0c 8d38 a1f8 63bb 7d1d 02bb
00000340: 75df 5bbb 2a80 a9bb 40ff 73bc daf8 983b
00000350: 7692 21bc bc50 833c 9c5e a7bb 8669 483b
00000360: 3386 133c 6cdb b03c 0452 83bc 1ac2 8fbc
00000370: 74ad ec3b 1d21 2abc c1fc 6639 3d7a aabb
00000380: 1400 433b 422f 033b 6762 dd3b 3872 323c
00000390: 8bf1 02bc 8b06 273c 9a5a adbb 3c67 58ba
000003a0: c5c4 4cbc 2de0 d73b c79a 043c 3f00 2b3b
000003b0: f806 c13b d310 093c 77c6 c4bb a106 2abc
000003c0: fea2 ad3a 17a2 01bb 47fb 76b8 2327 9c3a
000003d0: 66eb 14bc af59 92bb 7d2c 423b 41ca 793a
000003e0: 6020 a8bb 5c54 673c 8cd7 41bc 03e4 283c
000003f0: 2858 723b 267c c63b 8118 d3bb 83ee e0bb
0.01997909 0.015061255 0.003751929 -0.021140307 -0.015087803 0.0055011143 -0.017599257 0.020814154
-0.010139373 -0.012998171 -0.021086931 0.01966821 -0.0076598907 -0.0059981123 -0.022729954 -0.0042295647
-0.0019029195 0.009004969 0.02796854 0.012162968 -0.006224802 0.014906419 -0.011376587 -0.0052927863
0.0016165472 0.013235272 -0.002842952 -0.025103774 -0.019190857 -0.022034371 0.0070360345 0.024479577
-0.021472253 -0.011601606 -0.0033513615 0.017012537 -0.0044906256 -0.028391449 0.017166652 -0.019552927
-0.009101243 -0.014138541 0.02343453 0.009140642 -0.012185798 -0.021290984 0.009375259 -0.010423299
-0.0040769507 0.027481662 0.014189549 -0.00926691 0.0019561825 -0.0075971307 -0.061582595 0.009132014
0.0120181255 0.010475039 -0.012153065 -0.015251321 0.008087399 0.010021447 -0.009430864 0.021143567
0.011555872 -0.020221692 0.015752785 -0.009356356 0.0042122495 0.008723794 -0.0021330235 0.008364146
-0.0017820563 -0.012737065 0.0077664647 0.0007993777 0.014181243 0.021362614 0.003599354 0.0032535365
0.0042738696 -0.010879439 0.0081653055 0.0022030282 0.012961587 0.006971187 -0.015926627 0.014477618
-0.004418459 0.006958395 -0.0088468045 0.00012355062 -0.0016766166 -0.0050873873 0.016861102 -0.0054072994
-0.014256462 0.004681639 0.007722163 -0.006966166 0.011377404 -0.00499249 0.007315681 -0.005405219
8.1453045e-06 -0.0074386154 -0.007150904 -0.0043198313 0.004497746 -0.0060167327 0.0038824668 0.005106257
0.02000615 0.0026971283 -0.01690456 -0.016938975 0.0009682756 0.011180487 -0.009077226 0.008508275
-0.021492705 -0.0027353272 -0.009968594 0.004408587 -0.0055634235 0.009919981 0.02511672 -0.011610726
0.011360605 -0.003662674 0.011574848 0.0049987757 0.011350287 0.023810633 0.024912447 -0.016908467
0.012893593 0.0013163587 -3.9880535e-05 0.018482888 -0.014787079 -0.016630441 0.0015724514 -0.007550778
0.0055766455 0.0060949377 0.011521631 -0.019919638 -0.022400472 0.0012466238 -0.02280221 -0.025523905
0.00013654212 -0.004522929 -0.022326104 -0.0015616403 -0.017314684 -0.008074531 0.024110338 -0.0062390063
0.0034103128 -0.012167987 0.0124404775 -0.010493561 -0.001980205 -0.013293225 -0.016434418 -0.009638562
0.005317681 0.010272295 0.01712053 -0.0032309433 0.0010612173 0.01817467 0.005413409 -0.017259892
0.012120746 0.004447155 0.0029616852 0.0014162908 0.015848778 0.0074256 0.00853486 0.014657572
0.0075275805 -0.008255389 0.007901099 -0.011045526 0.004848477 0.0031769457 4.583592e-05 -0.0023100588
-0.0112132635 -0.0067272265 0.008286466 -0.0050447434 -0.008783665 -0.016414247 0.014786941 -0.014291765
0.019791018 -0.0020337165 0.006628253 0.0033854253 -0.018009527 6.725731e-05 -0.0034785646 -0.0019854002
-0.0033549939 -0.005172749 -0.014892399 0.0046683373 -0.009861579 0.016029708 -0.005107714 0.0030580475
0.009004164 0.021589004 -0.016030319 -0.01754861 0.0072228257 -0.010383871 0.00022028667 -0.00520256
0.0029754685 0.0020017182 0.0067561152 0.01089149 -0.007992159 0.010194431 -0.0052903416 -0.0008255129
-0.012498085 0.006588003 0.008093542 0.0026092676 0.0058907233 0.008365828 -0.006005104 -0.010377557
0.0013247428 -0.001978045 -5.888499e-05 0.0011913519 -0.0090893265 -0.0044662575 0.0029628568 0.00095287344
-0.0051308125 0.014119234 -0.011831176 0.0103082685 0.0036978815 0.00605728 -0.00644213 -0.0068643703

gcn_convs.1.path_weight_1.bias f4 [32]
00000000: ebea 963f 5b16 943f 5e55 35bf b2d7 ceb8
00000010: a212 a43f 93f7 00bd 3f63 7abf 6a53 4bbf
00000020: 61e5 873f 15fb 75bf 07a6 353e 135d 8e3e
00000030: 92ef 173d 433f 833f 5baa 033d 430c 8dbf
00000040: c24f 9b3f 882e 963f 1f00 183b c47d 53bf
00000050: 01ba 42bf 6576 96be 5cf9 50bc f85f 353c
00000060: 6834 6ebd 019b a33e ed60 5b3f 479d 13bf
00000070: 0791 29bd c415 09bf cd56 953f 3e78 99be
1.1790441 1.1569322 -0.70833385 -9.863022e-05 1.2818186 -0.031486105 -0.9780769 -0.79424155
1.0616876 -0.96086246 0.17739116 0.27805385 0.037093706 1.0253681 0.032144886 -1.1019367
1.2133715 1.173295 0.0023193432 -0.8261378 -0.7606507 -0.29387203 -0.012754764 0.011070244
-0.058155447 0.31954196 0.8569477 -0.5766186 -0.041398074 -0.53548837 1.1667114 -0.2997455

gcn_convs.1.path_weight_2.weight f4 [32, 32]
00000000: 10a9 62bc 6864 853f 55f7 90bc 8f0b 463f
00000010: 734e 7e3f 4f45 87bf 2b2e 013d 66b3 7b3f
00000020: fa72 95bd 094d 093d 09a8 803f 7352 363d
00000030: 4047 4b3c 132e 3c3d 1c04 70bf daeb 423f
00000040: f2e5 4c3f 66ce 72bc 644c 623f 3166 ef3e
00000050: 1bdb 013f 882d 853a aa63 cbbc 8358 06bd
00000060: b130 933f 6c6a 803f fbad 843f 5b85 603f
00000070: 02ed 92bf 5a0b 81bf 837d 9fbd 4da0 9abe
00000080: 241c c63d 31a7 a5bf 5b94 c73d 491b 94bf
00000090: 4c4a 84bf ef30 873f 01c1 b5be af30 9cbf
000000a0: d793 963f 993e 883f 2a97 93bf 846f 17bc
000000b0: 1f33 143f 7ba2 eb3e 85ae a73f ff58 933f
000000c0: dc71 95bf a1de 8ebe 2410 433e 4f2d 8f3d
000000d0: 7888 4abf c4b9 9abf 9f8d 55be b6a2 11bf
000000e0: fa44 d9bd e721 5cbf 43d1 8fbf 2979 7cbf
000000f0: c2cb 053f c95b 79be a653 35bd 58dd 8e3f
00000100: 3362 ef3a ac8b 1ebd 5353 483c 1c5b c53e
00000110: a360 3abd 6142 fcbc 559f e3bb 2483 933d
00000120: f7c1 823d 78de 293f c115 00bf 5429 533d
00000130: 9998 b53c ff81 a23d 40e6 fe3e 35a9 a63f
00000140: 4bf6 a73d 21cf 4e3e ec88 943e 6553 8e3d
00000150: 3eaf 1fbc 9bb5 81be 2fa2 0f3e ac27 353d
00000160: f20e d0bb c0bc 8b3c 417a 14be 7df1 4abe
00000170: 4c56 1e3f 4a86 11be c35c 25be 039f b6bd
00000180: ee38 493d c7b2 8d3f ddea d5bc 4d80 6e3f
00000190: 2b6c 883f 48dd 8fbf f781 6fbd 4e81 793f
000001a0: 4466 9fbf 1095 82bf 5b49 843f a0b3 973c
000001b0: 4276 113e 23ac 39bf 9aa2 75bf f8f3 7fbf
000001c0: b279 853f abfe 03bc f117 f3be 18c7 18ba
000001d0: 50fa 103f ae1d 923f 73c0 db3e 1b35 673f
000001e0: da32 56be 5dc9 8f3c abd7 8f3f 5380 543f
000001f0: 9004 673f cc37 133f e57a 0cbf 8998 84bf
00000200: 9f25 7dbf 16cb f1be b682 b9bc d29f 9dbe
00000210: b7b1 8dbe 008b 823f 384d 643f 1002 6dbf
00000220: 7bb0 743f cfd8 5a3f c4ba 49bf 90a7 c13b
00000230: b1e3 26bf 5836 49bf b66b 573f 8554 833f
00000240: b814 e8be 279e e2be 5697 abbf 1936 4fbe
00000250: 4c0d 133c 34ca 83bf fb24 6f3f bcc9 84be
00000260: 4de0 8cbf d097 7abf 43f1 67bf 4d72 87bf
00000270: 48ad a03f 3a9f 213f 80cf 043f cbf6 6cbf
00000280: f743 08be bac4 17bf 7c05 70bf 32c1 96be
00000290: ec0a 90be aab2 4b3f bec3 2bbe 48c9 81bd
000002a0: 699d 09bf c39e f7bd d4f2 b7bd 56e0 d0bc
000002b0: 01c2 28bf 7676 f3be 1b1b b73f 6a66 803f
000002c0: 2f14 573c 0010 e2be 75a6 97bf 333c 99bc
000002d0: 485c 653d d1b7 59bb 0a14 a73d d0c8 cabc
000002e0: bf18 74bf 93ef 7ebf d693 78bf 9ed6 c2be
000002f0: 3260 b13f 5c2d 113f 929e c9be b5b7 563d
00000300: 4554 de3b f47b a1bd 31f9 1bbc 391d fd3e
00000310: a5e6 f83d 167b 583d eff3 0fbc 69bc 243e
00000320: 9cc6 8ebe 8a01 6a3e 295a 07bd d45b 80bc
00000330: 713b 593a 2301 f9bc 53b0 a03e b2a5 433f
00000340: a3c0 99bd 4c7d a8bc 92f1 80bc 1d16 d33c
00000350: 8422 37be 361b a1bb fe9d 6abd 61a0 4f3d
00000360: e63f c13d e15b a93c cad2 e33c e318 57bd
00000370: 3a99 023e 2a0d 99be dcee 94be e2b3 f4bc
00000380: 4ce7 1ebc a079 283f ddcb 10bd c88f 7f3e
00000390: 2a37 b7be 3c77 3dbd adfd ea3e 7896 51bc
000003a0: a7c6 54bf a10c 15bf bfa8 dbbe d5e6 ccbc
000003b0: 79a6 10bf b6de 813b 86fd 1dbf 6d9f d13e
000003c0: f270 e6be 8069 7c3c 7d41 403f 3252 96bd
000003d0: 44af 673c 6b99 183f 66f5 393f 4bea 93bd
000003e0: 950e fb3e b6fa 8b3e 16a4 e5be 2926 2d3e
000003f0: 4db8 413d 71d0 f4bc a130 55bf 101c 6f3f
-0.013834253 1.0421267 -0.017696062 0.77361387 0.99338454 -1.0568026 0.03153817 0.98320615
-0.07297321 0.033520732 1.005128 0.044512223 0.012407124 0.045942377 -0.9375627 0.7614113
0.8003837 -0.014819717 0.8839781 0.46757653 0.50724953 0.0010160664 -0.024827797 -0.032799255
1.1499234 1.0032477 1.0365595 0.87703484 -1.1478579 -1.0081589 -0.07787611 -0.30200425
0.09673336 -1.2941648 0.097450934 -1.1570827 -1.0335174 1.0561808 -0.35498813 -1.2202357
1.1763867 1.0644103 -1.1530507 -0.009242896 0.57890505 0.460224 1.3100134 1.1511534
-1.1675372 -0.27904227 0.19049126 0.06991064 -0.79114485 -1.2087941 -0.20854805 -0.568889
-0.10608859 -0.8598923 -1.1235737 -0.98622376 0.52264035 -0.2435142 -0.044269226 1.1161299
0.0018263519 -0.03870742 0.012226897 0.38546073 -0.045502316 -0.03079337 -0.006946484 0.072027475
0.06384652 0.66355085 -0.50033194 0.051553085 0.02216749 0.07934951 0.49785042 1.3020388
0.082012735 0.20196201 0.29010713 0.069495 -0.009746371 -0.25333866 0.14026712 0.044227287
-0.006349438 0.017057776 -0.14499761 -0.19818683 0.6185043 -0.14211383 -0.16148667 -0.08917048
0.049126558 1.1070184 -0.026112968 0.9316452 1.065801 -1.1239405 -0.058473554 0.9746293
-1.2453084 -1.020174 1.0334886 0.018518269 0.14205268 -0.72528285 -0.95951235 -0.9998164
1.0427763 -0.008056323 -0.47479203 -0.0005828007 0.56631947 1.1415308 0.42920265 0.9031541
-0.20917836 0.017552072 1.1237692 0.8300831 0.90241337 0.57507014 -0.5487502 -1.035905
-0.9888553 -0.47225255 -0.022645336 -0.30785996 -0.27674648 1.019867 0.89180326 -0.9258127
0.9558179 0.85487074 -0.78800607 0.0059098676 -0.6519118 -0.78598547 0.8414873 1.0260168
-0.45328307 -0.44261286 -1.3405559 -0.2023548 0.008975338 -1.0296082 0.934158 -0.2593516
-1.1005951 -0.978879 -0.9060251 -1.0581757 1.2552881 0.63133585 0.5187912 -0.92564076
-0.13307177 -0.59284556 -0.9375837 -0.2944427 -0.28133333 0.79569495 -0.16773888 -0.063372195
-0.53755814 -0.12090828 -0.08981863 -0.025497597 -0.65921026 -0.47551316 1.4305147 1.0031254
0.013127371 -0.44152832 -1.1847674 -0.018705463 0.05599621 -0.0033221135 0.08158119 -0.024753958
-0.9535026 -0.9958431 -0.9710058 -0.38054365 1.3857481 0.5670984 -0.39378792 0.05242129
0.006784948 -0.0788497 -0.009519861 0.49436358 0.12153367 0.05285176 -0.008786186 0.16087498
-0.27885902 0.2285215 -0.033044968 -0.015668787 0.00082867505 -0.03039605 0.31384525 0.76424706
-0.07507446 -0.020567559 -0.01574019 0.02576738 -0.1788426 -0.004916574 -0.05727958 0.05069006
0.09436016 0.020673694 0.027810473 -0.05251397 0.12753764 -0.29892856 -0.29088485 -0.029870931
-0.0096987 0.65810585 -0.03535067 0.24957192 -0.35784274 -0.04625629 0.45896664 -0.012792222
-0.8311562 -0.58222395 -0.4290218 -0.025012413 -0.5650402 0.003963317 -0.6171497 0.40941945
-0.45008045 0.015406013 0.7509993 -0.07339896 0.014140908 0.596091 0.72640073 -0.07222422
0.49034563 0.27339715 -0.4485175 0.16909088 0.047294904 -0.029884549 -0.83277327 0.93402195

gcn_convs.1.path_weight_2.bias f4 [32]
00000000: ad5c 76bf 22f0 823f b3b2 763e 3fe2 70bf
00000010: 8068 943f 8d22 363f a91b 623c 11e4 793c
00000020: d5d0 8e3f 3714 69bf 05ef 65bf d69a 573f
00000030: 1bc2 9fbd 7493 3abd f925 603c c32a 15bf
00000040: 5ead 6a3f 1d88 cbbb e8b0 4d3d 896f 7dbf
00000050: b3ec 7f3d 55ae 5bbf 4071 623d 815d 7fbf
00000060: b42c 443f a4b4 5a3d c152 863f 0d93 ef3d
00000070: 7b1d 813f 1db9 003f 84e3 833f 079e 78bf
-0.9623516 1.0229533 0.24091606 -0.94095224 1.1594391 0.7114647 0.01380054 0.015252129
1.115748 -0.9104647 -0.8981784 0.84220636 -0.078006946 -0.04555078 0.013680928 -0.58268374
0.9167079 -0.0062112943 0.05021754 -0.98998314 0.062481593 -0.85812885 0.055283785 -0.9975205
0.7663071 0.05339493 1.0494004 0.116979696 1.0087122 0.5028246 1.0303807 -0.9711613

gcn_convs.2.path_weight_1.weight f4 [32, 32]
00000000: 08e0 443c ccb6 af39 5eaf b8bc 80e3 a8bb
00000010: f9ba 5dbc ad62 aaba d990 723c 1ec9 bfbb
00000020: d138 75bb 3bd6 9bbc a0d7 903b 9e3b 893c
00000030: 2085 63bc e70d 193b a197 27bb 1e97 983a
00000040: 5c55 23bc e83a fc3b 6c7b ddbb ac1b 3eb9
00000050: 68b0 d03b c71e ba3c ff9d 883c 7f6d e53c
00000060: 1365 d53c 2081 583c 0d5f 883c 1c22 073a
00000070: df04 1bbb a017 bd3c 80da b2bc 5459 dc3c
00000080: 6bc2 54bb d7d6 71bb 7bec cdbb dc48 68bc
00000090: f9f9 ae3b 2318 bebc 8159 813c ae03 913b
000000a0: 546a de3a 88ad 673b 4b96 77bb a1b3 59bc
000000b0: df98 bf3a e919 abbc 3054 973c 06a8 46ba
000000c0: 0844 933c ce8f 413c 0303 14bc 58dd 1bbc
000000d0: 9ccd e03b 9442 2639 f24e 8fbc 8405 a53b
000000e0: c2c4 7ebb e15f 98bb 6272 8abb 1cd3 463c
000000f0: 38d3 1fbc 1250 9a3c a1c6 203c 9ed5 0cbb
00000100: 697a d63b 8b7c 6cbc 6346 f93b d780 f6ba
00000110: 68da 613b 0c9f e7bb 9096 a2ba 5bec 3739
00000120: 8155 50ba f33a 173c b966 113c f2f0 2e3a
00000130: ec09 e2b8 b889 fdbb 4d3d c4ba 65c0 84bc
00000140: 7859 77bc 88e5 d13b ed3c 663b 5a29 44bc
00000150: 66af d7bb 8d29 aa3a eda6 4b3c 3807 1a3c
00000160: 33ab 973b f8e4 6c3c 3212 24bb f43a d2bb
00000170: 9255 033b a8be 263c 2471 c0bb aecd cd3a
00000180: 3a6b 02bc 6f3c 833c 3af9 993b 1c8f 9bbb
00000190: 5d7e 7b3b d926 033c 7eef 6e3c 776f d5bb
000001a0: fc3f 89bc 7cbd babc 766b 16bc b27a 313c
000001b0: 015d 4f3c d71e 823c 5d7e 553c 6a52 b23b
000001c0: f628 d6bb 20d8 ce3c 92fd cdbb a048 66bb
000001d0: 4f14 f8bb bb69 253c 10b4 6f3a 7f7d 033c
000001e0: 4c73 d7bb ef96 1dbc f27e 343c 8f3f 013b
000001f0: 0c11 323c 78da 11bb 7aab 24ba d76c 8abc
00000200: d63c 1dbc c913 cf3b 2382 c9bc 4d16 bfbb
00000210: f974 b4bc af73 d6bc f320 623c 8cad 373c
00000220: 6533 4c3b 3499 23bb 0ad2 a93b 9c33 debc
00000230: 18d3 9bbc d1bb 1ebc 0ac2 aebc 059d be3a
00000240: dc07 023c cba2 5bbc 42fe c53b 43cf 8a3b
00000250: 29cf c53c f29f 813c 99d7 a23b 145a 023c
00000260: 3ed4 713c ba23 5c3c 78a9 9bbc 0066 09bc
00000270: 9c68 23bc 3a61 4c3c 65a5 f73c cccd 82bc
00000280: 23a9 603c 82dc 03bc 277e f1ba 5560 c6bb
00000290: b93b 43bc 341d 303c 9f17 f83b 113e 43bc
000002a0: 2f0d adbb 9d55 093c ae70 b1ba 2fbf 243b
000002b0: 81d8 68bc 0111 2abc 3a7a 4dbc 9ef1 c6bb
000002c0: ae6c 343c 6aa9 2d3c 7460 153c 10cb 75bc
000002d0: a57a 26bc 5cd1 d73b 0acb 743c 8b7f 843b
000002e0: 2d75 523b 1840 9bbc 6a77 88bc f1a6 9c3b
000002f0: 4596 243c ba09 abbb e8c9 69ba 1147 cd3c
00000300: f353 4e3c a5a0 eebb 54c9 ca3b 7eef d6bb
00000310: a426 733c 40d3 f4bb b1a6 c03b e74b ddb9
00000320: 3cac c93b a0ba 0e3c e1a0 d33b 79ac 4fbb
00000330: 3421 a0bb 4e10 133c 067c fb3b 31e5 0cbc
00000340: 6ac2 86bb 6061 2bba a821 463c 933b 32bb
00000350: 95b2 66bc 68ee 9abb 90e7 563b 859e f43b
00000360: 4adf 063c f640 c03b 0502 6a3c 9f6d fcba
00000370: eaac a0ba fb5e 76ba 1825 27bc 8b69 293b
00000380: 2e0c 213c cc3b b0ba 31a9 3dbc fca0 07bc
00000390: 85d4 973c 93e4 9e3b 92f4 fa3b 2e3b ca3b
000003a0: b3ec 11bc 30da ed3b 601f 45bc 845d 003c
000003b0: 4376 1f3b f5bd 0bbc 738d 21bc 5ba3 293c
000003c0: ba04 dd3b e17d 46ba a977 e8bb aec1 d5bb
000003d0: 55ea 453b 4230 aebb 4949 85bb 1c36 613c
000003e0: 7ff9 30bc 5c7b 08bc 477b 063c afc8 563b
000003f0: cb54 eeba 7042 583b 557b d43a c37c 15bb
0.012016304 0.00033514795 -0.02254456 -0.0051540732 -0.013533347 -0.0012999378 0.014805042 -0.0058528325
-0.0037417898 -0.019023051 0.0044202358 0.01675206 -0.01388672 0.0023354234 -0.0025572556 0.0011641716
-0.009969082 0.007697452 -0.006759098 -0.0001813012 0.0063686855 0.022719754 0.0166769 0.028006313
0.026049173 0.01321438 0.016646886 0.0005154924 -0.0023654026 0.023082554 -0.021832705 0.026898064
-0.0032464515 -0.0036901736 -0.006284294 -0.014177527 0.0053398577 -0.023204869 0.01578975 0.0044254875
0.0016968944 0.0035351235 -0.003777879 -0.013287456 0.0014617703 -0.020886378 0.01847276 -0.0007578138
0.017976776 0.011814071 -0.009033921 -0.009513222 0.006860448 0.00015855796 -0.017493699 0.005036058
-0.00388746 -0.0046501015 -0.0042250613 0.012135293 -0.009754948 0.018837009 0.009812982 -0.002148963
0.006545354 -0.01443399 0.0076072677 -0.0018806708 0.0034462456 -0.0070685204 -0.001240449 0.00017540289
-0.00079473114 0.009230363 0.008874589 0.0006673477 -0.00010778368 -0.0077373646 -0.0014971882 -0.016205022
-0.015097015 0.006405536 0.003513153 -0.01197275 -0.0065821884 0.0012982354 0.012429935 0.009401135
0.004628563 0.014458887 -0.002503526 -0.006415719 0.0020040018 0.010177292 -0.0058728624 0.0015701556
-0.007960135 0.016020028 0.0046988996 -0.0047472846 0.003837488 0.0080048675 0.014583467 -0.006513532
-0.016754143 -0.022795431 -0.009180894 0.0108324755 0.012656451 0.015883846 0.013030616 0.0054419534
-0.0065356446 0.02524954 -0.0062863315 -0.0035138503 -0.0075707803 0.010096009 0.0009143958 0.008025526
-0.0065750238 -0.009618505 0.011016594 0.0019721722 0.010868322 -0.0022255462 -0.00062816555 -0.016897602
-0.009597024 0.0063194972 -0.024598187 -0.005831516 -0.022028433 -0.02617821 0.013801801 0.01121081
0.0031158563 -0.0024963142 0.0051825093 -0.027124219 -0.019021556 -0.009688334 -0.02133276 0.0014542645
0.007936444 -0.013405512 0.006042273 0.0042361333 0.024146633 0.015823338 0.004969549 0.007956047
0.014760075 0.013436252 -0.019001707 -0.008386135 -0.009973671 0.0124743525 0.030230233 -0.015967272
0.0137122 -0.008048179 -0.0018424437 -0.006053964 -0.011916094 0.01074915 0.007571175 -0.011916653
-0.0052811126 0.008382228 -0.001353761 0.0025138368 -0.014211775 -0.010380031 -0.012541348 -0.0060712835
0.011012239 0.0105994735 0.0091172345 -0.015002027 -0.010161077 0.006586237 0.014940986 0.0040435246
0.00321133 -0.01895146 -0.016658504 0.004780643 0.010045593 -0.0052196654 -0.0008918331 0.025058301
0.012593257 -0.007282334 0.006188551 -0.0065593114 0.014840756 -0.007471472 0.005879246 -0.00042208956
0.006154565 0.008711487 0.0064583872 -0.0031688495 -0.0048867706 0.008976055 0.007674697 -0.008599565
-0.0041125314 -0.00065376423 0.012092985 -0.0027196154 -0.014080663 -0.0047281273 0.003279183 0.007465186
0.008231947 0.005867119 0.014282708 -0.0019258744 -0.0012258564 -0.00093983085 -0.010201715 0.0025850262
0.009829564 -0.0013445555 -0.011575983 -0.008278128 0.018533954 0.0048490255 0.0076585496 0.0061716055
-0.008906531 0.007258676 -0.012031406 0.007834796 0.0024331964 -0.008529176 -0.009860384 0.010353888
0.006744948 -0.0007571858 -0.0070943427 -0.0065233326 0.0030199487 -0.0053158114 -0.004067574 0.013745811
-0.010801672 -0.008330192 0.008208103 0.0032773425 -0.0018183229 0.0032998584 0.0016211072 -0.002280996

gcn_convs.2.path_weight_1.bias f4 [32]
00000000: 377b 873f bb71 7d3f 62dc 46bc 50ea 8dbd
00000010: 1074 1f3d 31b5 84bf bb34 c8be 43ae 3dbf
00000020: f327 b13c aca3 0ebd ed03 3bbd 1d3a 813f
00000030: 326b 873f 7dc0 353d dd7c 95be 72d7 803d
00000040: 2aef 8e3d dd30 83bf 136f 15bf c107 623b
00000050: a5a1 85bf 381e 263f 0b3f 133f 6077 433d
00000060: 6731 3bbf ba2d 3fbf 3c32 373c 4536 38bf
00000070: e7d7 893f 49a1 9b3f 4632 233d 7b9e 7c3d
1.0584477 0.99001664 -0.012137504 -0.06929457 0.038929045 -1.0367795 -0.3910273 -0.7409403
0.021625495 -0.03482406 -0.04565804 1.009586 1.0579588 0.044373024 -0.29196826 0.06291093
0.06979211 -1.0249287 -0.5837261 0.0034489485 -1.0439955 0.6488986 0.5751807 0.047721267
-0.73122257 -0.7467915 0.01118141 -0.7195781 1.0769013 1.2158595 0.039842866 0.061674576
