semi-supervised/pubmed_8_layers_.pt (torch, 148745 bytes, 52 tensors)

trans_feat.weight f4 [32, 500]
0.019017741 0.0073032603 0.028467834 0.03964834 0.06644187 -0.014666885 -0.0025593787 0.022469092
-0.113974035 0.03433787 0.04976906 -0.041203886 -0.045571167 0.046394043 0.050949857 0.015526829
0.059103407 0.07507692 -0.057361703 0.06260002 -0.021341 -0.022830885 -0.03973773 0.060454268
-0.004582269 -0.0256769 -0.07422534 -0.067337945 0.053138193 0.13971174 0.06605165 -0.102111846
0.254974 0.18233047 0.0028040633 0.07848187 0.015263997 -0.028121036 0.064607844 -0.07506808
-0.070336096 -0.059096307 0.07037758 0.006714387 -0.06059918 -0.051886648 -0.109526634 -0.05623053
0.091777705 -0.06457119 -0.050780274 -0.05465088 0.10016122 -0.048487872 0.057458 -0.12741768
-0.049070474 0.073129475 0.02926322 0.027953187 -0.05415569 -0.040839005 -0.03344116 -0.051678948
0.050616935 -0.05127215 0.07453346 0.1050358 -0.123049594 -0.042449802 -0.05081909 0.07812527
-0.07867912 0.04583122 -0.027562426 0.045287665 0.07299668 0.027736865 0.035046615 0.1314212
0.0475456 0.04895794 0.04998619 -0.036261972 -0.03583822 -0.039105352 0.02315594 -0.025354616
0.04770279 -0.019947076 -0.13164355 0.0011802986 0.057392754 -0.0028972533 0.08906009 0.04276465
0.078778006 -0.038518373 0.015445795 -0.03450582 0.087819114 -0.027085587 -0.03943876 -0.06503307
0.052187055 0.029572517 -0.09923753 0.003411647 0.05064564 -0.039147675 0.07526206 -0.03504975
0.007972186 -0.0698303 -0.08843403 0.0827021 0.018046154 0.0123087205 -0.047092404 -0.04650711
-0.0532078 -0.04751295 -0.036577813 0.051041 0.023529168 -0.14877076 -0.15455732 -0.031617854
-0.060647633 -0.062049 0.036963962 0.07195732 -0.18832189 -0.03287285 0.04446305 -0.072550945
0.028702866 0.013951229 0.021839328 0.07578743 -0.077805564 -0.05803574 0.06477014 -0.033318475
0.018243862 0.046574134 0.006994609 0.031938773 -0.0006434787 -0.051488705 0.063603826 -0.018447846
0.0463086 0.00036480837 0.098720096 0.009106226 0.063648835 0.05629171 0.07523558 -0.03834053
0.007245548 -0.03963185 -0.020428829 -0.04053647 0.04566112 0.049040068 0.045999482 0.039615057
-0.01005872 -0.07968513 0.05751227 0.07984917 0.01709692 0.07279173 0.10335542 0.060150333
-0.017354596 0.1065685 0.020082045 0.05168219 -0.03093396 0.07476641 -0.023565404 -0.08041466
0.025837764 -0.065443 0.0798491 -0.019297365 0.027559731 -0.0005282499 0.03900682 -0.005535826
0.049393516 -0.011431357 0.059018373 -0.06421083 -0.0018191412 0.038602326 -0.085609026 0.013879484
0.06383456 -0.037818037 0.15419893 0.10787246 -0.01436409 -0.058182806 0.053869545 -0.07179618
0.044658795 -0.027324636 -0.0549452 0.060528666 -0.06296419 -0.017716367 -0.031626265 -0.020553598
-0.12606832 0.017102333 0.030668713 -0.037213426 -0.13371658 0.05446236 0.04425317 -0.07814737
-0.014811099 0.013698524 -0.034066796 0.09198584 0.09971383 0.02461427 0.08604486 0.12037755
-0.06822769 0.028038783 -0.043122593 0.053437226 0.10653873 0.05788736 0.047878753 0.04211367
-0.0390243 -0.046393197 -0.04278867 -0.028317519 0.019599074 0.041047774 -0.019110331 -0.0009359587
-0.040926293 -0.07740487 0.097102255 -0.04105874 0.043433666 0.042928167 -0.027411409 0.05037911
00000000: 18cb 9b3c 3050 ef3b 6035 e93c 4c66 223d
00000010: ad12 883d 604d 70bc 40bb 27bb 1a11 b83c
00000020: 386b e9bd dea5 0c3d a4da 4b3d 68c5 28bd
00000030: d5a8 3abd ae07 3e3d ccb0 503d 3e64 7e3c
00000040: 6a16 723d eec1 993d 1bf4 6abd 7034 803d
00000050: 52d3 aebc d607 bbbc 08c4 22bd e59e 773d
00000060: dc26 96bb 5d58 d2bc 7403 98bd 7ae8 89bd
00000070: 6fa7 593d 9810 0f3e 1646 873d 0420 d1bd
00000080: f48b 823e d7b4 3a3e 60c4 373b 1abb a03d
00000090: d815 7a3c 165e e6bc 1e51 843d 4bbd 99bd
000000a0: 5f0c 90bd f80e 72bd 1f22 903d 5c04 dc3b
000000b0: d936 78bd 1887 54bd 804f e0bd fc51 66bd
000000c0: f3f5 bb3d e63d 84bd fafe 4fbd 9ad9 5fbd
000000d0: 5321 cd3d 389b 46bd 1459 6b3d c879 02be
000000e0: 1ffe 48bd e8c4 953d 6cb9 ef3c 15fe e43c
000000f0: 5bd2 5dbd cd46 27bd 99f9 08bd 4ead 53bd
00000100: b453 4f3d bf02 52bd 00a5 983d 021d d73d
00000110: 6d01 fcbd d8df 2dbd ae27 50bd 2400 a03d
00000120: 8522 a1bd 84b9 3b3d 99ca e1bc 8f7f 393d
00000130: 497f 953d 6c38 e33c 0a8d 0f3d 4793 063e
00000140: 2dbf 423d 1f88 483d 52be 4c3d 6f87 14bd
00000150: 19cb 12bd ef2c 20bd 87b1 bd3c 7cb4 cfbc
00000160: 0064 433d 0d68 a3bc 91cd 06be 40b4 9a3a
00000170: aa14 6b3d d8df 3dbb 2365 b63d fc29 2f3d
00000180: 5d56 a13d 71c5 1dbd 5c10 7d3c fa55 0dbd
00000190: 82da b33d 98e2 ddbc 8a8a 21bd 0f30 85bd
000001a0: 18c2 553d 1042 f23c 0c3d cbbd f095 5f3b
000001b0: cd71 4f3d 5059 20bd ff22 9a3d 5490 0fbd
000001c0: c69d 023c 3003 8fbd e71c b5bd b85f a93d
000001d0: 87d5 933c 84aa 493c f7e3 40bd 3d7e 3ebd
000001e0: 6cf0 59bd f09c 42bd 9ed2 15bd 5e10 513d
000001f0: 3ec0 c03c 5d57 18be 4644 1ebe b981 01bd
00000200: a769 78bd 1827 7ebd 8667 173d 5c5e 933d
00000210: 74d7 40be aea5 06bd e31e 363d 9795 94bd
00000220: 4622 eb3c b293 643c 64e8 b23c 7136 9b3d
00000230: 8658 9fbd e2b6 6dbd 35a6 843d f478 08bd
00000240: 2774 953c 85c4 3e3d 0833 e53b 3bd2 023d
00000250: 20af 28ba d2e5 52bd b942 823d f01f 97bc
00000260: 16ae 3d3d c043 bf39 c32d ca3d 4832 153c
00000270: 525a 823d 2392 663d 1d15 9a3d f60a 1dbd
00000280: 106c ed3b 0255 22bd 5c5a a7bc 9209 26bd
00000290: 2807 3b3d 3dde 483d f469 3c3d 6643 223d
000002a0: 54cd 24bc f531 a3bd fc91 6b3d f687 a33d
000002b0: d70e 8c3c d513 953d 02ac d33d 3260 763d
000002c0: 3a2b 8ebc 9640 da3d 1a83 a43c b4b0 533d
000002d0: 3769 fdbc 221f 993d 3c0c c1bc 71b0 a4bd
000002e0: b8a9 d33c fb06 86bd ed87 a33d 8215 9ebc
000002f0: f2c4 e13c 407a 0aba 9ec5 1f3d e065 b5bb
00000300: db50 4a3d 964a 3bbc 40bd 713d f880 83bd
00000310: 4070 eeba 791d 1e3d c953 afbd c666 633c
00000320: b2bb 823d 16e7 1abd 53e6 1d3e 3cec dc3d
00000330: 5c57 6bbc 1851 6ebd 50a6 5c3d e009 93bd
00000340: 24ec 363d ead7 dfbc 380e 61bd e8ec 773d
00000350: 5ff3 80bd ea21 91bc 8b8a 01bd 0560 a8bc
00000360: 0e18 01be 311a 8c3c f43c fb3c 1b6d 18bd
00000370: 00ed 08be ec13 5f3d d042 353d ba0b a0bd
00000380: 40aa 72bc c66f 603c a089 0bbd 1263 bc3d
00000390: c436 cc3d dea3 c93c 4a38 b03d 8188 f63d
000003a0: f6ba 8bbd 97b1 e53c 51a1 30bd fee0 5a3d
000003b0: fa30 da3d 4c1b 6d3d 831c 443d 627f 2c3d
000003c0: f2d7 1fbd cb06 3ebd 2c43 2fbd 24fa e7bc
000003d0: 3d8e a03c b621 283d 458d 9cbc 205b 75ba
000003e0: 54a2 27bd 7286 9ebd 8cdd c63d 362d 28bd
000003f0: 80e7 313d 72d5 2f3d e48d e0bc 535a 4e3d

trans_feat.bias f4 [32]
-0.031680845 -0.030716361 0.021868933 0.02794765 0.037682142 0.0357903 0.034556564 -0.03972508
0.024091376 0.039906107 -0.021621004 -0.022790497 -0.031571105 0.039829757 -0.038878623 -0.0313353
-0.027484665 0.03591914 -0.035887532 -0.026051147 0.031024287 0.036518447 0.037769813 0.037709363
-0.022756452 -0.035638765 0.039719336 -0.037783146 -0.028095385 0.039250072 -0.022083241 0.03865125
00000000: c6c3 01bd e1a0 fbbc 7a26 b33c 78f2 e43c
00000010: 9758 1a3d da98 123d 2f8b 0d3d c4b6 22bd
00000020: 475b c53c 9674 233d 881e b1bc 23b3 babc
00000030: b450 01bd 8724 233d 313f 1fbd 7259 00bd
00000040: 8527 e1bc f31f 133d cefe 12bd 3769 d5bc
00000050: a526 fe3c 5e94 153d 85b4 1a3d 2275 1a3d
00000060: bd6b babc f4f9 11bd beb0 223d 80c2 1abd
00000070: 4b28 e6bc afc4 203d eae7 b4bc c650 1e3d

pred_trans.weight f4 [3, 500]
2.4127414 -0.18105704 -0.53849936 -0.38672855 0.29777005 -0.75054234 0.03220293 -0.35429293
2.100868 0.02729585 -0.46366578 -0.33453056 0.35200912 -0.35846058 1.2367525 0.7700507
-1.1278052 -0.66632324 0.118499994 0.027977422 -0.4974409 1.1106099 -0.033403408 0.39945865
0.9531736 2.0298576 0.03871697 0.25646326 -0.26538232 0.9516792 0.83387667 2.035873
2.1099205 1.2968959 1.4284726 0.0122733 0.28124037 -0.35279775 1.7285666 -1.2584485
1.975851 -0.28513148 0.5124749 0.29189897 -0.23420225 -0.10502506 -0.014229929 0.20515522
-0.060224794 -0.05422047 -0.32271868 -0.48495707 0.336437 0.6641818 1.0099977 -0.36166963
-0.12418519 -0.34212202 0.10357834 -0.21185762 1.262517 -0.30581978 0.631245 0.38458273
-0.11979437 0.21300952 0.7828637 0.5829846 -0.19424877 -0.09161192 -1.3716072 0.27442148
0.14430921 -0.16031617 0.8105602 -0.018256778 0.17516474 0.30504254 0.5209209 0.043542556
0.27402917 -0.047410645 0.0528107 -0.3043481 -0.10771344 -0.9971199 -0.30293596 -0.37001795
0.075421244 -2.0047026 -1.1080414 -1.0689226 1.1973572 1.7872394 0.113379076 0.14365704
-0.43882582 -0.4358466 -0.25305593 0.5710122 -0.5155086 0.03337092 -0.054065872 -0.6881465
-0.19112776 0.34947327 -0.14382222 0.27122062 -0.06510607 0.19156532 2.007425 0.21949735
-0.37749958 -0.12877202 0.11161347 -0.3914106 -0.1353545 -0.5421578 -0.33637208 1.3596919
-0.5599111 -1.075313 -0.25776398 0.020840984 0.25370473 -0.5081307 -0.6390231 -0.034462444
0.22806135 0.011761796 -0.14456509 -0.66596055 -0.137624 -0.23394218 -0.06797008 -0.26350686
-0.07273041 -0.22980472 -0.6818008 -0.22095838 -0.098347835 -0.07938372 0.52280676 -0.23476622
-0.89525145 -0.026929025 1.1807063 -0.09149678 -0.10075741 -0.48446453 -0.14353907 0.055332664
0.21361631 0.12231392 -0.27180457 -0.23623902 0.5425107 0.113746196 -0.30420673 0.9199917
-1.4122118 0.19391923 -0.6815366 -0.07414789 1.6815311 -0.06304517 -0.16827694 -0.21948417
0.37755573 1.2824094 -0.34573305 1.8446395 0.463579 0.7426903 0.01355299 0.6035035
-0.013331502 -0.37079567 0.9880032 1.6322182 0.060977224 -0.18584572 0.00014158711 1.3449246
2.2474065 1.1608254 0.03542163 1.0287242 0.067276716 0.0022910908 -0.85771394 -0.23342666
0.090406716 -0.21893826 0.057742015 -0.5301485 -0.28542283 -0.16113687 0.5360491 0.37886232
0.87113374 -0.99426854 1.1171703 -0.97194916 0.1869108 -1.0014632 -0.26915094 -0.42035586
0.10997179 0.015035793 -0.077261284 -0.40140173 -0.9099444 -0.9844135 0.07761324 -0.3338459
0.18155393 -0.5579369 -0.4472619 -1.031154 0.10144719 -0.8620485 -0.038495436 0.6885867
-0.62898064 -0.2685568 -0.43861306 -0.4119339 -0.31546336 -0.34137723 0.09325934 -0.15364511
-1.411803 -0.19100769 -0.9817474 -1.4335973 0.53970015 -0.59991455 0.38340244 -1.8854017
-0.6884416 -0.5079995 -0.0989696 -0.1725058 -0.58405 -0.15079677 -0.42307496 -1.3585596
1.3918988 -0.08200895 -0.041432843 -1.4546435 -0.09001026 0.01442194 -0.48497975 -0.014496483
00000000: 5b6a 1a40 0467 39be 18db 09bf 4901 c6be
00000010: 5175 983e 8b23 40bf 38e7 033d e265 b5be
00000020: 9f74 0640 8c9b df3c 9a65 edbe 9747 abbe
00000030: 8a3a b43e 2588 b7be e84d 9e3f 0b22 453f
00000040: ec5b 90bf 2994 2abf 20b0 f23d e830 e53c
00000050: 93b0 febe 7728 8e3f 03d2 08bd d885 cc3e
00000060: 2f03 743f 30e9 0140 af95 1e3d 274f 833e
00000070: 31e0 87be 40a1 733f f178 553f be4b 0240
00000080: f008 0740 af00 a63f 31d8 b63f f415 493c
00000090: bdfe 8f3e e8a1 b4be ac41 dd3f d714 a1bf
000000a0: b0e8 fc3f c1fc 91be 8e31 033f c873 953e
000000b0: b7d2 6fbe 6117 d7bd a624 69bc 3614 523e
000000c0: 46ae 76bd 4916 5ebd 623b a5be 4b4c f8be
000000d0: 7841 ac3e d207 2a3f 9b47 813f c32c b9be
000000e0: ce54 febd 9e2a afbe e120 d43d 34f1 58be
000000f0: 289a a13f 6994 9cbe 4699 213f 07e8 c43e
00000100: c056 f5bd 2b1f 5a3e c169 483f 7b3e 153f
00000110: 26e9 46be 089f bbbd d390 afbf f980 8c3e
00000120: cbc5 133e ec29 24be e080 4f3f 3d8f 95bc
00000130: 635e 333e 892e 9c3e 125b 053f ae59 323d
00000140: 8d4d 8c3e aa31 42bd 0850 583d 84d3 9bbe
00000150: dd98 dcbd 4043 7fbf 6c1a 9bbe fe72 bdbe
00000160: 7476 9a3d 0c4d 00c0 4dd4 8dbf 75d2 88bf
00000170: 0043 993f 43c4 e43f 4a33 e83d d51a 133e
00000180: c7ad e0be 4927 dfbe 8c90 81be db2d 123f
00000190: 5ff8 03bf f2af 083d 2d74 5dbd 5e2a 30bf
000001a0: ffb6 43be 29ee b23e 2246 13be 6edd 8a3e
000001b0: 5556 85bd b329 443e a779 0040 eac3 603e
000001c0: a047 c1be d0dc 03be 9a95 e43d f866 c8be
000001d0: 5f9a 0abe dbca 0abf f638 acbe 620a ae3f
000001e0: 5556 0fbf dba3 89bf a4f9 83be b6ba aa3c
000001f0: 96e5 813e db14 02bf 0597 23bf 7e28 0dbd
00000200: ea88 693e 8cb4 403c df08 14be 647c 2abf
00000210: 4eed 0cbe 8a8e 6fbe e633 8bbd 5fea 86be
00000220: aef3 94bd ee51 6bbe 7f8a 2ebf ea42 62be
00000230: 976a c9bd ef93 a2bd aad6 053f 8e66 70be
00000240: 332f 65bf 429a dcbc 6221 973f aa62 bbbd
00000250: e759 cebd bc0b f8be e8fb 12be 81a4 623d
00000260: 3cbe 5a3e b87f fa3d f829 8bbe a4e8 71be
00000270: fbe1 0a3f c4f3 e83d fcc0 9bbe 9384 6b3f
00000280: 5bc3 b4bf c392 463e 2f79 2ebf d9da 97bd
00000290: 693c d73f d31d 81bd ca50 2cbe 75c0 60be
000002a0: fc4e c13e fe25 a43f ec03 b1be 261d ec3f
000002b0: 3a5a ed3e f420 3e3f 5c0d 5e3c 357f 1a3f
000002c0: 5f6c 5abc eed8 bdbe c7ed 7c3f 87ec d03f
000002d0: 41c3 793d 574e 3ebe 0077 1439 7d26 ac3f
000002e0: 82d5 0f40 ed95 943f 4516 113d 3cad 833f
000002f0: 60c8 893d 2026 163b 2493 5bbf 6607 6fbe
00000300: 2827 b93d 5a31 60be e482 6c3d d0b7 07bf
00000310: f122 92be 1001 25be 843a 093f 3efa c13e
00000320: 9f02 5f3f 6288 7ebf 70ff 8e3f a9d1 78bf
00000330: 8b65 3f3e f22f 80bf 27ce 89be e238 d7be
00000340: e438 e13d b058 763c 2a3b 9ebd 8784 cdbe
00000350: 1ef2 68bf 8602 7cbf b1f3 9e3d daed aabe
00000360: 46e9 393e f4d4 0ebf 83ff e4be dbfc 83bf
00000370: 8bc3 cf3d 36af 5cbf 64ad 1dbd 3847 303f
00000380: e004 21bf 4780 89be e491 e0be 00e9 d2be
00000390: 6a84 a1be ffc8 aebe c1fe be3d 2555 1dbe
000003a0: f6b5 b4bf 8597 43be cc53 7bbf 1e80 b7bf
000003b0: ca29 0a3f 0094 19bf 534d c43e d854 f1bf
000003c0: b53d 30bf 410c 02bf 93b0 cabd 5ca5 30be
000003d0: 4d84 15bf 786a 1abe 489d d8be 48e5 adbf
000003e0: bd29 b23f 4ff4 a7bd 7cb5 29bd c231 babf
000003f0: 4d57 b8bd 004a 6c3c 444f f8be a882 6dbc

pred_trans.bias f4 [3]
-0.027411427 -0.014287952 0.028651316
00000000: ee8d e0bc 0418 6abc 2ab6 ea3c

gcn_convs.0.path_weight_1.weight f4 [32, 32]
0.019587437 -0.053764503 0.12625502 -0.20733178 0.13999961 0.0608761 -0.08069561 -0.008483202
0.07427169 -0.1217589 0.18014263 -0.14965771 0.047965724 -0.004420549 0.047803253 -0.111278154
-0.12695517 0.06992282 0.05608891 0.07687078 -0.093234174 -0.0036043755 -0.18060008 -0.1214177
-0.12898627 0.0066964757 0.111213304 -0.09062211 0.033403087 -0.0040826746 0.15259278 0.075726606
-0.066403426 -0.05109224 0.056826286 -0.06977482 -0.15997422 -0.039349828 0.026987603 -0.17745535
0.21738857 -0.10023993 -0.054910015 0.033009853 -0.21846004 0.19314112 -0.19287786 -0.032610208
-0.09891819 -0.16287918 -0.021169228 0.05356621 -0.085374475 -0.21103583 0.1802121 0.043076538
0.13270326 -0.013798892 -0.2063709 -0.0712763 -0.02801931 0.03275107 -0.115043595 -0.070183165
0.07113953 -0.036194503 -0.12165249 -0.14062703 0.031502813 0.06748142 0.005521385 0.2402881
-0.16504416 0.0756512 0.009024955 -0.31997755 0.0559397 -0.000913897 -0.04039241 0.062120542
-0.19058427 -0.047285076 0.08964093 0.13894708 0.053682115 -0.029463816 0.06255642 -0.20191374
-0.12556103 0.14430827 -0.004142157 0.18472928 0.22535117 -0.015622715 0.062931605 -0.03991968
0.06979565 -0.0041998294 0.19744061 0.18996629 0.14838792 -0.12506644 -0.064181864 0.17727461
-0.27018875 -0.056468368 -0.047759775 0.05208199 -0.0869102 0.12579447 0.073079325 -0.03199471
-0.039805863 0.00897445 -0.05104547 -0.16210894 -0.04116222 -0.17597643 -0.0840665 0.1606064
-0.08008146 0.19549395 -0.06848643 0.005377677 0.030512853 0.011890169 -0.15034871 -0.15481359
-0.19639693 0.08532147 0.0042171413 -0.08095647 0.0070364866 0.064968094 0.026994685 0.01663513
0.0026259508 0.14540374 0.26256162 0.13119482 0.0886043 0.27187836 -0.1678678 0.07140932
0.1184886 0.13949558 -0.21342988 0.15605465 -0.23715153 -0.08904002 0.1514986 0.011482206
0.1814681 0.025500342 -0.0069940444 0.011968219 -0.010178763 0.23937221 -0.037803687 -0.06493861
0.09459291 -0.1188307 0.10024239 0.24570714 -0.0770235 0.10644489 0.02380056 0.07557474
-0.032066338 -0.19189855 -0.09179782 -0.08756297 -0.055981163 0.16281517 -0.15069872 -0.069890186
-0.14398281 -0.12623118 0.20440029 0.049505156 0.09982463 -0.12662125 0.062233347 0.22454059
0.08386403 0.31511515 -0.0116069075 0.11356672 0.10449524 -0.21425721 -0.0621197 0.03678675
-0.0029690207 -0.18064722 0.06714477 -0.23714246 -0.04788693 0.09560854 -0.06260108 0.109357655
0.12835827 0.022056438 0.16420479 -0.14262582 -0.07405208 0.073621854 -0.13456461 -0.1584242
0.0817483 0.051735938 0.1582276 -0.27067205 -0.055192165 -0.066556595 -0.0028579542 -0.012870468
-0.1971248 -0.10107155 0.037678506 0.04794859 -0.031875413 -0.049493805 0.124901816 -0.10133253
0.07503415 0.044706002 0.02637764 -0.02216933 -0.11306218 0.03480406 0.12843154 -0.067601316
0.046516147 0.070402555 -0.039666913 0.09376654 0.031591497 -0.04684453 0.00747951 0.032340698
0.08384865 0.1643406 -0.06718024 -0.0030370317 0.07554532 -0.016401103 0.06571656 0.020041402
0.012660997 0.06606045 0.022750374 0.06617321 -0.105314724 -0.074873164 -0.021946466 0.010693637
00000000: d575 a03c 2b38 5cbd ff48 013e c84e 54be
00000010: 0f5c 0f3e 3859 793d bd43 a5bd 21fd 0abc
00000020: c11b 983d bb5c f9bd 4f77 383e df3f 19be
00000030: b577 443d 41da 90bb 58cd 433d cde5 e3bd
00000040: 8900 02be b233 8f3d 7cbd 653d 6d6e 9d3d
00000050: 8ff1 bebd 6337 6cbb 3aef 38be d8a9 f8bd
00000060: fa14 04be 1c6e db3b cdc3 e33d 1698 b9bd
00000070: add1 083d f5c7 85bb 4841 1c3e 8d16 9b3d
00000080: 85fe 87bd 1946 51bd aec2 683d 1ae6 8ebd
00000090: 48d0 23be 492d 21bd 1b15 dd3c dbb6 35be
000000a0: 1c9b 5e3e 984a cdbd 53e9 60bd 5735 073d
000000b0: fdb3 5fbe c9c6 453e c681 45be 4892 05bd
000000c0: 9f95 cabd cdc9 26be 176b adbc 3e68 5b3d
000000d0: d0d8 aebd c719 58be 8589 383e 0671 303d
000000e0: 5de3 073e bf14 62bc e552 53be 4ff9 91bd
000000f0: c188 e5bc fc25 063d fa9b ebbd 31bc 8fbd
00000100: 9ab1 913d b040 14bd f124 f9bd 8800 10be
00000110: 1809 013d b333 8a3d bcec b43b 150e 763e
00000120: 5601 29be 04ef 9a3d 68dd 133c 19d4 a3be
00000130: 0721 653d 9792 6fba 8372 25bd 1c72 7e3d
00000140: 8628 43be ffad 41bd aa95 b73d 2548 0e3e
00000150: c7e1 5b3d 1a5e f1bc 951d 803d 7ac2 4ebe
00000160: 1293 00be 8cc5 133e eeba 87bb ac29 3d3e
00000170: 75c2 663e 6af6 7fbc 49e2 803d d282 23bd
00000180: 06f1 8e3d b99e 89bb df2d 4a3e 8686 423e
00000190: 01f3 173e 6b11 00be c871 83bd 7a87 353e
000001a0: 2e56 8abe 604b 67bd c19f 43bd ed53 553d
000001b0: fafd b1bd 44d0 003e 9daa 953d e30c 03bd
000001c0: 790b 23bd 9209 133c 0e15 51bd e3ff 25be
000001d0: b799 28bd 2a33 34be 0f2b acbd 0176 243e
000001e0: c001 a4bd 912f 483e 9d42 8cbd 3937 b03b
000001f0: 17f6 f93c fcce 423c 03f5 19be 7487 1ebe
00000200: 471c 49be 06bd ae3d f22f 8a3b 81cc a5bd
00000210: 5492 e63b fe0d 853d f523 dd3c 6546 883c
00000220: 2518 2c3b b8e4 143e 7a6e 863e ef57 063e
00000230: 2c76 b53d a433 8b3e 89e5 2bbe 0d3f 923d
00000240: 27aa f23d eed7 0e3e 5d8d 5abe cacc 1f3e
00000250: dad7 72be 9d5a b6bd 7322 1b3e dd1f 3c3c
00000260: c6d2 393e 18e6 d03c 4c2e e5bb 5916 443c
00000270: d4c4 26bc fd1d 753e 0ad8 1abd 89fe 84bd
00000280: edb9 c13d 835d f3bd e24b cd3d a79a 7b3e
00000290: 7fbe 9dbd c7ff d93d 64f9 c23c eec6 9a3d
000002a0: fe57 03bd 0e81 44be 7f00 bcbd 3754 b3bd
000002b0: 814c 65bd 05b9 263e c450 1abe 9622 8fbd
000002c0: 3b70 13be bf42 01be 4f4e 513e ebc5 4a3d
000002d0: db70 cc3d 00a9 01be 65e8 7e3d f8ed 653e
000002e0: e8c0 ab3d c656 a13e e62a 3ebc ab95 e83d
000002f0: 9a01 d63d 3e66 5bbe 3a71 7ebd b4ad 163d
00000300: e793 42bb 96fb 38be 3283 893d 79d5 72be
00000310: 1625 44bd 69ce c33d ff34 80bd e8f6 df3d
00000320: 5a70 033e b4af b43c 4d25 283e 810c 12be
00000330: 9ea8 97bd 0ec7 963d 4ecb 09be f439 22be
00000340: a76b a73d 10e9 533d 6a06 223e 8795 8abe
00000350: 2e11 62bd d34e 88bd 844c 3bbb a8de 52bc
00000360: 15db 49be 9afe cebd c754 1a3d be65 443d
00000370: cb8f 02bd 04ba 4abd 86cc ff3d 6e87 cfbd
00000380: 81ab 993d a41d 373d ec15 d83c 749c b5bc
00000390: 258d e7bd b48e 0e3d 8f83 033e 8f72 8abd
000003a0: b787 3e3d 372f 903d c679 22bd ac08 c03d
000003b0: 1666 013d 0de0 3fbd ad16 f53b ae77 043d
000003c0: d7b8 ab3d e748 283e cb95 89bd f008 47bb
000003d0: 81b7 9a3d 9b5b 86bc 6796 863d de2d a43c
000003e0: 1270 4f3c b44a 873d fe5e ba3c d285 873d
000003f0: 3faf d7bd 1a57 99bd 13c9 b3bc 5d34 2f3c

gcn_convs.0.path_weight_1.bias f4 [32]
-1.0615537 0.91609424 1.1848425 -0.66588956 1.2293009 1.1011939 -0.8978757 -0.5801053
-0.0154778045 -0.52463114 1.1095401 -1.1085342 -0.58378786 -0.8365026 1.245796 0.32849813
-0.61265457 -0.49482462 0.12814084 1.1157703 -0.093909465 0.9867715 0.9241961 -0.7585865
-0.8419342 1.0833304 -0.41016698 0.7802238 0.91915274 -0.20774172 -0.017818922 -0.54091674
00000000: fee0 87bf 2785 6a3f eba8 973f bd77 2abf
00000010: bb59 9d3f ecf3 8c3f 2fdb 65bf c881 14bf
00000020: 9e96 7dbc 3a4e 06bf 6905 8e3f 73e4 8dbf
00000030: 1f73 15bf 0925 56bf 3e76 9f3f e830 a83e
00000040: eed6 1cbf a759 fdbe 5a37 033e 90d1 8e3f
00000050: 9b53 c0bd 0f9d 7c3f 1e98 6c3f ba32 42bf
00000060: 0089 57bf 92aa 8a3f 6801 d2be bfbc 473f
00000070: 984d 6b3f 3fba 54be fdf8 91bc 8579 0abf

gcn_convs.0.path_weight_2.weight f4 [32, 32]
-0.031093273 0.03956467 0.039144367 -0.0012688229 -0.005235698 -0.02771907 -0.0065360456 -0.0045303707
-0.01969699 0.023652902 -0.01779251 -0.030173214 -0.0380075 -0.030705309 0.01396641 -0.002285309
-0.0065666107 -0.0032937685 -0.015088579 0.008626175 0.030454716 -0.0361201 -0.022591723 -0.0041790055
-0.015184058 0.008918725 0.010896523 -0.02377544 0.014751389 -0.025215736 -0.0041683796 0.0118846465
-0.013265318 0.009398597 0.030158013 0.014982151 0.02703415 0.0012742527 0.039493516 -0.039772846
-0.03929432 -0.00057369046 0.004483764 -0.030747944 0.013423047 0.016689481 -0.03804951 -0.029924003
-0.0027188521 -0.0143264765 0.0070009814 0.0322498 -0.027960612 0.0018421764 0.039981704 0.03965209
-0.0025920037 0.023639811 0.018721044 0.0046501053 -0.017516071 -0.020605667 -0.028978018 0.023393977
0.025992434 -0.023064725 0.036096275 -0.029632006 0.032713197 0.0045856554 -0.018871447 0.015066389
0.03683706 -0.0009899403 -0.018409599 0.0023570287 0.032047592 0.039911482 -0.021562856 0.030080503
-0.029317442 0.0134060625 0.03177048 -0.01685044 8.515818e-05 -0.030382803 0.0045013544 -0.0023415233
-0.022034042 -0.0037464157 0.027671745 -0.028520864 -0.028661314 -0.022025764 0.028173149 0.009595998
0.0277353 0.02290693 -0.029752456 0.039628044 -0.023264816 -0.030326912 0.015952477 0.01663791
-0.024250548 -0.0023860266 0.004666565 0.039322425 0.02953798 0.014308945 -0.03685491 0.039583568
-0.0035741802 0.030205462 -0.016707506 0.005558404 0.029454693 0.00431116 0.0043204334 -0.0318633
0.022834573 -0.011941853 -0.001570685 -0.036421947 -0.029404853 -0.02761186 0.0014543396 -0.022884432
0.037675973 -0.023550944 0.033844266 -0.02892383 -0.006507812 -0.029093152 -0.024509825 -0.030203117
-0.03123093 -0.0055528185 -0.030183526 -0.021228783 0.023555597 -0.0042270618 -0.029969612 0.0033679542
-0.02330981 0.03081959 0.022058135 0.029184185 -0.028855452 -0.029491536 -0.01586463 -0.0021984612
0.0257583 -0.030351702 0.03993045 0.019816704 0.014941306 0.03944774 -0.039782926 0.009473527
0.023822552 0.021819996 0.0074454155 -0.039565347 0.0012620401 0.025438415 0.039990958 0.0037330447
-0.030195354 -0.0225179 -0.021672962 0.003531785 0.034781672 -0.035923477 0.030700821 0.006290944
-0.008535247 -0.029394392 0.00537519 0.03286022 0.012359931 -0.008983046 0.029977283 0.026004579
0.030849745 -0.006986646 0.03444943 0.020978918 0.009822192 -0.03624748 0.036678612 -0.04000426
0.033012297 0.0265336 -0.0022043195 -0.00038904906 0.026720943 0.012195644 0.038897496 -0.01832525
0.039944407 0.0088199135 -0.029008538 0.004126207 -0.0028041124 -0.026356641 0.0009858562 -0.02530182
0.020928828 0.0030130057 0.039392 -0.029749574 -0.021795893 0.019271364 -0.00083232886 -0.030104635
-0.028017437 -0.0025860388 -0.0044060783 -0.02935937 0.017959917 0.0034692439 -0.032457758 0.0070821824
-0.0037789016 0.020086104 0.00014172481 0.022449978 -0.002762037 0.022664025 -0.004137014 -0.03524449
-0.008846813 0.0046665343 0.015104702 0.011713103 0.027740182 -0.024412028 -0.00015102446 -0.029675208
0.025008837 0.024635494 -0.03483114 -0.004142689 -0.0364362 -0.0013872026 0.006335562 -0.016830834
0.0020711182 0.03672484 -0.010024928 0.030202022 -0.023780197 0.025406342 -0.027183779 -0.010020655
00000000: 52b7 febc 900e 223d d855 203d a24e a6ba
00000010: 3890 abbb 1a13 e3bc 532c d6bb 8173 94bb
00000020: 955b a1bc bbc3 c13c 99c1 91bc d12d f7bc
00000030: c1ad 1bbd b389 fbbc 5fd3 643c 1fc5 15bb
00000040: b92c d7bb 44dc 57bb 1636 77bc cd54 0d3c
00000050: 2b7c f93c acf2 13bd 4712 b9bc 0af0 88bb
00000060: 8ec6 78bc d81f 123c 5487 323c b6c4 c2bc
00000070: cfaf 713c 3b91 cebc e796 88bb d2b7 423c
00000080: c756 59bc 93fc 193c f00d f73c b277 753c
00000090: b976 dd3c d304 a73a f4c3 213d dae8 22bd
000000a0: 15f3 20bd b763 16ba 8aec 923b 1de3 fbbc
000000b0: 57ec 5b3c 61b8 883c ced9 1bbd 2f23 f5bc
000000c0: c52e 32bb 99b9 6abc 7d68 e53b 5e18 043d
000000d0: a70d e5bc 2f75 f13a dbc3 233d 3b6a 223d
000000e0: 9bde 29bb 47a8 c13c e05c 993c e95f 983b
000000f0: dd7d 8fbc 37cd a8bc 4f63 edbc baa4 bf3c
00000100: 16ee d43c 3cf2 bcbc b0d9 133d d2be f2bc
00000110: 46fe 053d 4443 963b 4b98 9abc 04d9 763c
00000120: 75e2 163d e2c0 81ba bacf 96bc 6178 1a3b
00000130: 5644 033d 397a 233d 96a4 b0bc 636b f63c
00000140: 222b f0bc 1aa5 5b3c c321 023d ef09 8abc
00000150: f396 b238 5be5 f8bc 1980 933b 3e74 19bb
00000160: bc80 b4bc 6d86 75bb dbaf e23c 96a4 e9bc
00000170: 22cb eabc 606f b4bc 60cb e63c 8838 1d3c
00000180: 2435 e33c 50a7 bb3c 6cbb f3bc 0451 223d
00000190: db95 bebc 2570 f8bc c5ae 823c 3a4c 883c
000001a0: 16a9 c6bc e25e 1cbb fce9 983b 8d10 213d
000001b0: a2f9 f13c 1170 6a3c 2df5 16bd 6122 223d
000001c0: cb3c 6abb 7271 f73c 2ede 88bc 4623 b63b
000001d0: f84a f13c a244 8d3b 6c92 8d3b 1783 02bd
000001e0: 920f bb3c c3a7 43bc 71df cdba 2e2f 15bd
000001f0: 72e2 f0bc 4432 e2bc 8a9f be3a 2278 bbbc
00000200: 1f52 1a3d e9ed c0bc 49a0 0a3d abf1 ecbc
00000210: 7c3f d5bb c354 eebc d4c8 c8bc 876c f7bc
00000220: 02d8 ffbc 6bf4 b5bb 7143 f7bc fce7 adbc
00000230: abf7 c03c 2a83 8abb d582 f5bc e5b8 5c3b
00000240: 37f4 bebc 5d79 fc3c 43b3 b43c ac13 ef3c
00000250: 4562 ecbc 3c98 f1bc 8af6 81bc 0f14 10bb
00000260: 1203 d33c 22a4 f8bc 1d8e 233d a456 a23c
00000270: 61cc 743c f493 213d 6cf3 22bd da36 1b3c
00000280: 8327 c33c d9bf b23c acf8 f33b 460f 22bd
00000290: 0a6b a53a 3964 d03c 8fcd 233d 19a6 743b
000002a0: 3f5c f7bc 7677 b8bc 7f8b b1bc 8575 673b
000002b0: 3a77 0e3d 7f24 13bd 4a80 fb3c 4324 ce3b
000002c0: 6cd7 0bbc 82cc f0bc 5d22 b03b 7098 063d
000002d0: 4f81 4a3c a02d 13bc eb92 f53c 8e07 d53c
000002e0: 9bb8 fc3c 3cf0 e4bb d81a 0d3d fbdb ab3c
000002f0: 42ed 203c 3d78 14bd 503c 163d 82db 23bd
00000300: e737 073d fe5c d93c 5876 10bb 48f9 cbb9
00000310: e1e5 da3c 3dd0 473c fb52 1f3d d61e 96bc
00000320: bf9c 233d 6681 103c 50a3 edbc 2235 873b
00000330: 33c5 37bb e2e9 d7bc d837 813a c345 cfbc
00000340: ef72 ab3c d975 453b 8159 213d 61b5 f3bc
00000350: 4d8d b2bc fbde 9d3c a530 5aba ff9d f6bc
00000360: d384 e5bc 887a 29bb dd60 90bb 1083 f0bc
00000370: ad20 933c 415c 633b 6df2 04bd a711 e83b
00000380: 73a7 77bb 9d8b a43c f79b 1439 04e9 b73c
00000390: 4b03 35bb e8a9 b93c ca8f 87bb 875c 10bd
000003a0: 39f2 10bc bae9 983b b679 773c 51e8 3f3c
000003b0: 613f e33c bcfb c7bc 525c 1eb9 6c19 f3bc
000003c0: 55df cc3c 60d0 c93c 19ab 0ebd 65bf 87bb
000003d0: 203e 15bd ccd2 b5ba 8c9a cf3b d1e0 89bc
000003e0: 99bb 073b c96c 163d 983f 24bc 3b6a f73c
000003f0: b0ce c2bc f620 d03c 84b0 debc ac2d 24bc

gcn_convs.0.path_weight_2.bias f4 [32]
-0.962157 1.2714714 1.2428457 -0.2202051 1.354009 0.109919064 0.45010895 -1.0234321
0.16426787 -0.37530106 1.1363342 -1.0197765 -0.7096088 -1.0334365 1.2982321 -0.5671329
-0.7778731 0.26789385 0.87383074 1.1871818 -0.17948852 -0.69618714 1.1253004 0.5718431
-0.9386742 -0.09020295 -0.5154924 0.4621164 0.9465305 -0.15483269 0.15183501 -1.0140319
00000000: ec4f 76bf 93bf a23f 9115 9f3f 727d 61be
00000010: 2b50 ad3f 3f1d e13d ae74 e63e d3ff 82bf
00000020: d635 283e 7627 c0be 6673 913f 0988 82bf
00000030: eca8 35bf a647 84bf 782c a63f 9f2f 11bf
00000040: b122 47bf 6229 893e 5fb3 5f3f 93f5 973f
00000050: d7cb 37be 5239 32bf d809 903f 4f64 123f
00000060: f44c 70bf 53bc b8bd 4ff7 03bf 859a ec3e
00000070: d34f 723f 768c 1ebe a37a 1b3e cccb 81bf

gcn_convs.1.path_weight_1.weight f4 [32, 32]
-0.014609308 -0.048372176 -0.024191003 0.06329515 -0.026298754 0.03816899 -0.0076899794 -0.008221272
-0.03124806 0.00093358965 0.0855202 0.021611776 0.02266131 -0.036588125 0.010809447 0.00642183
0.027757932 -0.029961461 -0.019141948 0.0188527 0.045231603 -0.013006606 -0.014567438 0.0007159473
0.08410464 0.020485887 0.04174054 -0.046189714 0.021844674 -0.0021426494 0.083344825 0.021189941
-0.01487832 0.00040721623 0.045936596 -0.040648937 -0.02166941 0.07770313 0.064476475 -0.091566406
0.0026353295 0.0064304126 0.019782728 -0.08071356 -0.041650936 -0.017744763 -0.08729022 0.07358642
0.0057924143 -0.05657842 0.06510302 -0.0615939 -0.020569807 -0.04168194 -0.041501757 -0.042481393
-0.08691399 0.01860191 -0.04234989 0.0028929047 0.02587039 0.08843629 0.012276869 -0.08450004
0.08351911 0.00677678 0.030406076 0.1518949 0.049855646 0.07593785 -0.063594006 0.044437066
0.035021614 0.0008791421 -0.01909921 -0.027857844 -0.1054738 -0.0608932 0.061898544 -0.097042255
0.066074476 0.06937316 0.03887565 -0.02008106 -0.023878304 -0.07502601 0.0269785 -0.01906998
-0.07275235 -0.05097621 0.06862033 -0.0144158 0.03583876 -0.08562871 -0.007549224 0.058523387
0.015216211 -0.0074830954 0.0007086272 -0.03146578 -0.06776189 -0.059524126 0.013189569 -0.027574817
-0.02500505 -0.008093493 0.022815704 0.07648679 -0.01570695 -0.0040277313 -0.08308841 -0.08007404
0.006858068 -0.014022031 0.019229012 -0.008899117 0.0671315 -0.057373486 -0.08527949 0.005975598
-0.011905934 -0.04233713 0.007593153 0.030983027 0.0062695537 0.03764733 -0.039380673 0.030635156
-0.13372278 0.022119964 0.010615399 0.011909774 -0.01163793 -0.04940207 0.034331556 0.03814227
-0.007941719 0.011737777 -0.00040870527 -0.015199386 -0.060105275 0.012963831 -0.08491351 -0.014884244
-0.16560408 -0.13962483 0.09668625 0.012653591 0.045296058 -0.037254643 0.057804495 0.09307951
0.071924895 0.041081313 0.0019201961 -0.06645401 0.040484346 0.023461888 -0.018514138 -0.0029538295
-0.00016036272 0.00077269727 -0.027160186 -0.06769097 0.014744671 0.025010476 -0.004132928 -0.029955627
0.022746919 -0.033050183 -0.08322897 0.0062890593 -0.012679026 0.10027093 -0.005407161 -0.009024099
0.019618956 -0.0288208 -0.04035429 0.01111911 0.07006584 -0.013367041 0.03892658 -0.017901562
0.00018986965 0.06427741 0.030768476 -0.0563548 0.031583764 -0.011620545 0.07724463 -0.07386545
-0.036586564 0.015715739 -0.018259877 0.023951916 0.021713126 -0.023835385 0.023212325 -0.037902597
0.03430154 0.025046423 -0.052136566 -0.06648365 0.003989818 0.013553739 -0.035284474 0.05536509
0.02059907 -0.027214652 0.06134903 0.07593685 -0.05429191 -0.009418633 -0.06367612 0.042555377
0.044843096 -0.04653908 -0.00031796677 -0.00034841764 -0.039233524 -0.05896196 0.06461299 0.078957945
-0.1091734 0.018590363 0.07419357 0.04784319 -0.07873237 -0.08226436 0.022133656 -0.003137421
-0.015348393 0.024600074 -0.014004626 -0.0262427 0.0130798 0.037335932 -0.08478134 -0.016683623
-0.01054245 0.0057681575 -0.044162717 -0.065569684 -0.023182152 -0.08389473 -0.058251183 -0.040007412
0.039210554 0.005719222 -0.00041872598 -0.07534999 0.07100905 -0.07845507 -0.0597828 0.06601015
00000000: e15b 6fbc e721 46bd 362c c6bc e3a0 813d
00000010: 7c70 d7bc 1657 1c3d 39fc fbbb 84b2 06bc
00000020: eefb ffbc 24bc 743a 3725 af3d 2e0b b13c
00000030: 36a4 b93c 6edd 15bd 1b1a 313c 376e d23b
00000040: 9a64 e33c bd71 f5bc 93cf 9cbc fa70 9a3c
00000050: c644 393d a919 55bc 43ac 6ebc 69ae 3b3a
00000060: 0e3f ac3d 05d2 a73c 21f8 2a3d 6d31 3dbd
00000070: 9af3 b23c b16b 0cbb b1b0 aa3d 8796 ad3c
00000080: 32c4 73bc a37f d539 0328 3c3d 807f 26bd
00000090: 0c84 b1bc d222 9f3d 3e0c 843d 2b87 bbbd
000000a0: 7eb5 2c3b 36b6 d23b 630f a23c 274d a5bd
000000b0: 2c9a 2abd 775d 91bc 37c5 b2bd 7ab4 963d
000000c0: 4bce bd3b c6be 67bd bb54 853d e349 7cbd
000000d0: 0382 a8bc afba 2abd bffd 29bd f800 2ebd
000000e0: f6ff b1bd 0863 983c 1477 2dbd e396 3d3b
000000f0: 24ee d33c 161e b53d ec24 493c 5b0e adbd
00000100: 110c ab3d c00f de3b 2a16 f93c 568a 1b3e
00000110: 6f35 4c3d 4e85 9b3d 933d 82bd a403 363d
00000120: d372 0f3d 3a76 663a f275 9cbc 2236 e4bc
00000130: a602 d8bd 266b 79bd 5489 7d3d 17be c6bd
00000140: 0e52 873d 8413 8e3d 133c 1f3d 0981 a4bc
00000150: 6f9c c3bc 3da7 99bd 0402 dd3c a638 9cbc
00000160: 2fff 94bd 6ecc 50bd d188 8c3d 3f30 6cbc
00000170: aacb 123d 1b5e afbd 7b5f f7bb 38b6 6f3d
00000180: 6a4d 793c c134 f5bb 2bc3 393a 43e2 00bd
00000190: bfc6 8abd 92cf 73bd 1019 583c 95e4 e1bc
000001a0: 64d7 ccbc 929a 04bc 00e8 ba3c 1ba5 9c3d
000001b0: ddab 80bc 0ffb 83bb 422a aabd dcfd a3bd
000001c0: a5b9 e03b a9bc 65bc 2986 9d3c 9acd 11bc
000001d0: 3d7c 893d 7600 6bbd 03a7 aebd f3ce c33b
000001e0: 1b11 43bc b369 2dbd fccf f83b 1ed0 fd3c
000001f0: d470 cd3b 1634 1a3d a14d 21bd 94f6 fa3c
00000200: a0ee 08be ed34 b53c 36ec 2d3c 3621 433c
00000210: 04ad 3ebc d359 4abd 3f9f 0c3d 123b 1c3d
00000220: fc1d 02bc ce4f 403c 7e47 d6b9 d806 79bc
00000230: f330 76bd 4066 543c 22e7 adbd 0bdd 73bc
00000240: 1e94 29be d0f9 0ebe 7103 c63d 0251 4f3c
00000250: 5c88 393d 5398 18bd 68c4 6c3d 78a0 be3d
00000260: 5c4d 933d e144 283d 17af fb3a 0a19 88bd
00000270: ead2 253d 2533 c03c f6aa 97bc 0995 41bb
00000280: 0a27 28b9 d68e 4a3a 0a7f debc 90a1 8abd
00000290: a293 713c c5e2 cc3c 836d 87bb 8165 f5bc
000002a0: bf57 ba3c a15f 07bd f373 aabd 7414 ce3b
000002b0: b1bb 4fbc d85a cd3d 8e2e b1bb d1d9 13bc
000002c0: efb7 a03c 9919 ecbc 8a4a 25bd ed2c 363c
000002d0: ae7e 8f3d 6f01 5bbc 7a71 1f3d 4ca6 92bc
000002e0: bf17 4739 e0a3 833d 2c0e fc3c 4ad4 66bd
000002f0: fa5d 013d 1964 3ebc 6f32 9e3d c546 97bd
00000300: cbdb 15bd 4bbe 803c bd95 95bc cf36 c43c
00000310: badf b13c 6d42 c3bc c627 be3c c13f 1bbd
00000320: c67f 0c3d 282e cd3c 278d 55bd 9428 88bd
00000330: 05bd 823b 8010 5e3c 7486 10bd 81c6 623d
00000340: 61bf a83c 43f1 debc 1f49 7b3d c784 9b3d
00000350: 3261 5ebd 9c50 1abc a068 82bd 8c4e 2e3d
00000360: 65ad 373d c39f 3ebd c7b4 a6b9 d3ab b6b9
00000370: 55b3 20bd 1982 71bd d153 843d b4b4 a13d
00000380: 4e96 dfbd d14a 983c ccf2 973d 39f7 433d
00000390: 703e a1bd 377a a8bd a451 b53c 319d 4dbb
000003a0: d377 7bbc 1886 c93c a973 65bc eefa d6bc
000003b0: a84c 563c 90ed 183d d7a1 adbd 18ac 88bc
000003c0: 3dba 2cbc d002 bd3b f7e3 34bd 6649 86bd
000003d0: 7fe8 bdbc 00d1 abbd cb98 6ebd d0de 23bd
000003e0: 3f9b 203d 5068 bb3b 7388 dbb9 1851 9abd
000003f0: 316d 913d 0dad a0bd cfde 74bd 5430 873d

gcn_convs.1.path_weight_1.bias f4 [32]
0.049102057 -0.016308352 -0.11738524 0.02149862 0.82441854 -0.065301865 -0.14623837 -0.14217612
0.91090775 -0.016006779 -0.04652728 -0.22368789 -0.77584815 -0.1632521 0.8755198 -0.6334537
0.443381 0.032483447 0.026713949 -0.09149849 -0.57816404 -0.8432941 0.045622203 0.27826884
-0.63074726 -0.24378727 -0.28124753 0.21213421 0.24279822 0.021917047 -0.4422638 0.15439317
00000000: 3d1f 493d 1899 85bc ac67 f0bd e01d b03c
00000010: 180d 533f fcbc 85bd 83bf 15be 9e96 11be
00000020: 4031 693f a620 83bc 6493 3ebd 700e 65be
00000030: fc9d 46bf 8f2b 27be 1122 603f 062a 22bf
00000040: d602 e33e 5d0d 053d 36d7 da3c 8f63 bbbd
00000050: 8f02 14bf 1fe2 57bf 59de 3a3d 4179 8e3e
00000060: a778 21bf 5fa3 79be adff 8fbe b639 593e
00000070: 19a0 783e 618b b33c 6770 e2be 3e19 1e3e

gcn_convs.1.path_weight_2.weight f4 [32, 32]
0.88399136 0.5461801 0.85247475 -0.8495423 -1.0315688 -0.9304119 0.08499108 -0.04205972
-0.9691739 -0.81755656 0.81375736 -0.03642971 0.7356937 0.047647238 -1.0055021 -0.1943558
0.45667103 -0.012645759 0.17015973 0.9181576 0.13668829 0.73562247 0.0070342785 -0.06814189
-0.4531827 -0.40614003 -0.8918727 -0.6161901 0.869614 -0.9063896 -0.28060892 -0.57752866
-0.6755772 -0.2930913 -0.01909835 0.81711584 0.5890575 0.029896315 0.058684677 0.10205568
0.80727196 0.74339694 -0.32770717 0.05989623 -0.14414506 -0.041161258 5.297163e-05 -0.04786092
0.43868762 0.19984612 -0.7944299 -0.3086148 0.90060645 -0.25602782 -0.5475378 0.029504288
-0.023692703 -0.36804163 0.8092571 -0.19858047 0.3636404 0.17167464 -0.7084599 0.9171217
0.32916775 0.35410273 0.28533423 -0.008001801 -0.62638164 -0.3306119 -0.10308382 -0.8240274
-0.14826919 -0.6896941 1.0215619 -0.40713856 -1.0690434 -0.38822553 0.7323437 0.082431115
-0.7085304 -0.049339484 1.0281594 1.0306809 0.21802576 0.3553471 1.2250167 0.092126966
0.038175862 0.6273311 -0.1779264 0.71198887 0.2731568 -0.98320234 0.8577555 0.10543751
-0.5808684 -0.1998979 -0.15424637 0.10179609 0.43448472 -0.121902764 -0.08237255 0.25734505
0.19577624 0.62267995 0.06104604 -0.45735168 0.21641158 0.1619226 -0.044020794 -0.54888916
0.43551877 -0.13756423 -0.11442395 -0.027319346 -0.05238492 -0.45103642 -0.5536395 -0.20700787
0.14131583 0.10920533 0.034324363 0.32296962 -0.7420499 0.5830305 0.06595509 0.34220478
0.00021403786 0.68595034 0.9557228 -1.0790887 0.12558846 0.42460147 -0.14119703 -0.76003087
-0.29925522 -0.9006899 -0.3773862 -0.08603432 -1.0935656 0.14120324 -1.0321681 0.044822514
-0.8446571 0.5988859 1.2424904 1.1372427 -0.613277 1.2709334 0.7931135 0.058094487
0.9349031 0.48462364 -0.9458854 -0.4704 1.0611581 0.20637774 -0.21723217 -0.6908881
-0.44601813 -0.64356565 -0.5370332 -0.078616895 -0.82162297 0.036137562 -0.13630342 0.5458197
0.07502885 -0.6273044 -0.751894 0.024014028 0.31569496 -0.2298661 -0.21809456 -0.37897995
-0.07010695 -0.21094944 0.033271052 0.45008186 -0.14615554 -0.20787615 -0.5506784 -0.05438414
-0.39987743 -0.3887218 0.5956274 0.44179592 -0.77172244 0.75305235 0.6893939 0.24822563
-0.27375713 -0.51382244 0.51735264 0.23216611 -0.055641554 -0.020202631 -0.23631847 -0.4552297
0.16369906 0.164386 -0.065948464 0.18525986 -0.90181303 0.24734762 -0.028635051 -0.45455432
0.21878989 -0.45618263 -0.17184459 -0.43360633 -0.5582802 -0.41775027 0.20598724 -0.008815177
0.03882844 0.5558869 0.019034106 0.9912901 -0.6490123 0.6306454 0.57385826 -0.25826684
0.24124458 0.7289148 -0.25674328 -0.9382081 0.018492194 -0.24280277 -0.040215988 0.079745196
-0.024013948 0.95712197 1.1160477 0.3477323 0.25816947 0.20250084 -0.08649395 0.10089816
-0.019826377 0.86815655 0.0108393 -0.61419433 -0.37717494 0.7454681 -0.09432527 -0.11477628
0.7717107 0.9522645 -0.71721685 -1.1175977 0.83010626 -0.8452163 -0.5176391 -0.7810518
00000000: 424d 623f 76d2 0b3f c93b 5a3f 9b7b 59bf
00000010: 720a 84bf 792f 6ebf ce0f ae3d d046 2cbd
00000020: c81b 78bf 634b 51bf 6752 503f 5237 15bd
00000030: 6c56 3c3f c029 433d 4bb4 80bf 3505 47be
00000040: c9d0 e93e 2830 4fbc 5a3e 2e3e 600c 6b3f
00000050: 04f8 0b3e c151 3c3f ce7f e63b fa8d 8bbd
00000060: 9007 e8be 96f1 cfbe c551 64bf a2be 1dbf
00000070: 069f 5e3f 2609 68bf f9ab 8fbe ebd8 13bf
00000080: a1f2 2cbf 1010 96be 2574 9cbc 812e 513f
00000090: 79cc 163f 1ee9 f43c 585f 703d 9102 d13d
000000a0: 60a9 4e3f 434f 3e3f 3cc9 a7be c055 753d
000000b0: c39a 13be b598 28bd db2d 5e38 d009 44bd
000000c0: aa9b e03e 76a4 4c3e c25f 4bbf c202 9ebe
000000d0: 258e 663f 1416 83be 702b 0cbf fab2 f13c
000000e0: 3317 c2bc f46f bcbe 792b 4f3f ae58 4bbe
000000f0: 132f ba3e 7acb 2f3e a15d 35bf 7dc8 6a3f
00000100: ad88 a83e f44c b53e 5417 923e fc19 03bc
00000110: 8c5a 20bf f745 a9be 9c1d d3bd 76f3 52bf
00000120: e1d3 17be cb8f 30bf 8ac2 823f 7774 d0be
00000130: 6ad6 88bf 7fc5 c6be e07a 3b3f a5d1 a83d
00000140: 4062 35bf 3318 4abd ba9a 833f 5aed 833f
00000150: 2542 5f3e 0ef0 b53e 59cd 9c3f 10ad bc3d
00000160: 4b5e 1c3d c598 203f 5732 36be e744 363f
00000170: 35db 8b3e 26b3 7bbf dd95 5b3f 9fef d73d
00000180: cbb3 14bf 09b2 4cbe c3f2 1dbe 787a d03d
00000190: c874 de3e 28a8 f9bd f1b2 a8bd bbc2 833e
000001a0: 9179 483e f467 1f3f 6a0b 7a3d 002a eabe
000001b0: ff9a 5d3e 0acf 253e 264f 34bd 0084 0cbf
000001c0: 51fc de3e a3dd 0cbe 1b57 eabd d2cc dfbc
000001d0: 9291 56bd 3fee e6be 51bb 0dbf dff9 53be
000001e0: 19b5 103e 0ba7 df3d b497 0c3d 465c a53e
000001f0: fbf6 3dbf 7d41 153f 7613 873d 7735 af3e
00000200: 5a6f 6039 719a 2f3f 40aa 743f 941f 8abf
00000210: 439a 003e 5d65 d93e f495 10be 6291 42bf
00000220: fb37 99be 9d93 66bf c438 c1be c332 b0bd
00000230: f5f9 8bbf 9597 103e 161e 84bf d097 373d
00000240: 733b 58bf 9650 193f ed09 9f3f 2b91 913f
00000250: b9ff 1cbf f2ad a23f 7d09 4b3f 7cf4 6d3d
00000260: cf55 6f3f 9720 f83e 8c25 72bf 45d8 f0be
00000270: 07d4 873f b054 533e 1c72 5ebe 0bde 30bf
00000280: 7d5c e4be b8c0 24bf 027b 09bf e501 a1bd
00000290: e255 52bf fb04 143d 2093 0bbe d7ba 0b3f
000002a0: baa8 993d 0597 20bf 207c 40bf 11b9 c43c
000002b0: c5a2 a13e 0562 6bbe 2e54 5fbe a909 c2be
000002c0: 3c94 8fbd 2103 58be 3a47 083d 2171 e63e
000002d0: cca9 15be 7cdd 54be 42f9 0cbf e7c1 5ebd
000002e0: bcbc ccbe 8b06 c7be 0a7b 183f 1333 e23e
000002f0: 9a8f 45bf 0ac8 403f 1e7c 303f dc2e 7e3e
00000300: e529 8cbe de89 03bf 3971 043f f4bc 6d3e
00000310: 66e8 63bd fd7f a5bc 78fd 71be de13 e9be
00000320: baa0 273e ce54 283e fd0f 87bd c3b4 3d3e
00000330: 38dd 66bf b248 7d3e 0e94 eabc 58bb e8be
00000340: 750a 603e c590 e9be 07f8 2fbe a601 debe
00000350: 74eb 0ebf 5de3 d5be 52ee 523e 886d 10bc
00000360: 920a 1f3d 9b4e 0e3f 6aed 9b3c 30c5 7d3f
00000370: ac25 26bf fa71 213f 60e8 123f 8d3b 84be
00000380: d208 773e 299a 3a3f db73 83be 682e 70bf
00000390: f17c 973c 4aa1 78be 85b9 24bd 7351 a33d
000003a0: e6b8 c4bc f205 753f a7da 8e3f f809 b23e
000003b0: ca2e 843e 615c 4f3e bd23 b1bd b2a3 ce3d
000003c0: ed6a a2bc 823f 5e3f 5297 313c d73b 1dbf
000003d0: 131d c1be ffd6 3e3f 9b2d c1bd d40f ebbd
000003e0: d58e 453f 9bc7 733f 869b 37bf 710d 8fbf
000003f0: d881 543f 1860 58bf ff83 04bf 03f3 47bf

gcn_convs.1.path_weight_2.bias f4 [32]
0.82183933 -0.5566513 0.52629006 -0.20862302 0.8963039 0.12036853 0.034447968 0.6073469
0.014985385 -0.42255884 -0.13384816 -0.6617441 -0.9223819 -0.3698916 0.32720524 -0.35720882
-0.17705867 0.39365625 -0.7421023 0.051477455 -0.5811403 -0.1801793 -0.33035526 1.0524824
-0.009984866 0.005128026 -0.4542822 -0.3572158 0.712119 -0.12049258 -0.5138739 -0.79018825
00000000: 1064 523f b380 0ebf f2ba 063f 46a1 55be
00000010: 2c74 653f c783 f63d 5019 0d3d 167b 1b3f
00000020: 4385 753c a259 d8be 7e0f 09be 1068 29bf
00000030: 3821 6cbf 6f62 bdbe 7287 a73e 13e4 b6be
00000040: de4e 35be 508d c93e 6bfa 3dbf 06da 523d
00000050: 9cc5 14bf ec80 38be 5324 a9be beb7 863f
00000060: 9097 23bc 0009 a83b ad97 e8be fde4 b6be
00000070: 6e4d 363f d0c4 f6bd 3d8d 03bf c749 4abf

gcn_convs.2.path_weight_1.weight f4 [32, 32]
-0.06693135 0.0065405117 0.07748545 0.116186045 -0.051512 0.12302036 -0.016004099 0.018713333
-0.105780825 0.06473482 -0.022614615 0.016008276 0.09485566 -0.09763562 -0.06334654 0.013417158
-0.08427393 -0.027822372 -0.086197734 0.1256323 -0.05623062 -0.100744575 -0.088173956 -0.019356925
0.0021725832 0.030645955 -0.012603931 -0.010572797 0.13541761 0.02848455 0.13230212 -0.0057006152
-0.039257172 0.02615289 -0.03820915 0.007878348 -0.010946449 0.03911349 -0.028402664 -0.023789998
-0.025350563 0.0071614273 -0.028681925 -0.008424384 -0.029895855 -0.03449931 0.02354498 -0.0076843537
0.028699225 0.0055361795 -0.0019519968 0.00049080316 0.013414227 0.032208584 -0.025808223 -0.024825657
-0.008817355 0.00815424 -0.030587854 0.012007246 0.004091644 -0.011575319 0.040462855 0.006238551
-0.06224137 0.120195486 -0.031289473 -0.06442315 0.044984348 -0.0034293022 -0.028389616 0.011442949
-0.0224607 0.102967605 0.0028709187 0.06844312 -0.021532578 -0.059030924 -0.04728107 0.045861416
-0.0103304675 0.026979867 -0.10512329 -0.071499005 0.009057996 -0.028967042 -0.05426376 0.011138819
-0.15623932 0.076352276 0.08535114 0.016214062 -0.05952536 -0.011793488 0.015903004 0.056852214
-0.011690029 0.13675432 0.0034699999 -0.049252827 -0.084812656 0.08538103 -0.06733653 -0.036282007
-0.13186793 -0.12645377 -0.09579383 -0.12239841 -0.09696254 0.020592848 0.0058552437 -0.03286001
0.022913251 0.028158354 -0.12085926 0.024521112 -0.019830825 -0.0031459092 -0.02024601 -0.033602316
0.009818273 -0.054687627 0.040292855 0.11658949 -0.03281373 0.048089135 -0.07386278 0.1372775
-0.012311852 -0.0001495408 0.027799828 -0.00035969084 -0.013637301 0.069501325 0.0027599516 -0.013972303
0.050301034 -0.0314082 -0.044506308 -0.031225285 -0.028642599 0.03769032 -0.06582239 -0.011926735
-0.007095924 -0.010706395 0.010010569 -0.026579672 -0.006835279 0.05348314 -0.021982847 -0.027585631
-0.019812446 -0.03003935 0.05461241 0.024695905 -0.0052606915 0.002674034 -0.0461399 0.029181965
0.082541876 -0.0056132535 -0.035758317 -0.035530146 -0.017123597 -0.032363597 -0.013266919 0.014184838
-0.050639905 -0.043107852 -0.044574678 -0.041298725 -0.022480076 0.031546477 0.07591966 -0.042300705
-0.05230677 0.0032923936 -0.052054506 0.011086245 0.009403876 -0.021027824 0.050242357 0.05279343
-0.087461405 0.0196304 -0.0043146433 0.032558627 0.05644786 0.0685153 -0.016178522 0.07704494
-0.064013414 0.066454135 -0.08608116 0.016801288 -0.036805063 0.097164676 0.03527875 0.019857217
-0.02382306 0.095885426 -0.017714709 0.057146817 0.021927629 -0.03314819 -0.08057805 -0.0043992754
-0.053329755 -0.016335458 0.0070259906 0.037223417 -0.03812699 0.019593257 -0.04082781 -0.023880241
0.026126133 0.020793833 -0.042615738 -0.017738268 -0.013824818 -0.0617546 0.027886687 -0.016350701
0.0989579 -0.0121747255 0.06220025 0.014015449 -0.017924553 -0.089572035 0.0905465 -0.05596176
0.1127348 -0.060723376 -0.030958705 0.0086656045 -0.08584422 -0.028160412 -0.010275981 0.0035762636
0.04275281 -0.013902625 -0.055742256 -0.046511497 0.0823384 0.08338055 0.03870176 -0.012189225
0.11723676 0.1006978 0.10961512 -0.14818177 -0.14136349 -0.02952469 -0.14950857 -0.0035332516
00000000: 4e13 89bd ca51 d63b b1b0 9e3d f3f2 ed3d
00000010: 3ffe 52bd 19f2 fb3d 071b 83bc b44c 993c
00000020: 9ea3 d8bd b093 843d 4942 b9bc ca23 833c
00000030: af43 c23d 2ff5 c7bd d5bb 81bd a4d3 5b3c
00000040: cf97 acbd beeb e3bc 7088 b0bd c1a5 003e
00000050: 1452 66bd 2c53 cebd 8c94 b4bd 6a92 9ebc
00000060: e661 0e3b 3a0d fb3c b880 4ebc 8639 2dbc
00000070: eaaa 0a3e 6e58 e93c 357a 073e 3acc babb
00000080: 21cc 20bd 963e d63c 3381 1cbd 3014 013c
00000090: bc58 33bc 7835 203d b4ac e8bc 3ee3 c2bc
000000a0: fcab cfbc 68aa ea3b 5bf6 eabc 6d06 0abc
000000b0: 27e8 f4bc 264f 0dbd 67e1 c03c 08cd fbbb
000000c0: a31a eb3c d768 b53b 25da ffba 3ea9 003a
000000d0: 59c7 5b3c 26ed 033d c46b d3bc 2d5f cbbc
000000e0: ab76 10bc 5d99 053c 6193 fabc 0aba 443c
000000f0: 3313 863b 68a6 3dbc 61bc 253d c26c cc3b
00000100: cff0 7ebd 0d29 f63d 6429 00bd 49f0 83bd
00000110: 8241 383d 25be 60bb 5791 e8bc 357b 3b3c
00000120: 80ff b7bc aee0 d23d 0626 3c3b e82b 8c3d
00000130: 1765 b0bc 69ca 71bd cca9 41bd 2ed9 3b3d
00000140: 1f41 29bc e204 dd3c e14a d7bd 126e 92bd
00000150: fd67 143c 4a4c edbc ad43 5ebd 987f 363c
00000160: 33fd 1fbe 955e 9c3d 94cc ae3d 5ad3 843c
00000170: ddd0 73bd 7939 41bc 0447 823c dedd 683d
00000180: 8987 3fbc 5309 0c3e f068 633b 55bd 49bd
00000190: 42b2 adbd 40dc ae3d bce7 89bd 719c 14bd
000001a0: 6308 07be 197d 01be 8e2f c4bd 05ac fabd
000001b0: 4c94 c6bd 55b2 a83c 58dd bf3b 3898 06bd
000001c0: 92b4 bb3c 59ac e63c 0f85 f7bd 80e0 c83c
000001d0: 4174 a2bc 992b 4ebb f6da a5bc 95a2 09bd
000001e0: d2dc 203c 2200 60bd 1f0a 253d 78c6 ee3d
000001f0: b167 06bd 1df9 443d 5f45 97bd 7992 0c3e
00000200: a6b7 49bc 0ece 1cb9 77bc e33c e394 bcb9
00000210: fc6e 5fbc b656 8e3d 4ee0 343b 16ec 64bc
00000220: 7508 4e3d e2a5 00bd 3f4c 36bd 2bcc ffbc
00000230: e2a3 eabc 2a61 1a3d e4cd 86bd 5a68 43bc
00000240: ed84 e8bb e069 2fbc 5f03 243c 9dbd d9bc
00000250: 7afa dfbb 2311 5b3d 5f15 b4bc 43fb e1bc
00000260: b64d a2bc 1515 f6bc 43b1 5f3d 114f ca3c
00000270: e161 acbb d93e 2f3b 31fd 3cbd 040f ef3c
00000280: b70b a93d 62ef b7bb 5077 12bd 0f88 11bd
00000290: c946 8cbc b18f 04bd 7e5d 59bc 8667 683c
000002a0: ca6b 4fbd dc91 30bd f093 36bd da28 29bd
000002b0: 2328 b8bc e136 013d c47b 9b3d 8143 2dbd
000002c0: a03f 56bd 33c5 573b 1b37 55bd 15a3 353c
000002d0: b712 1a3c 8b42 acbc eeca 4d3d ec3d 583d
000002e0: f71e b3bd efcf a03c da61 8dbb 325c 053d
000002f0: df35 673d c051 8c3d d288 84bc bdc9 9d3d
00000300: 7719 83bd 1b19 883d 524b b0bd dba2 893c
00000310: e8c0 16bd 46fe c63d 7380 103d 9aab a23c
00000320: 9428 c3bc 945f c43d 701e 91bc c812 6a3d
00000330: 92a1 b33c 65c6 07bd 1b06 a5bd cc27 90bb
00000340: 4d70 5abd f0d1 85bc 483a e63b 9577 183d
00000350: 0c2b 1cbd 0a82 a03c 103b 27bd 7fa0 c3bc
00000360: 7906 d63c d457 aa3c d78d 2ebd d84f 91bc
00000370: 7d81 62bc 64f2 7cbd 9f72 e43c e8f1 85bc
00000380: 71aa ca3d 8078 47bc b0c5 7e3d 0ea1 653c
00000390: 83d6 92bc 8b71 b7bd 7270 b93d 2938 65bd
000003a0: 81e1 e63d 13b9 78bd 1c9d fdbc 2efa 0d3c
000003b0: 18cf afbd aab0 e6bc 975c 28bc bf5f 6a3b
000003c0: 921d 2f3d d6c7 63bc fe51 64bd d782 3ebd
000003d0: 09a1 a83d 6cc3 aa3d bd85 1e3d 51b5 47bc
000003e0: d419 f03d a63a ce3d e47d e03d f6bc 17be
000003f0: 97c1 10be c3dd f1bc c618 19be 208e 67bb

gcn_convs.2.path_weight_1.bias f4 [32]
-0.7182153 -0.0512672 0.60681295 1.1583763 -0.61316854 -0.11792339 -0.31056094 0.35109895
0.64830923 -0.42618403 -0.7373987 -0.12122204 -0.5626694 -0.09758444 0.6825202 -0.41108882
-0.00092256366 -0.49613 0.0055447826 -0.6277302 0.19366011 0.5147186 0.16799518 0.018799692
-0.21270786 0.106338896 -0.28698 0.10212304 0.0744743 0.74251413 0.26112735 -0.32633027
00000000: f5dc 37bf 8efd 51bd 1858 1b3f ad45 943f
00000010: 9df8 1cbf d181 f1bd d801 9fbe 3ec3 b33e
00000020: 98f7 253f cb34 dabe 29c6 3cbf 4343 f8bd
00000030: 1a0b 10bf 5ada c7bd a5b9 2e3f 3c7a d2be
00000040: 33d8 71ba c004 febe 02b1 b53b edb2 20bf
00000050: d64e 463e 99c4 033f ee06 2c3e d001 9a3c
00000060: 17d0 59be 35c8 d93d 0bef 92be e225 d13d
00000070: fb85 983d 6815 3e3f 7cb2 853e c314 a7be
