semi-supervised/pubmed_32_layers_.pt (torch, 406585 bytes, 196 tensors)

trans_feat.weight f4 [32, 500]
000000 a8 07 92 3f c5 50 8a bf e7 9e 88 bf 84 ff 8a bf
       1.1408587 -1.0805899 -1.0673493 -1.0859227
000010 fb 3a 01 3f 51 35 83 bf 97 3f e0 bd 91 84 f8 3d
       0.5048062 -1.0250646 -0.10949629 0.1213466
000020 b7 30 88 bf 78 63 2e bf 8f ca 8f 3f 15 92 86 3f
       -1.0639867 -0.6812053 1.1233691 1.0513331
000030 ed 45 8a 3f 4b ad 8d 3f af df 40 bf db 93 d5 be
       1.080259 1.106851 -0.75341314 -0.41714367
000040 ae 45 05 3d f3 2f 84 3f 03 0f 8f 3f bd 52 83 3f
       0.032537155 1.0327133 1.1176456 1.0259625
000050 54 a5 7b bf 46 3a 75 bf 41 3a 60 3f 2f d5 70 3f
       -0.98299146 -0.95792043 0.8758889 0.9407529
000060 7d 04 80 3f 8f 44 51 3f 87 01 9e be cd 17 8e bf
       1.000137 0.8174524 -0.3086054 -1.1101013
000070 6a 0c 87 bf f6 91 73 3f b2 6b 81 3f 99 e5 89 3f
       -1.0550663 0.95144594 1.0110991 1.0773193
000080 15 eb 9e 3f 37 f2 86 3f d6 93 b1 bd f0 ea 7c 3f
       1.2415491 1.0542668 -0.086707756 0.98795986
000090 96 d0 16 3f 15 31 48 bf 2d 25 49 3e ce cf 83 bf
       0.58912027 -0.78199893 0.19643088 -1.0297792
0000a0 58 ec 84 3f 07 50 78 3f 84 3f 58 3f 95 da 57 bf
       1.0384626 0.9699711 0.8447192 -0.84317905
0000b0 3a 49 82 bf 7a aa 62 3e 68 52 68 bf 70 0f 5f bf
       -1.0178597 0.22135344 -0.9075074 -0.8713293
0000c0 ab 99 9a bf 68 0e 9f bf 01 5c 8d be a3 6b 56 be
       -1.2078146 -1.2426271 -0.27609256 -0.20939498
0000d0 09 4b 88 bf c0 19 20 3f 8e fb 90 3f af 43 8f bf
       -1.0647899 0.6253929 1.1326768 -1.119253
0000e0 b9 64 6f bf 53 4a f5 3e b3 4c 6e bf e0 04 07 be
       -0.93513066 0.47908267 -0.93085784 -0.13185453
0000f0 7f 1a 86 3f 0e 54 89 bf 03 f0 33 bf 74 bb 8b 3f
       1.0476836 -1.0728776 -0.70288104 1.0916581
000100 75 ad 98 bf 2f e6 72 3f fc cf 05 3f e4 45 97 bf
       -1.1927935 0.9488248 0.52270484 -1.1818204
000110 aa ca 62 3f d7 b6 57 3f 97 9e 88 3e 20 60 5f bf
       0.8859049 0.84263366 0.26683494 -0.8725605
000120 71 97 71 3f 01 d3 8e bf 0b c1 28 3f 34 83 48 bf
       0.94371706 -1.1158143 0.6591956 -0.783252
000130 7b 95 4a 3f 74 a4 3a 3f a7 32 91 bf c5 1e 72 3f
       0.7913434 0.72907186 -1.1343583 0.945782
000140 5c db 86 bf a1 f6 67 bf 2e bf 45 3f c8 1f 2c 3f
       -1.0535693 -0.906107 0.7724484 0.67235994
000150 48 b6 63 3f 58 d2 8b 3f f0 71 05 3c cf d9 ec be
       0.88950014 1.0923567 0.008144841 -0.46259925
000160 a0 00 28 bf ee f5 81 3f 30 84 60 bf f2 78 72 3f
       -0.65625954 1.0153177 -0.877017 0.947158
000170 52 a0 75 3f 87 af 7b bf 67 27 75 bf 14 df 8b bf
       0.95947754 -0.9831471 -0.9576325 -1.0927453
000180 da 43 71 3f f2 bb 81 bf 72 37 3a 3f 78 5f e7 be
       0.9424416 -1.0135481 0.7274085 -0.45190024
000190 7e 5d 70 bf db dd 89 3f e3 91 51 3f 20 95 86 3f
       -0.9389266 1.077083 0.8186323 1.0514259
0001a0 86 2e 1f bf 29 26 88 3f cc 95 63 bf 8d b3 a3 3e
       -0.62180364 1.0636646 -0.88900447 0.31972924
0001b0 b3 99 67 bf 01 06 87 3f ea 3e 83 3f d1 98 64 bf
       -0.904689 1.0548707 1.0253575 -0.8929568
0001c0 6e 90 6e be 74 72 08 bf 04 70 39 bf 32 18 81 3f
       -0.23297283 -0.5329964 -0.7243655 1.0085509
0001d0 90 9f 5e 3f cf f6 89 bf 6a ca 44 3f 1b 66 84 3f
       0.86962223 -1.0778445 0.7687136 1.034366
0001e0 fc de 0d be 0e ef 89 bf f5 76 96 3f 55 44 88 bf
       -0.13854593 -1.0776079 1.1755053 -1.0645853
0001f0 fd 42 d1 3d 0e 83 0e 3f 9c 31 e9 3e fd fb 13 be
       0.10217855 0.55668724 0.4554566 -0.14451595
000200 57 77 6a bf a7 e0 8d 3f 7c d8 68 3d 44 45 88 3f
       -0.9158835 1.1084183 0.05684708 1.0646138
000210 1c eb 61 3f a0 3f 61 3f 80 99 98 3d b6 75 90 3f
       0.88249373 0.8798771 0.07451153 1.1285923
000220 6c 83 22 3f a8 f0 84 3f 75 33 63 3f d6 26 92 3f
       0.63481784 1.0385942 0.8875039 1.1418102
000230 db f7 55 3f 37 f9 7b 3f 9c ee 91 bf b3 86 40 3f
       0.8358132 0.98427147 -1.1400943 0.75205535
000240 3c 52 80 bf a3 88 13 bd 90 b0 72 3f 4c 65 e8 3e
       -1.0025096 -0.03601898 0.94800663 0.45389783
000250 c7 da 4d bf dc d2 88 3e e0 55 61 bf c3 d4 74 3f
       -0.8041195 0.26723373 -0.8802166 0.9563715
000260 3d 6e 91 bd ab 41 17 3f 33 f5 42 3f 15 86 89 3f
       -0.071011044 0.59084576 0.76155394 1.0744044
000270 63 7a 82 3e 22 84 5a bf 4b 41 46 bf fb 29 de be
       0.25484 -0.8535787 -0.7744338 -0.43391404
000280 c2 a3 90 bf 63 79 38 3e 3d 90 0e bf 79 be 92 bd
       -1.1299975 0.18015055 -0.5568884 -0.07165236
000290 42 01 99 bf 32 90 86 bf 81 2e 31 be 66 83 13 bf
       -1.1953509 -1.0512755 -0.17302896 -0.57622373
0002a0 12 aa 23 be bb a6 91 bd 52 2a 23 be 1b fc 91 be
       -0.15982845 -0.071118794 -0.15934113 -0.28512654
0002b0 5c 0f 81 3f b4 6e 9d 3f 28 53 85 3f f8 1e 64 bf
       1.0082812 1.2299409 1.0416002 -0.89109755
0002c0 41 d1 5c 3f c7 a3 88 3f 09 b0 81 bf 43 03 bd 3e
       0.86256796 1.0674981 -1.0131847 0.3691655
0002d0 ff c2 83 bf 4e 16 8b 3f b2 4b 82 bf b8 46 65 3f
       -1.0293883 1.0866182 -1.017935 0.89561033
0002e0 07 92 8e 3f c8 1b 7b bf f7 c1 08 bf a8 8f 5e bf
       1.1138314 -0.98089266 -0.53420967 -0.8693795
0002f0 06 b5 62 3f a7 36 48 3f 35 98 89 bf 87 d3 6e bf
       0.8855747 0.7820839 -1.0749575 -0.93291515
000300 c6 f1 84 3f 83 3a c6 bb c3 28 52 bf 39 ef 73 3f
       1.0386283 -0.0060494556 -0.8209345 0.952869
000310 0e 5a 89 bf 03 e1 07 bf e7 6b 84 bf ce cd 83 3f
       -1.0730608 -0.53077716 -1.0345429 1.0297182
000320 27 4f 64 3f 02 6d 66 3f ba ae 82 bf 23 69 7d bf
       0.89183277 0.9001008 -1.0209572 -0.9898855
000330 ae 4c 8b 3f 08 b7 77 3f 58 d8 4a 3f 03 06 20 3e
       1.0882776 0.9676366 0.79236364 0.15627293
000340 00 a6 c8 3e b6 69 34 3f c6 a1 84 bf 60 ca 02 bf
       0.39189148 0.704738 -1.0361869 -0.5109005
000350 e1 38 8c 3f bd ec 92 3e 22 e1 3b 3f 93 27 29 3f
       1.0954858 0.28696242 0.733904 0.6607601
000360 ec 08 38 3f 32 79 82 3f 6a 74 87 3d b2 0f 88 3f
       0.71888614 1.0193236 0.06614001 1.062979
000370 5f be 7d bf c0 f7 35 bf 4a 98 8a bf 8f ad 8f bf
       -0.9911861 -0.7108116 -1.0827725 -1.1224841
000380 b2 ec 89 bf 28 97 42 3f ff 06 55 bf f6 57 47 3f
       -1.0775359 0.76011896 -0.832138 0.7786859
000390 db 32 73 3f 85 b8 9c 3f f1 66 9d be a3 07 9d bf
       0.94999474 1.2243811 -0.307426 -1.2267956
0003a0 e6 f1 85 3f 2a 71 8e bf 94 5c 79 bf 4a 3b b7 3f
       1.0464447 -1.1128285 -0.9740689 1.4314969
0003b0 97 e7 3b 3f da 5c ad 3f 46 73 3f 3f b8 fd 7e 3f
       0.73400253 1.3543961 0.7478527 0.99605894
0003c0 70 0b da be 74 97 b0 be 40 b4 91 3e f5 af 79 bf
       -0.4258685 -0.3449055 0.28457832 -0.97534114
0003d0 fa 0e 5c bf a9 1f 95 bf 12 6a 85 bf ac 4f 92 bf
       -0.8596035 -1.1650287 -1.0422995 -1.1430564
0003e0 f2 94 42 3f 0e 34 7b 3f 68 87 5c 3f a3 73 50 bf
       0.7600852 0.98126304 0.86144114 -0.8142645
0003f0 29 8e 2a bf 40 ac 1d bf ba f4 90 bf 26 17 54 bf
       -0.6662317 -0.6159096 -1.1324685 -0.8284782

trans_feat.bias f4 [32]
000000 a8 85 d7 3c 87 06 14 bd 4b 16 08 3d b1 60 f3 3c
       0.02630885 -0.036139037 0.033224385 0.029709192
000010 74 13 26 3d fc b0 23 3d 16 72 3a bc e0 c3 1c 3d
       0.040545896 0.039963707 -0.011379739 0.03827274
000020 64 11 ae 3c 3c 7d 06 bd 04 66 65 3c 80 f4 23 bc
       0.021248527 -0.032834277 0.014001373 -0.010007024
000030 0f 7e 28 bd d6 b5 97 3c 54 83 20 bd 34 2d 22 3d
       -0.041135844 0.018519323 -0.039187744 0.03959389
000040 b0 3a 4b bc 1c b5 29 bd 8d 7e 1e 3d 3f 30 2a 3d
       -0.012404129 -0.041432485 0.038694907 0.041549917
000050 06 57 29 3d 30 bc de bc 16 2b 28 3d 8b 95 20 3d
       0.041342758 -0.027189344 0.041056715 0.039205115
000060 80 50 2b 3d 85 2c 0b bd 6e 56 b5 bc 37 ed d0 bc
       0.041824818 -0.033978004 -0.02213594 -0.025503738
000070 f2 b4 23 3d da 0e 1a 3d 11 f8 28 bd d1 c4 0f 3d
       0.039967485 0.03761182 -0.0412522 0.035099808

pred_trans.weight f4 [3, 500]
000000 29 40 8b 40 df 2c 87 3d 4d fc 1e bf 52 14 1c bf
       4.351582 0.06600355 -0.6210373 -0.60968506
000010 f1 f9 98 3e 4a e4 65 bf 5b 70 ed 3d a9 0a 12 bf
       0.2987819 -0.89801466 0.11593696 -0.57047516
000020 47 6a 4d 40 fe 82 c9 3d 5f 80 ed be ad 60 d5 3c
       3.2096117 0.09839438 -0.46387002 0.026047075
000030 5c 4c 31 3f 0e 5a b4 be 7b 53 9e 3f ba 5f 5f be
       0.6925714 -0.35224956 1.2369226 -0.2181386
000040 6b 1e 6f bf cb d4 58 bf e0 9f 9f 3e 47 47 2a 3e
       -0.9340579 -0.84699696 0.31176662 0.16628753
000050 e2 cf e7 be e4 f3 74 3f b3 4b 67 be e0 8d 08 3f
       -0.4527579 0.9568465 -0.2258747 0.53341484
000060 a1 ef 05 3f b1 f9 2d 40 72 18 16 be 14 e1 a0 3e
       0.5231877 2.718365 -0.14657763 0.3142172
000070 d5 48 25 3e 89 3f 7b 3f 2d df 81 3e fd b0 0e 40
       0.16141064 0.9814382 0.25365582 2.2295525
000080 17 a0 68 40 3a 72 c4 3f 28 3c b4 3f d2 59 89 3c
       3.634771 1.5347359 1.4080858 0.016766462
000090 da 87 3e 3f cf 11 66 be 20 53 0b 40 1b c0 c9 bf
       0.74426043 -0.22467731 2.1769485 -1.5761751
0000a0 17 f2 0c 40 77 32 d1 be 5c 48 22 3f df aa b3 3e
       2.202276 -0.40858814 0.6339166 0.35091302
0000b0 26 cd 66 be 0d b0 db 3e c0 0a f5 3d 28 77 09 3f
       -0.22539195 0.42907754 0.11964941 0.53697443
0000c0 98 31 0a 3e ce 4e 8c 3c fc e5 c1 bb 1e 15 81 be
       0.13495481 0.01712742 -0.005917309 -0.25211424
0000d0 9a 17 40 be 81 47 21 3f 91 15 5e 3f 8c 71 8d 3c
       -0.18759003 0.6299973 0.8675166 0.017266057
0000e0 a2 25 9b 3d e1 c7 05 bf 48 1b bd 3e 72 aa 45 3d
       0.07575537 -0.52258116 0.36934876 0.048258252
0000f0 76 26 ae 3f b1 86 0b bf d1 d6 8f 3f 8b bc 25 3f
       1.3605487 -0.545024 1.1237432 0.6474082
000100 3f 21 82 3d 8d f8 1e 3f 2a 0a af 3e e1 f4 9c 3f
       0.063539974 0.6209801 0.34187442 1.2262231
000110 e6 a3 af be b3 61 6c 3e 0e 19 b0 bf 18 b0 b5 3e
       -0.34304732 0.23084144 -1.3757646 0.3548591
000120 c2 ab 0a 3f 2c 67 e6 3e 97 77 64 3f 74 46 35 3d
       0.5416833 0.4500059 0.8924498 0.044256642
000130 58 96 5f 3e 7f b4 03 3f e8 9f 89 3f ec f6 ec bd
       0.21834695 0.5144729 1.0751925 -0.11570534
000140 98 fc c4 3d f5 67 97 3e e3 62 32 3f 54 be 01 be
       0.09618491 0.295715 0.6968214 -0.1267026
000150 74 6b 7f 3e 95 0f 63 bf e8 13 a9 3d e9 ad aa be
       0.24943334 -0.8869565 0.0825575 -0.33335808
000160 09 87 a5 3e da 17 0e c0 4a 39 61 bf e6 00 b3 bf
       0.32329586 -2.2202058 -0.8797804 -1.3984649
000170 1f 27 ba 3f 62 f6 1f 40 c6 f5 49 3f 52 8a 31 3f
       1.4543189 2.499413 0.78890646 0.69351685
000180 60 bb 4f be 41 09 d9 3c 2c 37 0a 3c ad 9f 28 3e
       -0.20286322 0.02649367 0.008436006 0.16467161
000190 7e bd 94 bc 1b 49 5f 3e 83 10 05 3e ab 0e 10 bf
       -0.018156763 0.21805231 0.1299458 -0.5627238
0001a0 7d d7 44 3d e8 17 5f 3f da a5 55 3e 7a 5a 91 3e
       0.04805707 0.87145853 0.20864049 0.2838934
0001b0 fc 19 f1 bd 08 86 bc 3e 9e 3b 36 40 70 2e b7 3e
       -0.11772534 0.36821008 2.8473887 0.35777617
0001c0 09 03 0e bf 57 4b 9b 3e 32 49 ab 3e c3 48 09 bf
       -0.5547338 0.30330917 0.3345428 -0.5362665
0001d0 93 88 af 3e 19 40 2b bf f0 2c 06 3e f1 40 c7 3f
       0.34283885 -0.6689468 0.1310308 1.5566694
0001e0 0a 29 16 bf 9b 89 17 bf 69 5c d8 3e bd ad 0e bd
       -0.5865637 -0.59194344 0.42258003 -0.03483366
0001f0 d0 6b 82 3e f3 60 87 bd ae d7 bb bd 83 cd c9 3d
       0.2547288 -0.066102885 -0.09171997 0.098536514
000200 9a e5 6f 3e 3b 98 cb bc 14 86 03 bd 0d da fe be
       0.2342743 -0.024852863 -0.03211029 -0.49775735
000210 80 c8 f0 ba 3c 0b 74 3c 00 4b b9 bd 00 dc bd be
       -0.00183703 0.014895257 -0.09047508 -0.3708191
000220 d1 fd bb be 13 58 4b bd 99 e4 9f bf 06 3c c5 be
       -0.36717084 -0.04964454 -1.2491637 -0.38522357
000230 ca 39 33 3e d4 c7 2b be b6 71 33 3f f7 1a 1a 3e
       0.17502514 -0.16775447 0.70095384 0.15049349
000240 ac 7e 37 bf a8 9d 6a 3d dc 5f cf 3f 92 2a 72 be
       -0.7167766 0.05727926 1.6201129 -0.23649052
000250 fe 52 88 3c bb c8 8d be d4 d4 61 3e 2c e5 63 be
       0.016641136 -0.27692208 0.22053844 -0.22255391
000260 8e 18 b7 3e 3a 77 92 3e 09 b9 e2 be d8 e5 b2 bc
       0.3576092 0.28606588 -0.44281796 -0.021838114
000270 25 33 02 3f 04 89 97 bd b8 6b 1a 3b 48 03 a6 3f
       0.5085929 -0.073991805 0.002356274 1.2969751
000280 12 16 94 bf c1 6a 9b bd d2 17 49 bf 2f 44 87 3e
       -1.1569235 -0.07588721 -0.7855197 0.26419207
000290 9c 80 08 40 3c cc e9 3e ac d6 9c 3e 5a cc f4 3c
       2.1328497 0.4566363 0.30632532 0.029882599
0002a0 59 93 83 3e 75 98 ca 3f 06 8e 91 bd b1 8d 11 40
       0.25698355 1.5827776 -0.07107167 2.2742732
0002b0 3c 41 3a 3e cf 78 19 3f d9 52 f9 be aa d9 7d 3f
       0.18188947 0.59949964 -0.4869602 0.99160254
0002c0 ca 04 a9 3d 63 63 f2 bd d7 aa 9e 3f bc 35 04 40
       0.082528666 -0.11835363 1.2395886 2.0657797
0002d0 a6 b5 cb 3d e3 9e 14 3e b4 0e 3c bd 14 26 82 3f
       0.09946756 0.14513735 -0.04591246 1.016787
0002e0 83 99 50 40 76 ef 9b 3f 75 42 01 be 69 9f 1b 3f
       3.2593696 1.2182453 -0.12623008 0.60790116
0002f0 e4 76 33 3d cb ee 98 3e 6c ee 5a bf f6 67 e5 bd
       0.043814555 0.29869685 -0.8552005 -0.112014696
000300 d6 54 f1 3e 6c b0 ce bd c2 a7 6c 3e 75 9c c8 be
       0.47135037 -0.100922436 0.2311087 -0.39181867
000310 ac 79 65 bf 35 48 1a 3e 35 15 cc 3e 77 bf 2b 3f
       -0.8963878 0.15066607 0.3985993 0.6708903
000320 8b 69 d1 3e e9 ca 91 bf db 06 66 3f da 78 11 bf
       0.40900835 -1.1390048 0.8985421 -0.5682503
000330 da e1 ce 3d cb fc 3c bf a8 dd 8d bd 21 7a 26 be
       0.101016715 -0.7382323 -0.06927043 -0.16257526
000340 1e fd 74 3e e3 9a 8f 3e d0 9f 7a bd d7 2d 19 3e
       0.23924682 0.28047857 -0.061187565 0.14958893
000350 be 1b 6c be 50 78 9a bf b3 49 ad bd 08 7a 36 be
       -0.23057458 -1.2067966 -0.08461323 -0.17819989
000360 f2 e3 4b 3e 40 69 fb bd 44 d1 a5 be f6 53 8d bf
       0.19911173 -0.12275934 -0.3238622 -1.1041248
000370 df 97 23 3e 5d 12 92 bf a7 43 0d bd d9 37 81 3f
       0.15975903 -1.1411854 -0.034488346 1.0095168
000380 d6 e0 12 bf 9a 57 0d 3e a1 54 ba be c3 7a b0 be
       -0.5737432 0.13802949 -0.36392692 -0.3446866
000390 fe ce 23 3e 93 8e 49 3e 1b 0f 4b 3e a7 b7 21 be
       0.1599693 0.19683294 0.19829981 -0.15792714
0003a0 a2 41 b7 bf aa 1b 89 be 14 1e 4d bf 70 a6 bf bf
       -1.4316905 -0.26778919 -0.8012402 -1.4972668
0003b0 42 e5 44 3f 4f d0 01 bf 28 66 2c 3f e7 b1 f1 bf
       0.7691232 -0.5070848 0.6734338 -1.8882416
0003c0 84 0b 6d bf 61 a1 11 bf f3 87 43 3e 4e ac 09 3c
       -0.92595696 -0.5688687 0.1909483 0.008402897
0003d0 37 95 c7 bd 2b 4c 34 be 97 00 c3 be 43 84 b5 bf
       -0.09745257 -0.17607181 -0.38086388 -1.4180988
0003e0 8a 93 e9 3f c6 36 0a bd bf 46 6b 3d ee 15 c1 bf
       1.824815 -0.033743642 0.057440516 -1.5084817
0003f0 ea a7 20 3e cb 24 f9 3e 48 53 ce be c1 37 67 3d
       0.15689054 0.48660883 -0.40297914 0.056449655

pred_trans.bias f4 [3]
000000 d8 d7 5e bf cc 08 b0 be 42 18 99 be
       -0.870481 -0.3438171 -0.2990132

gcn_convs.0.path_weight_1.weight f4 [32, 32]
000000 6e 24 5e bf d5 6b 8a 3f 9c 22 4e 3f 03 e3 42 bf
       -0.8677434 1.0814158 0.8052156 -0.7612764
000010 d8 41 5b 3f ed 4e 92 bf 42 16 77 bf 1b 2f 7d 3f
       0.85647345 -1.1430336 -0.9651834 0.989
000020 1c 17 86 3f bc 04 78 bf 5c fb 1b 3f ee 97 5e 3f
       1.0475802 -0.96882224 0.6093042 0.86950576
000030 0a d5 2e 3e 0f f1 57 3f 2e 33 b6 3e df 21 58 3f
       0.17073455 0.843522 0.35585922 0.84426683
000040 67 f1 87 bf 15 6c 43 3f 61 9d 1a bf 8c bf 51 bf
       -1.0620545 0.76336795 -0.6039639 -0.819329
000050 94 f6 61 3f 69 48 5a bf bd 51 62 3f 9c 8b ec be
       0.88266873 -0.8526674 0.8840597 -0.46200264
000060 dd 92 43 3f 98 1e 81 bf 5a 7d 56 3f c8 72 e0 3e
       0.7639597 -1.0087461 0.8378502 0.4383757
000070 e1 60 c3 be 64 3e 31 bf 96 ee 76 3f 6e ba 7f 3f
       -0.3815985 -0.69235826 0.96457803 0.99893844
000080 c0 06 fe be 05 90 7c bf 2b a0 5a bf 83 e4 c0 bf
       -0.49614525 -0.98657256 -0.85400647 -1.5069736
000090 90 91 c8 3f 87 7e 3d 3e db 28 97 3f 9e c6 ba 3f
       1.5669422 0.18505298 1.1809343 1.4591863
0000a0 e6 e0 96 3f 62 15 85 3f dc f3 a5 3f 60 28 32 3f
       1.1787384 1.039715 1.2965045 0.6959286
0000b0 94 51 af 3f bf ac 7d bf b5 c9 81 bd c3 ea ac 3f
       1.3696771 -0.99091715 -0.06337301 1.3509144
0000c0 61 61 2a 3f f8 d1 2e be 98 ac a2 3f c8 23 bf bf
       0.6655484 -0.17072284 1.2708921 -1.4932795
0000d0 70 6c a3 3f bc c7 40 bf 0e 1e 0a 3f 29 5b 9b bf
       1.2767467 -0.7530477 0.5395211 -1.2137195
0000e0 f4 13 87 bf 19 24 99 3f a4 0b 93 3f 35 af 9f 3f
       -1.0552964 1.1964141 1.1487927 1.2475344
0000f0 f5 8b 52 3f 15 41 65 3f 85 7d 76 3f 39 0d 2d bd
       0.8224481 0.8955243 0.9628528 -0.04224894
000100 bd 5b a7 3f 21 90 cf 3f af 14 ac 3f 99 d9 a3 3f
       1.3074871 1.621586 1.3443812 1.280078
000110 fe 74 b0 3f c2 36 8c 3f 46 35 16 3f 84 ef 0b 3f
       1.3785703 1.0954211 0.5867504 0.54662347
000120 34 ca cd 3f 10 0c 56 3f b0 cd c4 bf c5 b0 24 bd
       1.6077332 0.83612156 -1.5375271 -0.040207643
000130 0f e1 bc bf e3 c6 11 bf eb e9 d3 3f 70 da a7 bf
       -1.4756182 -0.569441 1.6555761 -1.3113537
000140 c9 49 2a bf 8c 18 d5 3e 61 28 a7 bf a4 90 d2 3e
       -0.6651884 0.4162029 -1.3059198 0.41125977
000150 c1 6c a9 bf b9 0a a5 3e 3e 63 36 3f c3 a8 a4 bd
       -1.3236314 0.32234743 0.7124518 -0.08040001
000160 ca 35 4e 3f 58 57 22 bf f7 00 ab 3f 06 52 2b be
       0.80550826 -0.63414526 1.335967 -0.16730508
000170 e5 82 a6 bf 5a 3a f4 bd be 96 87 bd c2 d7 be 3f
       -1.3008696 -0.11925192 -0.06620549 1.4909594
000180 f1 35 d8 3d 5a c9 3b bd 81 73 72 bd 0a 3e ee bd
       0.105571635 -0.04584632 -0.059192184 -0.11632927
000190 1e 40 5c bc fb 61 02 bd 28 f7 28 bd be 2c c2 3d
       -0.013443021 -0.031831723 -0.04125133 0.0948119
0001a0 24 02 c9 3d 2e 54 31 39 6e e1 89 3d e2 47 13 3d
       0.098148614 0.00016911395 0.067324504 0.035957225
0001b0 c3 25 b0 3c 91 a1 9c bd 41 55 94 ba da 0e cd bd
       0.021502381 -0.07648004 -0.0011316912 -0.10012598
0001c0 57 0c ab 3d 64 3c 6f 3d 11 c3 b8 bd 5f 7f 81 3c
       0.08351963 0.058407202 -0.09021581 0.015807806
0001d0 e1 74 74 3d 64 49 d7 3d 47 52 10 be 8b 03 34 3d
       0.059681777 0.10512045 -0.14093886 0.04394869
0001e0 7a 17 d3 bd e9 5b b8 3d 1d d0 16 3e cb c1 2e bd
       -0.10307212 0.090019055 0.14727826 -0.042665284
0001f0 c8 00 19 bb 1b d4 0b be 99 55 21 3e 59 a5 69 bd
       -0.0023346413 -0.1365513 0.15755309 -0.057042453
000200 74 a7 5c bf 46 ef be 3e b4 84 7b 3f e3 96 c6 bb
       -0.86193013 0.37291926 0.98249364 -0.0060604676
000210 99 71 df 3d cc 43 45 be 17 4f 7b 3f 4e 8a 98 bf
       0.10910339 -0.19264144 0.98167557 -1.1917207
000220 2d f6 92 be c6 9e 72 bf 13 5a 8f 3f fe 7c 4f bf
       -0.28703442 -0.9477352 1.1199363 -0.810501
000230 1a b2 a2 3f e9 3f ac 3e ea 0d ba bf 7b 7c 2e 3d
       1.2710602 0.3364251 -1.4535496 0.042599183
000240 c1 1b ae bf 45 b2 70 be de 28 52 bf e6 b1 b4 3e
       -1.360222 -0.23505504 -0.8209361 0.35291976
000250 74 ef 3c bf 03 27 8a 3d 49 fd 8b bf b7 25 7a bf
       -0.73802876 0.06745722 -1.0936671 -0.977138
000260 e4 20 81 3f 4a 0a 71 bf 81 1f bc 3e a9 e4 93 bf
       1.0088162 -0.94156325 0.36742786 -1.1554157
000270 4e 36 37 3f f6 c7 b2 bf 0c 30 86 bf 01 c2 3b bf
       0.7156724 -1.3967273 -1.0483413 -0.733429
000280 6f b9 84 bf 0e 2e 21 3f 80 26 33 3f f2 46 e9 3d
       -1.036909 0.629609 0.6998062 0.11390485
000290 29 ff 83 bf 50 d8 b4 3e c8 31 1c 3f 90 88 99 bf
       -1.0312244 0.35321283 0.6101346 -1.19948
0002a0 9e f5 89 bf 5e b0 07 bf 15 aa 7a 3f ee 1e 7d 3f
       -1.0778081 -0.5300349 0.97915775 0.9887532
0002b0 d6 22 79 bf 22 38 94 bf 92 4c 85 bf 55 75 d4 3e
       -0.9731878 -1.157963 -1.0413992 0.41495767
0002c0 81 b5 75 bf 44 58 8d 3f 0f a0 83 3f 81 b2 47 3f
       -0.9598008 1.1042562 1.0283221 0.7800675
0002d0 23 65 87 3f df 5f 51 bf 6a ba 3c 3f 46 9e 86 3f
       1.057774 -0.8178691 0.73721945 1.0517051
0002e0 da 22 10 bf 96 24 81 bf 40 d2 8f bf 46 76 4d 3f
       -0.5630318 -1.008929 -1.1236038 0.80258596
0002f0 80 66 4f 3f a3 82 9a bf ee 36 93 bf df fb 8a bf
       0.8101578 -1.2071117 -1.1501138 -1.0858115
000300 05 98 a7 bd a4 c8 50 3f 96 c4 9d 3f 33 57 e9 3e
       -0.08183292 0.81556153 1.2325618 0.4557434
000310 d1 78 a1 3f 6f 53 94 3f 00 31 8c bf 00 45 15 3f
       1.2614995 1.1587962 -1.0952454 0.5830841
000320 82 05 3c 3f 75 a0 a2 3f a3 40 1c 3f 60 8d 95 3f
       0.73445904 1.2705218 0.6103613 1.1683769
000330 1d 29 cf be 83 b9 86 bf 94 96 cd bf 19 04 77 bf
       -0.40461054 -1.0525364 -1.6061578 -0.9649063
000340 9d 21 63 bf ed d4 b9 bf 82 9b 41 bf 07 41 42 3e
       -0.88723165 -1.4518105 -0.7562791 0.18970118
000350 4e 26 cf bf e0 c9 ba 3f 4e ba bc 3e 13 e3 bc bf
       -1.6183565 1.4592857 0.3686089 -1.4756798
000360 de 05 8e 3f 56 bd bc 3f d9 06 83 3f 9c 73 15 be
       1.109554 1.4745281 1.0236465 -0.14594883
000370 1a 10 a8 bf 18 6c 81 bf 0e cb 05 bd a3 ba 9e bf
       -1.3129914 -1.0111113 -0.03266435 -1.2400707
000380 b2 cf 94 bf c6 c5 7a 3f ec 64 50 bf ba b3 5d 3f
       -1.1625884 0.9795803 -0.81403995 0.86602366
000390 fd 0b 89 bf f1 ba 80 3f 0a 3e 56 bf f3 cd 4e bf
       -1.0706784 1.005705 -0.83688414 -0.80783004
0003a0 69 a1 7f bf 3d d0 51 bf a3 59 94 bf 1e f3 f7 3e
       -0.9985567 -0.8195837 -1.1589855 0.4842767
0003b0 a9 00 88 bf d1 fe 6d 3f 80 41 7f 3f d7 f6 88 bf
       -1.0625201 0.92966944 0.9970932 -1.070033
0003c0 ce 36 5d 3f b5 1c 82 3f 01 de 8c bf 1d 34 5b 3f
       0.8641175 1.0165011 -1.100525 0.85626394
0003d0 45 61 83 bf b3 0a 8f bf 53 85 91 bf fa 51 6b 3f
       -1.0264059 -1.117514 -1.1368812 0.9192196
0003e0 e9 49 63 bf 1c 68 55 bf 28 ed 7b bf 50 92 8a 3f
       -0.8878465 -0.83361983 -0.98408747 1.0825901
0003f0 3d 75 6a 3f 59 1b 95 3f cc b1 86 3f 4c c6 85 3f
       0.9158514 1.1648971 1.0523009 1.045114

gcn_convs.0.path_weight_1.bias f4 [32]
000000 4b 73 55 bf ea 96 9a 3f 8a 6d 91 3f 11 0b 3f bf
       -0.8337905 1.2077305 1.1361554 -0.7462626
000010 da 37 70 bf f8 4b 7d bf b1 ea 86 bf f5 4a 8f 3f
       -0.9383522 -0.98944044 -1.0540372 1.119475
000020 fb 77 8c 3f 78 28 62 bf e0 e3 6d bf 41 16 39 3f
       1.0974115 -0.88343 -0.92925835 0.7229958
000030 02 ba 8f bf 78 f3 53 bf cd 1f 60 bf 8c a9 bf 3f
       -1.122864 -0.8279338 -0.87548524 1.4973617
000040 cd b3 8b 3f 5e d0 5b bf 4d 26 94 3f 2a 9e 92 3f
       1.0914246 -0.8586482 1.1574188 1.1454518
000050 4c cd 87 bf a0 a3 77 bf ea 04 8a 3f a5 b2 57 bf
       -1.0609527 -0.96734047 1.078275 -0.84256965
000060 29 c9 8d bf c6 8e 8c bf 3c c1 94 3f 78 c8 85 bf
       -1.1077014 -1.0981071 1.162147 -1.0451803
000070 05 c2 a0 3f 94 25 8c 3f 9a 01 61 bf 48 e2 59 bf
       1.255921 1.0948968 -0.8789307 -0.851109

gcn_convs.0.path_weight_2.weight f4 [32, 32]
000000 a5 89 25 3d c5 1e 28 3d ed 2e a1 3c 28 c9 2a 3d
       0.04041447 0.04104497 0.019675696 0.041695744
000010 72 a8 99 bc cd c0 e7 39 08 a5 96 3c 14 0d f0 bc
       -0.018757079 0.000442034 0.01838924 -0.029303111
000020 39 00 1d bd 09 0e 9d 3c 3b 7e 26 bd 63 46 1d 3d
       -0.03833029 0.019171732 -0.040647727 0.038397204
000030 8a ff 86 3c 31 e0 93 3a ed 6a 96 bc 85 89 fa 3c
       0.016479272 0.0011282024 -0.018361533 0.030583153
000040 ca 19 53 3c db 95 24 3b 25 2c 1d bd ff 2f 15 bd
       0.012884567 0.0025113735 -0.038372178 -0.036422726
000050 c2 04 22 bd 58 ed 2a bd 9f 90 a2 3c 83 82 8d 3a
       -0.03955532 -0.041730255 0.019844351 0.0010796342
000060 cd 97 1d 3d c7 27 e3 3c 15 63 77 3c 0d c1 9a bc
       0.038474847 0.027728928 0.015099307 -0.018890882
000070 45 c4 b7 bc 33 a0 a5 3b a0 79 2a 3d c9 2e f8 bb
       -0.022432456 0.0050544976 0.041619897 -0.0075739366
000080 7a a9 95 bc 04 0a 8a 3c 26 35 15 3c fd ed 96 bc
       -0.01826929 0.016850479 0.00910691 -0.018424029
000090 59 0b 18 3b 27 37 9d bc b1 48 1d 3d db 40 29 3d
       0.0023200123 -0.019191338 0.038399402 0.041321617
0000a0 58 6b 0c bd 9c fb 43 3c 27 d9 62 3c 65 12 1e bd
       -0.03428206 0.011961844 0.0138457185 -0.03859176
0000b0 c1 a0 98 3c de 88 a2 bc 6d 9e 9e 3c aa 5a 25 3d
       0.018631341 -0.019840654 0.019362653 0.040369667
0000c0 14 30 1d bd ae 47 13 bc 42 c2 1d 3d 79 a2 40 bc
       -0.03837593 -0.008989258 0.038515337 -0.0117574865
0000d0 e6 45 c6 bc 68 46 81 3c 74 2f 76 3c 89 46 24 bc
       -0.024203252 0.015780643 0.015025962 -0.0100265825
0000e0 93 e3 85 bc d8 a3 80 3c 63 e2 1e bd 1c e1 3c 3c
       -0.016343867 0.015703127 -0.038790118 0.01152828
0000f0 78 0e c4 3c bd f4 91 3c c7 ab 2d 3c 9b 5d 82 bc
       0.02393268 0.017816896 0.010600037 -0.015913775
000100 0e b1 69 bc b5 b6 58 3c f8 8e 29 3d 60 d1 b7 bc
       -0.0142634045 0.0132271545 0.04139611 -0.022438705
000110 a1 b1 83 3c 2d 46 d9 3c 28 94 40 3c fc 0b 74 3b
       0.016075911 0.02652272 0.011754073 0.0037238589
000120 94 d7 8f 3b 88 d0 9b bb bd 71 53 bc cd 91 2c 3c
       0.0043897126 -0.0047550835 -0.012905535 0.0105328085
000130 ce 1e d6 bc 21 ee a4 bc 23 ec 9f 3c b7 8b 22 3d
       -0.026137736 -0.02013308 0.019521778 0.039684024
000140 e7 3c cb bc 4a 19 15 3d 46 70 1e 3d a5 e5 b9 3c
       -0.024809314 0.03640107 0.03868129 0.02269251
000150 fd 5a 9a bc cf 39 67 3c aa 27 32 39 1f 14 9c bc
       -0.018842215 0.014112904 0.00016990179 -0.019052563
000160 b9 f2 92 bc fb 3f ab 3c dd ab 80 bc d7 1b 46 b9
       -0.017938005 0.020904532 -0.01570695 -0.00018893123
000170 55 62 2a 3d ac 39 88 3c e1 5e 5b ba ac 3a eb 3a
       0.041597683 0.016629063 -0.0008368325 0.0017946563
000180 d2 b1 9f 3c bb 0e 13 bd e3 5d fd bc 65 5c bd bb
       0.019493971 -0.03590272 -0.030928558 -0.0057788366
000190 c1 f2 1a 3d 94 0c 0c 3c 4b 21 1d 3d 2a 54 9c 3c
       0.037829164 0.008547921 0.03836183 0.019083101
0001a0 3a 1f a0 3c c0 88 1f 3c e7 c2 3d bc 80 1e 9a 3c
       0.01954614 0.009737194 -0.011582113 0.018813372
0001b0 8b 27 2c bc ee e1 3b 3c bf af 5e bb 10 8d c7 bb
       -0.010507475 0.01146744 -0.0033979265 -0.006089814
0001c0 5c 96 81 3c a6 30 6f bc 7e 97 15 3d 2c 31 88 bc
       0.015818767 -0.014599001 0.036521427 -0.01662501
0001d0 b3 eb 39 3c ee 3e 9e bc 0d 72 be bc 18 92 22 3c
       0.011347699 -0.019317117 -0.023247743 0.009922527
0001e0 c9 28 15 bd cd d5 99 3c 46 3c 8d 3c d6 e8 1a 3d
       -0.03641585 0.018778706 0.017240655 0.037819706
0001f0 12 b8 c0 3c af 79 1d bb c8 e4 bc 3c 82 23 da 3c
       0.023525272 -0.0024028828 0.02305831 0.02662826
000200 0b 84 9d bc 5f 67 a1 bc 1e 2d a2 3c 59 a3 65 bb
       -0.019228002 -0.019702611 0.019796904 -0.003503999
000210 06 37 9e bb 4a de 95 bc 94 49 98 bc 43 5e 9c bc
       -0.0048283366 -0.018294472 -0.018589772 -0.019087916
000220 c2 ee b5 bc be f2 91 3c a7 d1 f2 bc 9a 43 cc 3c
       -0.022208575 0.017815944 -0.029640986 0.024934579
000230 77 fa 8c bc c4 c8 2a bd 99 71 b5 bc d6 7e a3 3c
       -0.017209275 -0.04169537 -0.022148894 0.019957941
000240 8b 5e 57 bc ca 8e 02 bc 6d d3 48 3c c2 cf a2 3c
       -0.013145099 -0.007968614 0.012257439 0.019874457
000250 30 16 24 3d 71 fb 0b bc eb 20 11 3d 45 5b 10 3c
       0.040060222 -0.008543835 0.035431784 0.008810823
000260 35 f9 cb bb b7 c3 93 3c 37 27 c5 3c 0b 91 0e bc
       -0.006224776 0.01803766 0.02406655 -0.008701573
000270 b4 1c 0b 3c 8b bf 4a 3c 5a 20 23 3d 67 f6 b9 3b
       0.00849073 0.012374769 0.039825775 0.0056751254
000280 38 c1 f1 bc 64 21 9e bc 18 d9 eb 39 d5 80 95 bc
       -0.02951108 -0.019303031 0.0004498444 -0.018249908
000290 37 8d 84 3c 2f 7e 9a 3c 10 b6 71 bc cb 62 2e 3c
       0.016180618 0.018858997 -0.01475288 0.010643671
0002a0 d1 e6 26 3d 20 cd 26 3d a0 5e a2 3c 81 f3 89 3c
       0.040747467 0.040722966 0.019820511 0.016839745
0002b0 f1 48 24 3d 2d 1a 57 bc d9 e6 6b 3c 86 9c d0 bc
       0.040108625 -0.013128799 0.0143983 -0.025465261
0002c0 1a 76 28 bd 4b 55 21 bd 40 bf a1 bc ce b2 9f 3c
       -0.041128255 -0.039387982 -0.019744515 0.01949444
0002d0 33 f4 21 bd 97 08 1d 3d d1 c9 87 3c cc f7 9e 3c
       -0.039539527 0.03833827 0.016575726 0.019405268
0002e0 43 6b c9 bc f0 13 f9 3c d8 9f 28 3d 7b 2a 8b 3a
       -0.02458728 0.030405015 0.041168064 0.0010617519
0002f0 b2 77 61 3b f3 e1 90 3c d6 4d ad bc fc 59 b0 3b
       0.003440362 0.017685866 -0.02115528 0.0053818207
000300 94 b9 ad 3b be 69 bf 3c 97 63 59 3c 81 68 0c bc
       0.0053016637 0.023365851 0.013268373 -0.008569838
000310 70 6a c5 bc 3e dc 29 bd e7 13 1f 3c fb 6a 12 3d
       -0.024098605 -0.041469805 0.009709335 0.035746556
000320 b7 95 a2 bc 76 66 00 3d 3e 14 47 3b 87 26 d9 bc
       -0.01984678 0.031347714 0.0030377056 -0.02650763
000330 cf 4e ad ba be e4 14 bd 17 b9 a2 bc e8 7d bb 3c
       -0.0013222339 -0.036350958 -0.019863648 0.022887185
000340 21 6c 41 3c eb df 2a bd 67 b8 a1 3c 7f 82 9c 3c
       0.011805565 -0.04171745 0.01974125 0.019105194
000350 66 09 03 bc e0 88 d1 bc 9c 30 7f bc b8 9e 9a 3c
       -0.007997846 -0.025577962 -0.015575554 0.018874511
000360 7b 93 fd bb cd f5 58 bc 30 a9 ee bc 57 5d 03 bc
       -0.0077385283 -0.013242197 -0.02913341 -0.008017859
000370 d8 16 19 bc 06 e4 2a 3d 24 22 27 bd fd 8f 8a 3c
       -0.009343825 0.041721366 -0.040804043 0.016914362
000380 7b 6a eb 3b d9 c8 09 bc 3b 56 c8 bc 09 cf 97 3c
       0.0071843243 -0.008409702 -0.02445518 0.01853134
000390 58 04 0c bd 4b 67 54 3a 4d b9 3a bb 7c bf 98 bc
       -0.03418383 0.000810255 -0.0028491796 -0.018645994
0003a0 7e 16 da bb 68 ce b0 bc 6f 6b fa 3c af fb e1 bc
       -0.0066555133 -0.021582797 0.030568806 -0.027585832
0003b0 dc a9 5b 3c 01 b7 7c 3c 6b 78 60 bc 23 7a 24 bb
       0.013407197 0.015424491 -0.013700585 -0.0025097213
0003c0 f6 17 1b 3d 38 d2 b2 bc fb 8c da 3c a9 02 f6 bc
       0.037864648 -0.021828756 0.026678553 -0.030030565
0003d0 7a 60 1f 3d aa ba 89 bc dd 60 c8 bc dd d3 4f bb
       0.038910367 -0.016812641 -0.02446025 -0.0031711974
0003e0 9f de 95 3c 82 47 a2 3c 3c 36 30 3c aa e9 ef 3c
       0.01829463 0.019809488 0.010755118 0.029286224
0003f0 ee 2c 9f 3c 2a 87 f0 3b b0 a0 c4 bc ac 9f 12 3b
       0.019430604 0.0073403316 -0.024002403 0.0022373004

gcn_convs.0.path_weight_2.bias f4 [32]
000000 c8 99 95 3f 14 2e 94 3f 50 06 96 3f 25 a2 7f bf
       1.1687555 1.1576562 1.1720676 -0.9985679
000010 58 aa 8d bf f0 0f 78 bf 73 e9 7b bf 56 6a 97 3f
       -1.106761 -0.9689932 -0.9840309 1.1829326
000020 2d 22 aa 3f b9 7a e6 3d 94 f4 3a bf ad 22 7e bf
       1.329168 0.11253876 -0.73029447 -0.9927166
000030 68 24 87 3f f6 6b 5f bf 27 08 76 bf cd c9 c0 3f
       1.0557985 -0.8727411 -0.9610619 1.5061585
000040 58 4b 72 bf 78 1d 60 bf f9 e9 86 bf 49 e4 92 3f
       -0.94646215 -0.87544966 -1.0540153 1.1475917
000050 b7 96 75 bf 40 32 84 bf bd 5d 97 3f f9 04 77 3f
       -0.959331 -1.0327835 1.1825482 0.9649196
000060 db 38 8f 3f 42 56 9c 3f 03 e5 6d bf 2f 14 63 bf
       1.1189226 1.2213824 -0.9292757 -0.8870267
000070 e0 36 95 3f de 37 90 3f 2b eb 67 bf 9b 33 5b bf
       1.1657372 1.1267049 -0.9059321 -0.8562562

gcn_convs.1.path_weight_1.weight f4 [32, 32]
000000 1a 7b 24 bf 0f fd 68 bf 60 3d 0d bf b5 64 18 bf
       -0.6425034 -0.91011137 -0.55171776 -0.59528667
000010 b1 1c 98 bf ce 33 ae bf 8d 1c 00 3e 69 2f 90 3e
       -1.1883756 -1.360956 0.12510891 0.2816117
000020 a3 45 3c bf 1c c3 8c bf f1 8f 5c be 77 64 81 3f
       -0.7354376 -1.0997043 -0.21539284 1.0108784
000030 09 d7 5a 3f 5b 82 98 3e 65 5e 06 be 3e 6c b0 3f
       0.8548437 0.29786953 -0.13121946 1.3783033
000040 4a f4 17 3f 94 49 8b 3f 6b 14 6e 3f f4 23 15 bd
       0.5935713 1.0881829 0.92999905 -0.03641124
000050 81 d1 d9 3e 67 cf 8c 3c 4a 7b 75 3f 70 09 73 bf
       0.4254265 0.01718874 0.9589125 -0.94936275
000060 b6 fa a5 bf 3c b8 2c bf 00 eb 1c bf 7d 6f 97 3d
       -1.2967136 -0.6746862 -0.6129608 0.073943116
000070 06 d3 ba 3f 39 7b b4 3d 80 24 2d be de 9e 75 3f
       1.4595649 0.08812565 -0.16908455 0.9594554
000080 bc 61 47 3f 95 be 44 bd 2a 0e 25 3f bb 83 43 3e
       0.77883506 -0.048033316 0.6447474 0.1909322
000090 27 c4 31 3f d0 92 75 3f da a0 76 be da b4 81 be
       0.6943993 0.95927143 -0.24084798 -0.2533329
0000a0 8f ce 58 bf ba e3 d3 3d 89 14 55 bf d6 13 55 bf
       -0.84690183 0.1034617 -0.8323446 -0.8323339
0000b0 42 f5 25 bf 18 42 4f 3e b6 6e 05 3e ee bb 40 3d
       -0.6482736 0.20240057 0.13030514 0.047054224
0000c0 a7 8b 89 3e ac 7f a0 3e de b2 33 bf 59 7c bf be
       0.2686436 0.31347406 -0.70194805 -0.37399557
0000d0 3c 04 59 be a6 f2 c3 be 9f 3f 35 3f e9 de af 3e
       -0.21193022 -0.38271064 0.70800203 0.34349754
0000e0 9b 7d be bd ee 8d 50 be 70 04 03 3f 9c 70 96 be
       -0.09301301 -0.20366642 0.51178646 -0.2938279
0000f0 48 cc d1 be 8e 60 08 3e 51 6b 99 3e 24 54 18 3d
       -0.40976167 0.13318083 0.29964688 0.037189618
000100 12 ad 21 be 35 3b bb 3e ab 52 24 bf 19 8c 28 3e
       -0.15788677 0.3656861 -0.6418864 0.16459693
000110 ff c8 83 3f 46 db 1d 3f 55 e7 29 3f 08 00 41 3f
       1.0295714 0.6166271 0.6636861 0.7539067
000120 12 4c 70 3f 9e 4b e1 be 53 80 5d 3f 8a 10 50 3f
       0.93866074 -0.44003004 0.8652393 0.81275237
000130 fa 32 6e be ce f5 2f 3f 9e c3 b3 be c6 35 6b bf
       -0.23261634 0.68734443 -0.35110182 -0.91878927
000140 44 b8 2a bf 8b 89 73 bf 9f 6f b1 3e b2 74 ef 3e
       -0.6668742 -0.9513175 0.34655473 0.4676872
000150 5f a8 50 bf d7 d9 32 bf 51 0b 43 3f eb 05 8f 3d
       -0.81506914 -0.6986365 0.7618914 0.06983551
000160 56 41 be 3e 1c c2 17 bf 78 74 6e 3e a9 63 4b 3f
       0.37159222 -0.5928056 0.23286617 0.79448944
000170 47 39 f7 be 1f 96 83 3f 3d 12 61 3f 2e 0d 61 3f
       -0.48285887 1.0280188 0.87918454 0.87910736
000180 f3 b4 5a 3d 88 fb 36 be af 73 52 bf 60 1e 39 3f
       0.053395223 -0.17869389 -0.8220777 0.72311974
000190 f9 85 a6 be 8a 83 24 bf d0 39 91 3d b9 ab 00 3f
       -0.32524088 -0.6426321 0.07091105 0.5026203
0001a0 b4 c0 45 bf ab f7 3f bf ee 2a 0d be 8c 8e d2 3e
       -0.77247167 -0.74987286 -0.13785908 0.4112438
0001b0 1f c2 9f bb e8 b1 31 3f ce 22 32 bf 38 58 58 3e
       -0.004875436 0.6941209 -0.6958436 0.21127403
0001c0 c5 12 93 bc 01 a0 05 bf 40 47 2b 3f 6e 50 0f 3f
       -0.017953286 -0.5219727 0.66905594 0.559821
0001d0 a5 da 3c 3f 98 02 12 bf c8 17 20 bd 7d ad 9f be
       0.73771125 -0.5703521 -0.03908518 -0.3118705
0001e0 3d 7b 26 bf 94 2a 2d 3d 21 d4 a8 3e e8 2a 39 bf
       -0.65031797 0.042276934 0.32974342 -0.72331095
0001f0 29 e0 f0 3e 84 d5 f2 be 6c a5 ef 3e 2a 07 f2 3e
       0.4704602 -0.47428524 0.46805894 0.4727109
000200 7a c4 c3 3e 38 b0 18 3f 25 53 15 be 2b b3 4a 3f
       0.38235837 0.5964389 -0.14582498 0.7917964
000210 fb 82 64 3f 57 1a 16 be 34 dd 10 be 02 79 9e 3e
       0.8926236 -0.14658485 -0.14146882 0.30951697
000220 ad d9 91 be ff c4 19 3d 3d d8 06 3f 4e 65 b7 be
       -0.28486386 0.037541386 0.52673703 -0.35819477
000230 06 88 13 be 54 e4 6d bf c0 5c 79 3d 00 b2 62 bf
       -0.14407358 -0.92926526 0.06087947 -0.88552856
000240 05 87 63 bf 98 83 0a bf a7 58 5f bf 79 56 73 3f
       -0.888779 -0.54107046 -0.8724465 0.9505382
000250 87 c4 f5 3d 57 8c bd 3d ef c4 37 bf 9c 68 30 3f
       0.12000375 0.09255283 -0.7178487 0.6890962
000260 a4 f8 34 3f c7 bc c8 bd a8 ae e0 bd d3 c3 35 bf
       0.70691895 -0.098016314 -0.10970813 -0.7100193
000270 d7 92 3a bf 2d 5d d2 be 55 63 05 be f0 cd a5 3c
       -0.7288031 -0.41086712 -0.13026173 0.0202398
000280 d9 85 0d 3e d5 11 5d be 21 79 42 bf ae ec ed be
       0.1382059 -0.21588834 -0.7596608 -0.46469635
000290 16 89 ba bd 1c 30 3d be 83 a9 36 3f 04 d4 21 3f
       -0.09108178 -0.18475384 0.71352404 0.63214135
0002a0 13 28 73 bf e9 d4 43 bf 3f 85 9f bd c2 7d 12 3e
       -0.94983023 -0.7649675 -0.077890866 0.14305785
0002b0 b5 55 ca be c9 42 02 be 4f bd e2 bd 9d 2f 1e bf
       -0.39518514 -0.12720789 -0.11071264 -0.617914
0002c0 e0 8a 39 3f a6 ac 62 bf d5 b8 17 3f 6e a0 28 3f
       0.7247753 -0.8854469 0.59266406 0.65869796
0002d0 1b 5f 1f 3d 11 1e 74 bc a1 cd 1c bf 48 9e fb 3e
       0.03890906 -0.0148997465 -0.61251265 0.49144197
0002e0 4e d4 51 bf 70 69 03 3e 00 86 32 3f 68 f8 49 3f
       -0.81964576 0.1283319 0.6973572 0.7889466
0002f0 75 0b 85 3f 57 33 5b 3f 63 1d 30 be 2b b9 a3 3d
       1.0394121 0.85625213 -0.1719871 0.07994302
000300 cc 11 87 3d d3 c4 b4 3d 94 4d 2d bf 6d 17 2f 3e
       0.06595191 0.08826604 -0.676965 0.1709878
000310 52 db 06 3f 5f 12 4a be 63 56 dd be bd 87 89 3f
       0.52678406 -0.1973357 -0.4322997 1.0744549
000320 df af 4e 3f 48 82 f2 be 68 35 01 3f 25 57 5c 3f
       0.8073711 -0.47365022 0.50472116 0.8607047
000330 f5 ab c6 3e d6 7e 9e 3f df 82 82 bd 0e 0b 02 bf
       0.38803068 1.2382457 -0.06372618 -0.5079812
000340 bc 18 60 be a2 4b 81 be c2 1f 07 3f ec 31 cb 3d
       -0.21884435 -0.25253016 0.52782834 0.09921631
000350 a3 52 47 bf f0 5b 1e bf e5 a8 90 3f 25 f7 96 bd
       -0.7786047 -0.61859035 1.1301543 -0.07371358
000360 eb 44 b2 be 45 17 ce be 97 f0 21 bf 3c 40 66 3f
       -0.34818205 -0.40252128 -0.63257736 0.89941764
000370 51 a7 26 3f d0 d4 a2 3f 2c e9 88 3f fc 08 96 3f
       0.65099055 1.2721195 1.0696158 1.1721492
000380 6c e6 07 bf 4d d6 5a be 45 7b de bd 7a 49 63 be
       -0.5308597 -0.21370812 -0.108633555 -0.22195998
000390 6b 51 f8 be 8e 07 0e bf 7f 65 4b 3f fd bb 28 3e
       -0.48499617 -0.5548028 0.79451746 0.16477962
0003a0 e8 c9 f6 be b9 a7 30 bf 85 47 07 bc 9f 43 06 3f
       -0.48200917 -0.69005924 -0.008256798 0.5244693
0003b0 b6 5c 45 be 34 df 1c bf 76 8f 02 bf 54 f0 16 3f
       -0.19273648 -0.6127808 -0.51000154 0.5896046
0003c0 1b 19 27 bf 7c f8 04 3f b9 58 d7 3e 3b 4f 06 bd
       -0.6527268 0.5194166 0.42059878 -0.032790404
0003d0 64 36 11 3f 5d bb 63 bd bd a1 3b 3f 4a 88 ce be
       0.5672362 -0.055598605 0.7329367 -0.40338355
0003e0 43 4d 8b be 1e fc 50 3e 72 99 2f 3e a4 5f 28 bf
       -0.27207384 0.20408675 0.17148378 -0.65770936
0003f0 7a 8c 17 3f eb b9 a6 bd 94 13 c0 3d 9e 78 58 3f
       0.59198725 -0.0814093 0.09378734 0.8455905

gcn_convs.1.path_weight_1.bias f4 [32]
000000 d5 90 89 3f 53 a2 ab 3f 66 9b 99 3f 5a 6a 74 bf
       1.0747324 1.3408912 1.2000549 -0.9547478
000010 06 c3 7b bf 76 a8 9c 3f d5 b9 cb 3f f3 ca 90 3f
       -0.9834446 1.223891 1.5916086 1.1311935
000020 cc e9 5a bf ea 42 86 3f 6f ec 99 3f 7b 1d 89 bf
       -0.85512996 1.048917 1.2025279 -1.0712122
000030 92 00 6a bf 71 b2 b0 3f 7c ae c2 3f 2f 51 6a bf
       -0.9140712 1.3804456 1.5209498 -0.91530126
000040 0d 3e 8b bf e3 02 95 be 10 e1 81 bf f0 83 8d 3f
       -1.0878311 -0.29103765 -1.0146809 1.1055889
000050 6b 21 94 3f 7d 90 84 3f 93 12 77 3f f1 94 2b be
       1.1572698 1.0356594 0.96512717 -0.16756035
000060 b2 55 80 3f de 3d 8c bf 9d fa 6e bf d0 f4 88 bf
       1.0026152 -1.095638 -0.93351156 -1.0699711
000070 bc 91 a0 3f 30 f5 93 3f 84 26 86 3f 40 c6 a3 3f
       1.2544475 1.15592 1.0480504 1.2794876

gcn_convs.1.path_weight_2.weight f4 [32, 32]
000000 b1 06 9f bf 6d c4 9b 3f 74 b1 80 bf ec 5f 7b bf
       -1.2423917 1.2169319 -1.0054154 -0.9819324
000010 30 96 84 bf 8c 86 81 bf 56 cb 94 3f 81 aa 90 3f
       -1.0358334 -1.0119185 1.1624553 1.1302034
000020 eb 38 7d bf 0e f7 5e bf 0a 5b 79 bf 7f 66 98 bf
       -0.98914975 -0.87095726 -0.9740454 -1.1906279
000030 99 eb 89 3f 6d 56 74 3f a5 a4 8b bf 4b 4e 91 3f
       1.0775024 0.95444375 -1.090962 1.1352018
000040 08 b7 90 3f 83 4b 82 3f 34 20 8a 3f 87 24 a3 bf
       1.1305857 1.0179294 1.0791078 -1.2745522
000050 a0 29 75 3f 34 df 89 3f b4 bf 93 bf fe 8c 9d bf
       0.9576664 1.0771241 -1.1542878 -1.2308652
000060 9a 9b 9c 3f 49 7f 83 bf ce a4 a1 bf 8f d5 90 3f
       1.2234986 -1.0273219 -1.2628419 1.1315173
000070 bc 37 88 3f fc 69 84 3f 88 a7 9c 3f 4e ee 7d 3f
       1.0642009 1.0344844 1.2238626 0.9919175
000080 b3 1b bd bf d6 3c 9c bf b6 42 81 3f 4a 61 b5 bf
       -1.4774078 -1.2206066 1.0098484 -1.4170315
000090 75 3e 1c 3f 14 e1 a6 3f a7 c0 8d bf 65 ec 8a bf
       0.610328 1.3037438 -1.1074418 -1.0853392
0000a0 c7 c9 93 3f 0e ba 42 be be 3d 96 3f 2b 5c c4 3f
       1.1545953 -0.19016287 1.1737592 1.5340627
0000b0 aa df 86 bf 75 35 a0 3f c8 19 3a bf 4c 49 45 bf
       -1.0537007 1.2516314 -0.7269559 -0.7706497
0000c0 86 5c 83 3f 9f fa 7c bf 58 0b be bf 1f 7b 9c 3f
       1.0262611 -0.9881992 -1.4847212 1.2225074
0000d0 b1 e2 c2 bf df c6 ac bf 99 dc 91 3f f3 3e 4d bf
       -1.5225431 -1.3498191 1.1395446 -0.8017418
0000e0 fc 53 b4 bf 7b 06 9d bf 76 2a b2 3f 32 90 41 3e
       -1.408813 -1.2267603 1.3919208 0.18902662
0000f0 b3 9b 8f 3f b0 fa 82 bf 0a e5 9c bf 76 06 83 bf
       1.1219391 -1.0232754 -1.2257397 -1.0236347
000100 a5 05 70 3f ea bb 9c 3f 90 88 8f 3e e7 04 6d bf
       0.9375861 1.2244847 0.28033876 -0.92585605
000110 fd a8 99 bf 7a da 88 bf f3 99 73 3f a2 d5 9e 3f
       -1.2004696 -1.0691674 0.9515678 1.2408946
000120 07 9a 8f bf 6b 4f a2 3f 0c 9f 9d bf 36 0b 9d 3f
       -1.121888 1.2680486 -1.2314162 1.2269046
000130 8b 5f 98 bf c8 f1 12 bf 75 fc 88 3f 97 0e cb 3f
       -1.1904157 -0.5740018 1.0702044 1.5863827
000140 88 8e 91 bf 48 57 84 3f 04 ed 92 bf 33 05 9f bf
       -1.1371622 1.0339136 -1.1478581 -1.2423462
000150 cc 41 ba bf 49 e0 4c bf 97 f4 b0 bf dc 56 9d 3f
       -1.455133 -0.8002973 -1.3824643 1.2292132
000160 a4 ee 9c bf 29 4e ca 3f 3b 9d 83 3f 6f 8c 7b bf
       -1.2260327 1.5805103 1.0282358 -0.9826116
000170 26 dd 7a bf 12 04 8a 3e 74 97 91 3f 0d 6d 55 3e
       -0.97993696 0.2695623 1.1374345 0.20842381
000180 2d 6c 8e bf e1 df 84 bf 79 c0 7f 3f 0a 17 99 bf
       -1.1126763 -1.0380822 0.99903065 -1.1960156
000190 7d 9b 7b bf 17 f6 7f bf bc ad 9b bf 2d 6b 81 3f
       -0.9828413 -0.9998488 -1.2162395 1.0110832
0001a0 93 b0 87 3f a0 b4 c6 3f 7b a0 8d 3f fc d8 87 bf
       1.0600761 1.5523872 1.10646 -1.0613093
0001b0 71 0a 92 3f b4 86 8c 3f c2 45 98 3f 1e 24 a0 bf
       1.1409436 1.0978608 1.1896288 -1.2511022
0001c0 c8 d0 97 3f fc 58 98 3f 3f ca 8d 3f c4 76 a5 bf
       1.186059 1.1902156 1.1077346 -1.2926869
0001d0 29 2d 96 bf 3e 52 a1 bf 61 1b 8f 3f 4e 61 7b bf
       -1.1732532 -1.2603223 1.118023 -0.9819535
0001e0 04 d1 a5 3f db 69 88 bf 2f c1 8e bf d1 4b 24 3f
       1.2954412 -1.0657305 -1.1152705 0.64178187
0001f0 86 97 7a 3f c0 b9 82 3f 65 bc 77 3f 8a 27 8e 3f
       0.97887456 1.0212936 0.9677184 1.1105816
000200 0e b8 8e 3f ae 6f 9c 3f 8c 8d 82 3e 3a 4e 96 3f
       1.1149919 1.2221582 0.25498617 1.1742623
000210 31 24 20 bf 53 67 93 3f ef 5b 87 bf b1 d2 9f 3f
       -0.62555224 1.1515907 -1.0574931 1.2486173
000220 7d cb a4 3f 44 50 68 bf a0 7b 8a bf ec 0e 8f 3f
       1.28746 -0.90747476 -1.0818977 1.1176429
000230 6a 63 79 3f 0c 01 8d bf c0 5d 9c bf b3 45 cb 3f
       0.9741732 -1.1015944 -1.221611 1.5880646
000240 58 f6 8b 3f ac 33 8b 3f a6 2e 25 bf 98 26 88 3f
       1.0934553 1.0875144 -0.64524305 1.0636778
000250 03 e2 d9 bf e7 12 a7 bf a4 f7 e2 3e ee 4f 77 bf
       -1.7022098 -1.3052644 0.4432956 -0.9660634
000260 9e e7 8a 3f bf f8 a8 3f d6 ff 8b bf 33 7c a1 3f
       1.0851934 1.3200911 -1.093745 1.2616028
000270 95 41 80 bf 9c ba b9 bf c8 47 96 3f 5f 9b 14 bf
       -1.0020014 -1.4510074 1.1740656 -0.5804958
000280 96 a2 a1 3f 7e e3 91 3f 85 15 75 bf d4 25 99 3f
       1.2627742 1.139755 -0.9573596 1.1964669
000290 f4 40 9b 3f 28 e3 94 3f c1 8a 7a 3f 6d ea 92 bf
       1.2129197 1.1631823 0.9786797 -1.1477791
0002a0 3e 13 a0 bf 27 92 97 3f d0 5f 82 bf ee 17 a4 3f
       -1.2505872 1.1841477 -1.018549 1.2819803
0002b0 3b 7f 91 bf a7 dc 86 bf fa 4d 9c bf 11 14 98 3f
       -1.1366953 -1.0536088 -1.2211297 1.1881124
0002c0 58 8f 8b bf 86 1a 9e bf 65 59 6e bf 5d da 8b 3f
       -1.090312 -1.2351844 -0.93105155 1.0926014
0002d0 f7 3e a3 bf 4e 41 c9 3e e8 f6 90 bf a1 61 ab 3f
       -1.275359 0.39307636 -1.132535 1.3389169
0002e0 94 f8 97 bf a1 89 a7 3f 45 c2 b0 3f 24 c7 a3 bf
       -1.1872735 1.3088876 1.3809286 -1.2795148
0002f0 a4 37 6e bf a0 b0 9a bf 3e 47 96 bf 06 0c 7d bf
       -0.9305365 -1.2085152 -1.1740491 -0.9884647
000300 d8 74 9b bf 93 83 93 3f 87 5d 52 bf 68 1f fc 3e
       -1.2145033 1.1524528 -0.8217396 0.4924271
000310 3d 1b cb bf d1 a7 52 bf c5 88 6d 3f d6 ca 88 3f
       -1.5867687 -0.8228732 0.9278682 1.0686901
000320 1d e1 24 be ec ff b3 bf f1 07 0f 3f 88 39 61 3f
       -0.16101499 -1.4062476 0.5587149 0.8797841
000330 32 10 6f 3e 65 e1 9f 3f 40 ce 99 3f ce 4e bc 3f
       0.23346022 1.249066 1.2016068 1.4711549
000340 a1 74 92 bf 3c 32 95 bf b9 62 a1 bf 27 5e bc bf
       -1.1441842 -1.1655955 -1.2608253 -1.4716233
000350 ca 33 85 3f 5f 93 58 be 59 90 d4 bf ca 63 9f bf
       1.040643 -0.21149968 -1.6606551 -1.2452328
000360 d7 d2 77 3f 8c 5d b1 3f 7c 01 bc bd 09 3d b2 bf
       0.9680609 1.3856673 -0.091799706 -1.3924876
000370 b1 f4 8c 3f c6 94 76 be 82 23 21 3f 7c 60 a4 3f
       1.1012174 -0.2408019 0.62944806 1.2841945
000380 a0 43 9b bf b7 33 9a bf 91 c5 71 3f 41 f6 73 bf
       -1.2130013 -1.2047032 0.9444209 -0.9529763
000390 a8 c6 81 bf 2e 3c 85 bf 14 d6 7a bf cc 13 a1 3f
       -1.013875 -1.040899 -0.9798291 1.2584167
0003a0 81 77 94 3f 8a 5a bf 3e fc eb 9c 3f 39 8f a0 bf
       1.159897 0.37373763 1.2259517 -1.2543708
0003b0 1f db 88 3f 2d e9 9e 3f 30 3d 8e 3f 89 da 88 bf
       1.069187 1.241491 1.1112423 -1.0691692
0003c0 d0 3b 8d 3f 5f ab 87 3f 72 e9 8c 3f 24 60 87 bf
       1.1033878 1.0599173 1.1008742 -1.0576215
0003d0 bc 20 a4 bf ca 41 a2 bf 39 ae 98 3f 98 3d 86 bf
       -1.282249 -1.2676327 1.1928169 -1.0487547
0003e0 87 23 97 3f c0 d9 8c bf 4e 5e 85 bf 01 b9 92 3f
       1.1807717 -1.1003952 -1.0419405 1.1462709
0003f0 f3 ed 73 bf a1 87 a0 3f 24 cf 8d 3f e2 7f 74 3f
       -0.95284957 1.2541391 1.1078839 0.95507634

gcn_convs.1.path_weight_2.bias f4 [32]
000000 60 f9 8c bf 00 7e a6 3e 28 f9 c9 3f a9 9b 6e bf
       -1.1013603 0.32518005 1.5779161 -0.9320627
000010 96 ce c5 3f 2f 42 9a 3f 4b 12 c0 3f ed 9f 75 bf
       1.545367 1.2051448 1.5005583 -0.9594715
000020 fc 21 7f 3f 57 dd 87 3f 43 f3 97 bf 1d f7 83 3f
       0.9966123 1.0614423 -1.1871113 1.0309788
000030 8a db 63 3f 1a 74 99 3f f2 8f 90 bd 6f 82 82 3e
       0.89006865 1.1988556 -0.070587054 0.25490138
000040 4a 18 85 bf db c5 4a bf c4 82 7e bf f6 d9 5c bf
       -1.0398037 -0.79208153 -0.9941828 -0.8627008
000050 0c e6 ad 3f 6d d4 a4 bf c4 d9 76 3f b4 86 39 bb
       1.358583 -1.2877327 0.96426034 -0.002830905
000060 00 d2 67 bf 36 31 73 bf 98 49 98 bf c8 c5 9d bf
       -0.9055481 -0.94996965 -1.1897459 -1.2325983
000070 be 32 92 3f f5 ab 85 3f ee 81 a2 bf d6 15 90 3f
       1.1421735 1.0443102 -1.2695901 1.1256664
