semi-supervised/saved_models/citeseer_8_layers_.pt (torch, 642377 bytes, 52 tensors)

trans_feat.weight f4 [32, 3703]
0	0x38e0f8c0	0.00010727486
1	0xbc231b63	-0.00995526
2	0xbc03c9cd	-0.0080437185
3	0x3c0c68ea	0.008569935
4	0xbbf480bf	-0.007461637
5	0x3bfdab9e	0.0077414056
6	0x3bf1974a	0.0073727714
7	0x3c1315b4	0.008977342
8	0x3c103c6c	0.008803468
9	0x3c353848	0.011060782
10	0x3bf877e4	0.0075826515
11	0x3c1e52ad	0.009663266
12	0xbb1befda	-0.0023794086
13	0xbb47d632	-0.003049266
14	0x3c11549e	0.008870272
15	0xbbf94bb4	-0.0076079015
16	0xba481630	-0.0007632701
17	0xbc153251	-0.009106235
18	0xbc4ad75a	-0.012380445
19	0x3b44065a	0.0029911012
20	0xbc1642a6	-0.009171164
21	0xbbd103ce	-0.0063786274
22	0x3c3fa50d	0.011697066
23	0xbbc618d1	-0.006045439
24	0xba7ea248	-0.0009713513
25	0xbbc6ea08	-0.006070379
26	0xbbcae191	-0.0061914404
27	0xbbfbe6da	-0.0076874318
28	0x3c1bbbff	0.009505271
29	0xbb934a51	-0.004494943
30	0x3b02c06c	0.0019951118
31	0x3bbb76e6	0.005720961
32	0xbb93ca78	-0.00451022
33	0x3b4a44aa	0.003086368
34	0xbb65daad	-0.0035072968
35	0x3be50bfd	0.0069899545
36	0xba433e60	-0.0007447954
37	0xbc603f72	-0.013687002
38	0x3bf21d05	0.0073887133
39	0x3ab77824	0.0013997597
40	0xbbba4446	-0.0056844084
41	0x3c0b63b3	0.008507657
42	0xbc05bfab	-0.008163373
43	0x3bf1b721	0.007376567
44	0xbc3cceb4	-0.011523891
45	0xbb9951f9	-0.0046789614
46	0xbb84acd4	-0.004048923
47	0xb98fa610	-0.00027398812
48	0xbbd81c3a	-0.0065951617
49	0xbb833c59	-0.0040049967
50	0x3c0c1483	0.008549812
51	0xbbfc8344	-0.007706078
52	0x3b96b881	0.0045996313
53	0x3c2250e6	0.009906983
54	0xbc1593a6	-0.00912944
55	0xbbcb9e09	-0.0062139076
56	0x3b274aa8	0.0025526676
57	0xbb8f9988	-0.004382316
58	0xbb709194	-0.0036707865
59	0xbace46e4	-0.001573768
60	0x3bd99ca9	0.00664099
61	0xbbc64768	-0.0060509928
62	0xbc1033cc	-0.008801412
63	0x3c07ef43	0.0082967905
64	0xbc008a76	-0.007845512
65	0xbbccd46b	-0.006250908
66	0xbbeecf3f	-0.0072878893
67	0x3bdfbfe4	0.006828295
68	0xbc108939	-0.008821779
69	0xbc03d44f	-0.008046224
70	0xbbbcb20e	-0.0057585305
71	0x3c1028d6	0.008798799
72	0xbb0ae43c	-0.0021193167
73	0x3a7805f8	0.00094613386
74	0x3b36b0ec	0.002787645
75	0x3b380174	0.0028077038
76	0x3b7cd258	0.0038577523
77	0x391f3d00	0.00015186146
78	0xbb60df02	-0.003431261
79	0xbc123177	-0.008922926
80	0xbc06cfdb	-0.008228268
81	0xbc0d207b	-0.008613701
82	0x3a17b8c8	0.00057877274
83	0xbbea0750	-0.007141985
84	0x3be972f0	0.0071242973
85	0xbb6a4f3e	-0.0035752798
86	0x3b9cf6ba	0.0047901543
87	0x3bc87fea	0.006118764
88	0xbc17492a	-0.009233752
89	0xbb9d68c0	-0.004803747
90	0xbb70882a	-0.0036702254
91	0x3bf34c0b	0.0074248365
92	0x3c08054d	0.008302045
93	0x3aac9bd0	0.0013168994
94	0xbbcbe7e2	-0.006222711
95	0x3bf65ad9	0.007518154
96	0xbc125edc	-0.008933749
97	0x3c0fab03	0.0087688
98	0x3ba073f0	0.0048966333
99	0xbb72c47a	-0.0037043379
100	0x3c0ebc2d	0.008711857
101	0x3c102dd7	0.008799992
102	0x3bb5609c	0.0055351984
103	0xba9a2e0c	-0.0011762991
104	0x3c05c168	0.008163787
105	0x3b2baee6	0.0026196777
106	0x3b23bc9c	0.0024984246
107	0xbbe9ebe4	-0.007138716
108	0xbc007944	-0.007841412
109	0x3baf9720	0.0053585917
110	0xbb03227c	-0.0020009568
111	0xba23d350	-0.00062494446
112	0xbc10d495	-0.008839746
113	0xbbb9558c	-0.00565595
114	0x3b9ec3bb	0.0048451102
115	0xbc0fb8cc	-0.008772086
116	0xbb8e6d9c	-0.0043465625
117	0xbc07f819	-0.008298897
118	0xbbc937fc	-0.006140707
119	0xbc5b506c	-0.013385873
120	0x3c153ea2	0.009109171
121	0xbbeefd51	-0.0072933813
122	0xbc07bdf6	-0.008285036
123	0xbbedb5eb	-0.0072543523
124	0xbc05aeb7	-0.008159331
125	0xbbdd5a34	-0.006755138
126	0x3c12c018	0.0089569315
127	0x3c0d73e2	0.008633586
128	0xbbd67fb5	-0.0065459856
129	0x3ba43037	0.0050106305
130	0xbc14d0ed	-0.009083015
131	0x3c258ab0	0.010103866
132	0x3a923318	0.0011154143
133	0x3aa27e6a	0.0012397293
134	0x3c06c824	0.008226428
135	0x3b8917ac	0.00418373
136	0xbc12ca65	-0.008959387
137	0xbc1611c0	-0.009159505
138	0xbb968569	-0.0045935404
139	0xbb2c04c6	-0.0026247962
140	0xbbacbaee	-0.005271307
141	0x3aa9d5c4	0.0012957384
142	0x3bce22f6	0.0062907888
143	0x3b672d52	0.0035274816
144	0x3c0f45c6	0.008744663
145	0xbbe4f8d6	-0.0069876714
146	0xbc0389a0	-0.008028418
147	0xbc1635e0	-0.009168118
148	0xbc584295	-0.013199468
149	0x39c62d10	0.00037799077
150	0x3c04fd4a	0.008117029
151	0x3c0ff4aa	0.00878636
152	0x3bc91702	0.006136776
153	0xbc01a366	-0.007912492
154	0xbc0cd39c	-0.0085953735
155	0x3c015335	0.007893373
156	0xbc06cf5a	-0.008228147
157	0x3be7dc22	0.0070758024
158	0x3c0f82e3	0.008759233
159	0x3c05cfd4	0.008167226
160	0x3c066f15	0.008205195
161	0xbb07e748	-0.002073722
162	0x3a32d148	0.00068213465
163	0x3bcf841a	0.0063328864
164	0xb99613b0	-0.00028624898
165	0x3b982314	0.0046428535
166	0x3bf3fb01	0.0074456935
167	0xbb8cbecc	-0.0042952057
168	0x3bb655e0	0.0055644363
169	0x3cbf40cc	0.023346327
170	0x3c352064	0.011055086
171	0x3b169cf6	0.002298174
172	0xbbf1d125	-0.0073796683
173	0xbc0ce8cd	-0.008600426
174	0xbb8bdfa2	-0.0042686025
175	0x3ac32ae8	0.0014890106
176	0x3c0bc0e1	0.008529873
177	0xbc429af2	-0.011877762
178	0xbb2bb456	-0.0026200018
179	0x3bf3bd49	0.007438336
180	0xbbf7f898	-0.0075674765
181	0xbc0b79be	-0.008512912
182	0xbba0ac26	-0.004903334
183	0x3be21daa	0.006900509
184	0xbc544207	-0.012955195
185	0x3c03d104	0.008045439
186	0x3bdf019d	0.0068056122
187	0xbbca15f7	-0.006167169
188	0xbc10a3e6	-0.008828139
189	0xbbf56927	-0.007489342
190	0x3be4a1bb	0.0069772876
191	0xbbeac024	-0.007164018
192	0x3c0af2a5	0.0084807025
193	0x3c1a7738	0.009427838
194	0x3a9eb4e8	0.0012108358
195	0x3b76aebe	0.0037640776
196	0x388740c0	6.449362e-05
197	0xbc5e074c	-0.013551544
198	0xbbc8599a	-0.006114197
199	0x3b5cdb7a	0.0033700154
200	0x3c191e7e	0.009345649
201	0x3bb051ac	0.00538083
202	0x3bf48f71	0.0074633886
203	0xbc0267a6	-0.007959282
204	0x3bb0906e	0.005388311
205	0xbc0697b4	-0.00821488
206	0xbc48efd0	-0.012264207
207	0x3c0e4dd9	0.0086855525
208	0x3c008d23	0.00784615
209	0x3bbb74cb	0.00572071
210	0x3c4096f2	0.011754738
211	0x3c433ee2	0.011916848
212	0xbb7313be	-0.0037090625
213	0xbb9a6cf2	-0.0047126943
214	0xbc14b439	-0.009076172
215	0xbbf5909f	-0.007494047
216	0xb966cd20	-0.00022010924
217	0xbc1913f1	-0.009343133
218	0x3bbaa226	0.005695599
219	0x3b8dee0d	0.0043313564
220	0x3b9e0f01	0.004823566
221	0x3bc57b50	0.006026663
222	0xbc022ab8	-0.007944755
223	0x3b422f00	0.0029630065
224	0xbbe84e45	-0.0070894086
225	0x3b6b130e	0.0035869512
226	0x3bb91b02	0.0056489715
227	0x3a745178	0.0009320001
228	0xbb880738	-0.004151251
229	0x3b6e2d50	0.0036342926
230	0x3aed2de2	0.0018095339
231	0xbc10df02	-0.008842232
232	0x3c0681ee	0.008209689
233	0x3be5c1d4	0.0070116315
234	0x3b6032aa	0.0034209886
235	0x3bc22920	0.0059253126
236	0x3c502745	0.012704675
237	0x3b9d918b	0.00480861
238	0xbc0b4db7	-0.008502415
239	0x3bc9e230	0.006160997
240	0xbc0830f2	-0.008312451
241	0xbc1ee473	-0.009698021
242	0x3be0a1b5	0.0068552145
243	0x3bc8e4cc	0.0061307903
244	0x3ba3e23c	0.0050013345
245	0xbb86ec6b	-0.0041175387
246	0xbaf9f720	-0.0019070841
247	0xbbe3b9ec	-0.006949654
248	0xbbd3f09f	-0.0064678933
249	0xbb07ef46	-0.0020741983
250	0x3bef2e08	0.0072991885
251	0x3bfc2e49	0.0076959473
252	0x3bffd804	0.0078077335
253	0xbc236e4e	-0.009975029
254	0x3bfe2a3f	0.007756501
255	0x3bec52af	0.007212005

trans_feat.bias f4 [32]
0	0xbc0ff6ad	-0.008786839
1	0xbbbffde4	-0.0058591235
2	0xbc0d8996	-0.00863876
3	0x3c127871	0.008939848
4	0x3c0ebb9d	0.008711723
5	0x3c0cca8e	0.008593215
6	0xbc10f817	-0.008848212
7	0xbc0f4777	-0.008745066
8	0xbc125327	-0.008930958
9	0x3c0a9933	0.008459377
10	0x3b9d5ab4	0.0048020724
11	0x3bdbe04b	0.0067100874
12	0x3c092823	0.008371386
13	0xbbe823ec	-0.0070843603
14	0xbc12225d	-0.008919326
15	0xbc0ec162	-0.008713098
16	0x3ba6b432	0.005087399
17	0x3c02ab5e	0.007975427
18	0xbba2fb35	-0.004973794
19	0x3c08ca32	0.008348988
20	0x3c0f5684	0.008748654
21	0xbc121d2c	-0.008918088
22	0x3c1263bb	0.00893491
23	0xbbe4d6aa	-0.0069835978
24	0xbc0ba914	-0.008524198
25	0xbc128639	-0.008943134
26	0x3b9793af	0.0046257596
27	0xbc0f026c	-0.008728605
28	0xbbe4fdb4	-0.0069882516
29	0x3c122e64	0.008922193
30	0x3c0added	0.008475763
31	0xbc028052	-0.007965164

pred_trans.weight f4 [6, 3703]
0	0x3d8bbd91	0.06823266
1	0x3f4e1b3b	0.805103
2	0x3dd9f335	0.10642091
3	0xbd4da402	-0.05020524
4	0xbb9da6ec	-0.0048111584
5	0x3cd16b34	0.025563814
6	0x3c71e4e6	0.014764046
7	0x3d129c84	0.035793796
8	0xbc045902	-0.008077862
9	0xbd69b9ec	-0.057062075
10	0x3af70a84	0.0018847738
11	0xbb7eb584	-0.0038865516
12	0xbc6b674e	-0.0143678915
13	0xbea440c3	-0.3208066
14	0x3bc23b06	0.0059274463
15	0x3cae0719	0.021243619
16	0xbdb825ee	-0.089916095
17	0xbc2ce248	-0.0105519965
18	0xbec8952d	-0.39176312
19	0xbd25a950	-0.040444672
20	0xbc4cf304	-0.012509111
21	0x3d0df0f6	0.034653626
22	0xbf28700c	-0.6579597
23	0x3ce80ed5	0.028327385
24	0xbdf75016	-0.12075822
25	0xbe17c709	-0.1482202
26	0xbc9ac5e8	-0.018893197
27	0xbdc03d1d	-0.093866564
28	0xbe5bf644	-0.21480662
29	0x3f101ff4	0.56298757
30	0xbd947ac4	-0.07249978
31	0x3f007792	0.5018245
32	0xbea6760d	-0.3251194
33	0x3d8bb291	0.06821168
34	0xbe03c43e	-0.12867829
35	0x3e196587	0.14980136
36	0xbe4e1f7c	-0.20129198
37	0xbdae6211	-0.085147984
38	0xbdb20874	-0.086930186
39	0xbb93ce57	-0.0045106816
40	0xb90fd950	-0.00013718498
41	0xbe42af13	-0.19012098
42	0xbd00b987	-0.031426933
43	0xbc967c2c	-0.018369757
44	0xbef6fb24	-0.4823848
45	0x3e8c3fdc	0.2739247
46	0x3d501c3d	0.05080818
47	0xbb895f05	-0.0041922354
48	0xbdf8a790	-0.12141335
49	0xbc8272e4	-0.015923925
50	0x3a026a08	0.00049749063
51	0xbdbde3f8	-0.09271997
52	0x3b78eb06	0.0037981882
53	0xbdbbac13	-0.0916368
54	0x3ddf18c7	0.10893398
55	0x3eafaa80	0.3430977
56	0x3c4ee450	0.012627676
57	0x3e8684e6	0.26273268
58	0x3d5b19c0	0.053491354
59	0x3d8b7554	0.06809488
60	0xbc76526a	-0.0150342975
61	0x3f00a494	0.50251126
62	0xbce28803	-0.027652746
63	0x3a7929b8	0.0009504813
64	0xbd2de366	-0.042453192
65	0xbf4946fc	-0.7862394
66	0x3d51dc48	0.051235467
67	0x3b745528	0.0037282202
68	0x3cb3d0da	0.021950174
69	0xbcca9cf5	-0.024733046
70	0x3d376bae	0.044780426
71	0xbcabbf91	-0.02096537
72	0xbdd704ab	-0.10498937
73	0x3eecf830	0.46283102
74	0x3d06cee8	0.032912165
75	0x3f3c2344	0.7349131
76	0x3ee73bcd	0.45162812
77	0xbe204109	-0.15649809
78	0xba409cf0	-0.0007347604
79	0x3bd4dea3	0.006496267
80	0x3d26f820	0.040763974
81	0xbc182256	-0.00928553
82	0xbde46dcd	-0.11153755
83	0xbcdc95da	-0.026926924
84	0xbe2531b8	-0.16132247
85	0x3c0db736	0.008649638
86	0x3d9535ae	0.07285629
87	0x3f23d410	0.63995457
88	0xbcdf8a31	-0.027287574
89	0x3b91ae52	0.0044458294
90	0xbba48ea0	-0.005021885
91	0x3dc8142a	0.09769471
92	0xbd684049	-0.056701932
93	0x3c19fbe6	0.009398436
94	0x3d9bf2fb	0.07614704
95	0xbe68f67a	-0.22750273
96	0xbd295e1c	-0.041349515
97	0xbb964ec1	-0.004587025
98	0x3da2db76	0.07952015
99	0xbbf41476	-0.007448728
100	0xbbe1a78e	-0.006886429
101	0x3d749085	0.059708137
102	0x3e576a02	0.21036533
103	0xbd053a16	-0.0325261
104	0xbd94122d	-0.07230029
105	0x3ce2b09c	0.027672105
106	0x3d37bc28	0.044857174
107	0xbe0cc097	-0.13745342
108	0xbc9e13ea	-0.019296605
109	0xbd4c7ac4	-0.049921766
110	0x3e2b7953	0.167455
111	0xbd4cb52a	-0.04997746
112	0x3c6b581f	0.014364271
113	0xbd598ae6	-0.05311098
114	0x3dfdf3bf	0.124000065
115	0xba1a83f0	-0.0005894294
116	0xbd875b64	-0.06609228
117	0x3c120021	0.008911164
118	0xbd6c2347	-0.05765083
119	0xbccee7a0	-0.025256932
120	0xbc72c3c1	-0.014817179
121	0xbd824f26	-0.063627526
122	0xbd60c1f2	-0.05487246
123	0xbcd98362	-0.026551906
124	0xbd3a62b0	-0.045504272
125	0xbe0d0a8f	-0.13773559
126	0x3c16d759	0.009206616
127	0xbdc24dff	-0.09487533
128	0x3d6b1918	0.05739698
129	0xbeb99f2d	-0.36254254
130	0xbd3245e8	-0.0435237
131	0x3dd3e6ba	0.10346742
132	0xbcc70516	-0.024294417
133	0xbdc29962	-0.09501912
134	0xbc4099da	-0.011755431
135	0xbc31fedc	-0.010863986
136	0x3d3a26a4	0.045447007
137	0x3c836b72	0.016042445
138	0xbe74b7dd	-0.23898263
139	0xba9c1a88	-0.0011909762
140	0xbe1cbacf	-0.15305637
141	0xbd3dcc37	-0.046337333
142	0xbd9b297d	-0.07576273
143	0x3d40cdb2	0.047071166
144	0x3bc6a85c	0.0060625505
145	0x3c936619	0.01799302
146	0x3d34138c	0.043963954
147	0x3bd6f554	0.006560007
148	0x3eb8a288	0.36061502
149	0xbe17f627	-0.14839993
150	0xbe3b53c3	-0.18293671
151	0xbae102a9	-0.001716693
152	0x3bcb340c	0.006201273
153	0x3d8a9348	0.06766373
154	0xbc97c5fa	-0.01852702
155	0x3f158c30	0.58417034
156	0xbcd483ec	-0.025941812
157	0xbca8896d	-0.020573342
158	0xbca75bc2	-0.020429496
159	0xbb8b4182	-0.0042497525
160	0xbc96c6ec	-0.0184054
161	0xbd08e751	-0.033423726
162	0xbc7c4939	-0.015398317
163	0x3c9c96d6	0.019114893
164	0x3c5d4cb0	0.013507053
165	0x3e3b412c	0.1828658
166	0x3f4bc251	0.7959338
167	0xbcdcca7c	-0.02695202
168	0x3d3438f7	0.04399964
169	0xbe906241	-0.28199962
170	0x3b558c34	0.0032584788
171	0x3d7b6d45	0.061383504
172	0x3c375adf	0.011191099
173	0x3ea01f7a	0.31274015
174	0xbe047079	-0.1293353
175	0xbdad0f06	-0.08450131
176	0xbc229d09	-0.009925135
177	0xbdbf5c24	-0.09343746
178	0xbdc387a4	-0.09547356
179	0xbdd92690	-0.10603058
180	0xbc318403	-0.010834697
181	0xbd1fabbd	-0.03898214
182	0x3b5f081d	0.0034031936
183	0xbc9ebfe1	-0.019378604
184	0xbc87c48c	-0.016573213
185	0xbbdb4ae1	-0.006692276
186	0xbe0cbb37	-0.13743292
187	0xbbda1c78	-0.006656226
188	0xbd23fa3f	-0.040033575
189	0xbdd0dfe1	-0.101989515
190	0xbd67942f	-0.056537803
191	0x3c6d14c6	0.014470285
192	0xbbba0bba	-0.0056776674
193	0x3d20b365	0.039233584
194	0x3e0763f0	0.13221717
195	0xbd747400	-0.05968094
196	0xbce1e6d8	-0.027575895
197	0x3f01a7a8	0.5064645
198	0x3cf53b8f	0.029935626
199	0xbc58a42e	-0.013222737
200	0x3f16eb0c	0.58952403
201	0xbc41c362	-0.011826368
202	0xbbe4dc16	-0.006984244
203	0xba2a1e40	-0.0006489493
204	0x3c14317a	0.009044999
205	0xbbe9be2a	-0.007133265
206	0xbe563a7b	-0.20920746
207	0x3c0d3b5a	0.008620108
208	0xbb6642c0	-0.0035135
209	0x3ed3e92e	0.4138884
210	0x3eff21be	0.4983043
211	0xbea4c9c9	-0.321852
212	0xbe01fab6	-0.12693295
213	0xbd8e79bf	-0.06956815
214	0xbdd806e8	-0.10548192
215	0xbda58a91	-0.0808307
216	0xbd07ff62	-0.033202536
217	0xbda488f9	-0.08033938
218	0x3d3b4f5a	0.045729972
219	0xbda930ec	-0.08261284
220	0xbd6b9b47	-0.05752113
221	0xbc1f1faa	-0.009712139
222	0xbd8f6f80	-0.07003689
223	0x3daea0bf	0.08526754
224	0x3e036aee	0.12833759
225	0x3e95bf6b	0.29247603
226	0xbe16b322	-0.14716771
227	0xbd15ead2	-0.036600895
228	0x3cba9976	0.022778254
229	0x3e04d2db	0.1297106
230	0x3eee8441	0.46585277
231	0x3ca8dba0	0.020612538
232	0xbd2ed85c	-0.042686805
233	0x3ceb56e6	0.02872796
234	0xbccb8498	-0.024843499
235	0xbce1ecf6	-0.027578812
236	0x3ca16ba6	0.019704651
237	0xbd8ecc11	-0.06972516
238	0xbcfa5b85	-0.030561218
239	0xbb55d9bc	-0.0032631
240	0xbe304786	-0.17214784
241	0xbd57321e	-0.05253803
242	0xbca75c1e	-0.020429667
243	0xbbf8ddc1	-0.0075947945
244	0x3da10e10	0.0786401
245	0x3e10f572	0.1415613
246	0xbd713e27	-0.058897164
247	0x3f2fe06f	0.68701833
248	0x3ea6288e	0.32452816
249	0xbe941ef6	-0.2892987
250	0xbddfa440	-0.1092
251	0xbbc69410	-0.006060131
252	0xbccd7142	-0.02507842
253	0xbdd24899	-0.10267753
254	0xbe15cbd6	-0.14628538
255	0x3c0c6b63	0.008570525

pred_trans.bias f4 [6]
0	0xbcaeef51	-0.02135435
1	0x3b1e7624	0.0024179304
2	0xbc110551	-0.008851365
3	0x3c34667d	0.011010763
4	0x3d02fe9e	0.031981103
5	0x3b8604d8	0.004089933

gcn_convs.0.path_weight_1.weight f4 [32, 32]
0	0x3cabe2d6	0.020982187
1	0xbc1246c5	-0.008928006
2	0xbd847aa2	-0.06468703
3	0x3c962fec	0.018333398
4	0xbc402711	-0.011728064
5	0xbb3249ea	-0.00272047
6	0x3cf067a2	0.029346291
7	0x3c98d69d	0.018657023
8	0xba30f51b	-0.0006750391
9	0xbc9043c8	-0.017610446
10	0x3c4a3a2e	0.012342973
11	0x3cd6feea	0.0262446
12	0x3bc11e96	0.0058935387
13	0xbd364f4e	-0.044509225
14	0xbcb4c1f3	-0.022065138
15	0xbca452df	-0.020059047
16	0x3b9b5134	0.004739905
17	0xbc76a720	-0.015054494
18	0x3c01ab7b	0.007914419
19	0x3bee19ae	0.007266245
20	0x3c561f8f	0.013069048
21	0xbc1fe9b4	-0.009760309
22	0x3b38bb85	0.0028187942
23	0xbc88efab	-0.016715845
24	0xbbb0b452	-0.0053925896
25	0xbcf75e4a	-0.030196328
26	0x3ccbe799	0.024890708
27	0x3cc18fa2	0.02362806
28	0x3c6597bd	0.014013228
29	0x3d0f60d7	0.035004463
30	0x3cbd7626	0.023127627
31	0xbd2522c2	-0.04031635
32	0x3ca66fd7	0.020317001
33	0x3c34fd09	0.011046656
34	0x3d080d60	0.03321588
35	0x3cc315fb	0.023814192
36	0xbc3dc80d	-0.01158334
37	0x3c8da55c	0.017290764
38	0xbd2af35d	-0.041735996
39	0x3cd4d358	0.025979683
40	0xbc16a8e7	-0.009195543
41	0xbb443093	-0.002993618
42	0xbce5ca66	-0.028050613
43	0xbcd9248d	-0.026506687
44	0x3c496466	0.012292003
45	0xbcda81a2	-0.026673142
46	0x3d1669ac	0.03672187
47	0x3c474c9f	0.012164264
48	0x3c861121	0.01636559
49	0x3d0f7cff	0.035031315
50	0xbcf562b4	-0.029954292
51	0xbc004802	-0.007829668
52	0x3ccd56c0	0.02506578
53	0xbc313f8f	-0.010818376
54	0xbb9cf502	-0.0047899494
55	0x3cb11f2e	0.021621313
56	0x3c8d513d	0.017250651
57	0x3b494099	0.003070867
58	0xbca20bb3	-0.01978097
59	0x3c83ee17	0.016104741
60	0x3d077cd8	0.033078045
61	0xbc844148	-0.01614441
62	0xbc0d429c	-0.008621838
63	0xbc79a1d6	-0.015236339
64	0x3b088366	0.0020830273
65	0xbb2a502a	-0.0025987723
66	0x3b8479e1	0.0040428494
67	0xbc424163	-0.01185641
68	0xbae56753	-0.0017502106
69	0x3d41ed6e	0.04734557
70	0xbcd0187b	-0.025402298
71	0xbc74f307	-0.01495052
72	0xbbfad4cd	-0.0076547624
73	0xbbceb894	-0.0063086245
74	0xbcef0a16	-0.029179614
75	0x3d148398	0.03625831
76	0x3d3f1742	0.04665304
77	0xbd17b882	-0.037041195
78	0xbd01e61a	-0.031713583
79	0xbd477e9c	-0.04870473
80	0x3ca5590b	0.02018406
81	0xbcddadf6	-0.02706049
82	0xbca0340f	-0.019556073
83	0x3d1af7b7	0.037833896
84	0xbb87e5fd	-0.00414729
85	0x3ca19d79	0.01972841
86	0xbcf1571e	-0.029460486
87	0x3c8c697b	0.01714014
88	0x3d3dde3a	0.04635451
89	0xbc8467bd	-0.016162748
90	0xbc283acf	-0.010267927
91	0xbcf82a36	-0.030293565
92	0xbce68a87	-0.028142227
93	0x3d2b5e58	0.04183802
94	0x3d2ff258	0.042955726
95	0xbcd00b77	-0.025396092
96	0x3b2eb2da	0.0026656897
97	0xbc57b61a	-0.013165975
98	0x3c45ef01	0.012080909
99	0x398dbd6f	0.00027034755
100	0xbad277c8	-0.0016057426
101	0x3c7caf34	0.015422631
102	0xbc6813a0	-0.014164835
103	0x3c77cebe	0.015124975
104	0xbbac0749	-0.005249892
105	0xba54a2c1	-0.00081114104
106	0x3c31ffc8	0.010864206
107	0x39abb302	0.00032749033
108	0xbc08bfa0	-0.008346468
109	0xba9eeb6e	-0.0012124607
110	0x3c88943f	0.016672252
111	0xbb364818	-0.0027813967
112	0xbbd0a67f	-0.006367504
113	0x3abcefde	0.0014414748
114	0xbc91b34e	-0.017785694
115	0x3c064343	0.008194747
116	0x3c9112f0	0.017709225
117	0x3c53b415	0.012921353
118	0x3bc71dcd	0.0060765506
119	0x3c7f6e50	0.015590265
120	0x3aab9a6e	0.0013092288
121	0x3cb078a4	0.021541901
122	0xbc4e0c19	-0.0125761265
123	0xbb5bf5ec	-0.003356333
124	0xbc122d02	-0.0089218635
125	0x3c030ec6	0.007999128
126	0xbc8e6fd1	-0.017387303
127	0xbba6351e	-0.00507225
128	0xbc3b5036	-0.011432698
129	0x3cc5dbf1	0.024152728
130	0xbc0c7f6f	-0.008575304
131	0xbd2153b1	-0.039386455
132	0xbcc68d0f	-0.024237184
133	0xbd0c85de	-0.034307353
134	0x3c5e328b	0.013561855
135	0xbcea6974	-0.028614737
136	0x3d0cb76f	0.034354623
137	0x3cb65a48	0.022259846
138	0xbc83c107	-0.016083254
139	0xbca4dbb2	-0.02012429
140	0xbc12ce02	-0.008960249
141	0x3b4bf504	0.0031121382
142	0xbc910c4f	-0.017706065
143	0x3c9c3640	0.019068837
144	0xbc9fdf20	-0.019515574
145	0xbd107bd0	-0.035274327
146	0x3c9c1724	0.019054003
147	0xbc922277	-0.0178387
148	0xba153c5c	-0.0005692893
149	0xbb4ee0d0	-0.0031567104
150	0xbcb8a0fb	-0.022537699
151	0xbcbd9a85	-0.02314497
152	0xbc9ed9f4	-0.019391038
153	0xbb1a3940	-0.0023532659
154	0xbcb60232	-0.022217844
155	0xbc638e06	-0.0138888415
156	0x3cac6f6b	0.021049222
157	0xbc8c20d1	-0.017105492
158	0x3ccc26ce	0.024920847
159	0x3c73e70c	0.014886629
160	0x3c01b6b4	0.007917095
161	0x3be8944b	0.007097756
162	0x3d0aad12	0.03385646
163	0x3d2da6a7	0.04239526
164	0xbc9974a4	-0.018732376
165	0xb800c2fc	-3.069917e-05
166	0x3befb818	0.007315647
167	0x3b32ae88	0.0027264673
168	0x3d5c6623	0.053808343
169	0xbd143222	-0.036180623
170	0x3c8b40e9	0.016998725
171	0x3cdb202d	0.026748741
172	0xbc600c09	-0.013674744
173	0xbbab88a2	-0.0052347938
174	0xbcbf39e8	-0.023343042
175	0x3af68aaf	0.0018809641
176	0xbd7428f8	-0.059609383
177	0xbce27bd9	-0.027646946
178	0x3b82a953	0.00398747
179	0x3cf84564	0.030306526
180	0xbd029f9a	-0.03189049
181	0xbc0da851	-0.008646087
182	0x3d2571e9	0.040391836
183	0xbbf37089	-0.0074291867
184	0xbc9b990f	-0.018993882
185	0x3d58e071	0.05294842
186	0x3c9c54b1	0.019083353
187	0xbd98b71a	-0.07456799
188	0xbcf0023a	-0.029297937
189	0x3ca90f3a	0.020637143
190	0xbcdc1779	-0.026866661
191	0xbc83c7fb	-0.016086569
192	0xbbc5182a	-0.0060148435
193	0x3b495c28	0.0030725095
194	0x3c2a2197	0.010383985
195	0x3cc5beb8	0.024138793
196	0xbc7c2f98	-0.015392207
197	0xbc7ca45e	-0.015420048
198	0x3c4cb068	0.01249323
199	0xbc3e9ff9	-0.01163482
200	0x3d02434f	0.03180247
201	0x3d0a64f1	0.03378767
202	0x3b43ad71	0.0029858018
203	0x3cbdac8e	0.02315357
204	0x3c54d3f4	0.012989987
205	0x3c30f8fd	0.010801551
206	0xbc232091	-0.009956495
207	0xbcaadefe	-0.020858284
208	0x3c5b94e6	0.013402199
209	0x3ba7d9a0	0.0051223785
210	0x3ccef27b	0.025262108
211	0x3c8e3402	0.017358784
212	0x3b81bfcf	0.003959633
213	0xbd03cefc	-0.032179818
214	0xbab2e3cc	-0.0013648211
215	0xbca78663	-0.020449823
216	0xbc768e0b	-0.015048514
217	0x3bcc34cc	0.00623188
218	0xbc18a739	-0.009317213
219	0x3d24f238	0.04027006
220	0x3d231915	0.039818842
221	0x3caf8a97	0.02142839
222	0xbbdca1de	-0.0067331633
223	0xbc8474e0	-0.016169012
224	0xbc31794d	-0.010832143
225	0xbc22835e	-0.009919016
226	0x3ceac46b	0.028658113
227	0x3c16084b	0.009157251
228	0xbc9fa97b	-0.019489994
229	0xbb00f72d	-0.0019678578
230	0x3bee18cf	0.007266141
231	0xbcf95d70	-0.030440062
232	0x3bc9b653	0.006155768
233	0xbd1ed1f4	-0.038774446
234	0xba965658	-0.0011469824
235	0xbbf52afd	-0.0074819312
236	0xbd18d60a	-0.0373135
237	0xbc02948e	-0.0079699885
238	0x3c98277e	0.018573519
239	0xbc9c2054	-0.019058384
240	0x3c0ad372	0.008473264
241	0x3c919567	0.017771436
242	0xbc4f0fb4	-0.012638021
243	0x3c068500	0.008210421
244	0x3bd47cf1	0.0064846207
245	0xbca3b7ae	-0.019985046
246	0x3c577a58	0.013151728
247	0x3cd7bbd2	0.026334677
248	0xbc96e503	-0.018419748
249	0xbd2ebe04	-0.04266168
250	0xbca7d77f	-0.020488499
251	0x3bbbf9a1	0.005736545
252	0xbb8d5b25	-0.004313844
253	0x3b486894	0.0030579912
254	0x3b5c5784	0.00336215
255	0xbc984096	-0.018585484

gcn_convs.0.path_weight_1.bias f4 [32]
0	0x3bf63bb7	0.007514443
1	0xbe950ce7	-0.29111406
2	0xbde0b451	-0.109718926
3	0x3dc8b5b0	0.09800279
4	0xbdccd9c0	-0.1000247
5	0x3f834065	1.0254027
6	0xbd44663b	-0.047949057
7	0xbecabd74	-0.39597666
8	0x3f366548	0.7124829
9	0x3dcfddcf	0.101497285
10	0x3d5e0174	0.054200605
11	0xbf2dd325	-0.67900306
12	0xbf158fa2	-0.5842229
13	0xbc9a5de4	-0.018843599
14	0x3f794114	0.97364926
15	0x3cf1ba3a	0.029507745
16	0x3cc7ce0a	0.02439024
17	0xbd81bf12	-0.06335272
18	0xbefc69c2	-0.49299437
19	0xbe265b0b	-0.16245668
20	0x3c61e534	0.013787556
21	0xbf5f3e16	-0.8720411
22	0x3d261557	0.040547695
23	0x3c2bd8be	0.010488687
24	0x3ef7322c	0.48280466
25	0x3d266c64	0.040630713
26	0xbcf9e164	-0.030502982
27	0xbefef4fe	-0.4979629
28	0xbc2311fc	-0.009953018
29	0x3d8de1d4	0.06927839
30	0xbe0f19cb	-0.13974683
31	0xbc446d6a	-0.011988977

gcn_convs.0.path_weight_2.weight f4 [32, 32]
0	0xbb8d6be4	-0.00431584
1	0x3b1bf94d	0.0023799718
2	0xbaf4ebda	-0.0018686012
3	0x3b9e7adb	0.004836423
4	0xbbd82c6b	-0.006597092
5	0x3ba44dec	0.005014172
6	0xbb4f3454	-0.0031616883
7	0x3ba93db3	0.005164826
8	0xbb1303d6	-0.0022432706
9	0xbba8a069	-0.0051460755
10	0xb6b4d8f6	-5.3896756e-06
11	0xbb9a05b5	-0.0047003874
12	0x3bb32aa9	0.005467732
13	0x3bc3b970	0.0059730336
14	0x3bcdd953	0.0062820106
15	0x3b1656d3	0.0022939935
16	0xbba7e43e	-0.005123644
17	0xbb3dad18	-0.0028942283
18	0x3a69e5e1	0.0008922499
19	0x3abef18d	0.0014567837
20	0xba3e4587	-0.0007258285
21	0xba9e7fb7	-0.0012092505
22	0x3bc6dae4	0.0060685743
23	0x3be4bcd4	0.006980518
24	0x3a17379f	0.0005768481
25	0x3c10d474	0.008839715
26	0xbbc8d659	-0.006129068
27	0xbc0f3bb4	-0.008742262
28	0x3b8ca57c	0.004292188
29	0xbb3b1baf	-0.0028550436
30	0x3b96b505	0.004599216
31	0x3c10412b	0.0088046
32	0xbab9cd64	-0.0014175591
33	0xbbcf351a	-0.006323469
34	0xbbc16c8c	-0.0059028324
35	0xbbc075e3	-0.005873428
36	0x3a775236	0.00094345526
37	0xbb0a12a0	-0.002106823
38	0xbbb3586c	-0.005473187
39	0x3b82687f	0.003979742
40	0x3aa2b3b5	0.0012413176
41	0x3a0fe9c5	0.00054898515
42	0x3aef48e7	0.001825598
43	0x3ae2f693	0.0017315916
44	0xbbe56595	-0.007000635
45	0x3a210a39	0.0006143186
46	0x3ba86296	0.0051387055
47	0x3b254bee	0.002522226
48	0xbb1af92f	-0.002364706
49	0x3ba8cb31	0.0051511754
50	0xbba60f31	-0.005067729
51	0xbbd80d18	-0.006593358
52	0xbabbcb75	-0.0014327603
53	0x3ab9da77	0.0014179487
54	0x3baae0da	0.0052147927
55	0xbbb36a40	-0.0054753125
56	0x3b9b5ffa	0.004741666
57	0xbbb6712d	-0.005567691
58	0xbc12a797	-0.008951089
59	0xbadf3740	-0.0017030016
60	0x3c0f7c21	0.008757622
61	0xbabdbfe5	-0.0014476745
62	0x3bc35456	0.0059609814
63	0x3b8d52dc	0.004312856
64	0x3a9ef0fc	0.0012126262
65	0xbbb8d711	-0.0056408723
66	0xbbec44e6	-0.007210362
67	0x3bf14c81	0.0073638563
68	0xbb468687	-0.0030292587
69	0x3b78da76	0.003797201
70	0x3b0ea419	0.002176529
71	0xbbb11369	-0.005403925
72	0xbb7a7f30	-0.0038222782
73	0xbba8a3e1	-0.005146489
74	0xbbdd182e	-0.006747267
75	0x3be8cb7f	0.0071043367
76	0x3a863226	0.0010238334
77	0x3be95b31	0.0071214666
78	0xbc12a019	-0.008949303
79	0x3b63b184	0.0034743259
80	0x3b86c5e5	0.0041129463
81	0xbb9c51bb	-0.004770485
82	0x3c12860c	0.008943092
83	0x3a8d7559	0.0010792419
84	0xbb476a43	-0.0030428327
85	0x3b8d785d	0.004317327
86	0xbbda20c1	-0.0066567366
87	0xbbb1a426	-0.0054211793
88	0x3c050841	0.008119644
89	0xba4d1254	-0.00078228605
90	0x3bc5e741	0.0060395305
91	0xbc104511	-0.008805529
92	0xbbd1d708	-0.0064038076
93	0x3bc08a4a	0.0058758603
94	0x3bb4b131	0.005514287
95	0xba2c7b97	-0.00065796956
96	0x3c12f392	0.0089692045
97	0xbbe5feca	-0.0070188986
98	0x3c0ea83e	0.008707104
99	0xbbe2b0f3	-0.0069180666
100	0x3a378e96	0.0007002143
101	0x39c296f9	0.00037115047
102	0x3c0ecd17	0.008715889
103	0x3bb21d95	0.0054356554
104	0x3b1db6cb	0.0024065252
105	0x3ab96670	0.0014144909
106	0xb9e3e99c	-0.00043470867
107	0xbbb4e611	-0.00552059
108	0xbb9aef61	-0.004728243
109	0x39238481	0.00015594253
110	0x3b23df12	0.0025004786
111	0xbb83e8d0	-0.004025556
112	0x3bd18f33	0.0063952445
113	0xbc0b8dd8	-0.008517705
114	0xbbe92a5f	-0.0071156467
115	0x3b4c5690	0.0031179525
116	0xbababcd8	-0.0014246954
117	0xbb06786c	-0.0020518554
118	0xbbefea1c	-0.007321609
119	0xbbc91761	-0.00613682
120	0xb9b8bbef	-0.00035235236
121	0xbb84cf4b	-0.0040530316
122	0x3ad71acd	0.0016411185
123	0xbbe4d724	-0.0069836546
124	0xba4d8e41	-0.0007841327
125	0xb84a24e2	-4.8194903e-05
126	0xbbc65558	-0.0060526542
127	0x3b2df370	0.0026542805
128	0xbc1270e4	-0.008938048
129	0x3bafbfd4	0.005363444
130	0xba7e2667	-0.00096950534
131	0xbb807db5	-0.0039212354
132	0x3bb3c478	0.0054860674
133	0xbbc0fd18	-0.005889546
134	0x3bcf774a	0.006331359
135	0x3983deab	0.00025152168
136	0x3b17e174	0.0023175152
137	0xbb2d46d6	-0.0026439927
138	0x3b9db034	0.004812265
139	0x3bf1be4e	0.0073774224
140	0x3b9bd584	0.0047556777
141	0xbbcd3e96	-0.0062635643
142	0xb7dcb6b9	-2.631113e-05
143	0xbc077336	-0.0082672145
144	0xbbda90f1	-0.0066701104
145	0xbbf1af9c	-0.0073756706
146	0xba98eae1	-0.0011666679
147	0xbbcebbcd	-0.0063090087
148	0x3beb374a	0.007178222
149	0xbb9eb9e9	-0.0048439396
150	0x3bcd5609	0.0062663597
151	0x3b5ff42c	0.0034172637
152	0x3bd9bb28	0.006644625
153	0xba9b1db8	-0.0011834418
154	0xbb39ee72	-0.0028370884
155	0x3bb1f54a	0.005430852
156	0xbbc0efa9	-0.0058879447
157	0x3bd39bae	0.0064577674
158	0x3baa915d	0.005205317
159	0xba644c45	-0.0008708875
160	0xbbd13eb0	-0.0063856468
161	0x3c12b1b6	0.008953502
162	0x3be60820	0.0070200115
163	0xba11bfba	-0.00055598805
164	0xbbaf055c	-0.005341215
165	0xbb238ff4	-0.002495763
166	0x3aae4073	0.0013294354
167	0xbb4cb832	-0.0031237719
168	0xbaec88d6	-0.0018046151
169	0xba38a291	-0.0007043267
170	0x3aafe442	0.0013419467
171	0x3bbe2cbd	0.005803673
172	0xbb6315e2	-0.0034650494
173	0x3a56bd48	0.0008191657
174	0x3b60dc67	0.0034311058
175	0xbb77efc9	-0.0037832132
176	0xbb649581	-0.003487915
177	0x3a585031	0.00082516955
178	0x3bf1f588	0.007384006
179	0x3bb73d90	0.0055920556
180	0x3abb1b76	0.0014275152
181	0x3a4424b5	0.00074822764
182	0xbb001232	-0.0019542095
183	0xb927635a	-0.00015963372
184	0x3bcd4d38	0.0062653087
185	0x3bef61d3	0.0073053627
186	0x3bbea579	0.0058180657
187	0x3bbb2ebd	0.0057123587
188	0x3bd98be3	0.0066389902
189	0x3ad30921	0.0016100743
190	0xbb24f858	-0.0025172438
191	0xba1fb418	-0.0006092205
192	0x3ba32cce	0.0049797064
193	0xbbcfccaa	-0.0063415365
194	0xbba34620	-0.004982725
195	0xbba2b5e2	-0.00496553
196	0x3aeb0713	0.0017931185
197	0x3be0871c	0.006852044
198	0xbba419cd	-0.0050079585
199	0xba754054	-0.0009355594
200	0xbb9eb223	-0.004843013
201	0x3b98e07b	0.004665432
202	0xbbcee4a2	-0.0063138762
203	0x3ba18b5e	0.004929944
204	0xba14dda1	-0.0005678777
205	0x3ae169ce	0.001719767
206	0x3bdb5d08	0.00669444
207	0x3bd58264	0.006515788
208	0xbb856d90	-0.0040718988
209	0x3a4bfd11	0.0007781545
210	0xbab4c451	-0.0013791417
211	0x3b71cb12	0.003689472
212	0xba8abf61	-0.00105856
213	0x39cdccfa	0.00039253366
214	0x3a166e5f	0.00057384925
215	0xbb630d80	-0.0034645498
216	0xbbeffe45	-0.0073240125
217	0xbbde5724	-0.0067852903
218	0xba4ca7ec	-0.0007807005
219	0x39aa35cb	0.00032465006
220	0xbbbfef3b	-0.005857376
221	0xbadd25a3	-0.0016872179
222	0xbbe5336b	-0.006994655
223	0xbb3ff467	-0.0029289962
224	0x3bcb8ed5	0.0062120953
225	0xbbb20756	-0.0054330034
226	0xbbc49a43	-0.0059998347
227	0xb986441c	-0.00025609217
228	0x3af9b6d6	0.0019051682
229	0xbabbe197	-0.0014334199
230	0x3baf9ea8	0.0053594895
231	0xbb54606c	-0.0032406105
232	0xbc060068	-0.008178808
233	0x3b377e0d	0.0027998716
234	0x3bce4069	0.0062942994
235	0xbb602d09	-0.003420653
236	0x3c0cf3e4	0.00860307
237	0x3ba5b1cd	0.005056596
238	0x3b79d877	0.0038123408
239	0xbae40d71	-0.0017399025
240	0x3a84e37c	0.0010138596
241	0x3b9875dd	0.0046527223
242	0xbb25e272	-0.0025311974
243	0xbbefb338	-0.0073150657
244	0xbc094c70	-0.0083800405
245	0x3b87398b	0.0041267327
246	0x3b2ea1e0	0.0026646778
247	0x3ba84d85	0.005136194
248	0x3c051549	0.008122751
249	0x3ab7a8b1	0.0014012066
250	0xba6cd40b	-0.00090342824
251	0xbaef6c21	-0.0018266478
252	0x3ae0c2d5	0.0017147908
253	0x3bc93478	0.006140288
254	0x39291ef3	0.00016128625
255	0x3b9d642b	0.0048032007

gcn_convs.0.path_weight_2.bias f4 [32]
0	0xbd860221	-0.06543375
1	0xbe63a020	-0.22229052
2	0x3d257b45	0.040400762
3	0x3db34ef9	0.08755297
4	0x3bf9266b	0.0076034567
5	0x3f801b49	1.0008327
6	0xbec13172	-0.37733036
7	0xbec916ea	-0.39275295
8	0xbdf20eee	-0.11819254
9	0xbf0a3df1	-0.54000765
10	0x3d85e04d	0.065369226
11	0xbf2b8122	-0.66993916
12	0xbf0d1290	-0.5510645
13	0x3c97f39f	0.018548785
14	0x3f7486ec	0.95518374
15	0x3d2e3fdc	0.04254137
16	0xbca6717a	-0.020317782
17	0xbf172d74	-0.5905373
18	0xbf10116d	-0.5627659
19	0xbe82e16f	-0.25562617
20	0xbd133fdd	-0.035949577
21	0xbc05af19	-0.008159422
22	0xbd0d9c09	-0.034572635
23	0xbe614fc1	-0.2200308
24	0x3d86f4d9	0.0658967
25	0x3d1aa7a9	0.03775755
26	0x3f8126bf	1.0089949
27	0xbf00933c	-0.5022466
28	0x3cbf58a1	0.023357691
29	0xbecf2c24	-0.40463364
30	0xbdc9f24f	-0.0986067
31	0x3c814ab9	0.0157827

gcn_convs.1.path_weight_1.weight f4 [32, 32]
0	0xbbdb7091	-0.0066967686
1	0x3c2661d3	0.010155159
2	0xbb7ff896	-0.003905808
3	0xbc580940	-0.013185799
4	0xbc86e6db	-0.016467502
5	0xbc8dc191	-0.017304214
6	0x3c92aee7	0.017905666
7	0xbb9568ce	-0.004559613
8	0x3bfdc9dd	0.0077450112
9	0xbc968a02	-0.018376354
10	0x3c795ee3	0.015220377
11	0x3c0450df	0.008075922
12	0xbc81584e	-0.015789177
13	0xbcb2dcab	-0.021833738
14	0x3b052e1f	0.002032168
15	0x3bb55364	0.0055336226
16	0x3ca4c666	0.020114135
17	0x3b30905d	0.0026941516
18	0x3c677d78	0.014129035
19	0x3c0d4e4c	0.008624624
20	0xbcb4c3bb	-0.022065988
21	0x3b6afa0b	0.0035854604
22	0xbb994d2f	-0.0046783905
23	0xbba71b08	-0.005099658
24	0xbc6758b7	-0.014120272
25	0xbc8c23af	-0.017106859
26	0x3c0a1c0b	0.0084295375
27	0xbc1d22df	-0.009590833
28	0xbc4ea545	-0.0126126455
29	0x3a691372	0.0008891142
30	0xbc6b4ca7	-0.014361537
31	0xbbdcd527	-0.006739277
32	0x3bb71756	0.0055874987
33	0x3b509f12	0.0031833095
34	0x3c239ccb	0.009986113
35	0xbc2eafda	-0.0106620435
36	0xbca273cf	-0.019830612
37	0x3c2af2ef	0.010433896
38	0xbb47b7af	-0.0030474474
39	0xbbad069e	-0.00528033
40	0xbc45aa89	-0.0120645845
41	0xbc53230f	-0.012886777
42	0x3b6b8291	0.0035935978
43	0x3b1541fb	0.0022774923
44	0x3add44fc	0.0016881521
45	0xbc060d98	-0.008181952
46	0x3c76a6f5	0.015054454
47	0x3c91542f	0.017740337
48	0x3c7752ed	0.015095455
49	0xbc86d560	-0.016459167
50	0x3c9e0b6e	0.01929256
51	0xbc35f9fc	-0.011106964
52	0xbc60d1c7	-0.01372189
53	0x3bc26864	0.0059328545
54	0x3c8d6866	0.017261695
55	0xbc5b34e0	-0.013379306
56	0x3c74dbbd	0.014944968
57	0xbb6c6092	-0.0036068303
58	0x3c5e6141	0.013572992
59	0x3b85939a	0.0040764334
60	0xbb1f1324	-0.0024272883
61	0x3c7b0d66	0.015323019
62	0xbc069b35	-0.008215715
63	0x3a1a8b98	0.0005895435
64	0x3c6fd6a9	0.014638581
65	0xbc253b77	-0.010084978
66	0x3b46ab50	0.0030314513
67	0xbb93b060	-0.0045071095
68	0x3ba6c1ad	0.005089006
69	0x3aa9dad8	0.0012958897
70	0xbad5af45	-0.0016302845
71	0x3b9da45d	0.0048108534
72	0xbbb3c45d	-0.005486055
73	0x3b87b7c1	0.004141778
74	0x3b7a761a	0.0038217367
75	0xb9d9c3a0	-0.00041535217
76	0x3b977c12	0.0046229446
77	0x3bb75e5f	0.0055959667
78	0x3ba04f3d	0.0048922584
79	0x3bfc5ca5	0.007701474
80	0x39e88a6c	0.0004435362
81	0xbab953be	-0.0014139337
82	0x3b384319	0.0028116165
83	0x3bfa03f6	0.0076298667
84	0xbb82d035	-0.0039921054
85	0x3c19547f	0.009358524
86	0x3c006d77	0.007838598
87	0xbc21add0	-0.0098681
88	0xbc85c0f4	-0.016327359
89	0xbb43b16f	-0.0029860397
90	0x3a440bdf	0.00074785756
91	0x3c482f79	0.01221835
92	0x3c004a4b	0.007830213
93	0xbb99ca25	-0.004693287
94	0xbb08c11d	-0.0020867058
95	0x3a61a717	0.0008607967
96	0x3c3ccbda	0.011523211
97	0xbbe6b76e	-0.0070409095
98	0xba42075c	-0.00074016093
99	0xbc6e31c5	-0.014538233
100	0xbc970f1f	-0.018439827
101	0x39d52a92	0.00040658243
102	0xbc4107a6	-0.011781609
103	0xbb094c1c	-0.0020949906
104	0xbc547c63	-0.012969109
105	0x3c8e802d	0.017395103
106	0x3c177b59	0.009245717
107	0xbc9bde32	-0.01902685
108	0x3c197c38	0.009367995
109	0xbb374d04	-0.002796949
110	0x39c67357	0.00037851438
111	0xbc19cb4e	-0.0093868505
112	0x3ba1d4fa	0.004938719
113	0xbc243cc7	-0.010024256
114	0x3c48bbce	0.012251807
115	0x3c5e67c9	0.013574549
116	0xbc463f7d	-0.012100098
117	0x3c157290	0.009121552
118	0x3bc88435	0.006119276
119	0xbbee9555	-0.0072809854
120	0x3ba775d2	0.005110481
121	0x3bff64b9	0.0077939895
122	0x3c2f9da0	0.010718733
123	0xbb100369	-0.002197469
124	0xbc0cebcf	-0.008601143
125	0xbb93856e	-0.00450199
126	0xbc89c862	-0.016819183
127	0xbbca7afb	-0.006179211
128	0xbc8dcac1	-0.017308595
129	0xbc24bf0e	-0.010055317
130	0x3a228178	0.0006199102
131	0x3c024bae	0.007952614
132	0xbc3ebfd4	-0.011642415
133	0xbbb5fa86	-0.0055535464
134	0x3ccab00d	0.02474215
135	0xbbbb258d	-0.0057112635
136	0x3c0dc764	0.008653495
137	0x3ca0c9b3	0.019627428
138	0xbc942728	-0.018085077
139	0x3cc11703	0.023570543
140	0x3c42a169	0.0118793035
141	0xbc9eff98	-0.019408986
142	0xbc05537f	-0.008137583
143	0xbc9154e1	-0.017740669
144	0x3ca7845e	0.02044886
145	0xbc86f305	-0.016473303
146	0xbc19362e	-0.009351296
147	0xbba3fb18	-0.005004298
148	0x3c21a11d	0.009865073
149	0xbc084179	-0.008316391
150	0x3c306d6d	0.010768277
151	0xbbd0347d	-0.0063539133
152	0x3cb02032	0.021499727
153	0xbcaf3da6	-0.021391701
154	0xbc6b6d12	-0.014369266
155	0x3c8a65f0	0.01689431
156	0xbc70a502	-0.014687778
157	0xbc8b5923	-0.017010277
158	0xbb1d298f	-0.002398107
159	0xbca187db	-0.019718101
160	0x3b66bebf	0.0035208908
161	0x3b890fb5	0.0041827806
162	0x3ad9dda3	0.0016621839
163	0xba5c7c17	-0.0008410825
164	0x3b13c2bd	0.0022546493
165	0x3b166c84	0.0022952864
166	0xbbb9d5ea	-0.0056712525
167	0x3c00e668	0.007867433
168	0xbbbb3d4f	-0.0057140957
169	0x3bb17c10	0.0054164007
170	0x3b8a997d	0.004229723
171	0x3b7eac4a	0.0038860017
172	0x3b9406f8	0.0045174323
173	0xbba6f410	-0.0050950125
174	0xbc0bfc7f	-0.0085440865
175	0xba079b9b	-0.00051730283
176	0xbbc79256	-0.0060904427
177	0x3b1fd3c6	0.0024387701
178	0xbbc8b49c	-0.006125046
179	0xbbd05564	-0.0063578356
180	0xbb80c615	-0.003929863
181	0x3b7bdb15	0.0038430144
182	0x3bfd1208	0.0077230968
183	0x3bb9e040	0.0056724846
184	0x3b6dd08b	0.0036287631
185	0x3b958744	0.004563244
186	0xbbc9da94	-0.0061600897
187	0xbb95ae54	-0.0045679007
188	0x3bb9d843	0.0056715324
189	0xbb6e192e	-0.0036330926
190	0xbba8212b	-0.005130907
191	0xbb2d43f0	-0.00264382
192	0xbc0c264c	-0.008554053
193	0x3bb50f54	0.005525509
194	0x3b89d107	0.004205826
195	0xbb34835b	-0.0027544114
196	0x3bb729fb	0.0055897213
197	0x3bc6464c	0.0060508605
198	0xbbbf76be	-0.0058430126
199	0x3925f34a	0.00015826258
200	0x3c82c249	0.015961783
201	0xba8d92ea	-0.001080123
202	0xba8762e1	-0.0010329151
203	0x3b358130	0.002769541
204	0xbb426f95	-0.002966856
205	0x3c0a6688	0.008447297
206	0xbbec14f6	-0.007204647
207	0xbc41814e	-0.011810614
208	0x3bf52945	0.0074817264
209	0xbbac03eb	-0.0052494905
210	0xbbb210d2	-0.005434134
211	0xba1761f8	-0.00057747914
212	0xbc398165	-0.011322354
213	0xbba35b19	-0.004985225
214	0x3b7c9cf0	0.003854569
215	0x3bc5f860	0.0060415715
216	0xbbbb5bc2	-0.0057177255
217	0x3b955118	0.0045567863
218	0x3bf494b4	0.007464016
219	0x3c736bb9	0.014857226
220	0xbbab377b	-0.0052251196
221	0x3b34559b	0.0027516845
222	0xbbabfacb	-0.0052484027
223	0xbc1bc8ec	-0.009508353
224	0xbbc46e55	-0.005994598
225	0xbc34e15a	-0.011040056
226	0x3c2f9616	0.010716936
227	0x3c7461e6	0.014915919
228	0xbbc46413	-0.005993375
229	0xbc21ba1a	-0.00987103
230	0xbb8f7806	-0.0043783216
231	0xb9a455b5	-0.00031344374
232	0x3c33c3b8	0.010971956
233	0x3b51bcb4	0.0032003345
234	0x3c0b0cbe	0.008486925
235	0xbc2b90d5	-0.010471542
236	0x3c7c79fa	0.015409941
237	0x3b5a6a75	0.0033327613
238	0x3c91751c	0.017756037
239	0x3bd09124	0.0063649584
240	0xbc69c0b1	-0.014267133
241	0xbb814d01	-0.003945947
242	0xbc048ed3	-0.008090693
243	0xbb8ee7d9	-0.0043611345
244	0x3be6d105	0.00704396
245	0x3bc4f624	0.0060107876
246	0x3bba4539	0.0056845215
247	0x3ba63a08	0.005072836
248	0x3b82f80c	0.0039968546
249	0xbc338a04	-0.010958198
250	0xba845d73	-0.0010098651
251	0xbba430c3	-0.0050106957
252	0xbbfa4288	-0.0076373257
253	0x3c2a07c4	0.010377828
254	0xbac89aaf	-0.0015304888
255	0x3be8a663	0.007099913

gcn_convs.1.path_weight_1.bias f4 [32]
0	0xbca3f079	-0.020012127
1	0x3c142164	0.009041164
2	0xbbb3f603	-0.0054919734
3	0x3cd7a68c	0.026324533
4	0xbd86f895	-0.06590382
5	0xbd1aed5d	-0.037824024
6	0xbcc6ed77	-0.024283154
7	0xbc17e3db	-0.009270634
8	0x3a5bed0d	0.00083895103
9	0x3bfd1844	0.00772384
10	0x3cbb045f	0.022829233
11	0xbc99d935	-0.01878033
12	0x3c858454	0.01629845
13	0xbd280a10	-0.04102522
14	0x3af023a6	0.0018321171
15	0xbcbfa450	-0.02339378
16	0x3d0b13fd	0.03395461
17	0x3d298a2b	0.041391533
18	0xbd288de7	-0.041150954
19	0xbba6e5fb	-0.005093334
20	0xbaf2ba22	-0.0018518607
21	0xbd8e16ed	-0.069379665
22	0x3d1aea3e	0.037821047
23	0x3c8d4739	0.017245876
24	0x3c45fa2b	0.0120835705
25	0xbd7f4d81	-0.062329773
26	0x3d110dd5	0.035413582
27	0xbd4f91eb	-0.050676268
28	0x3d1390b4	0.03602667
29	0xbbdcdcdd	-0.006740196
30	0xbc997581	-0.018732788
31	0x3c6f37f1	0.01460074

gcn_convs.1.path_weight_2.weight f4 [32, 32]
0	0x3cc86e05	0.024466524
1	0xbd8cbc66	-0.06871872
2	0x3c94d86e	0.018169608
3	0xbd4d9f13	-0.050200533
4	0xbd95c3a9	-0.0731271
5	0x3df60412	0.12012495
6	0xbcd80065	-0.026367376
7	0x3b9bdb81	0.0047563915
8	0xbd2a86c8	-0.041632444
9	0xbdf3749f	-0.11887478
10	0xbcea00ab	-0.028564772
11	0x3b239411	0.002496008
12	0xbc4f9839	-0.01267057
13	0xbc3b76d1	-0.011441902
14	0xbbb6950c	-0.005571967
15	0xbd14a30f	-0.036288317
16	0xbc6a9b57	-0.0143192625
17	0xbc6f46f5	-0.01460432
18	0xbde02839	-0.10945172
19	0xbb9fafb4	-0.0048732404
20	0x3cca3f16	0.024688285
21	0x3c7c5315	0.015400668
22	0xbc5266bc	-0.012841877
23	0xbdba9cba	-0.091119245
24	0xbdc9efb1	-0.09860171
25	0xbe3f0922	-0.18655828
26	0x3c0bb2c3	0.008526507
27	0xbd04235b	-0.03226028
28	0xbc97f081	-0.018547298
29	0xbd782362	-0.06058062
30	0xbd4fcaf5	-0.050730664
31	0x3d3700b7	0.044678416
32	0x3d39b62b	0.045339745
33	0x3aaf2357	0.0013361973
34	0x3b047c38	0.0020215642
35	0xbacbf06f	-0.0015559326
36	0x3d02d6de	0.031943195
37	0xbdeba3b6	-0.11505835
38	0x3b186b82	0.002325744
39	0x3db7d19e	0.08975528
40	0xbd654322	-0.055972226
41	0x3c611abb	0.013739283
42	0x3cb927f4	0.022602059
43	0x3cfbfd26	0.030760359
44	0x3d3fc271	0.046816293
45	0xbb4d0078	-0.0031280797
46	0xbd265f24	-0.040618077
47	0xbd150f0d	-0.036391307
48	0xbc35ea0b	-0.0111031635
49	0x3cbd392f	0.023098556
50	0x3da3e1a8	0.08002025
51	0xbd741f08	-0.059599906
52	0x3d78d710	0.060751975
53	0xbd30159f	-0.04298937
54	0xbb33a34d	-0.0027410567
55	0xbccc70b5	-0.024956087
56	0x3ca61878	0.02027534
57	0x3cde4478	0.027132258
58	0xbd45a6ff	-0.048254963
59	0xbda0513b	-0.078279935
60	0x3d7ff043	0.06248499
61	0x3c90a162	0.017655078
62	0x3bfe6791	0.007763811
63	0x3d19de27	0.037565377
64	0xbb8529ae	-0.0040638065
65	0x3d807e72	0.062741175
66	0x3cf8a5ec	0.030352555
67	0x3cf4ae50	0.029868275
68	0xbd08d129	-0.033402596
69	0xbd6faecf	-0.05851632
70	0x3cb39b76	0.021924715
71	0x3d7ca7b7	0.061683383
72	0xbc02524c	-0.007954191
73	0x3d02073b	0.031745177
74	0x3db5fcb4	0.0888609
75	0x3cbb115d	0.022835428
76	0xbcab142a	-0.020883638
77	0xbcabde3e	-0.020979997
78	0x3d97809e	0.07397579
79	0x3c563ded	0.013076288
80	0x3bb8f135	0.0056439885
81	0x3d1a40a0	0.037659287
82	0xbdb2bb8e	-0.087271795
83	0x3da11c66	0.07866745
84	0xbc902b7a	-0.017598856
85	0xbc2da0da	-0.010597432
86	0x3c98d3a5	0.018655607
87	0x3cb5040e	0.02209666
88	0xbc44630e	-0.011986507
89	0xbc90f555	-0.017695108
90	0x3c740191	0.014892952
91	0xbd17798a	-0.036981143
92	0x3d48c3ef	0.04901498
93	0x3d50d9aa	0.05098883
94	0xbd008c9b	-0.03138409
95	0x3bf8737b	0.0075821257
96	0x3c8bce2f	0.01706609
97	0xbb67acc1	-0.0035350772
98	0x3e012465	0.1261154
99	0xbd424fe1	-0.04743946
100	0xbf2a1a4d	-0.6644638
101	0x3f7e6570	0.9937353
102	0x3ce44f8f	0.027869968
103	0xbd9fe605	-0.078075446
104	0x3dae4993	0.08510127
105	0xbd6be218	-0.057588667
106	0xbdc37075	-0.09542934
107	0x3d195cb8	0.03744194
108	0x3e60419d	0.2190003
109	0xbf4c99d4	-0.79922223
110	0xbd99d5bf	-0.07511472
111	0xbad18011	-0.0015983601
112	0xbd1e61aa	-0.03866736
113	0x3cb650eb	0.022255382
114	0x3de944ce	0.113900766
115	0xbf3a428f	-0.7275781
116	0xbccf513c	-0.02530729
117	0xbd0f0e61	-0.034925822
118	0x3f2aa435	0.6665681
119	0x3dc5655c	0.096384734
120	0xbddcf360	-0.107886076
121	0xbbc2c87f	-0.005944311
122	0x3ec11beb	0.37716612
123	0x3d537eed	0.051634718
124	0xbd85ff97	-0.065428905
125	0xbd4f6268	-0.050630957
126	0x3cdaa44b	0.02668967
127	0xbf148c09	-0.58026177
128	0x3c66bf16	0.014083644
129	0x3ce5e9da	0.02806561
130	0xb9e5b467	-0.00043812694
131	0x3c5b777c	0.0133951865
132	0x3f184721	0.59483534
133	0xbf4b2338	-0.79350615
134	0xbbb8d075	-0.0056400844
135	0xbd354685	-0.044256706
136	0xbd663d81	-0.056211
137	0x3d04020c	0.032228515
138	0x3c144b94	0.009051222
139	0xbbb71d3f	-0.005588203
140	0xbe206e1d	-0.15667005
141	0x3ee786c1	0.45219997
142	0x3dba0c4c	0.09084377
143	0x3c607d7c	0.013701793
144	0xbc73c00f	-0.014877333
145	0xbd8f88da	-0.07008524
146	0x39a49dd0	0.00031398097
147	0x3f38289e	0.71936977
148	0xbd0b2574	-0.033971265
149	0x3cab3e7e	0.020903822
150	0xbec2b734	-0.38030398
151	0xbd9b454e	-0.07581578
152	0xbd808d8e	-0.062769994
153	0xbdc4447b	-0.09583374
154	0xbe942914	-0.2893759
155	0x3c442875	0.011972536
156	0x3c5200f5	0.012817611
157	0x3bc594ca	0.0060297
158	0x3c5d07ae	0.0134906005
159	0x3eafbd1a	0.3432396
160	0x3ce301a0	0.027710736
161	0x3a251a5d	0.0006298179
162	0x3c08e0fe	0.008354424
163	0xba1e2e48	-0.0006034118
164	0xbd854bec	-0.065086216
165	0x3a35fb03	0.0006942006
166	0xbb8c7fa4	-0.004287677
167	0x3d854b3e	0.06508492
168	0xbd28415d	-0.04107796
169	0xbdbc829a	-0.09204598
170	0xbc99729c	-0.018731408
171	0x3d610a96	0.054941736
172	0xbb8eeb59	-0.0043615517
173	0x3d3e1a3f	0.04641175
174	0x3c838a2e	0.0160571
175	0xbc0b6ad3	-0.008509356
176	0xbca40064	-0.020019718
177	0xbccd2e5f	-0.025046526
178	0x3d165c27	0.036708977
179	0xbe0aaa24	-0.13541466
180	0xbc7f1694	-0.015569348
181	0xbc9a2a2b	-0.018818935
182	0x3cfe13f8	0.031015381
183	0xbcb66b84	-0.022268064
184	0x3d240fed	0.04005425
185	0x3d403db3	0.04693384
186	0x3d49cece	0.04926949
187	0xbdbd57a0	-0.09245229
188	0x3cc6635f	0.024217306
189	0x3c1b8967	0.0094932085
190	0xbd7a194c	-0.06105928
191	0xbd0a1d5a	-0.033719398
192	0xbcd1c617	-0.025607152
193	0xbd03b5ee	-0.032155924
194	0x3d948028	0.07251006
195	0x3ba9a846	0.0051775305
196	0xbb03cc71	-0.002011087
197	0x3d317a58	0.043329567
198	0x3c5c2791	0.013437168
199	0xbd084c89	-0.033276115
200	0x3cc9e91a	0.024647284
201	0xbcb689b4	-0.022282459
202	0x3cda05d2	0.026614103
203	0x3b814849	0.0039453846
204	0x3cf27bd5	0.029600063
205	0x3d1aa26c	0.037752554
206	0xbd61e0fa	-0.055146195
207	0xbca77440	-0.020441175
208	0x3c61a973	0.01377331
209	0x3c8483f9	0.01617621
210	0xbbea1224	-0.007143276
211	0xbda343a3	-0.07971885
212	0xbcad0d26	-0.021124434
213	0xbc43f173	-0.011959421
214	0x3c2c2b65	0.010508393
215	0xbdb5d131	-0.08877791
216	0xbd02f6e4	-0.031973734
217	0xbd22faf1	-0.039790098
218	0x3c5a8325	0.013336931
219	0x3d62e887	0.055397537
220	0xba21bb29	-0.00061695516
221	0xbc51425d	-0.01277217
222	0xbd00d5ab	-0.03145377
223	0xbc5f592c	-0.0136321
224	0x3b88d22b	0.0041754446
225	0x3ca4eb2a	0.020131666
226	0x3d5e7526	0.05431094
227	0x3cb675ef	0.022273032
228	0x3d6312ef	0.05543798
229	0x3f0895ea	0.5335375
230	0xbc8d4081	-0.017242672
231	0x3c67f2fe	0.014157055
232	0xbccd6e5c	-0.025077038
233	0xbd13a767	-0.03604832
234	0xbd3eff2c	-0.04663007
235	0xbbc5c71f	-0.0060357
236	0x3d1b28e9	0.03788081
237	0x3db40db8	0.08791679
238	0xbd9baa6a	-0.07600863
239	0xbcbe0317	-0.023194833
240	0xbcc6a94a	-0.024250645
241	0xbbbdcae7	-0.00579201
242	0xbddfa8b3	-0.10920849
243	0xbe3e894f	-0.18607067
244	0x3be78118	0.0070649497
245	0xbba43a04	-0.005011799
246	0x3cdb02f6	0.02673481
247	0x3da2b9b4	0.07945576
248	0xbc438a67	-0.011934853
249	0x3d664b33	0.05622406
250	0xbc71a4c4	-0.014748756
251	0xbd3a3dd5	-0.045469124
252	0xbcf0450e	-0.029329803
253	0xbb9dcac6	-0.0048154322
254	0xbc054f18	-0.008136533
255	0x3d83fc98	0.06444663

gcn_convs.1.path_weight_2.bias f4 [32]
0	0x3d24a375	0.040194947
1	0x3c2524b4	0.0100795515
2	0x3d0cee45	0.03440692
3	0x3ec15833	0.37762603
4	0xbe87c536	-0.26517648
5	0xbd172281	-0.03689814
6	0x3d0f172d	0.03493421
7	0x3cf3b247	0.029748095
8	0x3d004e7c	0.03132485
9	0xbd3bcc99	-0.045849416
10	0x3c0de3d0	0.008660272
11	0xbd9f9674	-0.077923685
12	0x3d580240	0.05273652
13	0xbc8bf1e5	-0.017083118
14	0xbd42aef4	-0.04753013
15	0x3ee51d03	0.44748697
16	0x3d36aab9	0.044596408
17	0xbd23715a	-0.039903022
18	0xbd5b218a	-0.053498782
19	0xbd1aca44	-0.03779055
20	0xbc5e05c6	-0.013551181
21	0x3d720a3f	0.059091803
22	0xbb5021b6	-0.0031758375
23	0xbce3b8d2	-0.02779809
24	0xbbda5d80	-0.006663978
25	0xbcd66b06	-0.02617408
26	0xbedb4a08	-0.4282992
27	0xbd9d5cab	-0.07683691
28	0x3d12f873	0.03588147
29	0x3d407f15	0.046996195
30	0xbce5f88c	-0.028072618
31	0x3c5e3432	0.013562249
