semi-supervised/saved_models/citeseer_32_layers_.pt (torch, 900217 bytes, 196 tensors)

trans_feat.weight f4 [32, 3703]
0	0xbe7f14f7	-0.24910341
1	0xbf8d8b57	-1.1058148
2	0x3dc292d6	0.09500663
3	0xbf083f51	-0.53221613
4	0x3e41467c	0.18874544
5	0xbd1bdd66	-0.03805294
6	0xbc9e0007	-0.019287122
7	0x3ce9e7e3	0.028552955
8	0x3d156b52	0.0364793
9	0x3f0f4c5b	0.55975884
10	0xbca51164	-0.020149894
11	0xbf3af9bc	-0.73037314
12	0x3d737be5	0.059444327
13	0xbf93fe9b	-1.1562074
14	0xbcf451c9	-0.029824154
15	0x3dbf90d0	0.09353793
16	0xbf8c9e5e	-1.098583
17	0x3f5c8874	0.8614571
18	0xbdb37b53	-0.087637566
19	0x3e314086	0.1730977
20	0xbd6848de	-0.056710117
21	0x3d6d8815	0.057991106
22	0xbf0eb9c4	-0.55752206
23	0x3d085a04	0.03328897
24	0x3f1b75f1	0.6072684
25	0xbd99dca8	-0.0751279
26	0x3e2281fd	0.15869899
27	0xbe16c2f1	-0.14722802
28	0xbea08c39	-0.3135698
29	0xbf67ef0f	-0.9059915
30	0x3f4df3d2	0.80450165
31	0xbf8a32c8	-1.0796747
32	0xbf9d0cb7	-1.2269505
33	0x3f062ea7	0.52414936
34	0x3f7db22f	0.9910001
35	0xbe98e5db	-0.29862866
36	0x3e0fa865	0.14029081
37	0x3f887446	1.0660484
38	0x3fa68b98	1.3011351
39	0xbdd019c2	-0.10161163
40	0x3e03bdc9	0.12865366
41	0xbea1bd2b	-0.31589636
42	0xbec92fb0	-0.39294195
43	0x3d9b568d	0.075848676
44	0xbf045f27	-0.5170769
45	0xbefff1c7	-0.4998915
46	0xbf56eb1f	-0.83952516
47	0xbdbe65b8	-0.09296745
48	0xbee2390f	-0.44184157
49	0x3d886a00	0.06660843
50	0xbc896fca	-0.016776938
51	0xbe4e36c8	-0.20138085
52	0x3de1a776	0.11018269
53	0xbf604850	-0.8761034
54	0xbf8eefeb	-1.1166967
55	0xbedd45e0	-0.43217373
56	0x3be4a950	0.0069781914
57	0x3eeb0d32	0.45908505
58	0xbd849ec8	-0.064755976
59	0x3e21830d	0.15772648
60	0x3e103675	0.14083274
61	0x3f2ccb94	0.67498136
62	0xbc4e4f12	-0.012592094
63	0xbd68100f	-0.05665594
64	0xbd61ccb8	-0.055126876
65	0x3f55ee0e	0.8356637
66	0x3d8a0e89	0.067410536
67	0x3d906556	0.07050578
68	0xbc981fba	-0.018569816
69	0xbe2a4df7	-0.16631304
70	0x3db62210	0.08893216
71	0x3e56712e	0.20941612
72	0x3eae3b94	0.3402983
73	0xbf23cc0f	-0.63983244
74	0x3ec7b591	0.39005712
75	0x3cbaa9fb	0.022786131
76	0xbf2221b7	-0.63332695
77	0x3e9759f0	0.29560804
78	0xbe584c3a	-0.21122828
79	0x3cc65edb	0.024215152
80	0x3dd8cc5d	0.10585854
81	0xbe903706	-0.2816698
82	0xbf2fc8cc	-0.68665767
83	0x3df3d5e4	0.11906031
84	0x3e16168a	0.14657035
85	0xbe218c3a	-0.15776148
86	0x3d59922e	0.053117923
87	0x3ebdf8c4	0.37103856
88	0xbdacba7a	-0.08434005
89	0x3d383474	0.0449719
90	0xbe330eaa	-0.17486063
91	0xbe45794e	-0.19284555
92	0x3f3dfcdb	0.7421395
93	0x3de34957	0.11097973
94	0x3ba08aa8	0.0048993416
95	0x3d11c843	0.035591375
96	0xbdd51751	-0.10404838
97	0xbd078ebc	-0.033095106
98	0xbd31e150	-0.043427765
99	0xbd234166	-0.03985729
100	0x3cb5faaa	0.022214253
101	0x3e07c737	0.13259588
102	0xbf88a68d	-1.0675827
103	0x3a9b22c0	0.0011835918
104	0xbe70c977	-0.23514353
105	0xbd0fbe25	-0.035093445
106	0x3dcccc17	0.099998645
107	0xbde3ecbb	-0.11129137
108	0xbd6e113b	-0.0581219
109	0xbdbdec34	-0.09273568
110	0xbd88f8ff	-0.06688117
111	0xbf3ddb57	-0.7416281
112	0x3f536704	0.82579064
113	0x3ee97823	0.4559947
114	0xbf8e0a50	-1.1096897
115	0xbce6c4d9	-0.028170036
116	0xbd5fab24	-0.05460657
117	0xbca5c767	-0.020236684
118	0x3db69deb	0.08916839
119	0xbe3d7407	-0.18501292
120	0x3bd85230	0.0066015944
121	0x3dc3fb6a	0.09569438
122	0x3f4adf24	0.79246736
123	0xbd4e775d	-0.050406802
124	0x3d892eef	0.06698405
125	0xbe6f4cb6	-0.23369107
126	0x3b0ae118	0.0021191295
127	0x3f3a5cfe	0.72798145
128	0xbe39c19f	-0.18140267
129	0x3e4ab9aa	0.19797388
130	0x3c8b0700	0.016971111
131	0xbf55c206	-0.8349918
132	0xbcf9edba	-0.030508865
133	0x3e32a5db	0.17446081
134	0x3d7be319	0.061495874
135	0x3f87f2e1	1.0620996
136	0xbdac6722	-0.084181085
137	0x3e2e504e	0.17022821
138	0xbf09b684	-0.5379412
139	0xbf15528c	-0.5832908
140	0x3e28d61c	0.16487926
141	0xbf137a76	-0.57608736
142	0x3e124bcb	0.14286725
143	0xbd31f45b	-0.043445926
144	0xbd29bd30	-0.04144019
145	0x3d9b5b6f	0.07585799
146	0x3f5ffff7	0.87499946
147	0xbdbddf82	-0.09271146
148	0x3e25bf37	0.16186224
149	0x3bac9014	0.005266199
150	0x3b18c378	0.0023309868
151	0xbb847558	-0.004042309
152	0xbd403c00	-0.04693222
153	0xbd2ea77e	-0.0426402
154	0x3e32fabd	0.17478462
155	0xbde5b3dd	-0.11215947
156	0x3f5daf58	0.8659568
157	0xbd160a96	-0.03663119
158	0xbc256f38	-0.010097317
159	0x3b8439e0	0.0040352196
160	0x3d91368c	0.07090482
161	0x3e09d56b	0.13460319
162	0xbcaba20c	-0.020951293
163	0x3e2de980	0.16983604
164	0xbd0468f5	-0.032326657
165	0xbe635366	-0.22199783
166	0xbf4967de	-0.78674114
167	0xbdc312f3	-0.09525099
168	0xbf075101	-0.5285798
169	0x3f8af924	1.0857282
170	0xbebe2128	-0.3713467
171	0xbeec138b	-0.4610866
172	0xbdea59af	-0.11442887
173	0xbf8966ff	-1.0734557
174	0x3f25e851	0.6480761
175	0x3e16a7d3	0.14712457
176	0xbe0a2f4f	-0.1349461
177	0x3f87d66e	1.0612314
178	0x3e0645de	0.1311259
179	0xbf230ae4	-0.6368849
180	0xbd9f0f44	-0.077665836
181	0xbc5cc6c4	-0.013475124
182	0xbd70e622	-0.05881322
183	0x3ca9310d	0.020653272
184	0xbe143753	-0.1447423
185	0x3d3eed1a	0.046612836
186	0xbf2e083b	-0.6798131
187	0x3ea7f9f6	0.32807893
188	0x3ee61bca	0.44943076
189	0xbda4b00f	-0.08041393
190	0xbe3cb1e2	-0.18427232
191	0x3d253604	0.040334716
192	0xbb1d6630	-0.0024017207
193	0xbf1617de	-0.5863017
194	0x3b9a7690	0.004713841
195	0xbde0b5e0	-0.1097219
196	0x3d73ce1a	0.059522726
197	0x3f16050b	0.58601445
198	0x3d47fb7f	0.04882383
199	0x3d451146	0.048112176
200	0xbf8f1ead	-1.1181237
201	0x3d57d9d3	0.052697968
202	0xbf0fbeee	-0.5615071
203	0xbe39f8ba	-0.18161288
204	0x3d844c3d	0.06459854
205	0x3ca1cb86	0.019750368
206	0x3e2e8cf8	0.17045963
207	0x3da0e1d5	0.07855574
208	0x3f25f673	0.64829177
209	0x3dc54986	0.09633164
210	0x3dbc9009	0.0920716
211	0xbf4ceeb2	-0.8005172
212	0x3f8f137e	1.1177824
213	0xbf19c253	-0.6006214
214	0xbb983bc0	-0.0046457946
215	0x3ede94f9	0.43473032
216	0xbee219c9	-0.44160298
217	0x3f5c2c2d	0.86004907
218	0xbd52b8d9	-0.051445816
219	0x3dd930a8	0.106049836
220	0x3ec24fe8	0.3795159
221	0x3e1936cb	0.14962308
222	0x3df0812a	0.11743386
223	0x3c1cfaa6	0.009581244
224	0xbe20cf9e	-0.157042
225	0xbf66345f	-0.8992366
226	0xbf6bc010	-0.9208994
227	0x3d6db4f0	0.058033884
228	0xbf4ccca3	-0.7999975
229	0xbe95d3ca	-0.29263145
230	0x3ecfeb36	0.4060914
231	0xbcb63d60	-0.022246063
232	0x3c17da68	0.009268381
233	0x3c351e18	0.011054538
234	0x3e013be2	0.126205
235	0x3dcc3db2	0.09972705
236	0x3fab82de	1.3399312
237	0xbde9c2b8	-0.11414093
238	0x3ebe48e8	0.37164998
239	0x3f1ec8e2	0.6202527
240	0xbe696420	-0.22792101
241	0xbeb4dd51	-0.353251
242	0x3e06ce89	0.13164724
243	0x3d546061	0.051849727
244	0xbe97545d	-0.29556552
245	0xbf522314	-0.82084775
246	0xbd9c3d8d	-0.076289274
247	0xbf36f67b	-0.7146985
248	0x3dbf3051	0.093353875
249	0xbf96ef58	-1.1791792
250	0x3f5ad021	0.8547383
251	0xbe574ad5	-0.2102464
252	0x3e2af575	0.16695197
253	0xbf8d9af7	-1.1062917
254	0xbe55706f	-0.20843671
255	0x3cebf8ae	0.028805103

trans_feat.bias f4 [32]
0	0xbc1553d0	-0.009114221
1	0x3cfe68ac	0.03105577
2	0xbbde0118	-0.0067750327
3	0xbc1d8286	-0.009613639
4	0xbb21f668	-0.002471352
5	0x3ba4aa84	0.00502521
6	0xbc207242	-0.009792866
7	0x3bc38494	0.0059667323
8	0x3c8b417a	0.016998995
9	0xba9529d0	-0.0011380259
10	0xbcbd3bf9	-0.023099886
11	0x3d00b398	0.031421274
12	0x3d0b5c1a	0.03402338
13	0x3c7c6526	0.015404975
14	0x3b4de900	0.0031419396
15	0x3bcd2448	0.0062604286
16	0xbca64191	-0.020294936
17	0x3c415268	0.011799432
18	0x3cbc9263	0.023019021
19	0x3c52516c	0.012836795
20	0xbcd05d5a	-0.025435138
21	0xbcfdfd30	-0.031004518
22	0x3c412560	0.011788696
23	0x3d039824	0.032127514
24	0x3c9cc60c	0.019137405
25	0xbcaf521b	-0.021401456
26	0x3cc94c00	0.024572372
27	0x3cfcee3c	0.030875318
28	0xbc2d2c90	-0.010569707
29	0x3cab47a3	0.020908182
30	0xbcbb4ede	-0.022864755
31	0xbce936d9	-0.028468536

pred_trans.weight f4 [6, 3703]
0	0x3e80d241	0.2516041
1	0x3f7ca7dc	0.98693633
2	0x3d73ae72	0.059492536
3	0xbdec1ab6	-0.11528532
4	0x3bfd49e0	0.007729754
5	0xbd663e38	-0.05621168
6	0xbc74ac80	-0.014933705
7	0x3d3c1d60	0.04592645
8	0xbd1aca50	-0.037790596
9	0x3e27a8b4	0.16372949
10	0x3c183fa2	0.009292515
11	0x3d1b2051	0.037872616
12	0xbccb626c	-0.024827205
13	0xbe13e24d	-0.14441796
14	0xbca277f2	-0.019832585
15	0xbd65b4c4	-0.056080595
16	0xbe1f1fbe	-0.15539452
17	0x3cdbb6c2	0.026820544
18	0xbe784320	-0.24244356
19	0xbe0f37d8	-0.13986146
20	0x3cdd430c	0.02700951
21	0xbd5a7505	-0.053334255
22	0xbf4a8755	-0.7911275
23	0xbd1fe02e	-0.039032154
24	0xbdbdc686	-0.09266381
25	0xbe6f372c	-0.2336089
26	0x3cb72762	0.022357646
27	0x3b8d804c	0.0043182727
28	0xbe9f6ca0	-0.31137562
29	0x3f2e85b8	0.6817279
30	0x3cbb5f9d	0.02287274
31	0x3f050e04	0.5197451
32	0xbeec9844	-0.4620992
33	0xbe00cad2	-0.1257737
34	0x3d2f126e	0.042742185
35	0x3d94691a	0.07246609
36	0xbd38d075	-0.045120675
37	0xbefe336a	-0.496486
38	0xbe79ba08	-0.24387372
39	0x3cb9a5d5	0.022662083
40	0xbd393463	-0.045215975
41	0xbe5409c5	-0.20706852
42	0xbd008b54	-0.031382874
43	0xbd54f444	-0.051990762
44	0xbe838fd1	-0.2569566
45	0x3e05cbe5	0.13066061
46	0xbe9146ad	-0.28374234
47	0xbdb32afd	-0.08748434
48	0xbd632804	-0.055458084
49	0x3d957099	0.07296867
50	0x3a998560	0.0011712722
51	0xbe3f3a88	-0.18674672
52	0xbca8b8aa	-0.020595867
53	0xbe443305	-0.19160087
54	0xbdba642c	-0.091011375
55	0x3ee539a6	0.44770545
56	0xbcc95b17	-0.024579568
57	0x3ec57f73	0.385738
58	0xbd75972e	-0.05995863
59	0xbcaee9f7	-0.021351798
60	0xbc26c23e	-0.010178147
61	0x3ed417b6	0.4142434
62	0xbd5de94a	-0.05417756
63	0xbb67fca4	-0.0035398388
64	0x3b973d85	0.004615488
65	0xbf7a538b	-0.97783726
66	0x3d8f1607	0.06986623
67	0xbd863f81	-0.06555081
68	0xbc2d3a64	-0.010573003
69	0xbe2bab76	-0.16764626
70	0xbc3d1340	-0.011540234
71	0xbdd29f6e	-0.10284315
72	0xbd76c7d7	-0.060249176
73	0x3e267931	0.16257168
74	0xb9852c44	-0.00025400717
75	0x3f6cc8d8	0.92493963
76	0x3e3496a4	0.1763559
77	0xbd7aaea0	-0.06120169
78	0x3cdc45c2	0.026888732
79	0xbce65cdc	-0.02812045
80	0x3d4fd743	0.0507424
81	0xbddbeb86	-0.10738282
82	0xbe82ab9e	-0.2552156
83	0xbd99e31f	-0.07514023
84	0xbe15890f	-0.14603065
85	0xbd03e56e	-0.032201223
86	0x3c062508	0.00818754
87	0x3f5d7589	0.8650747
88	0xbc3fda1c	-0.011709716
89	0x3bb04282	0.005379022
90	0xbd5e531d	-0.05427848
91	0x3dbca7ae	0.0921167
92	0xbe16c254	-0.14722568
93	0xbea4c994	-0.32185042
94	0x3dd4e93d	0.10396049
95	0xbe01ec7d	-0.1268787
96	0x3cc771b1	0.024346204
97	0xbd9a885c	-0.0754554
98	0x3d214468	0.039371878
99	0x3c8c6fe9	0.017143207
100	0xbcc28bf2	-0.023748372
101	0x3dc5a574	0.09650698
102	0x3f2d1ead	0.6762493
103	0xbd82649c	-0.06366846
104	0xbe18f9bd	-0.14939018
105	0xbc7ae4b2	-0.015313314
106	0xbd783860	-0.06060064
107	0xbdc63362	-0.09677769
108	0xbda9f7ee	-0.08299242
109	0xbdd160e7	-0.10223561
110	0xbe1dc68e	-0.15407774
111	0xbd8b7824	-0.068100244
112	0xbda4496a	-0.08021815
113	0xbd68c230	-0.056825817
114	0x3e7a8a21	0.24466754
115	0xbd349200	-0.04408455
116	0xbdf151d7	-0.11783188
117	0x3d06df22	0.03292764
118	0xbc68debc	-0.01421326
119	0xbe1f05eb	-0.15529601
120	0x3cb0967b	0.02155613
121	0x3cd4f2a4	0.025994606
122	0x3d958344	0.073004276
123	0xbba751fc	-0.005106209
124	0x3b6fc9d0	0.0036588795
125	0xbe632555	-0.2218221
126	0x3bc2a1f0	0.0059397146
127	0xbd3e7d00	-0.046505928
128	0xbb96c7ce	-0.0046014553
129	0xbeaf89f7	-0.34284946
130	0xbe10b98c	-0.1413328
131	0x3e6a48d5	0.22879346
132	0xbdd074a3	-0.10178497
133	0xbe74b3c4	-0.238967
134	0x3cd145fe	0.02554607
135	0xbe270071	-0.16308762
136	0x3c5d42e4	0.0135047175
137	0xbd0304be	-0.031986944
138	0xbe855376	-0.26040238
139	0xbe29746b	-0.16548316
140	0xbe4cd4ba	-0.20003024
141	0xbd4d3efb	-0.05010889
142	0xbe44d8ca	-0.19223323
143	0x3ccaad95	0.024740973
144	0x3b03ec30	0.0020129792
145	0xbd5f28b1	-0.054482166
146	0x3d2f184b	0.042747777
147	0xbeac49c9	-0.33650044
148	0x3ec79fa6	0.3898899
149	0xbe1d508c	-0.15362757
150	0xbe1f6098	-0.15564191
151	0xbc6c3204	-0.0144162215
152	0x3cb63d4e	0.02224603
153	0x3d6b6734	0.05747147
154	0x3c1d586c	0.009603601
155	0x3f276523	0.653887
156	0xbd893565	-0.06699637
157	0x3d05af8a	0.03263811
158	0xbd1d2b17	-0.03837117
159	0x3d097cdc	0.03356634
160	0xbda7b0d0	-0.08188021
161	0x3be464ce	0.0069700247
162	0xbdbe033e	-0.09277962
163	0x3cdcfcaf	0.026975958
164	0x3ce1f33c	0.027581804
165	0x3e721a70	0.23642898
166	0x3f4f86f8	0.8106532
167	0x3d81a1c2	0.06329681
168	0xbefd0130	-0.49414968
169	0xbea1ebc1	-0.31625178
170	0xbce030f2	-0.027367089
171	0x3ed1844c	0.40921247
172	0xbcc89a4d	-0.024487639
173	0x3e063df1	0.13109566
174	0xbd86c0fa	-0.06579776
175	0xbeabc12a	-0.3354581
176	0x3c9645dc	0.018343858
177	0xbe62a2b8	-0.22132385
178	0x3cd6d491	0.026224406
179	0x3d3177c8	0.043327123
180	0x3c11bc50	0.008894995
181	0xba556b80	-0.0008141324
182	0xbdc416cb	-0.0957466
183	0xbd70b8b7	-0.058769908
184	0xbe660f44	-0.22466761
185	0xbcdb090e	-0.026737716
186	0xbe581f50	-0.21105695
187	0xbaea8bc0	-0.0017894432
188	0x3af70de0	0.001884874
189	0xbe3a1a88	-0.18174183
190	0xbd3abfa3	-0.045592915
191	0x3c6429e6	0.013926005
192	0xbd80ec9c	-0.0629513
193	0xbb6215aa	-0.0034497776
194	0x3da79bec	0.081840366
195	0xbc897a66	-0.016781997
196	0xbb1047b0	-0.0022015385
197	0x3f4d2b5a	0.80144274
198	0x3c34aca3	0.011027488
199	0x3c428470	0.011872396
200	0x3f5e1075	0.8674386
201	0x3e0210cb	0.12701719
202	0xbc2de2dc	-0.0106131695
203	0xbbf6d296	-0.007532428
204	0xbd8bed2c	-0.06832346
205	0x3c715bea	0.014731387
206	0xbee433c1	-0.44570735
207	0x3c17859c	0.009248164
208	0xbe2f4ff2	-0.1712034
209	0x3e9a4968	0.3013413
210	0x3e938967	0.28815767
211	0xbeb33930	-0.35004568
212	0xbe661244	-0.22467905
213	0xbd59d9c3	-0.05318619
214	0xbddaf532	-0.106912985
215	0xbe10dc8d	-0.14146633
216	0x3ca5fe3a	0.020262826
217	0xbe99a77a	-0.30010587
218	0x3dfac410	0.12244427
219	0xbdf90b34	-0.1216034
220	0xbbed3d27	-0.007239956
221	0x3d50a749	0.050940786
222	0x3d3a5028	0.0454866
223	0x3d25968a	0.04042677
224	0x3df5253a	0.11969991
225	0x3e654ca6	0.2239252
226	0xbe3f3be0	-0.18675184
227	0xbda8f503	-0.08249857
228	0x3cace64f	0.021105913
229	0xbc948ee2	-0.018134538
230	0x3f09dfc3	0.5385706
231	0xbd250b50	-0.04029399
232	0xbd2c8000	-0.042114258
233	0x3dc62fb4	0.096770674
234	0x3d957cf0	0.072992206
235	0x3d2b6784	0.041846767
236	0x3c67abc6	0.014140075
237	0xbdb003af	-0.085944526
238	0xbe15e6a0	-0.14638758
239	0x3dd071b7	0.101779394
240	0xbc99271a	-0.018695403
241	0xbcd9a9bd	-0.026570195
242	0xbd2dae04	-0.042402282
243	0x3c2f54dd	0.010701385
244	0xbe819f3b	-0.25316796
245	0xbe0332b1	-0.12812306
246	0xbd91cd23	-0.07119205
247	0x3f37c4ec	0.71784854
248	0x3ecea518	0.40360332
249	0xbed8f8e8	-0.423774
250	0xbea195f2	-0.31559712
251	0xbde0e3e3	-0.10980966
252	0xbbaa45d0	-0.0051963106
253	0xbe4c0537	-0.19923864
254	0xbe31eb0c	-0.1737482
255	0xbca0c2b6	-0.019624095

pred_trans.bias f4 [6]
0	0xbc0586f4	-0.008149851
1	0x3cff969e	0.03119975
2	0xbd039de7	-0.03213301
3	0xbc8d7fca	-0.017272849
4	0x3c550a62	0.013002964
5	0x3c5a60e5	0.0133287655

gcn_convs.0.path_weight_1.weight f4 [32, 32]
0	0x3f5cd67d	0.86264783
1	0xbf95cf10	-1.1703815
2	0x3f53121f	0.82449526
3	0xbf809bc1	-1.0047532
4	0x3d419946	0.047265314
5	0xbee054dc	-0.43814743
6	0x3fa0b122	1.2554057
7	0x3f4a4aa1	0.79020125
8	0x3f8ae3b5	1.0850741
9	0xbfa0f18b	-1.2573713
10	0xbf306b75	-0.68913966
11	0x3ea104a2	0.31448847
12	0x3fa14053	1.2597755
13	0x3f5b1def	0.8559255
14	0x3f93b2b0	1.1538906
15	0xbf60ef90	-0.87865543
16	0xbf9899d3	-1.1921943
17	0x3f26698e	0.65004814
18	0xbf96d095	-1.1782404
19	0xbf94a228	-1.1611986
20	0xbf89a515	-1.0753504
21	0x3ea872e0	0.32900143
22	0x3f773675	0.9656747
23	0x3f81be58	1.0136213
24	0xbf831a43	-1.024239
25	0x3f92c1cd	1.1465393
26	0x3f39bb3c	0.7255132
27	0x3f2457e0	0.64196587
28	0x3f9c0243	1.218819
29	0x3f7843cc	0.9697845
30	0xbecc056b	-0.39847884
31	0xbf2c3846	-0.67273366
32	0x3dd45c52	0.10369171
33	0xbdd45c42	-0.10369159
34	0xbd917310	-0.071020246
35	0xbd6f68f5	-0.058449704
36	0xbdada5ba	-0.084788755
37	0xbec17158	-0.37781787
38	0xbe447ef1	-0.1918905
39	0xbe776c2f	-0.24162363
40	0x3e06e15a	0.13171902
41	0x3dc539c0	0.096301556
42	0xbdc21273	-0.09476175
43	0x3d881c6e	0.066460475
44	0xbdab3e21	-0.083614595
45	0x3de175fb	0.11008831
46	0x3d59d04b	0.05317716
47	0xbc383c06	-0.011244779
48	0xbe354072	-0.17700365
49	0x3c79cfcf	0.015247299
50	0x3dcf59cc	0.10124549
51	0xbe2c3df7	-0.16820513
52	0x3dbde304	0.092718154
53	0x3e771f71	0.24133088
54	0xbe002795	-0.125151
55	0x3e2dd786	0.16976747
56	0x3c0222cb	0.007942866
57	0x3d4f511e	0.05061447
58	0x3e870bc0	0.26376152
59	0xbcb0745b	-0.021539858
60	0xbce78124	-0.028259821
61	0x3e32cd11	0.17461039
62	0xbd6bf5c5	-0.05760743
63	0xbe06fa1c	-0.13181347
64	0x3f80f04d	1.0073334
65	0xbf98c78a	-1.1935894
66	0x3f92cdc9	1.1469051
67	0x3f98dc68	1.1942263
68	0x3f9550f8	1.1665335
69	0x3f77080a	0.9649664
70	0x3f518468	0.8184266
71	0x3f73d582	0.9524766
72	0xbf841dcb	-1.0321592
73	0xbf67d866	-0.9056457
74	0x3f7577d2	0.95885956
75	0xbf851bdc	-1.0399127
76	0xbf9682f6	-1.1758716
77	0x3f74a188	0.9555898
78	0x3f88c77b	1.0685877
79	0xbf83707a	-1.02687
80	0xbfa67e70	-1.3007336
81	0xbf8c6031	-1.0966855
82	0xbf947053	-1.1596779
83	0xbf836c9d	-1.0267521
84	0xbf84d23d	-1.037666
85	0x3f8feaf4	1.1243577
86	0xbf87fe58	-1.0624495
87	0x3f96dbd8	1.1785841
88	0xbf9abca2	-1.2088816
89	0x3f59b2f7	0.85038704
90	0x3f86a93f	1.05204
91	0xbf917380	-1.1363373
92	0xbf78a729	-0.97130066
93	0xbdc6c994	-0.09706417
94	0x3f98e322	1.1944315
95	0xbf86a26d	-1.0518318
96	0x3f486863	0.7828428
97	0x3f5bd9b1	0.85879046
98	0x3f52a41e	0.8228167
99	0xbf637705	-0.88853484
100	0xbf4b5204	-0.7942202
101	0xbf4f8dec	-0.8107593
102	0xbf928a27	-1.1448411
103	0x3f641742	0.8909799
104	0xbf5abc7a	-0.8544384
105	0xbf951df4	-1.1649766
106	0x3f18ed4a	0.59737074
107	0x3f9ad81b	1.20972
108	0x3f533f69	0.8251863
109	0xbf46d3cd	-0.7766693
110	0x3f73948e	0.9514855
111	0x3f43d9f0	0.7650442
112	0x3f700fec	0.93774295
113	0xbf6a059e	-0.9141482
114	0xbf5aeb60	-0.85515404
115	0x3f63371a	0.88755953
116	0xbf3d821d	-0.7402666
117	0xbf531241	-0.8244973
118	0xbf7bb6e1	-0.98325926
119	0x3f58440b	0.84478825
120	0xbf4945df	-0.7862224
121	0x3f6639de	0.8993205
122	0xbf84b26a	-1.0366948
123	0xbf38f593	-0.72249717
124	0x3f9ec214	1.2402978
125	0x3f95e029	1.1709033
126	0xbf750b84	-0.95720696
127	0xbf584a22	-0.8448812
128	0xbf991985	-1.1960913
129	0x3fa8a499	1.3175231
130	0x3f06d4bb	0.5266835
131	0x3efc154a	0.49234992
132	0x3f9fa665	1.2472655
133	0x3fcc6868	1.5969362
134	0x3fb8bbeb	1.4432348
135	0x3fbf7ff3	1.4960922
136	0xbfde2548	-1.7355127
137	0x3f87b376	1.0601642
138	0x3f1d5e1e	0.61471736
139	0xbfa90b1f	-1.3206519
140	0xbe80f734	-0.251886
141	0xbfcd78ba	-1.6052468
142	0x3f5d1ce8	0.8637223
143	0xbf6312fc	-0.8870084
144	0x3fbb5741	1.4636003
145	0x3f2702ba	0.65238535
146	0x3fb96036	1.4482486
147	0x3fb49bc8	1.4110041
148	0xbf25935c	-0.6467798
149	0x3f2b7c4c	0.66986537
150	0xbefa728d	-0.4891552
151	0x3e64b5da	0.22334996
152	0x3faf9baf	1.3719386
153	0xbfa36030	-1.2763729
154	0x3f3c3b77	0.73528236
155	0xbf1e73ca	-0.6189543
156	0x3f76ef7a	0.9645916
157	0xbf8c2277	-1.0948018
158	0x3fcb14a5	1.5865675
159	0x3fb98535	1.4493777
160	0xbfce4fb2	-1.6118071
161	0x3e3cd1dd	0.18439431
162	0xbfb56c27	-1.417363
163	0x3efaa20e	0.48951763
164	0x3f1b4fdb	0.60668725
165	0xbcd3903d	-0.025825614
166	0x3f1a87dc	0.60363555
167	0xbfc43981	-1.5330049
168	0x3fd4c3ad	1.6622216
169	0x3fbe2516	1.4855068
170	0xbfa7e07b	-1.3115381
171	0xbe8ebea9	-0.27879837
172	0xbe9a2071	-0.30102876
173	0x3e061811	0.13095118
174	0xbfbe3ba3	-1.486195
175	0x3f327176	0.6970438
176	0x3fad82bf	1.3555526
177	0x3fc14a44	1.5100789
178	0x3fb09ad9	1.3797256
179	0x3f9bad58	1.2162275
180	0x3fd025b7	1.626151
181	0x3f300a8f	0.6876611
182	0x3f3ecea7	0.74534076
183	0xbfb1d14a	-1.3891995
184	0x3fd2ecd9	1.647853
185	0xbfbe4670	-1.4865246
186	0x3ed8517d	0.4224967
187	0x3fbe59d1	1.487116
188	0xbf0e7525	-0.556475
189	0xbfa597dc	-1.2936969
190	0x3f508ffc	0.814697
191	0x3fbf7bb1	1.4959623
192	0xbf81f94c	-1.0154204
193	0x3f629791	0.8851252
194	0xbf80fe7a	-1.007766
195	0x3f82891b	1.0198091
196	0xbf4f2e2e	-0.8092984
197	0xbf5aa4be	-0.85407627
198	0xbf49f5e9	-0.78890854
199	0xbf90dbc7	-1.1317071
200	0xbf2b8314	-0.66996884
201	0x3f557d03	0.8339388
202	0xbf52e90b	-0.82386845
203	0x3f5ca458	0.8618827
204	0xbf85b3d8	-1.0445509
205	0xbf80d15d	-1.0063893
206	0xbf650faf	-0.89477056
207	0x3f49a7e6	0.7877182
208	0x3f5d9cbe	0.86567295
209	0x3f6ca838	0.9244418
210	0x3f409473	0.75226516
211	0x3f836589	1.0265361
212	0x3f8d4421	1.1036416
213	0xbf8c6408	-1.0968027
214	0xbf57fdce	-0.8437165
215	0x3f76b9b2	0.963771
216	0xbf7f95c4	-0.998379
217	0xbf5d62df	-0.8647899
218	0x3f55222b	0.8325526
219	0xbf6c301f	-0.92260927
220	0xbf7f2dd5	-0.9967931
221	0xbf857bd5	-1.0428416
222	0xbf55c61a	-0.83505404
223	0xbf61247d	-0.879463
224	0x3f90c5cd	1.1310364
225	0xbfa5a31a	-1.29404
226	0x3f967df8	1.1757193
227	0x3fac5499	1.3463317
228	0x3f7185eb	0.9434497
229	0x3f3d7413	0.7400524
230	0xbdec1e97	-0.11529272
231	0x3f1443a6	0.57915723
232	0xbf3b104c	-0.7307174
233	0xbf951627	-1.1647385
234	0x3e186b2c	0.14884633
235	0xbf8842e5	-1.0645415
236	0xbf9d6deb	-1.2299169
237	0x3ec8b86e	0.3920321
238	0x3f791808	0.97302294
239	0xbf935ffd	-1.1513668
240	0xbf8eb501	-1.1148988
241	0xbfa95553	-1.3229164
242	0xbf9c9274	-1.2232194
243	0xbf9b9999	-1.2156249
244	0xbf8156b3	-1.0104584
245	0x3e246f9c	0.160582
246	0xbf85d095	-1.0454279
247	0x3fcc7aa1	1.5974923
248	0xbfa266cf	-1.2687625
249	0x3dd0c672	0.101941004
250	0x3f4859f7	0.78262275
251	0xbf985741	-1.1901628
252	0xbf6ade01	-0.91745
253	0xbebe15e3	-0.37126073
254	0x3eae33ed	0.3402399
255	0xbf9f4068	-1.244153

gcn_convs.0.path_weight_1.bias f4 [32]
0	0x3f980fc2	1.1879809
1	0xbf71ad01	-0.9440461
2	0xbf8e43d8	-1.1114454
3	0x3f915ed0	1.135706
4	0x3f8ebe7c	1.1151881
5	0x3f9ef78d	1.2419297
6	0xbf84ae2f	-1.0365657
7	0xbf78d240	-0.97195816
8	0x3f9c2ab3	1.2200531
9	0x3f9d90ba	1.2309792
10	0x3f9404b8	1.156394
11	0xbf8be999	-1.0930663
12	0xbf79c9c3	-0.9757349
13	0xbf82ad42	-1.0209124
14	0x3f94af4a	1.1615994
15	0xbf5467ec	-0.8297107
16	0xbf64dd4e	-0.89400184
17	0xbf920243	-1.140694
18	0x3f850ee9	1.0395175
19	0xbf729018	-0.9475112
20	0x3f97ef10	1.1869831
21	0xbf7e0e50	-0.9924059
22	0x3f987ef3	1.1913742
23	0xbf80b285	-1.005448
24	0xbf8de9f2	-1.108702
25	0x3f9fa388	1.2471781
26	0x3f9b9ec6	1.2157829
27	0x3fa174c6	1.2613761
28	0x3f7eeba9	0.9957834
29	0x3f9010fc	1.1255183
30	0xbf7d945f	-0.9905452
31	0xbf6ac4d6	-0.917066

gcn_convs.0.path_weight_2.weight f4 [32, 32]
0	0x3cde370b	0.027125856
1	0xbcf4e520	-0.029894412
2	0xbb13f36f	-0.0022575518
3	0xbc083d30	-0.0083153695
4	0xbd1f3bcd	-0.03887539
5	0xbb87b41c	-0.0041413438
6	0xbaf52aa8	-0.0018704729
7	0xb8e26713	-0.00010795719
8	0x3b75717b	0.0037451673
9	0xbcd25be1	-0.025678577
10	0xbbc7b94a	-0.006095086
11	0xbb2ce350	-0.0026380606
12	0xbb87c124	-0.004142897
13	0xbd23c3a4	-0.0399815
14	0xbd17cc1d	-0.037059892
15	0xbbf20d19	-0.0073868153
16	0xbc9cc396	-0.019136231
17	0x3c0448fe	0.008074043
18	0x3d19fc98	0.037594408
19	0xbd1dbf99	-0.0385128
20	0x3cca9bd3	0.024732506
21	0xbcb79fb7	-0.022415025
22	0x3c9689e6	0.018376302
23	0xbc7bb692	-0.015363352
24	0x3a610905	0.0008584413
25	0xbd23e89c	-0.040016755
26	0xbcd71f12	-0.026259933
27	0xbae65d47	-0.0017575406
28	0x3b224b70	0.0024764203
29	0xbcc17040	-0.023613095
30	0xbd0a96ca	-0.03383521
31	0xbc465c18	-0.012106918
32	0xbc8d0617	-0.017214818
33	0xbcf61263	-0.030038064
34	0xbce1308a	-0.027488966
35	0x3cf74be1	0.03018755
36	0x3b099880	0.0020995438
37	0xbceb12b3	-0.02869544
38	0xbc8d6450	-0.017259747
39	0xbce6fc90	-0.028196603
40	0x3d06cabc	0.032908186
41	0xbc271cc6	-0.010199731
42	0xbc63fd60	-0.01391539
43	0x3cd5fa95	0.026120463
44	0xbc85d39e	-0.016336259
45	0x3b311e93	0.002702628
46	0xbbd4b489	-0.006491248
47	0x3cec8dde	0.028876241
48	0xbc1f429e	-0.009720473
49	0x3ce83a59	0.028348135
50	0xbcb5d80f	-0.022197751
51	0x3a0af7ee	0.00053012266
52	0x3ce1f1a3	0.027581042
53	0xbb7a864f	-0.0038227027
54	0x3cf03504	0.029322155
55	0x3a04801f	0.0005054492
56	0xbb4d845f	-0.0031359417
57	0xb9e2ffe1	-0.00043296724
58	0x3a7d88d9	0.0009671576
59	0x3cc3d324	0.02390439
60	0x3d1f05d5	0.03882392
61	0x3cdfd271	0.027322026
62	0x3c73c279	0.014877909
63	0xbd1fe910	-0.039040625
64	0xbca6f62b	-0.020381054
65	0xbcf0975c	-0.029369049
66	0x3b5c527a	0.0033618496
67	0xbb8b9d0a	-0.004260664
68	0xbd23653f	-0.039891478
69	0x3ce48349	0.027894633
70	0x3a3167cc	0.0006767481
71	0xbd16c040	-0.036804438
72	0x3c9698c7	0.018383397
73	0xbcc07c5a	-0.023496795
74	0xbd060e88	-0.0327287
75	0xbbbcd924	-0.00576319
76	0x3cb068aa	0.021534283
77	0x3d17c1f7	0.037050214
78	0xbc92ed54	-0.017935432
79	0x3ce74acd	0.02823391
80	0xbd112d86	-0.035443805
81	0x3c5be469	0.013421156
82	0x3d23c900	0.03998661
83	0xbd1c28ac	-0.038124725
84	0xbb49f29e	-0.0030814777
85	0x3b4c9260	0.0031215176
86	0xbced59f5	-0.028973559
87	0x3cf3e022	0.02976996
88	0x3d113380	0.035449505
89	0x3c049d1f	0.008094101
90	0x3b64ac1c	0.0034892624
91	0x3ca98d81	0.020697357
92	0xbcf14caf	-0.02945551
93	0xbc476f22	-0.012172492
94	0xbb090b57	-0.00209113
95	0xbc6aab7c	-0.014323112
96	0x3c9c90f4	0.019112088
97	0x3c03a086	0.008033877
98	0x3baa0445	0.0051884972
99	0x3d1b0f5d	0.03785645
100	0xbbcecf65	-0.0063113444
101	0x3aadf837	0.0013272826
102	0xb9a02051	-0.00030541656
103	0x3cabb9ae	0.020962562
104	0xbcea8b38	-0.028630838
105	0x3b1fdda2	0.0024393578
106	0xbb429c41	-0.0029695185
107	0x3cc22c09	0.023702638
108	0x3d14f804	0.03636934
109	0xbd116f21	-0.03550637
110	0xbd1cce2f	-0.03828257
111	0x3b65c64f	0.0035060828
112	0x3b0beb91	0.0021350125
113	0xbd024f25	-0.03181376
114	0x3d0e8f67	0.034804728
115	0xbb7ad977	-0.0038276592
116	0xbcbddd11	-0.023176702
117	0x3cbc0766	0.022952747
118	0xbcbaca8a	-0.022801656
119	0xbc47abf9	-0.012186998
120	0xbb047d42	-0.002021626
121	0xbce19d83	-0.027540928
122	0xbcf77257	-0.030205889
123	0xbd0342f4	-0.032046273
124	0x3b8addb2	0.004237854
125	0xbb8e8350	-0.0043491498
126	0x3b575375	0.003285614
127	0x3c950a46	0.018193375
128	0xbcbaee34	-0.022818662
129	0xbd001855	-0.031273205
130	0xbcaefbb2	-0.021360252
131	0xbc0cad06	-0.008586174
132	0x3d23dcd1	0.04000551
133	0xbc8c465e	-0.017123397
134	0x3bc59e55	0.0060308375
135	0x3d1a02db	0.03760038
136	0x3cc187e8	0.023624375
137	0x3d0b23f0	0.03396982
138	0x3cef1394	0.02918414
139	0x3c225fc9	0.009910532
140	0x3cd3465e	0.02579039
141	0x3ced1b87	0.02894379
142	0xbd1f2c1f	-0.038860437
143	0xbceb4330	-0.028718561
144	0x3ce4dc1d	0.02793699
145	0x3c8f61b4	0.017502643
146	0x3c87324d	0.016503477
147	0xbd03c101	-0.032166485
148	0xbbb82164	-0.005619215
149	0x3d0ea823	0.034828316
150	0xbb4bd740	-0.003110364
151	0xbd08b49b	-0.033375364
152	0xbd0a01f1	-0.033693258
153	0x3cee3013	0.029075658
154	0x3bf24672	0.0073936516
155	0x3ccb9df8	0.024855599
156	0x3b910b55	0.0044263997
157	0x3ce20de5	0.027594516
158	0x3d18765c	0.03722225
159	0x3c906b02	0.01762915
160	0xbcb96cc7	-0.022634877
161	0xbcc52279	-0.02406429
162	0xbd14c1d7	-0.036317673
163	0xbc261d64	-0.010138843
164	0x3cc36aad	0.023854578
165	0xbd1fbfd3	-0.039001297
166	0xbd1758fb	-0.036950093
167	0xbb47386f	-0.0030398627
168	0xbcb235ee	-0.021754231
169	0xbb922511	-0.004459985
170	0x3c4aa012	0.012367265
171	0xbca7c332	-0.020478819
172	0xbcefd1c1	-0.029274823
173	0x3b98808f	0.0046539973
174	0x3c7e8767	0.015535212
175	0xbccba0e8	-0.024857
176	0x3c5810c8	0.013187595
177	0xbb39dffb	-0.0028362263
178	0xbcfae237	-0.030625446
179	0x3cd37086	0.025810491
180	0x3cf65fd1	0.030074986
181	0xbce49219	-0.027901696
182	0xbb01fbc6	-0.0019833907
183	0x3cc44614	0.023959197
184	0xbced5c63	-0.028974717
185	0x3c2336cf	0.009961798
186	0x3c9fe307	0.019517435
187	0x3cef7966	0.029232692
188	0x3d23e314	0.04001148
189	0x3bb74380	0.0055927634
190	0xbce7dfa7	-0.028304888
191	0x3c973222	0.018456522
192	0x3bac9ab5	0.005267466
193	0x3c5953a5	0.013264571
194	0x3c4ece21	0.012622387
195	0x3d036dbd	0.032087076
196	0xbc220928	-0.009889878
197	0xbbdaa55d	-0.006672545
198	0x3d115a5c	0.035486564
199	0xbcd1527b	-0.025552025
200	0xbc3a1880	-0.01135838
201	0x3cf15d8b	0.02946355
202	0xbb918313	-0.004440674
203	0x3ce6bb4e	0.028165486
204	0xbd21d245	-0.03950717
205	0xbb9865a5	-0.004650789
206	0x3ce4acc1	0.027914407
207	0xbd12cf0c	-0.035841987
208	0x3d05dfc0	0.032684088
209	0xbcd1fb2e	-0.025632467
210	0x3cc84edb	0.024451664
211	0x3ccc2782	0.024921183
212	0xbc61802f	-0.0137634715
213	0x3b547fe3	0.003242486
214	0x3a589358	0.0008261702
215	0x3b4e49d7	0.0031477117
216	0xbcf77342	-0.030206326
217	0xbaaf66e2	-0.0013382102
218	0x3cc18284	0.023621805
219	0x3d1325b9	0.035924647
220	0x3b2e3985	0.0026584577
221	0xbceb484b	-0.028720995
222	0x3944e7e6	0.00018778406
223	0xbcef8962	-0.029240314
224	0xbc1c72cf	-0.009548857
225	0xbd20d8f6	-0.03926941
226	0x3b4d929e	0.0031367908
227	0xbaa5ff4a	-0.0012664583
228	0x3d171a27	0.036890175
229	0x3cefedb9	0.02928816
230	0x3c42ea86	0.011896735
231	0xbcd81af6	-0.026380043
232	0x3b074b50	0.0020644255
233	0xbb56e361	-0.0032789337
234	0xbc88b3cf	-0.016687302
235	0x3c827ffe	0.015930172
236	0x3b9cbfc1	0.004783601
237	0x3d2347ec	0.039863512
238	0xbc93b5ef	-0.018031089
239	0x3c8fbabd	0.017545098
240	0xbcb1bc9e	-0.021696385
241	0x3c2952b3	0.010334658
242	0xbcd801f6	-0.026368123
243	0xbd212278	-0.039339513
244	0xbb65b94c	-0.0035053072
245	0xbce32ecb	-0.027732274
246	0x3c7c7a67	0.015410042
247	0x3b8d8fe1	0.00432013
248	0xbb2fa746	-0.0026802584
249	0x3cafce3e	0.021460649
250	0xb8e68378	-0.000109917426
251	0xbcc21997	-0.023693843
252	0x3d07274e	0.03299647
253	0x3c97f7d3	0.018550789
254	0x3cc5b3f0	0.024133652
255	0x3d13c9a3	0.036080968

gcn_convs.0.path_weight_2.bias f4 [32]
0	0x3f8abd72	1.0839064
1	0x3f879cdf	1.0594748
2	0x3f0f7299	0.5603424
3	0x3f8cf856	1.1013286
4	0x3f986545	1.1905905
5	0x3f8d918e	1.1060045
6	0xbf7c5901	-0.9857331
7	0xbf809ba3	-1.0047497
8	0x3f8a2f43	1.0795673
9	0x3f91f7b4	1.1403718
10	0x3f897688	1.0739298
11	0xbf87013b	-1.054725
12	0xbf746574	-0.95467305
13	0xbf7df031	-0.9919463
14	0x3f962ac9	1.1731807
15	0xbf81e355	-1.0147501
16	0x3f9a8cb6	1.2074192
17	0xbf614d33	-0.8800842
18	0x3f84c9e4	1.0374112
19	0xbf614313	-0.8799297
20	0xbf7751b5	-0.9660905
21	0xbf6c4e83	-0.923073
22	0x3f8ec348	1.1153345
23	0xbf8c6a7f	-1.097
24	0x3f25d516	0.6477827
25	0x3f974c78	1.1820211
26	0x3f818f1d	1.01218
27	0xbf5ff316	-0.87480295
28	0x3f868790	1.051012
29	0x3fb9b4d3	1.4508308
30	0xbf8d6cb4	-1.1048799
31	0xbf74ee15	-0.95675784

gcn_convs.1.path_weight_1.weight f4 [32, 32]
0	0xbf7e78fb	-0.9940335
1	0x3f93b8c8	1.1540766
2	0x3f1bcc35	0.6085847
3	0xbf89c411	-1.076296
4	0xbf79e6ca	-0.9761778
5	0x3f81d1f8	1.0142202
6	0x3f9027ed	1.1262184
7	0x3f818450	1.0118504
8	0x3c974cb7	0.018469198
9	0x3f7e8bea	0.9943224
10	0xbf8971e3	-1.073788
11	0xbf2a77e4	-0.6658919
12	0xbf3548b9	-0.7081409
13	0x3f6e75c3	0.9314844
14	0x3f94b30e	1.1617143
15	0xbf81e117	-1.0146817
16	0xbf943acf	-1.1580447
17	0x3f772c7a	0.9655224
18	0xbf902047	-1.125985
19	0x3f038eb7	0.5138964
20	0xbf96f1fe	-1.17926
21	0xbf8ddc16	-1.108279
22	0xbf5998dc	-0.8499887
23	0x3f426279	0.7593151
24	0x3f8d1537	1.1022099
25	0xbf5c5bfa	-0.86077845
26	0x3f99f25e	1.202709
27	0xbec60ae3	-0.3868018
28	0xbe7db687	-0.2477666
29	0xbf80f8ed	-1.0075966
30	0x3f979297	1.1841611
31	0x3f718b7a	0.9435345
32	0xbf1d2100	-0.6137848
33	0xbf03cef1	-0.5148764
34	0x3f0c7233	0.54861754
35	0xbf3809b8	-0.7188983
36	0xbe20fe82	-0.15722087
37	0x3e0a9ed7	0.13537155
38	0x3f1548c9	0.58314186
39	0x3f0f879a	0.56066287
40	0xbe2609f2	-0.16214731
41	0x3e8f7cab	0.28024802
42	0x3e0aa37b	0.13538925
43	0xbee95236	-0.45570534
44	0xbf2975e3	-0.66195506
45	0x3f6eb6f8	0.9324794
46	0xbf0e2df7	-0.55538887
47	0xbde9bfff	-0.114135735
48	0xbf3d93bb	-0.74053544
49	0x3f4f7c69	0.8104921
50	0xbf81074a	-1.008035
51	0x3ee28c07	0.44247457
52	0xbe8f0a39	-0.27937487
53	0x3ecd3034	0.4007584
54	0x3e89baae	0.26900238
55	0xbdcb2e09	-0.0992089
56	0xbf2c9434	-0.6741364
57	0x3eba5ff6	0.36401337
58	0x3f3ff195	0.74978
59	0xbf2b279c	-0.66857314
60	0xbf67fc26	-0.90619123
61	0xbf493e77	-0.7861094
62	0xbe255693	-0.16146307
63	0xbf69a636	-0.9126924
64	0xbf357ab5	-0.7089036
65	0xbf2fcca7	-0.6867165
66	0xbf56b9b2	-0.838771
67	0x3f4b93ce	0.7952241
68	0x3f4c2cfa	0.7975613
69	0x3f46e206	0.77688634
70	0x3f75c045	0.95996505
71	0x3f27b325	0.6550773
72	0xbe0332fd	-0.12812419
73	0x3f46f5c9	0.7771879
74	0x3f840841	1.0315019
75	0xbf746ee0	-0.9548168
76	0x3f686304	0.90776086
77	0xbf7d4d94	-0.989465
78	0xbf80c9e6	-1.0061615
79	0x3ef88b96	0.48543996
80	0x3f2dd94c	0.67909694
81	0xbf2ff57f	-0.6873397
82	0x3f524c98	0.8214812
83	0x3f665302	0.8997041
84	0x3f5d30bb	0.8640248
85	0x3e841cdb	0.25803265
86	0x3f780d8f	0.9689569
87	0xbf447a8a	-0.7674948
88	0x3f5cd837	0.8626742
89	0xbf41f817	-0.7576918
90	0xbf3dd16e	-0.7414769
91	0xbf492a66	-0.7858032
92	0xbf3a24e1	-0.7271252
93	0xbf757d0b	-0.95893925
94	0x3f81ffd1	1.0156194
95	0x3f24581f	0.6419696
96	0xbf46d797	-0.77672714
97	0x3f3985f8	0.72470045
98	0xbf131599	-0.5745483
99	0x3f337dcb	0.7011382
100	0x3f222853	0.6334278
101	0x3f61eacf	0.88248914
102	0x3f283c83	0.65717334
103	0x3ec550ac	0.3853811
104	0xbf1f8552	-0.62312806
105	0x3f6d3cbe	0.9267081
106	0x3f2bf392	0.67168534
107	0xbf779f69	-0.96727616
108	0x3e9d8d30	0.3077178
109	0xbf5f2b22	-0.8717519
110	0xbf46e74d	-0.77696687
111	0x3f6bf25e	0.921667
112	0x3f6e633d	0.93120176
113	0xbe864dfe	-0.26231378
114	0x3f6674e6	0.9002212
115	0x3f6521b2	0.8950454
116	0x3f64edff	0.89425653
117	0x3f2448d7	0.64173645
118	0x3ea82911	0.3284383
119	0xbf59f719	-0.85142666
120	0x3f57cec6	0.84299886
121	0xbf3a42b2	-0.7275802
122	0xbf3c4b55	-0.7355245
123	0xbf1b6c29	-0.60711914
124	0xbf378ace	-0.71696174
125	0xbf73f722	-0.9529897
126	0x3f5f8f17	0.8732771
127	0x3f27f5b2	0.65609276
128	0x3d44bf1a	0.04803381
129	0xbf483e46	-0.7822002
130	0x3f07fb96	0.53118265
131	0xbcfbf789	-0.030757682
132	0xbdb1d7cc	-0.08683738
133	0x3ced98e7	0.029003574
134	0xbea64674	-0.32475626
135	0xbd98b8ab	-0.074570976
136	0xbf155259	-0.5832878
137	0x3f4682ba	0.7754322
138	0xbf5204d3	-0.8203861
139	0xbf2a966b	-0.6663577
140	0xbf29edc8	-0.6637845
141	0x3f66510b	0.8996741
142	0x3efc2e69	0.49254158
143	0x3eb47fea	0.3525384
144	0xbe993032	-0.29919583
145	0x3f42e2a7	0.76127094
146	0x3e859aff	0.26094815
147	0x3c0a1e69	0.008430102
148	0xbb1eff9c	-0.0024261242
149	0x3f19e3e2	0.60113347
150	0xbf0b5617	-0.5442824
151	0x3ed391a1	0.41322044
152	0xbea24d70	-0.31699705
153	0x3f60a1cc	0.8774688
154	0x3f4145f5	0.7549737
155	0x3f365593	0.71224326
156	0xbf2f7b5f	-0.68547624
157	0xbf16ff94	-0.5898373
158	0x3f1bdbc5	0.60882217
159	0xbebe5b77	-0.37179157
160	0x3f946e11	1.159609
161	0x3ed43363	0.41445455
162	0x3ecb883c	0.39752376
163	0xbed7006f	-0.41992518
164	0xbeec3762	-0.46136004
165	0xbfaa53fe	-1.3306882
166	0xbf8a0d9f	-1.0785407
167	0x3f23c217	0.6396803
168	0xbf1462b7	-0.57963127
169	0xbfaf8c64	-1.3714719
170	0x3f96d3b4	1.1783357
171	0x3f82741f	1.0191687
172	0x3fa0cb86	1.256211
173	0xbfa05de6	-1.2528656
174	0x3f103ddc	0.5634439
175	0x3f955667	1.1666993
176	0xbe0dcc93	-0.1384757
177	0xbfa3c9cb	-1.2795957
178	0xbed4817e	-0.41505045
179	0x3e1ac071	0.15112473
180	0xbe68fdb3	-0.22753029
181	0xbf39f0da	-0.72633135
182	0x3f929563	1.1451839
183	0x3f5fd105	0.87428313
184	0xbf859d41	-1.0438615
185	0x3fa42f8a	1.2827008
186	0xbfa3b018	-1.2788115
187	0xbf700743	-0.9376108
188	0x3f91b7c8	1.138421
189	0x3fbc6dfd	1.4721066
190	0xbf96eae0	-1.1790428
191	0xbfb2f0e9	-1.397977
192	0xbf9312c7	-1.1490105
193	0x3f7d7dfe	0.99020374
194	0xbec93397	-0.39297172
195	0xbf4290f4	-0.7600243
196	0xbf82c9c9	-1.021783
197	0x3f93b82b	1.1540579
198	0x3f8c576c	1.0964179
199	0x3cad02ee	0.021119561
200	0x3f4f8a9e	0.8107089
201	0x3f9fe2aa	1.2491047
202	0xbfa156fe	-1.2604673
203	0x3ec33273	0.38124427
204	0xbf297be0	-0.66204643
205	0x3f881674	1.0631852
206	0x3f214b30	0.6300535
207	0xbf70ec2a	-0.9411036
208	0xbf117b9a	-0.56829226
209	0x3fa41f8e	1.282213
210	0x3ede2698	0.4338882
211	0x3f65d1be	0.89773166
212	0xbf5b7ed5	-0.85740405
213	0xbf0b8855	-0.545049
214	0xbe945f2b	-0.28978857
215	0xbd925004	-0.07144168
216	0x3f8c54a6	1.0963333
217	0xbf9abbb2	-1.208853
218	0x3fa4432d	1.2833
219	0x3f84381a	1.0329621
220	0xbe951e98	-0.29124904
221	0xbf8c170b	-1.0944532
222	0x3f986a04	1.1907353
223	0x3f8e5475	1.1119524
224	0x3f821804	1.0163579
225	0xbeed4eda	-0.4634922
226	0x3f7c7070	0.98609066
227	0x3f807ec0	1.0038681
228	0x3ee1f63d	0.44133177
229	0xbfa6bd06	-1.3026435
230	0xbfac2c6f	-1.345106
231	0x3f562631	0.83652025
232	0xbfabd279	-1.3423606
233	0xbfa1a1ae	-1.2627466
234	0x3fa41fd6	1.2822216
235	0x3ec3c7b1	0.3823829
236	0x3f9581a8	1.1680193
237	0xbf8f3b38	-1.1189947
238	0x3ea3212c	0.31861246
239	0x3f92d721	1.1471902
240	0x3f6405c9	0.8907133
241	0xbfc88a5a	-1.5667222
242	0xbe48d997	-0.19614254
243	0xbf55a072	-0.83447945
244	0x3f3ae997	0.7301268
245	0xbc639938	-0.013891511
246	0x3eb100ac	0.34570825
247	0x3f0590aa	0.52173865
248	0xbf9aaacf	-1.2083377
249	0x3fb50ebc	1.4145122
250	0xbfb3f1ff	-1.4058226
251	0xbfaca7d3	-1.3488716
252	0x3f80c4b0	1.0060024
253	0x3fb3d4c5	1.4049307
254	0xbfa42989	-1.2825176
255	0xbfa338a8	-1.2751665

gcn_convs.1.path_weight_1.bias f4 [32]
0	0xbf774a66	-0.965979
1	0xbf68503f	-0.90747446
2	0xbf4198cc	-0.75623775
3	0x3f80f0bf	1.007347
4	0xbf587837	-0.84558433
5	0x3f85104b	1.0395597
6	0xbf8752df	-1.0572165
7	0x3f9d06f3	1.2267746
8	0xbf89e1cb	-1.0772032
9	0xbf92555b	-1.1432298
10	0xbf60e818	-0.87854147
11	0x3f961eb9	1.1728126
12	0xbf81d299	-1.0142394
13	0xbf7b4101	-0.98146063
14	0x3fa2d3d0	1.272089
15	0x3f85fcf8	1.0467825
16	0x3f9e5cab	1.237203
17	0x3f8b0e36	1.0863712
18	0xbf7e71e5	-0.9939254
19	0xbf53b255	-0.8269399
20	0x3f86a6b9	1.051963
21	0xbf875f70	-1.0576
22	0xbf67f531	-0.9060851
23	0x3f909507	1.129548
24	0xbf867cb2	-1.0506804
25	0xbf8d4711	-1.1037313
26	0xbf8da446	-1.1065757
27	0xbf86d4c6	-1.0533683
28	0xbf7d5ba3	-0.9896795
29	0xbf421b93	-0.75823325
30	0xbf64f198	-0.8943114
31	0x3f8dbdfa	1.1073601

gcn_convs.1.path_weight_2.weight f4 [32, 32]
0	0x3f9c8373	1.2227615
1	0x3f784390	0.9697809
2	0xbfa04ba4	-1.2523084
3	0xbf8c24fb	-1.0948786
4	0xbf7f407d	-0.99707776
5	0x3fa187ec	1.2619605
6	0xbf76d879	-0.9642406
7	0x3f88a6ed	1.0675942
8	0x3f8cc64c	1.0998015
9	0xbf93ab56	-1.1536663
10	0x3f843b9b	1.033069
11	0x3fa3bc86	1.2791908
12	0xbf8c3069	-1.0952274
13	0x3f81654d	1.010904
14	0xbfa36d12	-1.2767661
15	0xbf7224b1	-0.94587237
16	0xbf903d06	-1.1268623
17	0x3f9a8ef2	1.2074873
18	0x3f81fa29	1.0154468
19	0x3f96474c	1.1740508
20	0x3f9f1dee	1.2431009
21	0x3f986a73	1.1907486
22	0x3f8ea8dc	1.1145282
23	0x3f9d326a	1.228101
24	0x3f89cbcb	1.0765318
25	0x3f7b0ed8	0.98069525
26	0xbc7c4159	-0.0153964395
27	0xbf832470	-1.0245495
28	0x3f8c4e18	1.0961332
29	0x3f9187e6	1.1369598
30	0x3f81a00f	1.0126971
31	0xbf6fe4f2	-0.9370872
32	0xbf75cfb1	-0.96020037
33	0xbf91d64b	-1.1393522
34	0x3f6e2418	0.93023825
35	0x3f815280	1.0103302
36	0x3f80a420	1.0050087
37	0xbf6740f2	-0.90333474
38	0xbf92f8ac	-1.1482139
39	0xbf962867	-1.173108
40	0xbf8506e0	-1.0392723
41	0x3fca28d2	1.5793707
42	0xbf810a31	-1.0081235
43	0xbfb73037	-1.4311589
44	0x3fa2fcd6	1.273341
45	0xbf7a2dfe	-0.9772643
46	0x3fbad544	1.4596334
47	0x3f9b3ae7	1.212735
48	0x3f9f288a	1.2434247
49	0xbfa38d83	-1.2777561
50	0xbf7c4c00	-0.98553467
51	0x3fa11a44	1.2586141
52	0xbf9693df	-1.1763877
53	0xbf82b614	-1.0211816
54	0xbfa09361	-1.2544976
55	0xbf9e7b2b	-1.2381338
56	0xbf98057c	-1.1876674
57	0xbf937a87	-1.1521767
58	0xbf8941d6	-1.0723217
59	0x3f83eafb	1.0306085
60	0xbf910ae2	-1.1331446
61	0xbf89f57d	-1.0778042
62	0xbf895005	-1.0727545
63	0x3f904c06	1.12732
64	0x3f8a7a25	1.0818526
65	0x3f65f1f7	0.89822334
66	0x3f96891f	1.1760596
67	0x3f93fedd	1.1562153
68	0xbfa113f1	-1.2584211
69	0xbf810851	-1.0080663
70	0xbf70ca9e	-0.9405917
71	0xbf7a4924	-0.97767854
72	0x3f8f13ce	1.1177919
73	0xbf8d51e5	-1.1040617
74	0x3f70d55c	0.9407556
75	0xbfac4242	-1.345772
76	0xbf8b5707	-1.0885934
77	0x3f80ed04	1.0072331
78	0xbecd7d75	-0.4013478
79	0xbf96e57a	-1.1788781
80	0xbf9b5941	-1.2136613
81	0x3fa1bb44	1.2635274
82	0x3f78f1c3	0.972439
83	0x3f91386b	1.1345342
84	0xbf7e7fb6	-0.9941362
85	0xbf0dc54e	-0.5537919
86	0x3f96091c	1.172153
87	0x3f8c2111	1.0947591
88	0x3f902c11	1.1263448
89	0xbf8e0ee5	-1.1098295
90	0x3f96884e	1.1760347
91	0xbf8dc26c	-1.1074958
92	0x3f7b17b6	0.98083055
93	0xbf769769	-0.96324784
94	0x3f9832dd	1.1890522
95	0xbfa37eaa	-1.277303
96	0x3fd05dff	1.6278685
97	0x3eb472c3	0.35243806
98	0x3f971c5c	1.180553
99	0xbf77b331	-0.967578
100	0x3f98426a	1.1895268
101	0xbf28d48f	-0.6594934
102	0x3f93a01b	1.1533235
103	0xbf71af2e	-0.9440793
104	0xbfa2efd5	-1.2729441
105	0x3f8c201c	1.0947299
106	0x3f22ea91	0.6363917
107	0xbc94e741	-0.018176677
108	0xbf9a4d77	-1.205489
109	0x3f8d365e	1.1032217
110	0x3f9de696	1.2335994
111	0xbfc297e6	-1.5202606
112	0x3faad789	1.3347026
113	0x3f8021d0	1.0010319
114	0xbf9eda44	-1.2410359
115	0x3f6f3390	0.93438053
116	0x3f8c22f4	1.0948167
117	0xbf9d7f55	-1.2304484
118	0x3f9e9406	1.2388923
119	0xbf766bec	-0.96258426
120	0xbf7d6ca4	-0.989939
121	0x3f8d1865	1.102307
122	0x3fc40058	1.5312605
123	0x3f9e9fcf	1.239252
124	0x3f5733fa	0.84063685
125	0x3faddd3a	1.3583138
126	0xbf86e9d5	-1.054011
127	0xbf709815	-0.9398206
128	0xbf874020	-1.0566444
129	0x3f58658c	0.8452995
130	0xbf62a345	-0.8853038
131	0xbf23f627	-0.64047474
132	0x3f8d0b9c	1.1019168
133	0x3f60acab	0.8776347
134	0xbf0783e9	-0.52935654
135	0x3fa429fd	1.2825314
136	0xbf9430b5	-1.1577364
137	0xbf20bdbb	-0.62789506
138	0xbf92d510	-1.1471272
139	0x3f92acd5	1.1458994
140	0x3f9d5264	1.2290769
141	0xbf9ea1e8	-1.239316
142	0xbed78330	-0.42092276
143	0x3f99a9fc	1.2005
144	0x3f8ead7a	1.1146691
145	0xbfa1db9a	-1.2645142
146	0xbf9baa5b	-1.2161363
147	0xbf97664d	-1.1828095
148	0x3f9a5451	1.2056981
149	0xbfc159cf	-1.5105532
150	0xbf9d5233	-1.229071
151	0xbf9d7e0d	-1.2304093
152	0xbf990578	-1.1954794
153	0x3f384e22	0.7199422
154	0xbf48b8cf	-0.78406996
155	0x3f98cb02	1.1936953
156	0xbf8773f9	-1.0582267
157	0x3fa18f31	1.2621824
158	0xbfa3e753	-1.280497
159	0x3f720b4e	0.945485
160	0xbf995b33	-1.1980957
161	0xbf8dd261	-1.1079828
162	0x3fa4b7e4	1.2868619
163	0x3f70ad00	0.9401398
164	0x3fa42a8d	1.2825485
165	0xbf9c526d	-1.2212654
166	0x3f73c5fd	0.9522398
167	0xbf7adc5b	-0.97992486
168	0xbf917a4c	-1.1365447
169	0x3f955a06	1.1668098
170	0xbf964f46	-1.1742942
171	0xbf6d2b07	-0.9264378
172	0x3f8985e0	1.074398
173	0xbf93450a	-1.1505444
174	0xbf9527a4	-1.1652722
175	0x3f875953	1.0574135
176	0x3f6c994d	0.9242142
177	0x3f906e39	1.1283637
178	0xbf7f439c	-0.9971254
179	0xbf7f1d8a	-0.9965445
180	0xbf7b9f6b	-0.9829013
181	0xbf41ddab	-0.75728863
182	0x3f7c7ea0	0.98630714
183	0x3f81836b	1.011823
184	0x3f83e5c1	1.030449
185	0xbf9201e4	-1.1406827
186	0x3f513f57	0.81737274
187	0xbf9c9607	-1.2233285
188	0xbf8fe32d	-1.1241204
189	0xbf9f5572	-1.2447951
190	0xbf7607d5	-0.961057
191	0x3f9500da	1.1640885
192	0x3f94edd2	1.1635077
193	0x3f4ca22f	0.7993497
194	0xbfd49a64	-1.6609616
195	0x3f83bb25	1.0291487
196	0xbf86608f	-1.0498217
197	0x3fcc3a9a	1.5955384
198	0x3e1932f6	0.14960846
199	0xbf9a6070	-1.206068
200	0xbf96ee2f	-1.1791438
201	0xbf10b078	-0.5651927
202	0x3fa3ad3f	1.2787246
203	0xbfa136ca	-1.2594845
204	0xbf70f146	-0.94118154
205	0x3fa2cb7b	1.2718347
206	0x3fbe24b5	1.4854952
207	0xbf98b135	-1.1929079
208	0xbf7b1a80	-0.9808731
209	0xbf9f7e64	-1.2460446
210	0x3f9db621	1.2321206
211	0x3f0e879f	0.5567569
212	0x3f19517b	0.59889954
213	0xbfbba2d3	-1.4659065
214	0x3f9cd84f	1.2253512
215	0x3f820e4f	1.0160617
216	0x3f9ed19c	1.2407718
217	0x3fb445f2	1.4083846
218	0x3fb2d3d2	1.3970892
219	0xbf9e62ad	-1.2373863
220	0x3f8b009c	1.0859561
221	0x3fac6015	1.3466822
222	0x3f880b33	1.0628418
223	0xbf8884ad	-1.066549
224	0xbf8624aa	-1.0479939
225	0x3f9fc301	1.2481385
226	0x3f9fccf0	1.2484417
227	0x3f8ede71	1.1161634
228	0xbf8233f0	-1.01721
229	0xbf88b5f1	-1.0680524
230	0x3f165c69	0.58734757
231	0xbf926d7b	-1.1439661
232	0xbf8fe924	-1.1243024
233	0x3f72a17f	0.94777673
234	0xbf7de533	-0.99177855
235	0x3ec3c1aa	0.3823369
236	0x3f7e5719	0.9935165
237	0x3f724054	0.94629407
238	0xbf8c4bbe	-1.0960615
239	0xbf81405f	-1.009777
240	0xbf9a796b	-1.2068304
241	0xbf976af3	-1.1829513
242	0x3f8ab39e	1.0836065
243	0x3f727c29	0.94720703
244	0x3f9a6bb8	1.2064123
245	0x3f832b78	1.0247641
246	0x3f9a7f57	1.2070111
247	0x3f9dace3	1.2318386
248	0x3f8a8f09	1.0824901
249	0xbfa00d3d	-1.250404
250	0x3f6c4709	0.9229589
251	0xbf649df2	-0.89303505
252	0x3f910397	1.132922
253	0xbf73f7ef	-0.9530019
254	0x3f4b63f4	0.7944939
255	0xbf87a7a3	-1.0598034

gcn_convs.1.path_weight_2.bias f4 [32]
0	0xbf957971	-1.1677686
1	0x3f8a91b0	1.082571
2	0xbf8ae317	-1.0850552
3	0x3f8dfbeb	1.1092504
4	0x3f9ceb9a	1.22594
5	0xbf95e325	-1.1709944
6	0xbf9bd4b9	-1.2174293
7	0xbf89fb62	-1.0779841
8	0x3f96337f	1.1734465
9	0xbf9c2b4f	-1.2200717
10	0xbf8bd9d0	-1.0925846
11	0xbf8d7e73	-1.1054214
12	0x3fad284e	1.3527925
13	0xbf7a8755	-0.9786275
14	0x3f00d29c	0.50321364
15	0xbf9d0f08	-1.2270212
16	0xbf637fad	-0.8886669
17	0xbf87366e	-1.0563486
18	0xbfa127eb	-1.2590307
19	0x3f968dff	1.1762084
20	0xbfaa4736	-1.3302982
21	0xbf792013	-0.97314566
22	0xbee7dfaa	-0.4528783
23	0xbf74b301	-0.9558564
24	0xbf87e19b	-1.0615724
25	0xbf85c44e	-1.0450532
26	0xbf055109	-0.52076775
27	0xbf847fc3	-1.035149
28	0x3f1ee169	0.620627
29	0xbf928a49	-1.1448451
30	0xbf89ca95	-1.0764948
31	0x3f9818b8	1.1882544
