semi-supervised/saved_models/cora_16_layers_.pt (torch, 389177 bytes, 100 tensors)

trans_feat.weight f4 [32, 1433]
-0.0022293793 -0.07126448 -0.023644585 0.057684477 0.035097368 0.0010038465 0.032477044 0.059765093
-0.011766935 -0.016080953 0.007288112 0.014004055 -0.0012978483 0.009693749 -0.009093618 0.03978355
0.00027175015 -0.016077304 0.01579535 -0.05098919 0.0033441263 0.010863013 -0.014388244 0.038266294
0.0034901127 0.05635527 -0.064666204 0.013672117 -0.017640945 0.0164122 -0.023420833 0.015188376
-0.016124291 -0.0064615775 -0.019042894 -0.0052129235 0.020960148 -0.010084156 0.0037249946 0.005645823
-0.016533067 -0.016636908 0.012754157 -0.0013342556 0.03922808 -0.016673991 -0.026270714 -0.009937123
-0.03807136 0.010740394 -0.0048478376 -0.035329543 -0.019388627 0.012875422 -0.06364227 -0.002199497
0.0026843483 -0.0008389903 0.019936172 0.016166545 -0.009151538 0.030541493 -0.024375336 0.04415847
-0.021949213 0.029270545 -0.0041730637 -0.031677123 -0.0024679825 -0.0047263047 -0.04399217 -0.0010098708
0.014426963 -0.0031908993 0.0024431003 -0.011225158 -0.051766455 -0.018141557 -0.007936875 -0.0015684995
0.045512684 0.048792314 0.027951721 -0.026462255 -0.0049594813 -0.038679548 -0.0007475596 0.034045726
-0.007691116 -0.0126919225 0.024459446 -0.011509869 0.004523147 -0.06488972 -0.00044432422 0.01934253
0.013708648 0.0047106077 -0.016213065 0.005363807 0.018362781 -0.00342387 -0.020334797 -0.013295517
0.014874204 0.00033338694 0.09477361 0.010156687 0.0019010645 0.01590231 0.002362186 0.006758778
-0.008434351 0.006576216 0.0136740785 -0.01424991 0.03085243 -0.007309596 -0.047346324 0.013028041
0.01580045 -0.009281427 0.010952009 -0.009052796 -0.008545658 -0.028152335 -0.0734917 -0.00047312025
-0.044326007 -0.011861802 -0.08354137 -0.03499189 0.005262875 0.042068873 -0.03527398 -0.017145563
-0.006355577 0.009029984 0.0072292793 0.0010830634 0.096107244 -0.021500401 0.004495865 -0.0017641848
-0.008877848 0.0017951229 0.063115634 0.017009478 -0.009245293 0.02601377 -0.001758731 -0.034514934
0.011161147 0.016738098 0.004618462 -0.033201702 -0.0045238174 0.007892164 -0.008864401 -0.012790889
0.044676133 -0.0037250947 -0.030954348 0.026709508 -0.028703408 0.0047479062 -0.029987792 -0.011378766
0.07432137 -0.021559685 0.011986246 -0.009634286 0.0023595614 -0.04881181 -0.013677538 0.024091471
0.0063889716 0.0069417465 -0.008035555 -0.030667275 0.022873046 0.00070136786 0.004262937 0.00080292486
0.009099166 -0.013802853 0.01757812 -0.12035685 -0.015028246 -0.020232078 -0.00792985 0.010806456
0.02373422 -0.0050058337 0.03029773 -0.02419616 0.009027046 0.019145545 0.025933472 0.0062279105
-0.0032926528 -0.0031438903 0.03210232 0.0773543 -0.016717467 0.034272503 0.011002056 -0.020528726
-0.0039751898 0.021309387 0.008249419 0.0008448679 0.03422212 -0.012660839 -0.020147417 0.006964966
-0.003462771 0.049269017 0.010295871 -0.018236019 0.006196424 0.03280071 0.020580508 0.0011937195
0.006082761 -0.113535985 -0.022794237 -0.012757037 0.0045690006 0.00971415 0.020586785 0.01945207
-0.013662646 0.030106546 0.043189976 0.008541787 -0.013971413 -0.001269009 0.0076362784 -0.0019808915
-0.01897827 0.0012244361 -0.027424434 -0.0010195998 0.016985161 0.00028611114 0.009930313 -0.009928113
0.00813899 -0.0265563 -0.018925833 -0.019413989 -0.016683713 0.015453824 0.009534463 -0.016933486
00000000: c71a 12bb 1df3 91bd 4ab2 c1bc 8f46 6c3d
00000010: 42c2 0f3d 8093 833a a606 053d 3ecc 743d
00000020: 1aca 40bc 34bc 83bc 1dd1 ee3b 4471 653c
00000030: 901c aaba 88d2 1e3c 66fd 14bc 13f4 223d
00000040: b079 8e39 8db4 83bc 4065 813c 0ada 50bd
00000050: 2129 5b3b c7fa 313c abbc 6bbc 1ebd 1c3d
00000060: 60ba 643b c9d4 663d b76f 84bd 0401 603c
00000070: be83 90bc e172 863c 0cdd bfbc abd8 783c
00000080: 1717 84bc a4bb d3bb d8ff 9bbc 2cd1 aabb
00000090: 9eb4 ab3c 0438 25bc 0a1f 743b 9900 b93b
000000a0: 5b70 87bc 204a 88bc d0f6 503c 30e2 aeba
000000b0: a0ad 203d e597 88bc ae35 d7bc 51cf 22bc
000000c0: b7f0 1bbd 7af8 2f3c 9cda 9ebb b6b5 10bd
000000d0: e6d4 9ebc 6ff3 523c e156 82bd 7025 10bb
000000e0: e4eb 2f3b b0ef 5bba 2f51 a33c b46f 843c
000000f0: 55f0 15bc 2732 fa3c c9ae c7bc 83df 343d
00000100: d6ce b3bc c8c8 ef3c 32be 88bb dfbf 01bd
00000110: e0bd 21bb 1edf 9abb 2231 34bd a45d 84ba
00000120: 125f 6c3c 681e 51bb 6c1c 203b bae9 37bc
00000130: 1009 54bd 9a9d 94bc ab09 02bc 1c96 cdba
00000140: 826b 3a3d 73da 473d 02fb e43c 5fc7 d8bc
00000150: 2583 a2bb 726e 1ebd e0f7 43ba 8873 0b3d
00000160: c205 fcbb c8f1 4fbc 2d5f c83c e493 3cbc
00000170: e836 943b e7e4 84bd 30f4 e8b9 3a74 9e3c
00000180: 3d9a 603c 715b 9a3b 43d1 84bc e0c2 af3b
00000190: 8b6d 963c 0263 60bb 2995 a6bc 71d5 59bc
000001a0: efb2 733c 70ca ae39 ab18 c23d 3c68 263c
000001b0: 242d f93a 9045 823c e8ce 1a3b bd78 dd3b
000001c0: 3b30 0abc 4c7d d73b 3e09 603c 7478 69bc
000001d0: 3cbe fc3c 5685 efbb 38ee 41bd 9173 553c
000001e0: f26f 813c 2011 18bc 0e70 333c 2e52 14bc
000001f0: 1603 0cbc ba9f e6bc d182 96bd 200d f8b9
00000200: 308f 35bd 0158 42bc bd17 abbd a853 0fbd
00000210: 3274 ac3b 6950 2c3d 737b 10bd da74 8cbc
00000220: 7242 d0bb 7ff2 133c 97e3 ec3b 94f5 8d3a
00000230: e0d3 c43d 9c21 b0bc 0d52 933b 383c e7ba
00000240: 6574 11bc 544a eb3a c542 813d 7657 8b3c
00000250: 9279 17bc d41a d53c 3885 e6ba 885f 0dbd
00000260: 3edd 363c 561e 893c 7856 973b 82fe 07bd
00000270: 883c 94bb 234e 013c fe3b 11bc e090 51bc
00000280: 52fe 363d b820 74bb f993 fdbc e6cd da3c
00000290: 6923 ebbc 5394 9b3b f5a8 f5bc 016e 3abc
000002a0: cd35 983d f09d b0bc f661 443c 20d9 1dbc
000002b0: dfa2 1a3b e4ee 47bd c117 60bc 7a5b c53c
000002c0: 945a d13b 9777 e33b 8fa7 03bc f039 fbbc
000002d0: 4160 bb3c 00dc 373a 1bb0 8b3b 607b 523a
000002e0: ab14 153c 5d25 62bc fdff 8f3c a77d f6bd
000002f0: 0839 76bc bebd a5bc 34ec 01bc 900d 313c
00000300: 446e c23c fa07 a4bb f232 f83c 0637 c6bc
00000310: 2de6 133c 1ed7 9c3c 6f72 d43c 8013 cc3b
00000320: 8cc9 57bb ba09 4ebb b97d 033d ee6b 9e3d
00000330: 12f3 88bc 5361 0c3d f841 343c dc2b a8bc
00000340: 4f42 82bb 0691 ae3c 9228 073c 207a 5d3a
00000350: 7e2c 0c3d 686f 4fbc 320c a5bc 5f3a e43b
00000360: a8ef 62bb 4fce 493d 03b0 283c b463 95bc
00000370: 5f0b cb3b 0a5a 063d 7498 a83c 9476 9c3a
00000380: e651 c73b 8e85 e8bd fbba babc e402 51bc
00000390: 8eb7 953b 1928 1f3c 9ea5 a83c f359 9f3c
000003a0: 4ad9 5fbc 01a2 f63c f9e7 303d daf2 0b3c
000003b0: 5ae8 64bc e054 a6ba bf39 fa3b d8d1 01bb
000003c0: 5178 9bbc 427d a03a 35a9 e0bc 18a4 85ba
000003d0: 7724 8b3c 3001 9639 c0b2 223c 86a9 22bc
000003e0: 6659 053c 998c d9bc 590a 9bbc 160a 9fbc
000003f0: 48ac 88bc 0932 7d3c 7036 1c3c 18b8 8abc

trans_feat.bias f4 [32]
-0.008166034 -0.0028742962 -0.005891164 0.0042186226 -0.0067580743 0.0027998886 0.005519554 -0.004830344
-0.0011339886 0.0055935974 0.0038464959 -0.007220009 -0.0035625715 0.005317978 -0.001099295 0.008110639
-0.0038015093 0.0048409104 0.0045884363 0.004794962 -0.00011667516 -0.0012771748 1.2198463e-05 0.0071882736
-0.002402993 0.007402003 0.00658737 -0.0056802277 -0.00024197577 -0.006785948 -0.0072307456 0.0014638202
00000000: d4ca 05bc b05e 3cbb aa0a c1bb 5f3c 8a3b
00000010: d672 ddbb 567e 373b 60dd b43b dd47 9ebb
00000020: 58a2 94ba 7f4a b73b 7e15 7c3b d395 ecbb
00000030: 087a 69bb 6f42 ae3b 3816 90ba 7ce2 043c
00000040: be22 79bb 80a0 9e3b 985a 963b 0e1f 9d3b
00000050: 80af f4b8 e066 a7ba 00a8 4c37 9c8b eb3b
00000060: 887b 1dbb 808c f23b ddda d73b 3421 babb
00000070: e0ba 7db9 a85c debb e4ef ecbb a8dd bf3a

pred_trans.weight f4 [7, 1433]
-0.16823342 -0.20032743 0.18713059 -0.18472765 -0.31838623 -0.11716125 0.49747577 -0.08321276
-0.039175235 -0.044962637 -0.07183052 -0.042719968 0.31069285 -0.017919347 0.05813305 0.26586857
0.026290894 -0.029302254 -0.014017379 -1.1348306 0.04421653 0.06969529 -0.069424406 -0.467547
0.04501045 0.6684513 0.33174127 -0.14081365 -0.12271298 0.14351007 -0.03363231 -0.093687676
-0.022151845 -0.03527524 -0.059906308 -0.32253182 -0.012606274 -0.057315476 -0.62515575 -0.55090374
-0.08089036 0.46690908 -0.026192583 0.098543085 -0.11411672 -0.294273 -0.094062425 0.42105252
-0.295516 -0.1489514 -0.18375115 -0.22036228 0.739614 0.04052429 -0.30967203 -0.079815894
0.888879 0.032283083 -0.16733146 -0.2780142 -0.044782966 -0.43355843 0.50968903 0.083010234
0.47978434 0.13088241 -0.12596951 -0.15973757 0.12416963 -0.029529037 -0.11387128 0.11001155
-0.12084021 -0.0538516 -0.06642152 -0.07725543 -0.13861291 -0.17836323 -0.23786466 0.002628604
-0.18493773 -0.33438355 -0.30559352 -0.28945076 0.0009401031 -0.10853729 -0.40070638 0.0133438185
-0.519164 0.31296515 0.018854296 -0.02100452 -0.18751107 0.5526932 0.105306864 0.10406712
-0.09509718 -0.2653592 0.30074108 0.11428407 -0.013503853 -0.004233533 -0.027465386 -0.23596537
-0.17511103 -0.071104445 -0.20138372 -0.10265904 -0.2881052 -0.042502377 0.056461785 0.0052716285
-0.064194396 -0.018066993 0.04043874 0.058130685 -0.096942045 0.061360065 -0.5121064 -0.12986994
-0.004319829 0.34006712 0.3797115 -0.20613395 -0.100910366 -0.27955642 0.025171638 0.047509238
-0.81018 -0.10884869 -0.30548197 0.32541305 1.2008172 0.076355875 -0.05326985 -0.46930552
0.16783762 -0.12839454 0.08324906 -0.18723735 -0.2529153 0.21858536 -0.032820515 -0.09977994
0.03672214 0.026238985 0.5724278 -0.122509286 -0.002597008 -0.2666827 -0.23202658 0.27340034
-0.05636959 -0.27474493 -0.15410072 -0.07654074 -0.07412915 -0.20951329 -0.17332318 -0.17166544
-0.11088015 0.043375827 0.013954021 -0.06000079 -0.09894839 0.058031715 0.0112185255 -0.09075755
-0.7170322 -0.0759323 -0.10201003 -0.096034795 -0.19259006 -0.40019554 -0.074960746 0.10528439
-0.18595073 -0.121912956 0.024932213 1.1947298 -0.04009786 -0.07198925 -0.02541294 -0.0129665425
-0.18064511 -0.0036336575 -0.14854799 -0.78224254 0.04750023 0.01639985 -0.20669197 -0.023930563
-0.24672066 -0.13497464 -0.17894271 -0.18615545 -0.25549495 -0.03142584 -0.1474587 -0.08897377
0.034671675 0.027253121 -0.0053728037 -0.47633287 -0.025640003 1.0328553 0.054175965 -0.12718077
-0.32269108 -0.012379292 0.015508894 0.57343024 -0.35683078 -0.19627912 0.6511683 0.07601023
-0.01089948 -0.19323716 -0.08571319 0.030664131 0.23001048 -0.050823644 0.45026216 0.009976596
-0.05969458 -0.0019023111 -0.057440206 9.761192e-06 1.2420447 -0.042311776 -0.15867504 0.111410424
-0.24018006 0.39741716 0.36892295 -0.07859338 -0.027955107 1.1984305 -0.4283774 -0.07902798
0.05095411 0.048281744 -0.015032266 -0.17760432 0.1878447 -0.069454975 -0.061380554 -0.36357027
0.10634691 -0.04679852 0.26711968 -0.11308619 -0.04621564 -0.045106582 -0.05707068 0.16787414
00000000: 6245 2cbe a222 4dbe 299f 3f3e 3f29 3dbe
00000010: 8503 a3be 3df2 efbd 25b5 fe3e 746b aabd
00000020: 3676 20bd be2a 38bd e11b 93bd 22fb 2ebd
00000030: 2213 9f3e 98cb 92bc ec1c 6e3d ed1f 883e
00000040: 0060 d73c 480b f0bc 26a9 65bc 2142 91bf
00000050: 641c 353d 67bc 8e3d 622e 8ebd 5262 efbe
00000060: e15c 383d a01f 2b3f fed9 a93e 7431 10be
00000070: f150 fbbd 4ef4 123e 08c2 09bd 53df bfbd
00000080: c977 b5bc c57c 10bd 5160 75bd e422 a5be
00000090: 8c8a 4ebc a2c3 6abd 350a 20bf 0708 0dbf
000000a0: d8a9 a5bd b50e ef3e d491 d6bc f5d0 c93d
000000b0: 07b6 e9bd f3aa 96be cda3 c0bd 3294 d73e
000000c0: e04d 97be b786 18be 4329 3cbe a6a6 61be
000000d0: 5857 3d3f ccfc 253d 558d 9ebe 8476 a3bd
000000e0: 938d 633f 443b 043d f058 2bbe e157 8ebe
000000f0: 586e 37bd 5ffb ddbe fb7a 023f 4501 aa3d
00000100: 4ba6 f53e 0a06 063e 27fe 00be 3f92 23be
00000110: a64c fe3d e1e6 f1bc 5835 e9bd bc4d e13d
00000120: 127b f7bd 7f93 5cbd 0208 88bd 1838 9ebd
00000130: 8bf0 0dbe daa4 36be cb92 73be a844 2c3b
00000140: 5160 3dbe 5234 abbe c176 9cbe e432 94be
00000150: 4071 763a cc48 debd 6329 cdbe 08a0 5a3c
00000160: efe7 04bf f83c a03e 5374 9a3c ac11 acbc
00000170: e702 40be 4d7d 0d3f 20ab d73d 2421 d53d
00000180: 4fc2 c2bd 29dd 87be bcfa 993e c40d ea3d
00000190: 443f 5dbc 73b9 8abb 17ff e0bc e8a0 71be
000001a0: 4e50 33be 359f 91bd 8937 4ebe e73e d2bd
000001b0: 8682 93be f916 2ebd 7944 673d a0bd ac3b
000001c0: 5a78 83bd 3b01 94bc 18a3 253d 711a 6e3d
000001d0: 8d89 c6bd b154 7b3d 6819 03bf a0fc 04be
000001e0: 5a8d 8dbb 471d ae3e 8c69 c23e c714 53be
000001f0: 18aa cebd 0522 8fbe c034 ce3c 0c99 423d
00000200: f567 4fbf 10ec debd 2268 9cbe 8a9c a63e
00000210: 61b4 993f 7860 9c3d 7c31 5abd d048 f0be
00000220: a0dd 2b3e dc79 03be 7c7e aa3d 26bb 3fbe
00000230: 1d7e 81be d7d4 5f3e ce6e 06bd 6d59 ccbd
00000240: f469 163d 24f3 d63c a18a 123f 26e6 fabd
00000250: 9032 2abb a38a 88be 6098 6dbe 21fb 8b3e
00000260: cde3 66bd 5eab 8cbe 94cc 1dbe 64c1 9cbd
00000270: 06d1 97bd a78a 56be a27b 31be 11c9 2fbe
00000280: 2215 e3bd daaa 313d 689f 643c 63c3 75bd
00000290: 74a5 cabd aab2 6d3d e8cd 373c 18df b9bd
000002a0: 6c8f 37bf 6582 9bbd a2ea d0bd e4ad c4bd
000002b0: 5436 45be 6ee6 ccbe 0585 99bd 589f d73d
000002c0: de69 3ebe 80ad f9bd a43e cc3c e8ec 983f
000002d0: a73d 24bd 1a6f 93bd cc2e d0bc 9f71 54bc
000002e0: 08fb 38be a822 6ebb f71c 18be 0c41 48bf
000002f0: 9a8f 423d fa58 863c 0fa7 53be 070a c4bc
00000300: 57a4 7cbe cb36 0abe c23c 37be 899f 3ebe
00000310: 3cd0 82be 62b8 00bd 6aff 16be e137 b6bd
00000320: e303 0e3d f041 df3c 580e b0bb e7e1 f3be
00000330: fc0a d2bc 9a34 843f 9ee7 5d3d ad3b 02be
00000340: c437 a5be 84d2 4abc 0419 7e3c 53cc 123f
00000350: 86b2 b6be 65fd 48be f7b2 263f 40ab 9b3d
00000360: bc93 32bc f6df 45be 668a afbd 5833 fb3c
00000370: de87 6b3e 742c 50bd c388 e63e e074 233c
00000380: 4e82 74bd f856 f9ba 6c46 6bbd 00c4 2337
00000390: 52fb 9e3f 1d4f 2dbd b67b 22be 262b e43d
000003a0: c3f1 75be 437a cb3e 78e3 bc3e 91f5 a0bd
000003b0: 1c02 e5bc 2c66 993f 4854 dbbe 6cd9 a1bd
000003c0: 42b5 503d 14c3 453d e549 76bc e8dd 35be
000003d0: 5c5a 403e 693e 8ebd 2d6a 7bbd e225 babe
000003e0: 69cc d93d ceaf 3fbd e9c3 883e bb99 e7bd
000003f0: 9c4c 3dbd aec1 38bd f2c2 69bd 33e7 2b3e

pred_trans.bias f4 [7]
-0.06554943 -0.06993714 -0.026060186 0.0673709 0.047647215 -0.033113662 0.0006487658
00000000: c83e 86bd 343b 8fbd 2c7c d5bc c1f9 893d
00000010: ba29 433d 31a2 07bd f011 2a3a

gcn_convs.0.path_weight_1.weight f4 [32, 32]
0.0041050827 0.0010608007 0.01039839 0.053408593 -0.023048557 -0.05283203 -0.033861358 -0.09087084
-0.06795895 0.059660763 0.018201549 0.024869245 0.057521854 -0.0028186324 -0.22504309 0.034452267
-0.08625241 -0.0120880995 0.03377041 0.047537293 0.048120163 -0.010155726 -0.04830105 -0.011893447
-0.035157662 0.0018317598 0.056512393 0.07046053 -0.01281209 -0.20130147 -0.0069703297 0.060516734
-0.02424265 0.061616242 -0.0007856843 0.035192266 -0.083344474 0.026856648 -0.06878578 -0.108930446
-0.08089017 0.014833488 0.020810353 0.026273081 -0.08157821 -0.048137445 0.09604219 -0.00030715068
-0.034209292 0.054042894 0.022372145 0.11745492 -0.52580667 0.048813492 -0.1975913 0.031049075
0.077835456 0.009776626 0.11053825 -0.012397051 0.0036282 0.062319033 0.20816493 0.03003035
0.41641247 0.64574724 -0.34132078 -0.01441629 0.035547893 -0.04434492 -0.375288 0.25420436
0.38833153 -0.30365014 -0.18293165 -0.4246709 0.08749926 -0.35894316 0.003674239 -0.60027903
-0.36999553 0.3319171 -0.12563343 -0.26413608 -0.5758495 0.12659149 -0.059448067 -0.27684975
0.021324474 0.037084453 0.6583531 -0.51505756 0.08349355 0.04747954 0.389318 0.04763186
-0.17263532 -0.051624216 0.27726257 -0.018806918 -0.24206609 -0.45484012 -0.047927935 -0.14676934
-0.0010427685 0.24649277 0.008858218 -0.056797855 -0.0440994 -0.020510785 -0.020041747 -0.031443413
0.027475538 -0.07195847 -0.12809595 -0.00954764 -0.24332248 0.0048914966 -0.0069958786 -0.0056403745
-0.03233672 -0.019165214 -0.114703 -0.04656971 -0.034749985 0.30311653 -0.04065634 -0.012909334
-0.108659 -0.17140841 -0.013332649 -0.07820743 -0.021487474 0.03189573 -0.06291793 0.05450873
-0.19816819 0.04011782 0.04450017 0.08984476 0.07341037 -0.029721864 0.014223172 0.10112526
0.118679084 -0.093820944 0.030299215 0.019327328 -0.068092145 0.05319932 -0.04814014 0.17902309
0.04245529 -0.107824825 -0.055367984 -0.06485959 -0.023286313 -0.07694413 0.05597797 0.07085551
-0.05712788 0.07140508 -0.2004893 0.010812523 -0.026066132 -0.004802548 -0.029682461 0.14023343
0.04038494 -0.02269374 -0.03790007 0.02997114 0.0080814045 -0.043166574 -0.049548574 0.02090666
-0.07325266 0.139327 -0.11092603 0.02262092 0.047027096 0.048927426 -0.027016936 0.07360038
0.06452668 -0.06944857 0.016740788 0.0076894015 -0.0019533413 -0.0533974 0.02919151 -0.020030685
-8.116957e-05 -0.069812946 -0.07063417 -0.023329644 -0.054220434 -0.021241343 0.014572797 0.03659169
0.018396823 0.03151026 0.07861296 0.033306286 0.0047136256 -0.03274326 -0.011341842 0.022881432
-0.05763523 0.06400843 -0.042832363 -0.018091857 -0.024080709 -0.043915316 0.009706006 -0.057813834
-0.075999334 -0.0075936536 0.031505547 0.027900537 0.013848858 -0.05568276 -0.0042376556 0.003385364
-0.0123161655 0.22992566 0.1183438 0.58202815 0.003918172 0.05266503 -0.60358477 0.25546724
0.10468817 -0.3628163 -0.26731434 -0.04784693 0.32642758 -0.024029352 -0.19487749 -0.21392457
0.84154886 0.18840465 -0.07965242 0.6217506 -0.08385174 0.052430872 0.45094022 -0.12190889
0.2645623 -0.06187747 0.05328966 -0.039002743 0.05896521 -0.14227557 -0.019471958 -0.3368658
00000000: ee83 863b 910a 8b3a 025e 2a3c f8c2 5a3d
00000010: 54d0 bcbc 6666 58bd 35b2 0abd 7e1a babd
00000020: 102e 8bbd d85e 743d 6a1b 953c 96ba cb3c
00000030: 099c 6b3d ceb8 38bb b271 66be d21d 0d3d
00000040: 1ba5 b0bd 2a0d 46bc d752 0a3d 77b6 423d
00000050: a619 453d 3464 26bc 52d7 45bd bbdc 42bc
00000060: 7b01 10bd a917 f03a 8a79 673d 9c4d 903d
00000070: cde9 51bc f921 4ebe 5d67 e4bb 65e0 773d
00000080: 8698 c6bc 5061 7c3d 61f6 4dba c425 103d
00000090: 82b0 aabd 7902 dc3c 8fdf 8cbd ed16 dfbd
000000a0: bfa9 a5bd 2808 733c 797a aa3c a53a d73c
000000b0: 7a12 a7bd c52b 45bd c5b1 c43d 1109 a1b9
000000c0: 0b1f 0cbd 155c 5d3d ca45 b73c 358c f03d
000000d0: 449b 06bf a8f0 473d 6055 4abe a15a fe3c
000000e0: 3268 9f3d 242e 203c e161 e23d 001d 4bbc
000000f0: 18c7 6d3b 3e42 7f3d 3029 553e 3502 f63c
00000100: 0434 d53e b14f 253f 99c1 aebe 4e32 6cbc
00000110: ab9a 113d 05a3 35bd c025 c0be 1327 823e
00000120: 64d3 c63e 0878 9bbe 6f52 3bbe 776e d9be
00000130: d032 b33d 66c7 b7be 80cb 703b e3ab 19bf
00000140: 0e70 bdbe 0af1 a93e 0da6 00be d83c 87be
00000150: df6a 13bf 33a1 013e d17f 73bd 40bf 8dbe
00000160: aab0 ae3c dee5 173d d489 283f d0da 03bf
00000170: abfe aa3d e879 423d b054 c73e a019 433d
00000180: 50c7 30be ea73 53bd 5cf5 8d3e f710 9abc
00000190: 2ce0 77be cee0 e8be 1550 44bd b44a 16be
000001a0: 81ad 88ba 9a68 7c3e 0f22 113c dea4 68bd
000001b0: 93a1 34bd 3c06 a8bc 972e a4bc cfca 00bd
000001c0: 6114 e13c f65e 93bd 962b 03be b46d 1cbc
000001d0: 8729 79be d948 a03b af3d e5bb e4d2 b8bb
000001e0: 8273 04bd 5e00 9dbc 68e9 eabd e1bf 3ebd
000001f0: 0056 0ebd 1732 9b3e 4387 26bd ac81 53bc
00000200: 9c88 debd b085 2fbe 2f71 5abc 382b a0bd
00000210: 8006 b0bc 19a5 023d 1edb 80bd 8c44 5f3d
00000220: 9aec 4abe 9552 243d cf45 363d 8800 b83d
00000230: 2d58 963d 447b f3bc 4f08 693c c31a cf3d
00000240: 050e f33d 3225 c0bd 0f36 f83c 5854 9e3c
00000250: e573 8bbd 88e7 593d 982e 45bd d451 373e
00000260: 99e5 2d3d 43d3 dcbd 8ac9 62bd 1bd5 84bd
00000270: f0c2 bebc e294 9dbd 2849 653d b21c 913d
00000280: edfe 69bd d43c 923d 114d 4dbe 0227 313c
00000290: a488 d5bc b15e 9dbb a228 f3bc 5a99 0f3e
000002a0: ae6a 253d 39e8 b9bc 1b3d 1bbd 0986 f53c
000002b0: de67 043c 6fcf 30bd 72f3 4abd 7244 ab3c
000002c0: 7e05 96bd bdab 0e3e 302d e3bd 824f b93c
000002d0: 7c9f 403d 2068 483d 9f52 ddbc ccbb 963d
000002e0: 9026 843d 0d3b 8ebd fa23 893c 60f7 fb3b
000002f0: a103 00bb 3bb7 5abd 0923 ef3c 6417 a4bc
00000300: 9539 aab8 17fa 8ebd a6a8 90bd cf1d bfbc
00000310: 3f16 5ebd 5302 aebc bec2 6e3c 2be1 153d
00000320: efb4 963c e710 013d d5ff a03d 2c6c 083d
00000330: c274 9a3b cc1d 06bd 22d3 39bc d771 bb3c
00000340: eb12 6cbd da16 833d fd70 2fbd 6035 94bc
00000350: e844 c5bc 8ce0 33bd f105 1f3c 33ce 6cbd
00000360: 8aa5 9bbd 2fd4 f8bb f60b 013d ab8f e43c
00000370: 52e6 623c 9b13 64bd 08dc 8abb fcdc 5d3b
00000380: bec9 49bc a271 6b3e 3c5e f23d ccff 143f
00000390: 0264 803b 49b7 573d 8884 1abf 9acc 823e
000003a0: c066 d63d 0fc3 b9be 6ddd 88be 24fb 43bd
000003b0: 8421 a73e 34d9 c4bc f78d 47be 0b0f 5bbe
000003c0: bf6f 573f 26ed 403e cf20 a3bd 0c2b 1f3f
000003d0: 76ba abbd c1c1 563d a3e1 e63e 5eab f9bd
000003e0: b674 873e 3b73 7dbd 4246 5a3d 57c1 1fbd
000003f0: 8185 713d b0b0 11be a883 9fbc ad79 acbe

gcn_convs.0.path_weight_1.bias f4 [32]
1.0368322 1.4911007 1.4071554 0.7881784 -0.34038067 -0.97300196 -0.324946 -0.90147084
-1.1213853 0.27845332 -0.48312336 -0.7755139 0.98735327 1.1220671 1.7034466 -1.0745145
0.5593181 -1.070817 -0.8150632 0.83367574 0.041271243 -0.3678637 0.92779434 -0.7792519
0.29817984 -1.0766443 1.2195632 -0.33388516 0.9070793 -0.93865806 1.0317309 1.374811
00000000: ebb6 843f 63dc be3f ab1d b43f 0fc6 493f
00000010: 6046 aebe a816 79bf 525f a6be cbc6 66bf
00000020: 8e89 8fbf 6f91 8e3e f25b f7be 1488 46bf
00000030: 2fc3 7c3f e59f 8f3f 8a0a da3f b189 89bf
00000040: 792f 0f3f 8810 89bf fba7 50bf c66b 553f
00000050: 090c 293d a258 bcbe ee83 6d3f 0d7d 47bf
00000060: 07ab 983e 7bcf 89bf a61a 9c3f fff2 aabe
00000070: 5936 683f e54b 70bf c20f 843f cff9 af3f

gcn_convs.0.path_weight_2.weight f4 [32, 32]
0.0031859288 0.005455241 0.0047867433 0.0045344085 0.0033632242 -0.0022388787 -0.0071931626 0.0052464725
0.0022670643 -0.0053689056 0.003488765 0.0011128673 -0.0033683593 0.002107571 -0.006339187 0.003667172
-0.004613845 0.004515868 0.0055764774 -0.0039547076 0.004543664 0.0064134873 -0.0059955074 0.0022998317
-0.0054574553 -0.0053086774 0.003279481 -0.007226327 0.0039262353 -0.003581692 -0.00417163 0.00013685103
-0.005456092 -0.00591696 -0.0047774566 0.0031757005 -0.006960851 -0.004942941 0.00020864584 0.0041420655
-0.0049256887 -0.000691337 0.007070303 0.0016942223 -0.0016951676 0.004426679 -0.0040316535 -0.0077903117
-3.8357307e-06 0.00221521 -0.005988826 -0.0031975794 -0.0006547694 -0.005087671 -0.007313966 0.0053926967
0.003963754 -0.0032908896 0.005585945 -0.006029626 -0.0011686746 0.00088278926 0.0038378257 0.0021942975
0.005892509 -0.005327121 -0.0043407474 -0.00089169206 0.00607008 -0.0052996 0.0022911793 0.0065401504
0.0012041744 -0.0045150095 7.876637e-06 0.0022416026 0.007054771 0.005717163 0.005243549 -0.004254741
0.006945592 0.0031925554 -0.0058457265 0.0030485091 0.0034559378 0.004528827 -0.005677978 -0.00015415777
-0.0069119027 -0.008079696 -0.0022031874 -0.0023171569 0.0048646615 -0.0029186592 0.0016149129 0.004297043
-0.0039369664 -0.0036791654 -0.0045371237 0.002072845 -0.0002578389 -0.0027262128 -0.005358391 -0.00058625784
-0.0029142404 -0.0072358614 -0.0050932616 0.0051954924 0.0033943423 -0.003977936 -0.00075888645 -0.0042363727
0.0061115697 -0.003411704 -0.0044910694 0.004424336 0.0014846429 0.005355356 0.0061480547 -0.0028876301
-0.007131758 -0.007816246 0.004056365 0.0037383093 -0.0041402946 -0.0034925689 -0.0015619862 -0.0039027412
0.004431623 0.003943535 -0.0047099176 0.0025800283 -0.0009367041 0.005483609 -0.00024265064 -0.004173368
-0.0041187415 -0.0057331896 0.0060440595 -0.0022276104 -0.0052651367 -0.005369666 -0.0044471864 -0.00081153313
-0.004252719 0.0053648353 0.0062900223 0.00074697257 0.0030882638 -0.0070143105 0.004537424 0.0018805761
-0.0041399007 -0.00155558 0.000132653 -0.0042719133 -0.0017156104 -0.006594799 -0.00520728 0.0011574419
-0.0006026427 -0.0053711394 0.0034572186 -0.0062670126 -0.00091289304 0.0024333573 -0.0021548965 0.0037517608
0.00045714423 0.0069592106 -0.0032535044 0.005336929 -0.0034557225 -0.0009869417 0.0053680083 -0.0008310001
-0.0072783856 0.003692849 0.004996493 0.001997082 0.0047477596 -0.008044696 -0.004119237 -0.0063273483
0.007325786 0.007688486 0.0072373096 0.0063045197 -0.006203165 -0.005506226 0.0035613705 -0.0012640841
0.00027745144 -0.0031013126 -0.0035757415 -0.005371953 -0.0006478178 0.004664654 -0.002215758 -0.0026458867
-0.00611279 -0.004200378 0.0053874357 -0.005408329 0.0052761007 0.0010857565 -0.00039592298 -0.0060437303
-0.0043056435 0.0034020238 9.098971e-05 0.00497073 -0.005717003 -0.005266426 -0.004818874 0.0051533785
0.0045076576 0.0031298334 0.00575078 -4.256169e-05 -0.0026929793 0.0058011534 -0.00092148886 0.0044717146
-0.004760628 0.00049872545 0.00017223145 -0.0021216357 0.0039550513 0.004924203 0.0025502318 0.0041872044
0.0045758607 -0.0010388612 0.0002006423 0.0072729457 0.0044314517 0.0056585376 -0.0036341127 -0.007313375
0.0032099935 0.0034190314 0.0004174528 -0.0036252036 -0.0019420716 -0.005323403 0.0009246902 -0.006575359
0.001788414 -0.0041972063 -0.003317542 0.004968755 -0.001281345 0.0021946887 -0.0015083428 -0.0043169684
00000000: 04cb 503b e1c1 b23b 1dda 9c3b 6095 943b
00000010: 8a69 5c3b 27ba 12bb 9fb4 ebbb 9aea ab3b
00000020: 0793 143b a5ed afbb c4a3 643b a1dd 913a
00000030: b1bf 5cbb 2d1f 0a3b f4b8 cfbb f054 703b
00000040: bd2f 97bb d9f9 933b e2ba b63b 7e96 81bb
00000050: 04e3 943b 3b28 d23b f675 c4bb c6b8 163b
00000060: 74d4 b2bb 6af4 adbb 90ec 563b d3ca ecbb
00000070: a6a7 803b d2ba 6abb 2bb2 88bb ab7f 0f39
00000080: 04c9 b2bb 0fe3 c1bb 368c 9cbb 6a1f 503b
00000090: da17 e4bb 65f8 a1bb f1c7 5a39 2aba 873b
000000a0: ac67 a1bb d73a 35ba 00ae e73b ab10 de3a
000000b0: 6330 deba ad0d 913b f61b 84bb df45 ffbb
000000c0: adb4 80b6 0f2d 113b ea3d c4bb 7b8e 51bb
000000d0: d5a4 2bba 7ab6 a6bb fea9 efbb 38b5 b03b
000000e0: 61e2 813b f7ab 57bb 4e0a b73b 2b94 c5bb
000000f0: 362e 99ba fc6a 673a 0884 7b3b 34ce 0f3b
00000100: f315 c13b 218f aebb d43c 8ebb 71c0 69ba
00000110: 86e7 c63b 44a8 adbb 9c27 163b c24e d63b
00000120: 63d5 9d3a a5f2 93bb e625 0437 dae7 123b
00000130: b52b e73b 0a57 bb3b 14d2 ab3b 5b6b 8bbb
00000140: d997 e33b 313a 513b 828d bfbb 7fc9 473b
00000150: 047d 623b 8e66 943b 550e babb 69a5 21b9
00000160: 3e7d e2bb b460 04bc 5a63 10bb 71db 17bb
00000170: bd67 9f3b fa46 3fbb 7cab d33a 36ce 8c3b
00000180: ab01 81bb 271e 71bb 27ac 94bb 91d8 073b
00000190: 8d2e 87b9 43aa 32bb 7195 afbb 19af 19ba
000001a0: d7fc 3ebb ce1a edbb 60e5 a6bb f33e aa3b
000001b0: 9d73 5e3b 5959 82bb 02f0 46ba 45d1 8abb
000001c0: 9043 c83b e596 5fbb d229 93bb 05fa 903b
000001d0: 5998 c23a fb7b af3b 9f75 c93b 653e 3dbb
000001e0: 86b1 e9bb b60f 00bc 42eb 843b 6cfe 743b
000001f0: 4fab 87bb 95e3 64bb 8fbb ccba 22c5 7fbb
00000200: 2637 913b c538 813b a755 9abb b115 293b
00000210: 268d 75ba d9af b33b 0970 7eb9 c0c0 88bb
00000220: 82f6 86bb 7bdd bbbb 3f0d c63b 1afd 11bb
00000230: 2b87 acbb 06f4 afbb b4b9 91bb 11bd 54ba
00000240: 655a 8bbb 80cb af3b 881c ce3b 7bd0 433a
00000250: 7864 4a3b 4dd8 e5bb acae 943b aa7d f63a
00000260: 01a8 87bb 9ae4 cbba c518 0b39 68fb 8bbb
00000270: 55de e0ba 2f19 d8bb d5a1 aabb 4eb5 973a
00000280: abfa 1dba 6200 b0bb 8192 623b 835b cdbb
00000290: 374f 6fba f678 1f3b 2a39 0dbb 1ae0 753b
000002a0: dcac ef39 170a e43b bf38 55bb 68e1 ae3b
000002b0: 6779 62bb 455c 81ba 1ee6 af3b 79d7 59ba
000002c0: 867f eebb ba03 723b 9fb9 a33b 7ae1 023b
000002d0: 1893 9b3b e7cd 03bc aafa 86bb a555 cfbb
000002e0: 260d f03b b2ef fb3b f426 ed3b 2596 ce3b
000002f0: eb43 cbbb 926d b4bb e265 693b a0af a5ba
00000300: e776 9139 643f 4bbb fd56 6abb 3507 b0bb
00000310: 51d2 29ba f4d9 983b 4036 11bb 9d66 2dbb
00000320: cd4d c8bb 53a3 89bb 1689 b03b 5a38 b1bb
00000330: 24e3 ac3b f14f 8e3a e293 cfb9 7c0a c6bb
00000340: 5b16 8dbb 7df4 5e3b bbd1 be38 81e1 a23b
00000350: b255 bbbb fc91 acbb a5e7 9dbb acdd a83b
00000360: f9b4 933b e41d 4d3b 0a71 bc3b 4484 32b8
00000370: b27c 30bb 9a17 be3b 1290 71ba 7687 923b
00000380: 0bff 9bbb e6bc 023a 0799 3439 240b 0bbb
00000390: 6099 813b 355b a13b ca21 273b d134 893b
000003a0: 1af1 953b 662a 88ba 8263 5239 e451 ee3b
000003b0: b635 913b 416b b93b 4b2a 6ebb 09a5 efbb
000003c0: c15e 523b d411 603b 91dd da39 d394 6dbb
000003d0: 1c8d feba f16f aebb e966 723a 1c76 d7bb
000003e0: 3769 ea3a b888 89bb 1e6b 59bb f0d0 a23b
000003f0: cef2 a7ba c4d4 0f3b 96b3 c5ba 5b75 8dbb

gcn_convs.0.path_weight_2.bias f4 [32]
1.0063673 1.0832037 1.1345378 -0.034226935 -0.50342685 0.61344486 -0.4697589 -0.90404105
-0.5812513 1.3531035 1.0945853 0.9299762 -0.47375664 -0.009550484 1.2095363 -1.0353001
-0.008306839 0.03651207 -0.6769046 0.8578639 -1.0438199 -0.6308876 0.89225215 0.9437046
-0.9726247 -0.010292958 0.12382973 -0.9666732 0.88463426 -1.1526803 -0.8466947 1.4109184
00000000: a5d0 803f 6ba6 8a3f 8938 913f 8b31 0cbd
00000010: 95e0 00bf b90a 1d3f 3d84 f0be 3c6f 67bf
00000020: e3cc 14bf 7f32 ad3f 5f1b 8c3f ec12 6e3f
00000030: 3b90 f2be a279 1cbc 16d2 9a3f b784 84bf
00000040: 6819 08bc ae8d 153d 9f49 2dbf f89c 5b3f
00000050: e49b 85bf da81 21bf a36a 643f a096 713f
00000060: effd 78bf cba3 28bc 719a fd3d e577 77bf
00000070: 6477 623f 078b 93bf fcc0 58bf f998 b43f

gcn_convs.1.path_weight_1.weight f4 [32, 32]
0.015253256 -0.017723862 -0.0028204164 0.005031674 -0.005238845 0.02555274 0.0006294456 -0.0011418756
-0.011223238 -0.0006150427 0.020811941 -0.02067321 0.004273962 0.014865977 0.007702067 0.008018066
-0.0032041594 -0.016413298 0.018453013 0.012225673 -0.018969653 0.003777281 0.011510906 -0.009662794
-0.00816909 -0.0001704671 0.018492445 -0.009772636 -0.012989585 -0.01721216 0.024660347 0.0145975435
0.0032674647 0.020068593 -0.060037658 0.027760442 0.048776977 -0.024403097 -0.04266079 -0.025651203
-0.0026378606 -0.02133618 -0.025096077 -0.010935852 -0.053540275 -0.0062013925 -0.012064537 0.012743901
-0.03205071 -0.06694239 0.029685674 -0.015455627 0.009916798 -0.0007564089 -0.020640312 0.022049256
-0.009174271 0.048436526 -0.03193653 -0.010456742 -0.017253108 -0.0007973357 0.03341228 0.004769451
-0.029236626 0.0321046 -0.0040724943 -0.0014464951 0.009773019 -0.039289106 -0.0031220317 0.013436357
-0.011676623 -0.033215012 0.009623348 -0.011791823 0.01313885 0.0020005256 -0.010641159 0.011100449
-0.018901674 0.0059643695 -0.016548578 -0.008413686 -0.008111184 0.034519807 0.010009685 0.009649997
-0.011557267 -0.004354777 0.011775584 0.012023912 0.020438293 -0.031654466 -0.008855001 0.006964296
-0.054708395 -0.027135331 0.031051347 -0.04565978 -0.029252153 -0.0066730883 0.023064308 -0.018593675
0.017733004 -0.004731723 -0.023735749 -0.03549102 -0.00032315202 -0.04244281 0.035224956 -0.008977174
-0.019354241 0.017461738 -0.006344001 -0.033349156 0.04282524 0.0153303575 0.020161796 -0.014069106
-0.025519095 0.03313231 0.050489023 0.021831635 0.0052936706 0.014445066 -0.031003755 -0.009124108
-0.02165762 -0.017039277 0.03942404 -0.00033076713 0.01911057 -0.025585689 -0.02921716 0.032002006
0.016806694 -0.030394332 -0.026994407 0.004474141 0.012114714 -0.0174947 -0.004555616 0.019402897
-0.02037077 -0.02275713 -0.023023311 0.008328689 -0.004396645 -0.015541518 -0.014947807 -0.02615758
0.008738949 0.042795513 -0.04155789 -0.013456794 -0.015010881 -0.007794479 -0.018261898 -0.0065898225
0.09194553 0.025659064 0.0037779487 -0.07786016 0.02280006 -0.03183899 -0.01682103 -0.041216787
-0.02686105 -0.0072214706 0.00795411 0.0073281596 0.020983066 -0.027381917 -0.04796026 -0.0010109746
-0.0034756784 -0.02331504 -0.026659243 0.028805243 0.03927734 -0.0026321446 0.02638961 0.02228939
0.014864211 0.022375396 0.029688112 0.040703304 -0.076521076 0.010434175 -0.041746836 0.07125939
0.027611772 -0.04992981 -0.042800497 0.029225077 0.0026911309 0.018162975 -0.0118807955 -0.04377357
-0.066267185 0.046019245 0.04718436 -0.0003810848 0.0038050255 -0.03425702 0.0013329968 0.025799269
0.01284658 0.03059514 0.021032626 0.017678492 -0.030702868 -0.029206317 -0.03637493 0.009689085
0.003574617 -0.0037372182 -0.045157205 0.016001752 -0.017157046 0.0071547385 -0.039719887 -0.041105412
0.030486604 -0.022077246 0.0021294963 0.017861964 0.021785248 -0.023452414 -0.0075906906 0.02019754
-0.015580311 -0.00085117057 0.020564051 0.0028641762 -0.0115581425 -0.027663913 0.016976846 0.0045578736
-0.008499857 0.015177612 0.023647131 -0.0005361481 0.012447945 0.007831396 -0.015917655 -0.0022804893
-0.0065731094 0.011887691 0.023150183 -0.031166118 0.006837306 0.017176772 -0.00077605003 0.019079665
00000000: cbe8 793c a231 91bc bcd6 38bb bee0 a43b
00000010: 9eaa abbb fb53 d13c 6101 253a fdaa 95ba
00000020: ace1 37bc d13a 21ba ce7d aa3c dd5a a9bc
00000030: 980c 8c3b 6d90 733c 9f61 fc3b 355e 033c
00000040: e0fc 51bb 2e75 86bc c62a 973c 304e 483c
00000050: 3f66 9bbc 428c 773b 3d98 3c3c b250 1ebc
00000060: a6d7 05bc 6abf 32b9 787d 973c 681d 20bc
00000070: 45d2 54bc 8400 8dbc 7f04 ca3c 892a 6f3c
00000080: f622 563b e466 a43c 0cea 75bd de69 e33c
00000090: 5eca 473d 01e9 c7bc 15bd 2ebd 7922 d2bc
000000a0: f5df 2cbb 36c9 aebc 4a96 cdbc 4a2c 33bc
000000b0: 0c4d 5bbd 0d35 cbbb 56aa 45bc cccb 503c
000000c0: 9b47 03bd 1719 89bd 5f2f f33c 9939 7dbc
000000d0: 117a 223c be49 46ba df15 a9bc a4a0 b43c
000000e0: ae4f 16bc 6165 463d e1cf 02bd c152 2bbc
000000f0: 6456 8dbc 4b04 51ba 51db 083d 0e49 9c3b
00000100: a681 efbc 1d80 033d 8f72 85bb 5298 bdba
00000110: 031f 203c 9ded 20bd 009b 4cbb 2a24 5c3c
00000120: 4e4f 3fbc 770c 08bd 3fab 1d3c 7e32 41bc
00000130: 5544 573c 401b 033b 4158 2ebc a8de 353c
00000140: afd7 9abc c270 c33b e290 87bc 8fd9 09bc
00000150: c6e4 04bc a464 0d3d a9ff 233c 051b 1e3c
00000160: b15a 3dbc 84b2 8ebb 61ee 403c f1ff 443c
00000170: 356e a73c 1da8 01bd 9114 11bc c034 e43b
00000180: e915 60bd ea4a debc 655f fe3c c005 3bbd
00000190: 36a2 efbc eca9 dabb 5cf1 bc3c c351 98bc
000001a0: ce44 913c 920c 9bbb 7971 c2bc 085f 11bd
000001b0: bb6c a9b9 83d8 2dbd 0b48 103d ff14 13bc
000001c0: c98c 9ebc eb0b 8f3c 56e1 cfbb 2099 08bd
000001d0: 8569 2f3d 2e2c 7b3c 5a2a a53c 1c82 66bc
000001e0: 6c0d d1bc bfb5 073d 94cd 4e3d 42d8 b23c
000001f0: 8776 ad3b 00ab 6c3c 96fb fdbc 487d 15bc
00000200: 526b b1bc f495 8bbc 1a7b 213d d06a adb9
00000210: c58d 9c3c 1499 d1bc d358 efbc 8914 033d
00000220: 31ae 893c 89fd f8bc 6023 ddbc d19b 923b
00000230: cb7c 463c 0c51 8fbc 4747 95bb d3f2 9e3c
00000240: 9ae0 a6bc 296d babc 629b bcbc 0e75 083c
00000250: bb11 90bb daa1 7ebc a6e7 74bc 6c48 d6bc
00000260: cf2d 0f3c 594a 2f3d 9b38 2abd e379 5cbc
00000270: 33f0 75bc d468 ffbb fa99 95bc 70ef d7bb
00000280: f04d bc3d f532 d23c 7697 773b 2675 9fbd
00000290: 31c7 ba3c 9a69 02bd 42cc 89bc efd2 28bd
000002a0: b40b dcbc 16a2 ecbb f551 023c 0f21 f03b
000002b0: aee4 ab3c 0b50 e0bc fa71 44bd ae82 84ba
000002c0: 35c8 63bb 2fff bebc 7c64 dabc f9f8 eb3c
000002d0: 47e1 203d 0f80 2cbb 062f d83c 3d98 b63c
000002e0: 0589 733c 9b4c b73c 7c34 f33c 82b8 263d
000002f0: 15b7 9cbd 1af4 2a3c bbfe 2abd 71f0 913d
00000300: 1532 e23c 3383 4cbd 934f 2fbd 6e69 ef3c
00000310: af5d 303b 85ca 943c aba7 42bc ea4b 33bd
00000320: 17b7 87bd ad7e 3c3d 6344 413d 56cc c7b9
00000330: bc5d 793b 1751 0cbd f3b7 ae3a fd58 d33c
00000340: 767a 523c a9a2 fa3c 9d4c ac3c 7cd2 903c
00000350: 9584 fbbc 1642 efbc e1fd 14bd f8be 1e3c
00000360: 1f44 6a3b 1eec 74bb c3f6 38bd 1b16 833c
00000370: ef8c 8cbc 4c72 ea3b 52b1 22bd 265e 28bd
00000380: 0bbf f93c 57db b4bc 058f 0b3b 4153 923c
00000390: fa76 b23c 471f c0bc 54bb f8bb 5075 a53c
000003a0: 9044 7fbc 1721 5fba f175 a83c e7b4 3b3b
000003b0: 5d5e 3dbc 6e9f e2bc 0713 8b3c 375a 953b
000003c0: fc42 0bbc 85ab 783c a1b7 c13c 4a8c 0cba
000003d0: 77f2 4b3c 414f 003c be65 82bc 4374 15bb
000003e0: 3d63 d7bb 97c4 423c 74a5 bd3c 1650 ffbc
000003f0: 7b0b e03b 4db6 8c3c d66f 4bba f54c 9c3c

gcn_convs.1.path_weight_1.bias f4 [32]
0.03387603 1.1313847 -0.85735977 0.041642733 -1.0290598 0.5870136 0.10953263 -0.8358669
-0.058868803 -0.06891092 -0.88495976 -0.19007409 0.0966075 0.035763152 -0.960942 0.7804362
1.2027824 -0.18656558 -0.90019727 -0.8642029 -0.048063718 -0.21753977 0.60700196 -0.37315732
-0.61695653 -0.59819925 -0.41428998 0.782624 1.0537624 -0.7015146 -0.09723806 -0.93044513
00000000: 98c1 0a3d 37d1 903f ee7b 5bbf 9291 2a3d
00000010: 3bb8 83bf 8646 163f a552 e03d 60fb 55bf
00000020: 6a20 71bd 2b21 8dbd b98c 62bf c8a2 42be
00000030: 27da c53d 627c 123d 4b00 76bf abca 473f
00000040: c6f4 993f 0c0b 3fbe 5473 66bf 673c 5dbf
00000050: 76de 44bd bfc2 5ebe 7b64 1b3f 7a0e bfbe
00000060: ddf0 1dbf 9623 19bf d11d d4be 0c5a 483f
00000070: b0e1 863f 7696 33bf bf24 c7bd a731 6ebf

gcn_convs.1.path_weight_2.weight f4 [32, 32]
-0.70450217 -0.4669454 -0.20516442 0.0024380328 0.820241 0.59411114 -0.8628346 0.7770269
-0.13137576 0.6533492 0.061810613 -0.95068336 -0.65055686 0.42145368 -0.43280357 0.1701171
0.06569051 0.124509856 -0.42556286 -0.90651774 0.34429896 0.07181735 -0.10652824 -0.58238465
0.6509891 -0.044395067 0.58450705 0.843682 -0.007138019 -1.0341909 0.9395199 -0.017223189
-1.0114537 -1.1191113 -0.74104637 0.5400452 -0.73081505 1.0979031 -1.0802895 -1.2093229
0.27918348 -0.6309318 0.9530033 -0.96924996 -0.88415575 -0.89303255 1.4259686 0.46990818
0.3495581 0.9997319 0.21136545 1.1894096 0.22304405 -0.4752698 -0.9522778 1.127242
0.8673906 0.3268504 1.1665463 0.57951885 0.11480249 -1.3579158 1.2319994 -0.35670352
0.9800846 -0.413645 1.1371744 -0.071306534 -0.6454309 -0.85481524 0.9769388 1.1407273
-1.0295628 0.9404278 0.74961525 -0.5864428 0.8735291 1.2348258 -1.1231644 0.7969607
-0.8149747 -0.8979102 -0.5870829 0.9343883 -0.69905144 0.07555863 -0.91827327 0.02175881
-0.52662396 -0.76570296 0.039768633 -0.19814837 -1.1666112 0.9408536 -0.18456213 -0.86985373
0.50269717 -0.041344628 0.6538709 -0.043536678 0.84731656 -0.0007837686 0.82513374 0.7825446
0.03056256 0.7945495 -0.29061872 0.7049381 -0.054509673 -0.0055702208 -0.64430827 -0.7227981
0.03331717 -0.038837858 0.7897508 -0.34371355 -0.114514425 -0.012858765 0.5127783 -0.3996319
-0.6439187 -0.028805574 0.05119745 -0.045391954 -0.81177706 0.6354926 -0.02892188 -0.5317858
-0.2504469 0.96482885 -0.096584804 0.47849998 0.9895887 -0.017424032 0.13427983 0.78003
0.12679152 0.15384895 -0.8039055 -0.0011435583 -0.08768992 -0.028558187 -0.92327344 -0.8575494
0.11544174 -0.97632945 0.8414836 -1.3142527 -0.459022 0.13952152 1.0092543 0.23188263
-0.04278329 0.31355953 -0.024002964 -0.8143447 -0.022945415 1.3994294 -0.649893 -0.79174674
0.83740646 -0.19530456 0.6399577 -0.039069194 0.9001446 -1.037482 1.0079061 -0.08872378
-0.67897767 1.0993705 -0.60898644 -0.11705158 1.1007663 0.032022275 -0.23258457 0.8435871
-0.3696141 -0.32464692 -0.70833457 -0.7908136 0.07336345 -0.061640702 0.46595523 -0.84133524
0.99542147 -0.64019954 0.017095473 -0.766369 -0.5952457 -0.8028623 -0.5899641 0.7132404
0.44822672 -1.0195589 -0.02098537 -0.02314973 -1.126424 0.5901598 -0.10934134 -0.85379064
0.02651988 0.04326179 -0.48068994 0.20069127 -0.06832331 -1.0579696 1.3301134 -0.26270854
-0.038764764 -0.6852975 -0.23302144 1.1018847 0.047350902 -0.5413549 -0.5868059 1.1033759
-0.5220419 0.016796965 -0.4219817 -0.1797957 0.08757781 -0.8580598 0.011508785 -0.003949193
0.6782162 0.03339406 0.5586222 -0.041078206 0.406543 -0.6428995 0.9441662 0.3589352
-0.02931719 0.46276388 -0.3426474 -0.071103 0.01920898 0.449582 0.88302404 0.46840245
0.08477977 -0.25559598 0.4656867 0.23010185 -0.02112192 0.09661384 0.69080716 0.053747464
-0.76506424 0.0041142595 0.07663391 -0.59369713 0.20555075 -0.036440227 -0.16856152 -0.009362174
00000000: 415a 34bf 7813 efbe 9f16 52be 67c7 1f3b
00000010: 50fb 513f ab17 183f bae2 5cbf 3ceb 463f
00000020: 5e87 06be e541 273f 202d 7d3d fc5f 73bf
00000030: e58a 26bf c7c8 d73e 6e98 ddbe 2d33 2e3e
00000040: bf88 863d 06ff fe3d 60e3 d9be 8c11 68bf
00000050: f447 b03e fa14 933d 7a2b dabd 2917 15bf
00000060: 39a7 263f 9ad7 35bd 41a2 153f 8bfb 573f
00000070: 0be6 e9bb 5e60 84bf 6084 703f a517 8dbc
00000080: 5177 81bf 0a3f 8fbf 37b5 3dbf 6740 0a3f
00000090: b216 3bbf 1788 8c3f ed46 8abf 18cb 9abf
000000a0: 23f1 8e3e bf84 21bf 06f8 733f c420 78bf
000000b0: 0858 62bf c89d 64bf 2486 b63f ce97 f03e
000000c0: 47f9 b23e 6eee 7f3f 2f70 583e 933e 983f
000000d0: a965 643e 9056 f3be 7ac8 73bf 7749 903f
000000e0: 4f0d 5e3f f058 a73e 6451 953f 595b 143f
000000f0: 911d eb3d 2fd0 adbf 28b2 9d3f d8a1 b6be
00000100: d3e6 7a3f 47c9 d3be ee8e 913f 2909 92bd
00000110: f63a 25bf 2cd5 5abf a918 7a3f 5a03 923f
00000120: b7c8 83bf e0bf 703f c9e6 3f3f 1e21 16bf
00000130: 9a9f 5f3f c60e 9e3f dac3 8fbf 9e05 4c3f
00000140: 2fa2 50bf 71dd 65bf 114b 16bf 1234 6f3f
00000150: 09f5 32bf 7cbe 9a3d f513 6bbf 883f b23c
00000160: d4d0 06bf 1c05 44bf 6fe4 223d 68e7 4abe
00000170: 8453 95bf c8db 703f dbfd 3cbe bcae 5ebf
00000180: c3b0 003f fc58 29bd 1564 273f 8453 32bd
00000190: bde9 583f d275 4dba f73b 533f d854 483f
000001a0: 555e fa3c 9967 4b3f facb 94be d376 343f
000001b0: 8945 5fbd 6686 b6bb 63f1 24bf 4c09 39bf
000001c0: 9677 083d 7214 1fbd 1c2d 4a3f 39fb afbe
000001d0: 8a86 eabd 92ad 52bc 7045 033f 8d9c ccbe
000001e0: dbd7 24bf abf9 ebbc 6bb4 513d eaec 39bd
000001f0: 9fd0 4fbf a5af 223f 94ed ecbc 1d23 08bf
00000200: 933a 80be 06ff 763f 41ce c5bd f3fd f43e
00000210: af55 7d3f d8bc 8ebc a780 093e 0cb0 473f
00000220: a3d5 013e 948a 1d3e c0cc 4dbf 73e3 95ba
00000230: c696 b3bd dcf2 e9bc a65b 6cbf 5c88 5bbf
00000240: b86c ec3d baf0 79bf 786b 573f 6f39 a8bf
00000250: ee04 ebbe bbde 0e3e 3f2f 813f a472 6d3e
00000260: 883d 2fbd e08a a03e dda1 c4bc e578 50bf
00000270: 06f8 bbbc 8120 b33f 635f 26bf eaaf 4abf
00000280: 4560 563f ebfd 47be 45d4 233f 0507 20bd
00000290: e06f 663f 36cc 84bf 1103 813f d0b4 b5bd
000002a0: 7bd1 2dbf 2cb8 8c3f 89e6 1bbf bdb8 efbd
000002b0: e9e5 8c3f ca29 033d a62a 6ebe 53f5 573f
000002c0: 0f3e bdbe 1f38 a6be 6a55 35bf c372 4abf
000002d0: 943f 963d f67a 7cbd af91 ee3e bf61 57bf
000002e0: f1d3 7e3f 1ee4 23bf ce0b 8c3c c230 44bf
000002f0: 0662 18bf 6288 4dbf e307 17bf ec96 363f
00000300: f97d e53e e880 82bf 83e9 abbc 81a4 bdbc
00000310: a92e 90bf b614 173f 5aee dfbd 0692 5abf
00000320: 3840 d93c 4633 313d fe1c f6be 0382 4d3e
00000330: 17ed 8bbd 8c6b 87bf 2841 aa3f bc81 86be
00000340: cdc7 1ebd a86f 2fbf 2c9d 6ebe 8f0a 8d3f
00000350: 05f3 413d 3c96 0abf e938 16bf 6c3b 8d3f
00000360: 8aa4 05bf ca99 893c fc0d d8be 5d1c 38be
00000370: ff5b b33d cfa9 5bbf 588f 3c3c 3b68 81bb
00000380: 949f 2d3f 36c8 083d dd01 0f3f 9f41 28bd
00000390: 6726 d03e 1095 24bf e0b4 713f 5bc6 b73e
000003a0: 9b2a f0bc 63ef ec3e 7b6f afbe 739e 91bd
000003b0: 275c 9d3c 9d2f e63e dd0d 623f 72d2 ef3e
000003c0: 04a1 ad3d 7add 82be 7d6e ee3e d29f 6b3e
000003d0: e007 adbc 7add c53d bdd8 303f 4d26 5c3d
000003e0: 40db 43bf e9d0 863b 3df2 9c3d 89fc 17bf
000003f0: e57b 523e 5942 15bd 649b 2cbe ce63 19bc

gcn_convs.1.path_weight_2.bias f4 [32]
0.33081853 0.92047447 -0.82262576 -0.46117532 -0.9179043 -0.6016088 0.6275152 -0.09454263
0.079561494 0.74534553 -0.7838153 -0.67536193 0.59127533 -0.60101074 0.7308115 -0.33087382
0.528366 -0.0056876144 0.06313211 -0.5879934 0.0073641185 -0.6994861 1.092866 -0.0008684953
0.7213446 -0.52947545 -0.6319994 0.67589396 0.853606 -0.73326063 0.022878798 -0.98271036
00000000: 0c61 a93e 37a4 6b3f 9a97 52bf 2c1f ecbe
00000010: c7fb 6abf 0903 1abf d6a4 203f 919f c1bd
00000020: 23f1 a23d f7ce 3e3f 1fa8 48bf 85e4 2cbf
00000030: d25d 173f d7db 19bf 7616 3b3f 4b68 a9be
00000040: ff42 073f 2b5f babb 684b 813d bc86 16bf
00000050: b44e f13b 8511 33bf 08e3 8b3f bcab 63ba
00000060: 0aaa 383f b48b 07bf b6ca 21bf 6307 2d3f
00000070: ec85 5a3f f8b6 3bbf 516c bb3c e892 7bbf

gcn_convs.2.path_weight_1.weight f4 [32, 32]
-0.022974104 -0.030301807 0.011123251 0.016276607 0.009547563 0.026061028 0.0050541484 -0.008540185
-0.0105224755 -0.02854682 -0.01641698 0.016305897 -0.0034343095 -0.004335815 -0.0063892314 0.023368584
0.0049981764 -0.033888467 -0.03234798 -0.011188796 -0.017953424 0.020963142 0.011070181 0.0027394698
-0.019281244 0.005273404 0.0017817414 -0.015100195 -0.020559082 -0.0039757155 -0.039005116 -0.007948868
0.04081052 0.0081875585 -0.0053545204 0.011866417 0.00986861 -0.0046583717 -0.011733315 0.000299166
-0.010529483 -0.014628771 -0.03163887 0.0014083529 -0.015363609 -0.037715636 0.027890561 0.012450693
-0.016171478 -0.019258216 0.031550195 -0.022778181 0.0062548644 -0.001319225 0.005241373 0.012674917
-0.017720107 0.010335076 0.007724171 -0.009999369 0.023250971 -0.021760952 0.00704255 -0.035115518
0.014019871 0.025273476 0.01950447 -0.021726478 0.030068396 -0.015157636 -0.005572317 0.0013774616
0.006946739 -0.023589114 -0.022413785 0.020496208 0.0032657275 0.018591715 -0.012196598 0.019343663
0.018871365 0.0016342801 0.03749985 -0.023914885 -0.0072960416 0.020668145 0.021181114 0.007547592
0.0018357366 -0.01144393 -0.008464091 0.025025012 0.0038967147 -0.021490872 -0.011082838 0.008602409
0.0015601637 -0.007952259 -9.268745e-06 0.007703248 -0.0047524534 0.0007969005 0.013212048 -0.007706557
-0.009435043 0.00433998 -0.0036699567 -0.008298191 0.0039013391 0.0027739317 -0.0056514614 -0.007787267
-0.0050382656 -0.003927612 0.010978402 -0.0056118793 0.0068432144 -0.0023027987 0.00023285535 -0.012819216
-0.008193444 0.008770933 -0.010446272 -0.009669465 0.0059096287 0.00050110626 0.002347723 0.017894967
0.007521348 -0.007082855 0.007103824 0.0031013815 0.008276363 8.5728e-05 0.005377896 0.007499036
0.004500503 -0.0057271137 -0.0003023192 -0.00463237 0.0020570464 8.917493e-05 -0.0017270807 0.006898422
0.0053035836 0.0012609906 -0.005258819 0.0029362144 -0.0006282562 -0.0028956116 -0.002452283 0.0043345
-0.0004951094 0.0030307404 -0.0039346335 -0.005171443 0.003323614 -0.006401176 -0.00045265336 -0.0045134644
0.04332254 0.013850081 -0.004758493 0.023350133 -0.030574232 -0.03421388 -0.018369507 -0.023094192
-0.022766948 -0.0065786946 -0.026410727 0.03281282 -0.0030150195 -0.0014676256 0.021306211 -0.019730723
-0.022680938 0.014771205 -0.01907177 -0.023919053 0.013872777 0.011054301 -0.028391311 -0.022163687
0.007854724 0.019974966 -0.0057390262 -0.012377216 0.01106037 -0.0002493123 -0.012882567 0.00039185528
0.01434964 -0.0022580363 0.006245824 -0.012105287 -0.0079391785 -0.005625081 -0.004746084 0.025019808
0.010468171 -0.0033351774 -0.008809993 -0.025142713 -0.0083696935 -0.010458749 0.0050771125 0.008198021
-0.025911374 -0.017553302 -0.00418512 -0.012303772 0.03354028 0.008919403 0.0046183644 0.007168702
0.026664311 -0.0076937308 0.011045492 -0.0036536304 0.021482158 0.006160425 -0.00044319878 -0.0018036861
0.052834988 -0.008242605 0.009218972 0.021103289 0.015160996 0.030384237 0.017972406 -0.005515132
0.022937441 0.020658474 0.010537998 -0.02649529 0.022221923 0.013632202 -0.0071118893 0.003105111
0.0150141455 0.02607894 -0.020583564 0.0026310438 -0.0061661117 -0.007876302 -0.0039039003 0.006591311
-0.017764784 0.00022591448 -0.03281165 -0.003169596 -0.04665055 0.009350855 -0.015050913 -0.036711074
00000000: 3034 bcbc 7f3b f8bc 4c3e 363c 8556 853c
00000010: 626d 1c3c f07d d53c 459d a53b 22ec 0bbc
00000020: 7666 2cbc 05db e9bc e77c 86bc f293 853c
00000030: 2712 61bb 7413 8ebb c25c d1bb 796f bf3c
00000040: bec7 a33b a2ce 0abd 517f 04bd 3651 37bc
00000050: 0f13 93bc e5ba ab3c b45f 353c ad88 333b
00000060: b3f3 9dbc 85cc ac3b 5289 e93a cf66 77bc
00000070: 856b a8bc b846 82bb d4c3 1fbd f83b 02bc
00000080: ef28 273d 1c25 063c f974 afbb 5c6b 423c
00000090: f3af 213c 41a5 98bb 173d 40bc 61d9 9c39
000000a0: da83 2cbc 83ad 6fbc c297 01bd 7b98 b83a
000000b0: a6b7 7bbc b67b 1abd bf7a e43c fefd 4b3c
000000c0: 0c7a 84bc 68c3 9dbc c73a 013d 4f99 babc
000000d0: 9bf5 cc3b d8e9 acba d3bf ab3b 74aa 4f3c
000000e0: c229 91bc 7354 293c 0b1b fd3b 65d4 23bc
000000f0: d278 be3c 0644 b2bc 31c5 e63b 4ad5 0fbd
00000100: 9ab3 653c 520a cf3c d7c7 9f3c bafb b1bc
00000110: ff51 f63c bc57 78bc fc97 b6bb f18b b43a
00000120: 78a1 e33b f53d c1bc 1d9d b7bc aae7 a73c
00000130: d105 563b a74d 983c 3dd4 47bc 9a76 9e3c
00000140: 1f98 9a3c 5735 d63a 7199 193d 26e9 c3bc
00000150: a213 efbb 3e50 a93c 0484 ad3c ca51 f73b
00000160: 199d f03a 527f 3bbc f9ac 0abc 4101 cd3c
00000170: 0660 7f3b a00d b0bc cb94 35bc 1ef1 0c3c
00000180: 687e cc3a 314a 02bc f580 1bb7 876b fc3b
00000190: 78ba 9bbb 16e7 503a 5977 583c 4987 fcbb
000001a0: 7095 1abc 6436 8e3b a883 70bb 23f5 07bc
000001b0: 9cad 7f3b daca 353b e52f b9bb 552c ffbb
000001c0: 0918 a5bb 33b3 80bb c1de 333c dbe3 b7bb
000001d0: 0b3d e03b 8dea 16bb a22a 7439 b007 52bc
000001e0: cc3d 06bc f6b3 0f3c d726 2bbc ad6c 1ebc
000001f0: 8fa5 c13b ac5c 033a 42dc 193b 7798 923c
00000200: a475 f63b 4b17 e8bb 32c7 e83b 8c40 4b3b
00000210: 9599 073c dfc8 b338 1039 b03b 79ba f53b
00000220: f578 933b 83aa bbbb 9980 9eb9 23cb 97bb
00000230: 83cf 063b 6d03 bb38 365f e2ba 280c e23b
00000240: afc9 ad3b d347 a53a 2c52 acbb 816d 403b
00000250: 8fb1 24ba 4dc4 3dbb 7bb6 20bb 6c08 8e3b
00000260: 3bca 01ba 639f 463b 19ee 80bb 3575 a9bb
00000270: fdd0 593b f5c0 d1bb 1b52 edb9 afe5 93bb
00000280: fa72 313d 73eb 623c 22ed 9bbb c748 bf3c
00000290: d076 fabc da23 0cbd a67b 96bc 0830 bdbc
000002a0: c081 babc 1792 d7bb 4f5b d8bc bc66 063d
000002b0: a297 45bb 585d c0ba 5d8a ae3c 53a2 a1bc
000002c0: 60cd b9bc ed02 723c 673c 9cbc e4f1 c3bc
000002d0: a54a 633c 191d 353c e594 e8bc 9f90 b5bc
000002e0: 1ab1 003c 8aa2 a33c 710e bcbb cec9 4abc
000002f0: 8e36 353c 21b6 82b9 6711 53bc ed71 cd39
00000300: c11a 6b3c 90fb 13bb c5a9 cc3b 4155 46bc
00000310: 5413 02bc 9952 b8bb 0a85 9bbb 57f6 cc3c
00000320: b182 2b3c fe92 5abb ca57 10bc 17f8 cdbc
00000330: 0a21 09bc 2c5b 2bbc e85d a63b fe50 063c
00000340: 1744 d4bc f1cb 8fbc 5523 89bb c395 49bc
00000350: 8861 093d b022 123c a655 973b 6ee7 ea3b
00000360: 1d6f da3c b11b fcbb 27f8 343c bf71 6fbb
00000370: 5afb af3c 64dd c93b 225d e8b9 aa69 ecba
00000380: 8069 583d fe0b 07bc 2c0b 173c cee0 ac3c
00000390: d365 783c 5de8 f83c de3a 933c 48b8 b4bb
000003a0: 4de7 bb3c f63b a93c 91a7 2c3c a70c d9bc
000003b0: c00a b63c 9959 5f3c da0a e9bb 1e7f 4b3b
000003c0: e4fd 753c 80a3 d53c dd9e a8bc 976d 2c3b
000003d0: 180d cabb 9b0b 01bc 94d8 7fbb edfb d73b
000003e0: 7487 91bc 75e3 6c39 8265 06bd ffb8 4fbb
000003f0: a614 3fbd 5434 193c 1b98 76bc 5a5e 16bd

gcn_convs.2.path_weight_1.bias f4 [32]
-0.10974464 -0.08575991 0.0047970074 0.009202406 -0.006855411 0.14002374 0.04093348 -0.015996993
-0.041566424 0.11156011 0.37658563 1.065429 0.0812764 -0.5061666 -0.8427847 0.29010114
0.19613165 -0.82376766 0.29404873 -0.46873367 -0.05769004 0.041212097 0.9635138 -0.2546538
0.028610526 0.0053858175 -0.4568004 0.65220624 -0.59909433 -1.0152018 -0.3952572 0.28768143
00000000: ccc1 e0bd e4a2 afbd 3730 9d3b b0c5 163c
00000010: 5ba3 e0bb 6262 0f3e dda9 273d 200c 83bc
00000020: 8e41 2abd a079 e43d d5cf c03e fa5f 883f
00000030: 3e74 a63d 2294 01bf bdc0 57bf 2388 943e
00000040: bcd6 483e 70e2 52bf 8e8d 963e dcfd efbe
00000050: 644c 6cbd 04ce 283d d7a8 763f fc61 82be
00000060: 9f60 ea3c 837b b03b bee1 e9be fdf6 263f
00000070: 3f5e 19bf 22f2 81bf 275f cabe fb4a 933e
