semi-supervised/saved_models/cora_2_layers_.pt (torch, 239285 bytes, 16 tensors)

trans_feat.weight f4 [32, 1433]
000000 d4 6b 94 3b 2e 7e 64 bc 1f 62 7c bc 00 44 ca 3d
       0.0045294557 -0.013946099 -0.015404253 0.09876251
000010 fd fc 9c 3d 90 c3 bb bb d0 b8 e4 3d 94 b1 ac bd
       0.07665441 -0.0057301 0.11168063 -0.08432308
000020 ec 19 04 3b 18 2a fd bb c2 ab 97 bb 76 30 a4 3c
       0.0020157052 -0.007725965 -0.0046286294 0.02004264
000030 f0 dc 3c bd 1e bd e6 bb b0 3b 74 bb 56 62 3c bd
       -0.04610914 -0.0070415875 -0.0037267022 -0.045992218
000040 63 7a 03 3d f0 fb c3 3d 64 59 b3 3d 59 87 ac bd
       0.03209914 0.09569538 0.08757284 -0.08424253
000050 72 ed c2 38 67 d7 0d bc 28 f3 1a 3b ac 3a 23 3c
       9.2948685e-05 -0.008657313 0.0023643468 0.009962719
000060 b2 19 38 bc e2 ee 04 3c 62 59 b4 3c b6 07 00 be
       -0.011236595 0.008113595 0.022015277 -0.12502941
000070 cc fb 14 bc 8e b5 c8 3c 80 21 d3 3b 04 ea b5 ba
       -0.009093236 0.024500635 0.0064432025 -0.0013878946
000080 63 75 0a bd ec fe 2d 3c be c3 6d 3d 40 70 32 3a
       -0.033803355 0.01061986 0.058048002 0.00068068877
000090 e6 05 6d 3d 9a de 45 bb 21 a7 8f 3c e3 cc 57 3d
       0.057866953 -0.0030192495 0.017535748 0.05268563
0000a0 22 12 82 3c b4 57 4c 3d 87 19 b1 3c 4d ab 00 3d
       0.015877787 0.049888328 0.021618618 0.031413365
0000b0 0c 9c f4 bc 00 d4 08 ba c9 23 83 3d c0 47 f7 39
       -0.029859565 -0.0005219579 0.0640331 0.0004716497
0000c0 08 f8 44 bb 8f 99 0d bb 22 72 9c 3c 93 49 b6 3c
       -0.0030055065 -0.002160642 0.019097392 0.02225188
0000d0 ca 09 5d bc ca 69 20 3c 1d 1b 85 bd a7 1a b4 3d
       -0.013491103 0.009790847 -0.06499312 0.08794146
0000e0 08 23 87 bb 88 8e c8 bd fa c5 0e 3d 63 b5 25 3d
       -0.004124049 -0.09792811 0.034856774 0.040456187
0000f0 9c b4 e2 b7 0e ba 37 bd 98 ee f1 bc 54 d7 c6 3c
       -2.7025402e-05 -0.04485517 -0.029532716 0.024272598
000100 44 e1 76 bc 74 5f f8 3c 87 f6 4e 3c e6 58 ad bb
       -0.015068356 0.030318953 0.012632019 -0.0052901385
000110 9e e1 ad bb 61 7c 24 3c f2 03 8d ba 6c 06 40 3d
       -0.0053064367 0.01003942 -0.0010758622 0.046881124
000120 d0 91 43 bb f4 1e 29 3c 75 59 b5 3d e6 b6 7e 3c
       -0.002984155 0.010322321 0.08854953 0.015546536
000130 a9 40 82 be 9d c7 2f bc d8 a5 1e bc 6b 86 0a 3d
       -0.25439957 -0.010728744 -0.009683095 0.033819597
000140 f1 c7 1f 3e 9e 3d db 3d 0c b7 04 3b 16 ce 89 3c
       0.15603615 0.10705112 0.0020250706 0.016821902
000150 a7 b3 aa 3c 9c 86 22 bd 3e 50 23 3d 1d 3d 67 3d
       0.020837618 -0.039679155 0.039871447 0.056454767
000160 38 25 f1 3c 31 99 17 3d 16 5e 99 3b 5d 08 67 bb
       0.029436693 0.03701133 0.0046804054 -0.0035252788
000170 6b 4c 04 3d ed 36 85 bd 7c c9 e2 bc fb b9 50 3d
       0.03229944 -0.06504617 -0.027683966 0.050958615
000180 44 a3 5b 3c 9d f1 9c 3d 58 16 c6 bc 3d 95 10 be
       0.013405625 0.076632716 -0.024180576 -0.1411943
000190 bd 4e e7 3b 18 8a bf 3b 0c 77 c2 bb 99 d5 25 3b
       0.007058947 0.0058453195 -0.0059346016 0.0025304316
0001a0 e8 d5 8c 3c e8 bb ce 3c c1 19 1f bc ff 46 9f 3b
       0.017191842 0.025236085 -0.00971073 0.0048607583
0001b0 4b 67 86 bc 5a 92 fb 3c 33 0c ae bc fd 60 81 bc
       -0.016406676 0.030709434 -0.021246051 -0.015793318
0001c0 81 bd 9d 3c 58 6a 95 3a 36 5b 1b 3d df bc 31 bd
       0.019255402 0.0011399491 0.037928782 -0.043393012
0001d0 e8 5b 51 bb f9 f3 b6 3c 5c 36 10 bb 40 49 8b bc
       -0.003194565 0.022333132 -0.0022005057 -0.017002702
0001e0 88 68 74 bb c9 65 8a 3a 04 32 39 bd 18 56 ba 3c
       -0.003729375 0.0010558899 -0.045213714 0.02274613
0001f0 25 b4 fc bc 21 72 cc 3d 00 ea 2c 38 c4 d9 c0 bc
       -0.030847618 0.09982706 4.1225925e-05 -0.023541339
000200 ec f2 93 3d 60 35 84 bc 0e 7b b2 bd 00 00 d2 bd
       0.07224068 -0.016138732 -0.08714877 -0.10253906
000210 f2 cd c2 3c d3 05 4f bd 4c 8e e3 3b a9 a6 14 bd
       0.023779843 -0.050542664 0.0069444533 -0.036291752
000220 62 75 17 3c dd a3 9d 3b 6c 7a 3c 3a 6c 43 c4 3c
       0.009244295 0.004810794 0.0007189873 0.02395793
000230 55 ae 3b bd bd 1b de 3c d6 f4 97 3c c2 aa 4b bc
       -0.045820553 0.027112836 0.018549364 -0.012430849
000240 fd c9 94 3b 7b 19 a4 38 94 e4 d4 bc 84 e9 5d bd
       0.0045406804 7.8248755e-05 -0.0259879 -0.054177776
000250 82 03 01 3e c0 2c e0 3c 1d b6 05 3c 29 7e 8a bd
       0.12598994 0.027365088 0.008161095 -0.067623444
000260 fb e4 c3 bc 33 b4 b0 3c 6e 76 cb bc 84 54 01 3d
       -0.023912897 0.0215703 -0.024836745 0.03157474
000270 8f 33 3e bd 8a 42 27 bc 17 15 f8 3c ea e2 b4 3c
       -0.04643589 -0.010208735 0.030283494 0.022080857
000280 26 bc 0e bd be 8a 07 bd 71 0d 50 bc 16 d7 15 bd
       -0.0348474 -0.0330913 -0.012698517 -0.036582075
000290 6f 97 a5 3c 5a 75 a4 bc 40 e3 65 bb 8c 6b b2 3d
       0.02021381 -0.020075489 -0.0035078079 0.08711919
0002a0 e6 02 0b bc a8 c5 67 bd 64 f2 13 3b 20 7c 0f 3c
       -0.008484578 -0.056584984 0.0022574896 0.008757621
0002b0 5e 6a 21 bc 96 54 b5 3d ae d1 41 3d 80 66 a4 3c
       -0.00985202 0.08854024 0.047319107 0.020068407
0002c0 0c 8d 92 bd ea bb 87 3c 30 23 1d bb 96 2e d8 bd
       -0.07155809 0.016569097 -0.0023977272 -0.105557606
0002d0 84 4f 4e 3b 75 dd f8 bc 5e e3 85 bd 6c 86 22 3d
       0.00314805 -0.030379036 -0.065375075 0.039678976
0002e0 54 43 a8 ba a8 0a c4 bb f0 1e 7e bb 9c 92 ff 3d
       -0.0012837448 -0.0059827156 -0.0038775764 0.124791354
0002f0 79 28 ab 3d 95 77 e8 bc df 5b e3 bc 4e 43 35 bd
       0.08357329 -0.028377334 -0.027753768 -0.04425364
000300 a3 08 19 3e 4e db 06 bb c8 40 c1 bb 18 8b e3 3c
       0.14944701 -0.0020577493 -0.005897615 0.027776286
000310 f0 20 c0 bd f7 b2 d9 bc 9b b8 9b 3c 03 a5 f9 3b
       -0.09381282 -0.026574595 0.019008925 0.007618548
000320 7c da 30 bd 74 7d df bb 7e 50 85 bc 9c 6a 70 3d
       -0.043177113 -0.006820375 -0.016273733 0.05869542
000330 5e b0 ff 3b ab 50 6a bd 2e 5a 92 3b 7a 00 08 bb
       0.007803007 -0.057205837 0.0044663167 -0.0020752237
000340 4d 6b aa bc 30 0c aa 3b a8 4b 1d 3c 31 09 0d be
       -0.020803118 0.005189441 0.009600557 -0.13773037
000350 c8 aa 4e 3d 7d b4 b2 3d 5c 62 d6 bb 62 75 30 3d
       0.05045584 0.08725832 -0.006542487 0.043080695
000360 c0 d6 e3 b9 32 92 ac bc 70 c6 84 bb 08 7d d3 bb
       -0.00043456815 -0.021065805 -0.004051976 -0.006454114
000370 ed 7e 22 bc 77 5c bd bc a0 4d 9c 3b b8 f4 6d 3c
       -0.009917957 -0.02311538 0.004769996 0.0145236775
000380 f2 f4 98 bd 9b f2 50 bc 9c d2 5b 3d 1d 41 e5 bc
       -0.074685946 -0.012753154 0.05366765 -0.02798515
000390 2d b5 55 bd 80 e0 67 ba 6a 12 11 bb 06 1b cf bc
       -0.052174736 -0.0008845404 -0.002213622 -0.02528144
0003a0 de 58 3b bd b7 d5 52 bc 23 40 ee bc da 25 b4 bc
       -0.045739047 -0.012868336 -0.029083317 -0.021990705
0003b0 59 74 50 bd 5f 66 0b 3d 4e 99 29 3d 80 b3 cd bc
       -0.050892208 0.034033176 0.04140597 -0.025110006
0003c0 a4 72 2e 3b cc 89 7d 3c 73 fd 31 bd d4 ee aa 3d
       0.0026618624 0.015474748 -0.0434546 0.08346334
0003d0 59 d5 a9 3c a0 30 c4 bc b8 5e b0 bb 72 47 a5 bd
       0.020731615 -0.023948967 -0.005382385 -0.08070268
0003e0 41 17 ae 3d fa d2 96 bc 34 d6 0c 3e 44 5c 0a bc
       0.08500529 -0.018411148 0.13753587 -0.008444849
0003f0 10 e1 89 3a a2 b0 8b 3c fb bf 0a 3c 2d b3 e3 3c
       0.0010519344 0.017051999 0.008468623 0.027795399

trans_feat.bias f4 [32]
000000 6c a9 16 b8 d7 7a ce b8 dc 5a e7 b7 90 0e b7 b8
       -3.5920573e-05 -9.845726e-05 -2.7579656e-05 -8.7288325e-05
000010 3e 6b e9 38 9a 2c ba 38 d8 f5 f8 b7 b2 25 dc 38
       0.00011130281 8.877479e-05 -2.9678384e-05 0.00010497439
000020 6c ad cf b8 b9 3d ad 38 28 e2 1b b8 54 c1 89 38
       -9.9028315e-05 8.2607796e-05 -3.7165504e-05 6.568679e-05
000030 5b 5f 8c b8 3e 8c 1f 38 35 04 be b8 e5 07 ca b8
       -6.6934816e-05 3.8039165e-05 -9.0606896e-05 -9.633581e-05
000040 02 6c 44 b8 29 0d 01 b9 0b 79 d9 38 50 7f c8 37
       -4.683063e-05 -0.00012307301 0.00010369912 2.3901142e-05
000050 b6 4d 63 b8 03 01 b8 b8 41 5e b3 b8 0f e4 86 38
       -5.419339e-05 -8.773992e-05 -8.552941e-05 6.432097e-05
000060 d0 b0 5e 38 cf 15 e8 b8 90 a2 99 b8 66 7b 44 38
       5.3093594e-05 -0.00011066684 -7.325888e-05 4.6844965e-05
000070 cc 69 05 38 c9 4f dd 38 1b c0 a2 38 00 a5 e9 37
       3.1808202e-05 0.00010552962 7.7605444e-05 2.7852599e-05

pred_trans.weight f4 [7, 1433]
000000 72 76 c5 bc 63 88 c9 be db 9f a8 3e 98 ec 61 bd
       -0.02410433 -0.39361867 0.3293446 -0.055157274
000010 10 e8 d3 be aa 10 f3 bd a2 ac dc 3e 5b c9 ec bc
       -0.41387987 -0.11868413 0.43100458 -0.028904608
000020 26 37 e1 bd 09 fb e9 3b b2 de 3d bd dd 25 a6 bd
       -0.10996847 0.0071405214 -0.046354957 -0.081126906
000030 44 c6 8c 3e 66 47 c5 bd a8 1f 84 3b 93 97 54 3e
       0.27495015 -0.09632759 0.004032094 0.20760946
000040 a1 34 94 bd 89 e6 d8 bc 5a 63 a4 bd 8d f0 9a bf
       -0.07236601 -0.026477115 -0.08026762 -1.210466
000050 4d 9e d5 b8 7c 31 12 bd 5a 17 b2 3c 19 01 c3 be
       -0.00010186117 -0.035691723 0.02173965 -0.38086775
000060 af e7 c9 3d a5 12 f9 3e 58 63 90 3e c1 05 2e be
       0.09858643 0.48647037 0.28200793 -0.16994382
000070 2e 52 23 be c8 d7 27 3e 8f ee 00 3d 20 52 be bb
       -0.15949318 0.16390908 0.031477507 -0.00580813
000080 9a 27 8a bc f3 e5 08 3d 1c 4b 3d bd 88 7e 58 be
       -0.016864587 0.03342242 -0.046214208 -0.21142018
000090 96 ee 4e be fe 44 6d 3c 03 78 e1 be b0 f8 88 be
       -0.20208201 0.014481781 -0.44036874 -0.26752234
0000a0 d5 b2 24 be a1 b2 04 3e b6 78 f7 bd 1a 30 0c bd
       -0.16083844 0.12958767 -0.12083571 -0.03422556
0000b0 cf 81 1d be 92 15 72 be a6 9b cb bc dd 2b 46 3e
       -0.1538155 -0.23641041 -0.024854492 0.1935267
0000c0 8f f8 70 be d4 6f e0 3c 24 af b8 bd c9 15 9e be
       -0.23532318 0.027397074 -0.090177804 -0.30875996
0000d0 22 a5 2f 3f 9e b1 99 bc 2b d1 a7 be 86 78 9e bd
       0.6861135 -0.018761452 -0.3277677 -0.07737832
0000e0 c8 b2 49 3f 5f d8 0f bd 45 13 79 be 8f b8 a9 be
       0.78788424 -0.035118457 -0.24323757 -0.3314862
0000f0 12 c5 e9 38 ed 44 c5 be 23 db 8d 3e 0e a6 b0 3c
       0.00011147013 -0.3852915 0.2770625 0.021563556
000100 14 d7 ae 3e c6 57 58 3e c9 47 11 be f5 3e 09 be
       0.34148467 0.21127233 -0.1418754 -0.13402922
000110 f6 1f 8a 3c 23 15 91 3b c6 0b 3b be 7d 9d e0 3d
       0.016860943 0.0044275685 -0.1826621 0.109675385
000120 5d 74 a7 bd 5b 53 68 3d f4 5a b5 bd f4 7a 52 3d
       -0.081764914 0.05672012 -0.088552386 0.05138679
000130 a1 58 13 bd c2 a9 a7 be 69 f8 89 be ca c3 02 bd
       -0.035973195 -0.32746702 -0.26947334 -0.031925
000140 a4 5c ac bd d4 1c 88 be 52 55 50 bd aa 6c e4 bd
       -0.08416107 -0.26584494 -0.050862618 -0.111535385
000150 b8 db 25 bc fd 15 66 be 3a 34 b1 be 03 ea d5 3d
       -0.010123186 -0.22469325 -0.34610158 0.10445025
000160 28 33 c1 be 43 f8 4b 3e ce fa b6 3c f1 cb 31 be
       -0.37734342 0.19918923 0.02233639 -0.17362954
000170 c4 48 33 be cc 59 93 3b 75 36 02 3d f4 72 be 3c
       -0.17508227 0.0044967886 0.031790216 0.023248173
000180 3c 5c 44 bd 6c 5f 81 be 1d 1e ea 3e 7d 0a 35 be
       -0.047939524 -0.25268114 0.457261 -0.17679782
000190 f9 8c a5 bd 36 c1 21 3c 63 6f 22 be 1d cc 56 be
       -0.08083529 0.009872725 -0.15862803 -0.209763
0001a0 29 fb 82 bc 24 a1 bf bd 92 a3 da bd 14 07 a7 3a
       -0.015988903 -0.09356907 -0.1067573 0.0012743198
0001b0 1d 5c 69 be da e3 a6 3d a9 be 9a bb cc 95 07 bc
       -0.22789045 0.08148928 -0.0047224355 -0.00827546
0001c0 8d 31 23 3d b0 51 88 b9 65 b4 19 bd d0 0f 05 bd
       0.039842177 -0.00026000803 -0.037525553 -0.032485783
0001d0 95 b4 16 be 95 0a 98 bd d3 13 f9 be c8 23 c6 bc
       -0.14717324 -0.07423893 -0.48647937 -0.024186984
0001e0 98 21 a5 bb e9 69 66 3e 84 56 ff 3e 5f f2 23 be
       -0.005039405 0.22501339 0.49870694 -0.16010426
0001f0 57 77 62 be d6 c6 8f bd bc e9 39 bd 8a 22 c0 3d
       -0.22115837 -0.07020347 -0.045388922 0.09381588
000200 bd bb 7e bf d0 96 97 bd d0 e9 f1 bd 9e 5e a2 3d
       -0.99505216 -0.07401812 -0.11812174 0.07928203
000210 2c ef 88 3f 42 77 2f 3c e8 93 71 bd ba 4a a9 be
       1.069799 0.010709586 -0.058978945 -0.33064824
000220 fb fd 84 bd 1f ef 88 bc fc f5 38 bd 95 9f dd bd
       -0.064937554 -0.016715584 -0.045156464 -0.108214535
000230 49 30 c1 be f7 41 a9 bd e8 2c 8d 3b 68 4f 24 bd
       -0.3773215 -0.08264535 0.0043083318 -0.04011479
000240 a2 23 fc 3c 56 5c df b8 1a d8 1d 3f 82 19 9d 3c
       0.03077871 -0.000106506675 0.6165787 0.019177202
000250 7c 78 65 bb 0c 7b c9 be c4 ff 4a be 84 ea 2a 3e
       -0.0035014441 -0.3935169 -0.1982413 0.16691023
000260 8e 24 ae bc 40 36 df bd 42 21 4b be 4e 0a da bd
       -0.021257665 -0.10899019 -0.19836906 -0.10646497
000270 44 0a 1f 3b 3d c9 95 be ce 59 71 bc f5 33 83 bc
       0.0024267593 -0.29255095 -0.014730884 -0.016015986
000280 67 2d 20 be 43 1f 15 3d 77 b5 8d be ae ff 06 3c
       -0.1564232 0.036406767 -0.2767751 0.00823967
000290 86 34 35 bd b8 e7 1f bb cd bb ae bb 53 22 3e bd
       -0.044239543 -0.002439959 -0.005332446 -0.046419453
0002a0 8c 2b b6 be 23 0d 76 3e 4d 25 a1 3d f0 8c 93 bc
       -0.355801 0.24028449 0.07868443 -0.01801154
0002b0 7a fa 9a be 51 2e 69 be a4 02 47 bd b3 96 e4 3d
       -0.30269223 -0.22771575 -0.048586503 0.11161556
0002c0 74 69 2b bc f0 6d eb 3c 0f f7 af 3d 63 5a 88 3f
       -0.010462154 0.028738946 0.085920446 1.0652584
0002d0 2e f7 2b bc df 62 a7 bd 63 a5 b4 bc c5 76 a9 bd
       -0.010495944 -0.08173155 -0.022051519 -0.082746066
0002e0 0e 7b 9f 3c 76 e6 26 3c 5c 90 1d 3e 86 e2 38 bf
       0.019467857 0.010186782 0.153871 -0.7222065
0002f0 c6 65 fb 3c 78 50 f0 3c e6 8b 09 bd ac 7e d2 bd
       0.030688178 0.029335245 -0.033580683 -0.10278067
000300 a5 e5 0a be f6 03 1d 3e c8 23 ee bd ad 58 ed bd
       -0.13564165 0.15333542 -0.116279185 -0.11589179
000310 16 ca 73 be 80 5c 85 3d c4 47 66 bd 82 00 b1 bc
       -0.23807558 0.065117836 -0.056220785 -0.021606687
000320 9a 92 04 3e 96 bc 94 bb ed 55 52 bd 12 56 85 be
       0.12946549 -0.0045390828 -0.051351476 -0.2604223
000330 22 e7 09 3e 61 6b 4d 3f 31 d6 13 bd 75 d3 19 be
       0.13467076 0.8024197 -0.03609294 -0.1502207
000340 1d 5c bd be b7 30 8d 3b af c2 3f 3c 73 ed 26 3f
       -0.3698434 0.004308786 0.011704131 0.6520607
000350 67 2a bf be 82 b7 24 be 2e 4e fa 3e fb 75 16 3d
       -0.37337038 -0.16085628 0.4888777 0.03673361
000360 d7 a8 12 3b 7c e5 8e bd 9f ee 08 be 84 e2 92 3c
       0.0022378468 -0.069773644 -0.13372277 0.017930277
000370 4a 99 91 bd d7 48 0b 3d de 7b bf 3e 42 24 45 3d
       -0.07109316 0.034005012 0.3739919 0.04813028
000380 0b 3b b1 bd c4 3d b9 bb 10 3d a1 bd ac 86 19 bc
       -0.0865384 -0.005653115 -0.07872975 -0.009370487
000390 5c 3a 69 3f e8 c8 aa 3b b6 16 43 be 9c 36 1b be
       0.91104674 0.005211938 -0.19051632 -0.1515755
0003a0 c9 08 91 be 9d a0 86 3e 8e fc 74 3d ac ee fe bc
       -0.28327015 0.26294413 0.059811167 -0.031119667
0003b0 bd a9 c7 3d f1 ee 8a 3f b6 8a 14 bf 42 5f 0d 3d
       0.09749172 1.0854169 -0.58024156 0.034514673
0003c0 fc eb ec bd ee be 3e 3d d1 cc b9 bd db cd ba 3c
       -0.11568448 0.046568803 -0.09072269 0.022803238
0003d0 e2 c5 82 3c 97 6a e7 3d 0a bb 89 bc 77 fc 55 be
       0.015963499 0.11299627 -0.01681282 -0.20897089
0003e0 ae 58 a2 bd 2b 55 b1 bd 1a 73 00 bd 22 7d 27 3c
       -0.079270706 -0.086588226 -0.03135977 0.010222705
0003f0 cc 1b 62 bc 7f 08 b7 3d 72 9a 02 bc e2 b3 c4 3d
       -0.013800573 0.089371674 -0.007971393 0.096046224

pred_trans.bias f4 [7]
000000 48 bf 3e bd ea df 47 bd bc c9 d6 ba 41 df 54 3d
       -0.04656914 -0.048797525 -0.0016387026 0.051970724
000010 e7 6a 9c 3d c1 2b 38 bc e6 f0 d5 3b
       0.076375775 -0.0112409005 0.0065289615

gcn_convs.0.path_weight_1.weight f4 [32, 32]
000000 65 f1 82 39 ac 1e 43 b8 e2 da 3b b9 9d 25 b7 b8
       0.00024975385 -4.652019e-05 -0.0001791525 -8.733126e-05
000010 f3 ed b0 38 e4 bc 15 b8 c9 6d 45 3a 8e 03 44 ba
       8.4366555e-05 -3.5700286e-05 0.0007531313 -0.00074773363
000020 63 ba 3f 3a 67 b1 f6 39 3e 97 8f b9 76 a9 2d 39
       0.00073138456 0.0004705295 -0.0002738777 0.00016561695
000030 84 84 49 b7 ba 82 17 ba 23 8e 58 39 70 0e 0f 3a
       -1.2011387e-05 -0.00057796726 0.00020652315 0.00054571684
000040 09 32 22 ba a9 14 48 b9 2e 33 18 b9 2e 09 88 b8
       -0.00061872654 -0.00019081183 -0.00014514916 -6.486695e-05
000050 04 da 8a b9 56 ed bb 39 87 a9 ab 39 64 8a 08 39
       -0.00026483845 0.00035844248 0.0003274197 0.00013021525
000060 a5 e0 02 35 3b b7 b7 b8 66 15 e5 39 e2 17 40 3a
       4.8755675e-07 -8.760249e-05 0.00043694227 0.00073277776
000070 c7 0f 4b b8 26 e8 ae b8 94 a6 1a 39 5d 45 22 b9
       -4.8413665e-05 -8.3402076e-05 0.0001474864 -0.00015475364
000080 04 b6 52 3b 68 d3 1b ba d2 c7 20 3a 94 5f 91 39
       0.0032151947 -0.0005944283 0.0006133291 0.00027727766
000090 96 d6 a9 39 b8 35 74 bb 9a fd ec 3a 33 2b da 39
       0.0003239407 -0.0037263464 0.001808095 0.00041612386
0000a0 e9 71 37 3b 22 6b 91 3a fa 7e 5b 3a ca 8d 08 b9
       0.002799148 0.001109455 0.0008373108 -0.00013022791
0000b0 4e ec 0d 3b 8f 5b 70 bb 02 75 99 bb ea ab c5 3a
       0.002165574 -0.0036675667 -0.004683138 0.0015081142
0000c0 bc ba 90 bb 44 15 d0 3a d3 b2 2b 39 1e 77 d2 39
       -0.0044167917 0.0015875478 0.00016374448 0.0004014307
0000d0 09 b2 bd bb 0d 20 97 3a 0e d4 91 ba 28 d1 8d 3a
       -0.0057890457 0.0011529938 -0.0011125819 0.001081978
0000e0 d6 bf de 39 e6 dd 93 ba d1 05 80 3a 1a 87 d7 ba
       0.0004248607 -0.0011281341 0.0009767358 -0.0016443462
0000f0 24 c3 85 3a 3e 10 45 ba 8d 20 8b ba 78 1e f7 39
       0.0010205251 -0.0007517374 -0.0010614559 0.00047134212
000100 fc 11 25 bc f7 58 0b 3c 4e 77 1b bb 1c a5 6c bb
       -0.010075089 0.008505098 -0.0023722234 -0.0036109155
000110 93 8b 1e 3c f9 98 f3 bb 3b 17 97 3b 11 62 a9 3a
       0.009676832 -0.0074340072 0.0046109236 0.0012922903
000120 39 9c 87 bb f8 3e 57 bc 1a 69 a9 3b 59 20 66 39
       -0.0041384962 -0.0131375715 0.00517 0.0002194656
000130 26 42 b3 3b 1e 5c 16 3c 6a c1 d9 bb cb ee 64 3c
       0.005470532 0.009177236 -0.006645371 0.013972948
000140 b6 ca 28 bc e0 ba 8e ba a6 a1 62 bc 16 4d cf 3a
       -0.010302236 -0.0010889433 -0.013832485 0.001581582
000150 56 e3 e4 bb e0 9b 8c b9 e5 4a 89 bb d2 ce 99 38
       -0.0069851084 -0.00026819017 -0.0041898363 7.334132e-05
000160 81 d0 e5 3a 75 b5 aa 3a 32 e0 2b 3b 3d 3c 7d 3b
       0.0017533452 0.0013024049 0.002622616 0.003864064
000170 83 5a 8c bc 00 b3 0b bc 6a f6 91 bc fd 0c 61 3c
       -0.017133003 -0.008526564 -0.017817695 0.013736007
000180 f3 c8 c7 39 9f 1d 5f 39 ee 36 96 b9 24 81 71 39
       0.00038105957 0.00021277972 -0.00028651155 0.0002303166
000190 63 17 1f 39 98 b9 11 3a 75 e0 92 38 0a 55 6b 39
       0.00015172134 0.00055589667 7.003631e-05 0.00022443026
0001a0 b0 18 23 ba a6 64 ae 39 55 0a 45 39 11 55 af 39
       -0.0006221635 0.00033262855 0.00018791233 0.0003344198
0001b0 69 ef 98 37 64 7e a7 b8 fe 70 ed b9 97 f2 31 ba
       1.8231296e-05 -7.9867226e-05 -0.00045288348 -0.0006788163
0001c0 d2 50 1c 39 3a 6b 8f 39 a9 af e4 39 a5 f0 b6 b9
       0.00014907427 0.00027354975 0.00043618426 -0.0003489304
0001d0 54 74 f5 b8 9b fe 1f 3a c2 49 d9 b9 d9 0e b4 39
       -0.00011704178 0.0006103308 -0.0004144442 0.00034343338
0001e0 2b a3 bd b9 6a 16 04 39 a4 74 b6 b9 d8 b6 2d 39
       -0.0003617046 0.00012596851 -0.0003480065 0.0001656668
0001f0 b3 0e 06 3a 30 54 0d ba 67 c3 0e 3a 9a 8d d9 39
       0.00051138847 -0.0005391268 0.00054459873 0.00041494967
000200 d1 22 8b b8 48 f9 a1 38 da 38 a2 b7 99 4b 25 ba
       -6.6345216e-05 7.7235105e-05 -1.9338378e-05 -0.00063055154
000210 42 ad 4b ba 3d a4 7e ba da 35 1f 39 96 0d 93 ba
       -0.0007769653 -0.00097138045 0.00015183483 -0.0011219259
000220 20 1a 1d b7 56 72 25 ba e6 52 23 b9 e3 df 91 b8
       -9.364012e-06 -0.0006311288 -0.00015575773 -6.955841e-05
000230 0c 6f aa b9 e7 f4 bd 39 7e 6f 70 b9 2b ed 0e ba
       -0.00032507663 0.00036231356 -0.00022929718 -0.0005452211
000240 18 f3 c2 39 e7 21 d7 37 be da b3 3a fe 2b 9f 37
       0.00037183682 2.5645784e-05 0.0013721806 1.8974762e-05
000250 c5 e0 a9 b9 7e 58 fe 39 ea ca e4 39 f8 94 dc b9
       -0.00032401658 0.00048512587 0.00043638732 -0.0004207266
000260 9b f8 9a 39 59 8d ac 39 90 ce 1b 3a 65 64 19 b8
       0.00029558394 0.0003291171 0.0005943561 -3.6571542e-05
000270 4f a9 ff b9 d8 99 5b 3a 54 c2 98 b9 f8 03 46 b9
       -0.00048763535 0.00083771115 -0.00029136485 -0.0001888423
000280 b4 aa c0 3a 03 40 b1 ba 6d 83 93 b9 d6 2f e8 ba
       0.0014699311 -0.0013523105 -0.00028135945 -0.0017714452
000290 a8 0a 12 3a a7 aa ee 39 dd b4 34 3a d5 39 2d 3a
       0.0005571046 0.00045522043 0.0006893406 0.0006608044
0002a0 3c 6a 38 bb 11 40 69 bb 35 2d 96 3a 83 9d d6 b9
       -0.0028139492 -0.0035591165 0.0011457565 -0.00040934616
0002b0 d5 ff 57 3a 2a 16 73 ba 29 a5 8a 3a db 1f 5d bb
       0.0008239721 -0.0009273017 0.0010577786 -0.0033740911
0002c0 cd 3f 18 bb 76 73 4e 3a 7c b5 a3 bb f4 c7 d7 ba
       -0.0023231388 0.00078754814 -0.004996 -0.0016462789
0002d0 cb f8 93 3b 1d 4f 9b 3b 66 1c c0 39 3c de 18 3b
       0.0045157424 0.0047396556 0.00036642252 0.0023325821
0002e0 26 42 e5 b9 b5 91 c1 3a e9 dd 46 bb 26 f7 ce ba
       -0.00043727568 0.0014768156 -0.003034467 -0.0015790209
0002f0 3b 74 e4 bb aa 9e 04 3a bc 02 4c bc 14 a0 58 3c
       -0.0069718636 0.0005059043 -0.012451824 0.013221759
000300 60 f2 0e 3b d9 fa 87 bb 20 3c f6 3b 5c 82 8e 3c
       0.0021811947 -0.0041497764 0.0075144917 0.017396145
000310 63 f0 35 3c 55 e9 0a bc 9d db bf 3a 1d 2a 8a 3b
       0.011104676 -0.008478482 0.0014637593 0.004216446
000320 69 17 d7 3b b3 5a 91 bb cf 9a b4 3a ff af ac 3b
       0.00656407 -0.004435861 0.0013779047 0.005270004
000330 ba 8d c3 3b 3e d9 d5 3c 5e 40 c0 bb 98 be 8e bc
       0.005967823 0.026104566 -0.005867048 -0.017424867
000340 1c ac a6 bc c7 51 56 3c 14 20 71 3b 33 62 01 bb
       -0.02034574 0.013081021 0.0036792802 -0.001974237
000350 b2 a4 7a 3a 7a d5 d9 3b 8d d3 93 bb 5b a7 64 3b
       0.00095612847 0.006647763 -0.004511303 0.003488979
000360 76 fb 68 bb 21 25 ab ba 8f 3a 97 bc 95 e3 ca 3b
       -0.0035550273 -0.001305733 -0.01846054 0.0061916807
000370 85 04 ff 3b 44 a6 8e 3a 52 20 35 bd 15 57 8c 3b
       0.007782521 0.0010883291 -0.044220276 0.004282842
000380 e9 da ab bb 8a e2 43 bb 63 2d 62 3a 10 b2 3c ba
       -0.005244602 -0.0029889666 0.0008627979 -0.0007198164
000390 f6 6e a0 ba a1 b3 e5 bb 7b d9 91 bb 1f 82 a8 39
       -0.00122401 -0.007009939 -0.0044509745 0.00032140405
0003a0 fe 53 9e b9 ed 65 d5 b9 f9 ae 06 bc ad 91 29 bb
       -0.00030198687 -0.00040702467 -0.008220428 -0.0025874183
0003b0 ee 38 09 3b 5d f4 95 3c bd 80 13 bc af f1 f3 bb
       0.0020938474 0.018304998 -0.009002862 -0.0074445824
0003c0 bf 42 2e 3b 05 75 0d 3b 0e d8 d8 bb 89 d4 08 3a
       0.0026590077 0.0021584642 -0.0066175526 0.00052196585
0003d0 61 d3 7e 38 c1 f7 02 3c a3 34 51 3b 68 08 ac 3b
       6.075518e-05 0.007993639 0.0031922243 0.0052500255
0003e0 40 d2 b1 ba 97 cf e3 b9 e5 71 0b 3c 3e f4 a7 39
       -0.0013566688 -0.0004345148 0.008511041 0.00032034697
0003f0 32 09 6b bb aa b0 cc 3b 57 83 3d bc d0 42 1d 3c
       -0.0035863635 0.006246646 -0.011566958 0.009598449

gcn_convs.0.path_weight_1.bias f4 [32]
000000 4a 0d 88 be 39 23 4a 3d 29 bd 9e 3e 11 11 9c b9
       -0.2657264 0.049349997 0.31003693 -0.00029767354
000010 4c ec a3 bc 4d 63 4b 3e 9b bd 32 3f 72 d0 07 bd
       -0.020010136 0.19862099 0.69820565 -0.033157773
000020 ce 1f e4 be a5 dc 1f bf 3a f3 5a bc 60 78 a8 bc
       -0.44555515 -0.6244605 -0.013363654 -0.020565212
000030 7b 6e 93 3b 9a d5 f0 3c 91 1e 0c 3c 31 70 97 3d
       0.0044992543 0.029398728 0.0085522095 0.07394446
000040 3f 99 26 bd e5 8e 3c bb 0d c0 7b bd 55 4c 04 3c
       -0.04067349 -0.0028771695 -0.06146245 0.00807484
000050 31 02 47 3e 47 89 6f 3b c8 c7 f6 3b 69 b6 b7 be
       0.1943443 0.003655033 0.00753114 -0.35881355
000060 bb 04 a7 3b 7d 18 1c 3c 74 22 16 bc 0e 9d a0 3d
       0.0050969995 0.009527323 -0.009163488 0.07842456
000070 f2 70 a7 be f9 0b 07 3f 86 8b b2 be a6 89 b5 3e
       -0.32703358 0.52752644 -0.34872073 0.3545658

gcn_convs.0.path_weight_2.weight f4 [32, 32]
000000 1b 7a c1 b8 06 b0 60 b8 ce a8 a2 b8 2e 79 72 b8
       -9.225701e-05 -5.3569696e-05 -7.756204e-05 -5.7810154e-05
000010 59 4b f9 37 f6 ce d2 38 c0 77 c8 b7 41 fb c1 b8
       2.97182e-05 0.0001005213 -2.389762e-05 -9.249757e-05
000020 72 5c 1a 38 cd da 8b 38 e3 0c a6 b8 97 43 8d b8
       3.6802558e-05 6.668791e-05 -7.917897e-05 -6.7359935e-05
000030 2a 80 4b 37 7a 5e 41 b8 94 06 27 b8 8b b2 b3 b8
       1.2129583e-05 -4.6102774e-05 -3.982203e-05 -8.568641e-05
000040 ed 58 bc 38 13 78 2b 37 1d d1 37 b8 1b 9f 4c 38
       8.981102e-05 1.0220351e-05 -4.3825352e-05 4.878557e-05
000050 72 50 e2 38 69 2b 06 b8 74 59 bb 38 3e c6 b2 38
       0.00010791504 -3.198852e-05 8.933517e-05 8.524627e-05
000060 7f e3 3c 38 36 38 2a b8 df 17 91 38 37 e5 b6 38
       4.5034565e-05 -4.058351e-05 6.918585e-05 8.721131e-05
000070 00 a0 b1 38 4f 81 c6 b6 f6 2b 34 b8 1a 29 8d 38
       8.46982e-05 -5.9159133e-06 -4.2956286e-05 6.73106e-05
000080 63 08 a3 38 60 86 62 37 b7 fb 90 38 bd 22 97 b8
       7.774008e-05 1.3501936e-05 6.9133406e-05 -7.2067116e-05
000090 c4 a9 55 38 4c af 81 37 5b 88 e2 37 eb 8a d7 b8
       5.0941264e-05 1.5459627e-05 2.7004795e-05 -0.000102778744
0000a0 6c 14 cc 38 ee 7c e2 38 d3 65 55 b8 60 af 1b b7
       9.731282e-05 0.0001079979 -5.087799e-05 -9.279553e-06
0000b0 fc 12 84 b8 be c0 8e b8 ae dd 8a b8 3f 1a b0 36
       -6.2977866e-05 -6.806989e-05 -6.621644e-05 5.248264e-06
0000c0 63 4c dc b7 e4 4d b6 36 12 29 2e 38 f8 6d 87 b8
       -2.6261614e-05 5.4330903e-06 4.1523082e-05 -6.457785e-05
0000d0 55 02 cc b8 64 78 3e 38 2f e4 fe b8 94 71 0d b8
       -9.7279124e-05 4.5411653e-05 -0.00012154166 -3.3722798e-05
0000e0 f7 a0 96 b7 48 3a a9 38 91 0e 6a 38 75 2e 9f 37
       -1.7956349e-05 8.069404e-05 5.5803514e-05 1.897591e-05
0000f0 b1 8f 73 38 bf 21 e2 b8 be 9d e2 37 70 67 1e b8
       5.8069538e-05 -0.000107828055 2.7014754e-05 -3.776647e-05
000100 7b a2 64 b8 91 c6 83 38 fe 7c 98 b8 7e 2d 8e 38
       -5.4510758e-05 6.283553e-05 -7.2712064e-05 6.779561e-05
000110 7f 2a 76 b8 5d 48 34 38 68 98 5a 38 19 43 c3 b7
       -5.8690548e-05 4.2982738e-05 5.211719e-05 -2.3277056e-05
000120 60 c8 45 b8 03 ec bf 38 9d ea 13 38 5f 2a 86 b8
       -4.7155074e-05 9.15155e-05 3.526603e-05 -6.39751e-05
000130 eb f3 8d 38 58 f1 ca 38 d6 63 aa 37 0f f3 db 37
       6.768837e-05 9.6770644e-05 2.0312069e-05 2.6220017e-05
000140 ee 17 13 38 c8 a2 02 38 fd fb 73 38 aa af c2 b7
       3.5069817e-05 3.1146017e-05 5.8170397e-05 -2.3208402e-05
000150 33 2f 8c 38 1b e0 01 b8 64 36 a0 38 73 fa bb 38
       6.684512e-05 -3.096471e-05 7.6395256e-05 8.963505e-05
000160 ce 0b 8d 38 91 89 c5 38 b5 ff 51 38 b1 b6 91 b8
       6.725603e-05 9.419316e-05 5.006763e-05 -6.948168e-05
000170 b4 cc fc 37 f3 f2 93 38 1e 99 51 b8 5b 46 cc 38
       3.0136063e-05 7.054759e-05 -4.9972085e-05 9.740583e-05
000180 3e 86 82 b8 bb 1c 9b b8 4a d1 9c 38 0f 99 9b b8
       -6.2238876e-05 -7.3963274e-05 7.477643e-05 -7.419485e-05
000190 07 5d be b7 f7 32 0f b7 2f 37 a4 38 f7 49 f0 b8
       -2.2693084e-05 -8.53533e-06 7.830408e-05 -0.00011457869
0001a0 3c 5c d4 38 73 5e a4 b8 10 fd bf b8 6f 80 9c 38
       0.00010126128 -7.837722e-05 -9.154726e-05 7.462582e-05
0001b0 f5 a8 b6 38 d2 4c d8 36 e3 f6 96 38 7c 7e bd b6
       8.709907e-05 6.4462447e-06 7.1985436e-05 -5.6473637e-06
0001c0 84 f5 4c 38 2a ee 24 b8 d5 e1 fd b7 96 ea 2c b8
       4.8866044e-05 -3.9322455e-05 -3.0265111e-05 -4.122647e-05
0001d0 7a 73 82 b8 42 56 26 38 5a 5e 4d 38 ea c7 14 38
       -6.220392e-05 3.9657818e-05 4.896368e-05 3.5472134e-05
0001e0 f9 34 62 37 cf 35 e1 37 fa dc 4c b8 76 cb ec b7
       1.3482983e-05 2.6847147e-05 -4.884319e-05 -2.8228136e-05
0001f0 38 98 3d b8 41 1a dc 38 5a a5 f4 b5 72 4f 93 b7
       -4.5202876e-05 0.00010495308 -1.822754e-06 -1.756076e-05
000200 01 0c 90 b8 14 1a 38 b8 59 e9 fd 37 1a ad af 38
       -6.868691e-05 -4.3893306e-05 3.0268611e-05 8.376893e-05
000210 b1 20 a8 38 28 39 9a b8 9d 26 55 37 c8 2b 90 38
       8.0169535e-05 -7.3539384e-05 1.270478e-05 6.87461e-05
000220 fe 95 87 b8 1b 33 d8 38 8f fc 48 38 bc 21 c8 38
       -6.46524e-05 0.00010309202 4.791893e-05 9.543027e-05
000230 e4 d2 1c b8 09 84 75 b8 29 e8 ca b8 f2 4c 87 37
       -3.7389706e-05 -5.853552e-05 -9.675354e-05 1.6129085e-05
000240 43 0e 81 b7 d1 15 49 b8 43 e9 3c b8 bd 8d 4c b8
       -1.538464e-05 -4.7942453e-05 -4.5039935e-05 -4.8769394e-05
000250 da b5 95 b8 cb 46 97 b8 63 89 00 39 07 b7 c8 38
       -7.138746e-05 -7.213427e-05 0.00012258212 9.570835e-05
000260 e8 ca d1 b8 8b 6d b6 b8 b2 7d 47 b8 12 99 88 35
       -0.00010003691 -8.69884e-05 -4.756236e-05 1.0177339e-06
000270 81 37 a1 b8 5e ff 79 36 1a 34 bf 38 48 5c 32 38
       -7.687417e-05 3.7252535e-06 9.1172944e-05 4.252445e-05
000280 de 06 19 b8 ac 0e e2 37 c5 60 9d 38 f6 50 a4 b8
       -3.6484438e-05 2.6948132e-05 7.504368e-05 -7.8352095e-05
000290 43 a3 69 37 05 0e 77 b8 85 1b 1b 38 68 5a b5 38
       1.3925895e-05 -5.8902446e-05 3.698051e-05 8.647592e-05
0002a0 47 25 13 b8 0d 6c 5a b8 3a 8e 4a 38 0c a8 00 b8
       -3.508225e-05 -5.207588e-05 4.829301e-05 -3.0674084e-05
0002b0 75 be 73 b8 27 ee ee b6 9e 28 5a 37 af 05 2c 38
       -5.811309e-05 -7.1206773e-06 1.30032695e-05 4.101329e-05
0002c0 5c de 83 38 cd f7 a3 38 aa e0 1e b8 c7 01 e6 38
       6.2879844e-05 7.818602e-05 -3.787937e-05 0.00010967586
0002d0 70 f1 b9 38 30 59 d2 b7 cf 4b 51 38 02 1f ca 38
       8.866459e-05 -2.5075482e-05 4.9900085e-05 9.637886e-05
0002e0 4d 3f b0 b8 6f 7b 88 b8 6f 1b b3 38 64 de bb b8
       -8.404125e-05 -6.507977e-05 8.540495e-05 -8.958278e-05
0002f0 a9 ea 00 b8 4a 7d ec 38 5e 57 5e 38 0a 92 b9 b8
       -3.0736122e-05 0.00011276694 5.301029e-05 -8.848689e-05
000300 ea e7 1c 38 f5 f6 6a 38 61 b3 e6 37 fb 37 49 b8
       3.7409285e-05 5.6019944e-05 2.7501666e-05 -4.797427e-05
000310 17 01 f1 38 68 91 00 37 64 cc fd b7 85 3a b1 38
       0.000114919785 7.66325e-06 -3.0255127e-05 8.450918e-05
000320 14 c2 7e 38 3e 34 77 b7 97 a0 59 38 11 40 2e b8
       6.073907e-05 -1.4734511e-05 5.1886393e-05 -4.15445e-05
000330 24 4c ab b8 92 0b 72 b8 84 cd 78 38 82 e5 77 37
       -8.168098e-05 -5.7708072e-05 5.931921e-05 1.4775784e-05
000340 9c 76 20 b8 55 e8 71 38 55 5b 3a b8 dd 2a a5 b8
       -3.8257436e-05 5.7675254e-05 -4.4430915e-05 -7.875797e-05
000350 56 e9 89 37 42 71 2e b7 8a 0d 8f b8 0b 33 6c 38
       1.6440328e-05 -1.0397578e-05 -6.821293e-05 5.6314322e-05
000360 4e a9 49 b8 2a 6e 49 38 7d dd 1b 38 82 8f c7 b8
       -4.807981e-05 4.8024733e-05 3.7161157e-05 -9.51579e-05
000370 97 ca de b7 43 99 66 38 1a 1b 9d b8 e2 ec eb 37
       -2.65588e-05 5.497901e-05 -7.4913914e-05 2.812449e-05
000380 0d fe 1f b8 95 60 cc b8 c2 32 9d b8 c5 92 d0 37
       -3.8145157e-05 -9.745468e-05 -7.495798e-05 2.4863877e-05
000390 89 60 8a b8 29 20 4f 38 ad 30 e2 b8 38 c9 e3 37
       -6.598334e-05 4.9382597e-05 -0.00010785586 2.7154209e-05
0003a0 54 07 0e b7 33 9e 21 b8 e8 0b e2 b7 93 71 7a b8
       -8.465566e-06 -3.8532726e-05 -2.6946844e-05 -5.971042e-05
0003b0 00 14 9d 38 67 52 36 38 ac 18 93 b8 63 16 96 b7
       7.490069e-05 4.3468925e-05 -7.014102e-05 -1.7891818e-05
0003c0 93 17 0f 38 d6 29 df 36 f5 f6 80 38 89 81 f8 b7
       3.4115812e-05 6.6507882e-06 6.149515e-05 -2.9624223e-05
0003d0 c0 4b 58 38 33 84 5e 38 70 07 4b b8 c7 81 e2 b6
       5.156896e-05 5.3052045e-05 -4.84059e-05 -6.750433e-06
0003e0 37 bd 46 b8 90 cf c5 38 e9 3b ac b8 38 dd bf 37
       -4.73831e-05 9.4323535e-05 -8.212758e-05 2.2871987e-05
0003f0 07 8f b7 b8 3d e0 f0 b7 00 04 a9 b8 34 0d b7 b8
       -8.752761e-05 -2.8714649e-05 -8.059293e-05 -8.728579e-05

gcn_convs.0.path_weight_2.bias f4 [32]
000000 71 4b 83 bd e7 cd 70 3d 92 24 a8 3e 67 f5 28 bb
       -0.06410874 0.058790114 0.328404 -0.0025781037
000010 dd aa d4 3c 55 d4 14 bc 2e 29 10 3f ad 1d 0c bd
       0.02596038 -0.009083827 0.56312835 -0.03420799
000020 45 34 e0 be 86 3a 15 3e 50 a7 4c bd 1b 9a ad bd
       -0.43789878 0.14573106 -0.04996425 -0.08476659
000030 b1 3f a0 3b d2 fb 91 bd a5 90 d1 bb 07 08 41 bc
       0.004890405 -0.07128109 -0.006395417 -0.011781699
000040 16 c9 21 bd 23 ac 92 bc c9 73 a3 ba e7 f9 db 3b
       -0.03949841 -0.017904347 -0.001247042 0.0067131403
000050 fe b9 09 bf 7c 43 b4 bb 14 05 02 3c f8 d8 ad 3c
       -0.53799427 -0.005501209 0.007935781 0.021221623
000060 0d 48 1c bd fb 05 6c be 0a c3 ed b8 48 24 2e 3f
       -0.03815465 -0.23049156 -0.000113373695 0.6802411
000070 74 c4 83 39 93 fb e5 3e 19 84 20 3c cd 2f be bd
       0.00025132636 0.44918498 0.00979712 -0.09286461

gcn_convs.1.path_weight_1.weight f4 [7, 32]
000000 c8 0e e4 bd 0e 4d 97 3f 6b 1c a1 bd e3 b6 14 be
       -0.11135632 1.182039 -0.078667484 -0.14522891
000010 37 ee 28 bf e0 34 03 3e cf 19 8e be ce fe d3 3e
       -0.65988487 0.12813139 -0.27754065 0.41405338
000020 2f 1c 07 bf 6c 3a a3 3e 31 c1 07 bf f1 d4 b5 be
       -0.5277738 0.3188051 -0.5302916 -0.35514024
000030 50 19 bb be f2 8d bc 3e ac b3 35 bf 7f 7e fa be
       -0.3654275 0.36827046 -0.7097728 -0.48924634
000040 5f 07 17 3f a0 3c 25 be 85 8f 0c bf f8 3a cc 3e
       0.5899562 -0.16136408 -0.54906493 0.3988874
000050 62 4c 03 c0 47 01 76 3f 4f 3c 80 be bf ad a9 3d
       -2.051537 0.960957 -0.25046012 0.082850926
000060 5d 8a 05 bf 49 97 2a 3f 3d 86 d9 be 88 83 3d 3d
       -0.5216425 0.6663709 -0.42485228 0.046268016
000070 08 d3 93 3e 4e 60 e3 bd 94 e0 30 bd b0 91 af 3e
       0.28871942 -0.11102353 -0.043182924 0.34290838
000080 45 68 b4 bd 03 f6 e4 be 03 42 e0 3e c1 fc ba be
       -0.0880895 -0.44718942 0.43800363 -0.3652096
000090 bf d5 02 3f 60 75 63 bc c7 ad a7 3e 4b 8d 8d be
       0.511074 -0.013882965 0.3274977 -0.2764686
0000a0 77 03 40 3e 3b 51 86 be f0 a0 1c bd 97 72 93 3e
       0.18751322 -0.2623385 -0.03823942 0.28798363
0000b0 00 ef 9a bd 5f e9 df be 87 18 ce 3e e6 a4 44 3f
       -0.07565117 -0.43732736 0.40253088 0.76814115
0000c0 36 a5 7d 3f 86 2a d1 be 03 dd 57 be c4 10 46 3e
       0.99080217 -0.40852755 -0.21080403 0.19342333
0000d0 02 80 0f bf 2c 89 af be 42 08 b9 3d 2f 3b bb be
       -0.560547 -0.3428434 0.09034778 -0.3656859
0000e0 2a 61 cf 3e 7e 35 c1 bd bf 7f 01 3f 49 36 c1 be
       0.40503818 -0.09434031 0.5058555 -0.3773673
0000f0 21 72 26 bf d8 e0 00 be bb 53 3f 3e a0 dc 7f be
       -0.65017897 -0.12585771 0.18684284 -0.24986506
000100 e4 6e 22 3f 94 49 a3 3d ba 2e 43 be d4 b2 f3 be
       0.63450456 0.07973018 -0.19060794 -0.47597373
000110 a7 14 23 3a b5 1d c3 bd 52 c7 03 bb 8b 01 b4 bc
       0.0006221034 -0.095271505 -0.0020107818 -0.021973392
000120 63 6a bd 3d aa 7b 1f be 32 97 35 be 30 c8 d7 3c
       0.09248807 -0.15574518 -0.17733458 0.026340574
000130 6b b1 2c 3e e3 4a 8c 3c b3 f2 3f 3c de c3 1d 3f
       0.16864555 0.017125553 0.011715579 0.61626995
000140 db e9 2a bf a9 42 3e 3e 20 03 a6 3e 7b 22 50 be
       -0.66763085 0.18580116 0.3242426 -0.20325653
000150 95 96 6e bd c8 39 22 3e db cd 60 3e 52 f1 27 3e
       -0.058249075 0.15842354 0.21953528 0.1640065
000160 9a e6 f1 3d d0 5e 86 3d 35 6f 1a 3c 29 4e e2 be
       0.11811562 0.06561053 0.009425928 -0.44200256
000170 a0 63 91 bd b9 a6 28 bf 8b 30 1a be b3 c3 31 3f
       -0.0709908 -0.658794 -0.1505758 0.6943924
000180 33 41 e7 3e 84 f1 45 3e 2d 74 70 bf 20 52 b7 be
       0.4516693 0.19330412 -0.9392727 -0.35804844
000190 1c 68 3c be 95 30 f2 3e 79 f9 06 be b5 e2 a9 3e
       -0.1839909 0.4730269 -0.13181104 0.33180776
0001a0 63 42 8b bf a8 83 ce 3e 1e 83 b6 3e d6 19 07 be
       -1.0879635 0.4033482 0.3564691 -0.1319345
0001b0 62 f2 c8 3e 37 3a 48 3f 0e a4 9c be e6 b5 04 bd
       0.39247423 0.7821383 -0.30593914 -0.032400034
0001c0 74 cb a1 be 50 73 34 3e da d6 f8 3e ff ea b0 be
       -0.31600535 0.17622113 0.4860142 -0.34554288
0001d0 1f d6 bb 3e 59 c2 96 be d1 f5 fd 3e ec da 83 3e
       0.366868 -0.2944515 0.49601606 0.25752962
0001e0 2f 5d 0a 3e 3a 23 af be 8b 2e cd 3b 89 55 10 be
       0.13512109 -0.34206563 0.006261652 -0.14095129
0001f0 db 93 07 3f 6e c9 0b 3f b0 f4 79 3f fd 3b 1f bf
       0.52959985 0.5460423 0.9763899 -0.6220091
000200 32 fc 6a 3e ae 6e b9 be 3a 2b 5d 3d c6 4f 3e bf
       0.22947767 -0.36217254 0.053996302 -0.74340475
000210 a4 1f 48 3e 23 70 a0 be 66 e7 f7 3e 33 bb ab ba
       0.1954332 -0.31335554 0.4841873 -0.0013102054
000220 fc 41 fb 3e e9 18 4e 3f 1c 38 45 bf 32 04 b9 bd
       0.4907378 0.8050676 -0.7703874 -0.09034003
000230 39 45 b4 bc d6 e3 1b 3f cf 09 34 3e f8 2b 74 3c
       -0.022005664 0.60894525 0.17581867 0.014903061
000240 1b 74 0f 3e 23 14 3b bf 9e 8e ac 3d 79 e9 4a be
       0.14009134 -0.730776 0.084256396 -0.19815625
000250 38 cd a8 bf ab 0a 2d be c7 de 3b 3e 28 44 14 be
       -1.3187628 -0.16898601 0.18346702 -0.14479125
000260 ef 1e d6 be e1 50 b6 3d f0 d1 a4 3d 8a 50 27 bf
       -0.41820475 0.08902145 0.08047855 -0.6535727
000270 d6 d6 ef bd 1e ca 77 bf fc 4f 19 bf fc 4b ac 3e
       -0.117108986 -0.9679278 -0.5988767 0.3365172
000280 15 73 eb 3d 49 62 fb bd 8f 07 63 3d 67 11 da 3e
       0.114965595 -0.12274606 0.05542713 0.42591402
000290 bd 96 b9 bd e8 c4 2f 3e 80 20 a7 be 20 d5 07 bc
       -0.09061954 0.17164958 -0.32641983 -0.008290559
0002a0 c2 6f 72 3e d2 09 0e 3f 2c 4d 66 bd af 9c e6 3d
       0.23675445 0.55483735 -0.05622594 0.11260354
0002b0 31 8b 22 be 09 f8 6f bd 89 33 a7 3d f6 ec 4d bf
       -0.1587341 -0.058586154 0.081641264 -0.804397
0002c0 b4 57 26 bf 31 65 f3 3d 46 40 a2 3d 21 af 13 3e
       -0.64977574 0.11884535 0.079224154 0.14422275
0002d0 3b 6d 9e 3f 3a af 9c bd ee 5d 73 bd ee af 05 be
       1.2377084 -0.07650609 -0.05941575 -0.13055393
0002e0 45 7d 4a bf 7e 2c 95 3d c1 c0 55 be b8 09 e5 3d
       -0.79097396 0.07283877 -0.20874311 0.11183494
0002f0 95 8e fa 3d d8 91 ca bd 8b 92 19 bf f6 e2 4a bd
       0.122342266 -0.09891099 -0.5998923 -0.049532853
000300 44 87 fb bd 4c 25 68 be 8d d9 9a be 51 a0 0e bf
       -0.12281659 -0.22670478 -0.30244103 -0.55713373
000310 27 03 a9 3b 2b bd 6f be 90 a8 13 3f dc dd 36 be
       0.0051578465 -0.23412006 0.5767908 -0.1785807
000320 2e 4e 9b ba 5b 0b 96 bf 3e f1 cf bb 84 b2 ee 3d
       -0.0011848861 -1.1722215 -0.006345897 0.11655143
000330 3a 1d 81 3e 1b 1c 98 bd b5 29 33 3e c3 76 fe 3d
       0.2521761 -0.07427236 0.17496379 0.12424996
000340 84 f8 df be cf 55 dc be e4 58 28 bd 6a 4b 4b bf
       -0.4374429 -0.43034217 -0.041100398 -0.7941195
000350 0b 03 d5 bb 57 c3 71 be 7c e7 45 3e 2d 67 8f 3e
       -0.006500607 -0.23609672 0.19326586 0.28008404
000360 83 69 16 3e b8 c4 c2 bd 90 37 03 3f de 16 08 bf
       0.14688687 -0.095101774 0.51256657 -0.5315989
000370 c7 a4 3f be 6b a5 b5 3e b1 45 c7 3e 69 07 dd 3d
       -0.18715201 0.35477766 0.38920358 0.10792429

gcn_convs.1.path_weight_1.bias f4 [7]
000000 e7 fb 24 3f 8e 63 3e 3f ba 25 28 3f 2a e6 51 3f
       0.6444687 0.7437066 0.65682566 0.8199183
000010 ba 0e 67 3f 52 63 43 3f 79 dd 64 3f
       0.90256846 0.76323426 0.8940044

gcn_convs.1.path_weight_2.weight f4 [7, 32]
000000 51 40 79 3d a9 19 7d bb 3c 05 4c bd f0 6f de bd
       0.060852353 -0.003862003 -0.04980968 -0.10861194
000010 27 6f cf b8 63 0e ea 3b 6e aa 9b 3d 33 09 34 be
       -9.891233e-05 0.0071428283 0.07600866 -0.17581634
000020 0d 83 fa bd d6 b2 9b bc bd be 92 bd 81 7e aa 3a
       -0.12232027 -0.019006174 -0.07165287 0.0013007672
000030 fc 68 6c 3e 43 9c 8a bb 4b 9e 39 3c df 75 2b 3c
       0.23086923 -0.0042300536 0.011329244 0.010465114
000040 dd 73 61 be 4a ac d6 bc 8a 27 d4 bc a0 26 b6 bb
       -0.22016855 -0.0262052 -0.02589776 -0.0055588037
000050 85 dd 94 bb 3c ad 08 3c c7 4e 56 3d 09 49 79 3e
       -0.0045430087 0.008342084 0.05232122 0.24344267
000060 38 51 c5 bc fa 7d 34 bc 8b 31 e2 3c 09 1f 0a 3e
       -0.02408658 -0.011016363 0.027611515 0.13488401
000070 94 62 4e bd 14 ec aa bc 84 cd 39 bc ea 6d ec bb
       -0.05038698 -0.020864524 -0.011340503 -0.007215251
000080 ec ca b0 bc 3d c7 2f 3b 07 7d 2e 3e 42 90 60 bc
       -0.021581136 0.0026821636 0.17039882 -0.013706269
000090 61 4c a3 3b 51 f9 74 bc 65 d4 3a bd 44 fe df bd
       0.0049834703 -0.01495202 -0.04561271 -0.10937169
0000a0 22 2f 30 bb f8 47 8d 3b 9a e3 95 3a a5 58 a0 bc
       -0.0026883562 0.004311558 0.0011435628 -0.019573519
0000b0 23 ba 82 3e b8 4b df 3a 4c 70 b7 3b 2b c6 15 3b
       0.25532636 0.0017036116 0.0055981036 0.0022853713
0000c0 ee 31 c2 bc 02 12 5d bd 50 be c0 3c dc 7f 3b 3b
       -0.023705449 -0.05397225 0.023528248 0.0028610146
0000d0 18 b3 76 3b 99 5a 07 3d 66 5a 34 bb 97 57 f8 3d
       0.003764337 0.033045385 -0.0027519702 0.121260814
0000e0 93 be 08 bd ec 89 88 3c 49 14 99 3c 27 11 45 be
       -0.03338487 0.016667329 0.01868643 -0.19244824
0000f0 e3 ff 18 bd cf 7c ff bd c8 30 52 bb ad 93 56 3b
       -0.037353408 -0.12474977 -0.0032072533 0.003274183
000100 c3 96 b8 bc 26 b9 af 3a 9c b7 c4 3c 98 2e 54 bc
       -0.022532826 0.0013406619 0.024013333 -0.012950562
000110 fd 54 61 b9 63 ff be 3a 68 59 1b bd c0 11 76 bb
       -0.00021489333 0.0014571961 -0.03792706 -0.00375472
000120 87 f3 c3 bc 8f 95 a3 ba da ba 42 bd 8e 3e 8b bb
       -0.023919834 -0.0012480485 -0.047541477 -0.0042494005
000130 cb a9 97 be cc 79 e3 bc 9b e3 12 3c 82 bb 9a 3c
       -0.2962173 -0.027768038 0.008965398 0.018888239
000140 f3 2f 62 be e4 b9 83 3b 52 48 24 3c 73 d1 90 bc
       -0.22088604 0.0040199626 0.010027008 -0.017677998
000150 d9 11 ee bb 93 41 38 bc e1 18 0a 3d d6 5c 88 bc
       -0.007265311 -0.011246103 0.033715133 -0.01664583
000160 63 3b b1 ba 69 a0 fd 3b df 8b 83 3b 5e 68 dd 3b
       -0.0013521727 0.0077400696 0.0040144767 0.0067568263
000170 87 60 79 bc 54 f3 ee bb cb 9f 16 39 73 65 90 3b
       -0.015220768 -0.0072921906 0.00014364642 0.004406625
000180 1f 8a 93 bd 0e f3 19 ba 95 13 9c 3e 76 17 5c be
       -0.07204079 -0.0005872705 0.3048369 -0.21493325
000190 ee ef e6 bd 81 94 89 be 17 fd 65 be bf 6a c6 be
       -0.11276232 -0.26871112 -0.22459827 -0.38753316
0001a0 7f 7e 86 be ef 11 c5 bc cf a6 28 be 66 6d 75 3e
       -0.26268384 -0.024056403 -0.16469882 0.23967513
0001b0 85 80 2c 3c 5b 84 60 3e 3b 29 8a 3d 33 55 97 3d
       0.010528688 0.2192549 0.06746145 0.07389297
0001c0 cd 8d 3a bc 4a 36 75 3e 86 38 1f 3e 98 b5 7f bd
       -0.011386347 0.23946491 0.15548906 -0.06242904
0001d0 dd f4 4e bc 5d 45 09 be 38 15 4c 3e 4a 8d 2a 3f
       -0.012631622 -0.13405366 0.1992997 0.6662184
0001e0 70 18 13 be 78 f4 f9 3e 85 f9 46 3c f8 74 d3 bd
       -0.14364791 0.48819327 0.012144451 -0.103250444
0001f0 23 9e ca bd b3 74 2e bf e2 4e 0e bc 86 99 02 bf
       -0.098934434 -0.6814682 -0.008685799 -0.5101551
000200 ce 96 2e bf eb 0c 88 bc 7a 58 95 3e 6b d5 41 3c
       -0.6819886 -0.016607722 0.29169065 0.011830668
000210 ef f3 cd bc 16 64 9c be 10 9f 8f bf a2 e7 3d be
       -0.02514073 -0.3054511 -1.1220417 -0.18545392
000220 bd de 59 bf c5 35 f9 3e de 77 87 bf 43 2e 5e 3e
       -0.85105497 0.48673835 -1.0583456 0.21697335
000230 4a 9c 15 3f 68 bf ca 3d 09 af be bb a2 88 93 3c
       0.58441603 0.09899789 -0.0058192057 0.018009488
000240 49 d7 85 bf ae b3 e0 3e bb ea 7c 3e 02 e0 73 be
       -1.0456325 0.43887085 0.24698918 -0.23815921
000250 7a a9 9a 3e 00 96 00 39 96 bc 7c 3f 04 81 1a 3e
       0.30207425 0.0001226291 0.9872526 0.15088278
000260 7d f9 14 3d 04 64 fd bd e9 7e a5 3e b6 f0 ea bb
       0.036370743 -0.12372592 0.32323387 -0.0071698083
000270 14 a5 01 3e 5f a7 8d bf b6 a1 9a bf 76 8a 87 be
       0.12660629 -1.1066703 -1.20806 -0.26472825
000280 ce 5a 86 3d fa b9 1b b9 07 f2 62 3d 07 fa 5a 3b
       0.06560288 -0.00014851234 0.055406597 0.0033413188
000290 34 62 28 bc d9 2c b1 bc 20 c3 4a 3d 68 26 80 bc
       -0.01027732 -0.02162783 0.049502492 -0.015643314
0002a0 e7 fd 86 bd 45 26 c7 3c 1f f5 c3 bc 20 0e ee bb
       -0.06591397 0.02431024 -0.023920594 -0.0072648674
0002b0 58 72 18 bd 3a 37 06 3d 71 03 d5 3c 3e 0a ea bc
       -0.03721842 0.032767512 0.026002618 -0.028569337
0002c0 7e 47 d3 bc 4c bc 05 bc 19 ef 81 3c 6e 36 d5 bc
       -0.025790926 -0.008162569 0.015861081 -0.02602693
0002d0 10 bb 01 3c fe 5f 7b 3b 1f 1f a2 3c 07 f8 97 3c
       0.007918134 0.0038356776 0.01979023 0.018550886
0002e0 01 fa 43 3d 8c f8 86 3d d2 f4 c8 bd bc 29 03 be
       0.047845844 0.06590375 -0.09812321 -0.12808889
0002f0 ec f6 20 3c e3 6b d3 bb c9 b0 d6 bb 21 f7 cc bd
       0.009824496 -0.00645207 -0.006551836 -0.100080736
000300 18 a9 21 be 86 e7 9b bb d6 e4 d2 3d 20 ec 93 bb
       -0.1578716 -0.0047578244 0.10297553 -0.0045142323
000310 48 ce 8e bb 0c d3 4a bd 15 34 96 bd 40 4c 25 be
       -0.0043580867 -0.049517676 -0.073341526 -0.16142368
000320 38 e2 b6 be 5d 45 90 3d 09 4f 11 be 89 3c 7f 3b
       -0.35719466 0.0704448 -0.14190306 0.0038945994
000330 bf b1 0e bf c7 bb e5 3c 02 87 11 3c b6 ea 08 3d
       -0.5573997 0.02804364 0.008882286 0.033426963
000340 20 d7 cf be 9b fd fe be 6b 1c e9 3d af e1 e8 bc
       -0.40593815 -0.4980286 0.113823734 -0.028427927
000350 78 d9 37 3b 4f 50 d4 ba 6f b7 fb 3d a5 e2 18 3e
       0.0028053205 -0.001619825 0.122908466 0.14930208
000360 d3 35 3b bc a5 a2 fa 3d 84 a2 77 3d 88 22 94 bd
       -0.011426407 0.12238053 0.06045772 -0.07233149
000370 78 75 f0 3e f8 c1 12 be 53 87 15 bd ee 16 0e bf
       0.46964622 -0.14331806 -0.03650601 -0.5550374

gcn_convs.1.path_weight_2.bias f4 [7]
000000 4c 52 fc be 8a e3 e7 bd 85 e7 c2 bd 79 ae 11 bf
       -0.49281538 -0.113226965 -0.09516815 -0.5690685
000010 3f a8 76 bf 89 e3 2b be 13 1a b2 be
       -0.96350473 -0.16786017 -0.34785518

lns.0.weight f4 [32]
000000 7e 0b 98 3d 52 9c 1e 3b b2 f4 e7 bd ef 5a cd bb
       0.07424067 0.002420206 -0.11325969 -0.0062669436
000010 22 06 43 3c 87 04 b9 bc 93 b4 f4 3d f7 5b 36 bc
       0.011903318 -0.022585167 0.11948504 -0.011130325
000020 b3 bb 98 bd 94 c0 b8 3c 9d 91 03 bd 64 c4 85 bd
       -0.07457676 0.022552766 -0.03212129 -0.06531599
000030 59 18 1d bc 05 81 9d bb e7 4f b0 3c c4 08 10 3e
       -0.009588324 -0.00480664 0.021522475 0.14065844
000040 37 d6 31 be 52 55 39 be a2 37 7e 3d 92 b3 79 3c
       -0.17366873 -0.18098953 0.062064774 0.015240567
000050 c3 ed a7 3c a8 17 91 3d 7d a4 29 3d 2a 74 10 3e
       0.020499116 0.0708459 0.041416634 0.14106813
000060 53 fe ab bb bb 96 b8 3d da a5 ba bc 1d 05 85 3e
       -0.0052488237 0.090131246 -0.022784162 0.25980464
000070 5f 14 66 3e 57 c8 ac 3e c7 73 9a bc 39 4d 43 be
       0.22468708 0.33746597 -0.018854035 -0.19072427

lns.0.bias f4 [32]
000000 ad 37 3e bd 22 3e ec ba 67 18 2d be 69 07 90 3c
       -0.046439815 -0.0018023888 -0.1690384 0.017581658
000010 35 b4 14 bd 65 64 53 bc e0 7c e6 3c e1 7c 9c 3e
       -0.03630467 -0.012902354 0.028135717 0.30564025
000020 8a 76 2d 3d d5 41 95 bb ef 7e b0 3d 34 f6 5a 3d
       0.042349376 -0.004554967 0.08617961 0.053457454
000030 46 f8 72 3d 78 6a 22 bd 19 db 40 bd 81 34 e0 bd
       0.059318803 -0.039652318 -0.047083948 -0.10947514
000040 d2 8e 01 3e df 52 83 3e 3d 0b f0 bd 75 d5 2f 3c
       0.12652138 0.25649163 -0.117208935 0.0107320445
000050 34 8c 90 bd a6 ff cd bd ab 70 b8 bd 98 84 da be
       -0.070579916 -0.10058527 -0.09005865 -0.42679286
000060 d0 87 7a bc 10 34 62 be 99 8f 53 bd 74 08 13 3e
       -0.015291169 -0.22090173 -0.051650617 0.14358693
000070 96 ad 36 be 4c fe f2 3d 40 0e 47 3d c4 df f9 bd
       -0.17839655 0.118649095 0.048597574 -0.12200883

lns.1.weight f4 [32]
000000 00 00 80 3f 00 00 80 3f 00 00 80 3f 00 00 80 3f
       1.0 1.0 1.0 1.0
000010 00 00 80 3f 00 00 80 3f 00 00 80 3f 00 00 80 3f
       1.0 1.0 1.0 1.0
000020 00 00 80 3f 00 00 80 3f 00 00 80 3f 00 00 80 3f
       1.0 1.0 1.0 1.0
000030 00 00 80 3f 00 00 80 3f 00 00 80 3f 00 00 80 3f
       1.0 1.0 1.0 1.0
000040 00 00 80 3f 00 00 80 3f 00 00 80 3f 00 00 80 3f
       1.0 1.0 1.0 1.0
000050 00 00 80 3f 00 00 80 3f 00 00 80 3f 00 00 80 3f
       1.0 1.0 1.0 1.0
000060 00 00 80 3f 00 00 80 3f 00 00 80 3f 00 00 80 3f
       1.0 1.0 1.0 1.0
000070 00 00 80 3f 00 00 80 3f 00 00 80 3f 00 00 80 3f
       1.0 1.0 1.0 1.0

lns.1.bias f4 [32]
000000 00 00 00 00 00 00 00 00 00 00 00 00 00 00 00 00
       0.0 0.0 0.0 0.0
000010 00 00 00 00 00 00 00 00 00 00 00 00 00 00 00 00
       0.0 0.0 0.0 0.0
000020 00 00 00 00 00 00 00 00 00 00 00 00 00 00 00 00
       0.0 0.0 0.0 0.0
000030 00 00 00 00 00 00 00 00 00 00 00 00 00 00 00 00
       0.0 0.0 0.0 0.0
000040 00 00 00 00 00 00 00 00 00 00 00 00 00 00 00 00
       0.0 0.0 0.0 0.0
000050 00 00 00 00 00 00 00 00 00 00 00 00 00 00 00 00
       0.0 0.0 0.0 0.0
000060 00 00 00 00 00 00 00 00 00 00 00 00 00 00 00 00
       0.0 0.0 0.0 0.0
000070 00 00 00 00 00 00 00 00 00 00 00 00 00 00 00 00
       0.0 0.0 0.0 0.0
