semi-supervised/saved_models/pubmed_4_layers_.pt (torch, 105937 bytes, 28 tensors)

trans_feat.weight f4 [32, 500]
0	0x3ad3da08	0.0016163001
1	0xbb224f0e	-0.0024766359
2	0x3afa2029	0.0019083071
3	0xba90a18b	-0.0011034472
4	0xbb3e1afe	-0.0029007788
5	0xbb264a73	-0.0025373965
6	0x3b404d26	0.002934286
7	0xb8194b50	-3.6548183e-05
8	0xbb7e91c2	-0.0038844203
9	0xba4898fd	-0.00076521916
10	0x3a0c430e	0.0005350568
11	0x3ad71364	0.0016408977
12	0xbb3571e9	-0.0027686304
13	0x3b8c66f9	0.0042847362
14	0x3a6e2cb5	0.00090856414
15	0xbbc10996	-0.0058910353
16	0x3a207a5a	0.00061217474
17	0x3afc7d60	0.0019263439
18	0xb9102788	-0.00013747637
19	0x3abdd6b0	0.0014483538
20	0x39aacaba	0.0003257597
21	0xb9576a74	-0.00020543655
22	0x3a9806c4	0.0011598696
23	0xb94b71f0	-0.00019402034
24	0xbadd3a42	-0.0016878324
25	0x3b005c1c	0.0019586151
26	0xbaba94d0	-0.0014235023
27	0xb97033a8	-0.00022907427
28	0xb910babc	-0.00013802474
29	0xb9e44ab2	-0.000435432
30	0x3b876887	0.0041323337
31	0xbb755b46	-0.0037438436
32	0xb9818d47	-0.00024710057
33	0xbaccaa1e	-0.0015614664
34	0xba26073e	-0.00063334766
35	0xbba1a280	-0.0049327016
36	0x3b643beb	0.0034825753
37	0x3a95208b	0.0011377496
38	0x3afd6269	0.0019331697
39	0x3a1e1cf0	0.00060315337
40	0xb947511c	-0.00019008334
41	0x3a2b8ec1	0.00065444043
42	0x3add860b	0.001690091
43	0xb9ed24ca	-0.00045231573
44	0x3ab4e9d4	0.0013802596
45	0xbb1ae904	-0.0023637423
46	0xbb98d212	-0.004663714
47	0x39079248	0.00012929097
48	0xbb060b1a	-0.0020453394
49	0xbb195bd1	-0.0023400674
50	0x3b05c2f6	0.0020410395
51	0xbab7757d	-0.0013996806
52	0xbb335773	-0.0027365356
53	0xbafb834c	-0.001918891
54	0x3a0476c9	0.0005053101
55	0x39e2162c	0.00043122598
56	0xbaa28f8a	-0.0012402397
57	0x3b081562	0.0020764698
58	0xbab7ea75	-0.0014031666
59	0xba8bd94f	-0.0010669621
60	0x3a9062b7	0.0011015747
61	0xba106bf8	-0.00055092527
62	0x3b055229	0.002034316
63	0xbb128cf6	-0.0022361851
64	0x39dc499c	0.00042016513
65	0x3bb1f185	0.0054304027
66	0x3a91e2bc	0.0011130194
67	0xba35ba7e	-0.00069323916
68	0xbaf77983	-0.0018880818
69	0x3a48492e	0.0007640299
70	0xba725ec2	-0.00092456874
71	0xb9156400	-0.00014247
72	0xbaaa0931	-0.001297271
73	0x3b125615	0.002232914
74	0xbacaa072	-0.0015459193
75	0x3a82e7b5	0.0009987267
76	0xbb745072	-0.0037279394
77	0x3a2da64c	0.00066242064
78	0x3af62a07	0.0018780836
79	0xba8eb136	-0.0010886553
80	0xba892058	-0.001046191
81	0x3aae9b7f	0.0013321488
82	0x3892929e	6.989132e-05
83	0x3ad34e0c	0.0016121282
84	0x3b0a7d0f	0.002113167
85	0x3b15cf0a	0.0022859
86	0xbab51548	-0.0013815546
87	0xba8d0bf6	-0.0010761011
88	0xbb0b321b	-0.0021239582
89	0x3b03f0a0	0.0020132437
90	0x3a85c2f5	0.0010205196
91	0x3b600a94	0.0034185993
92	0x3a82502b	0.0009942105
93	0xbb909646	-0.0044124452
94	0xbabb78e4	-0.0014302996
95	0xbb113e4a	-0.0022162371
96	0xbb8107f8	-0.0039377175
97	0x3a2a6aa0	0.0006500874
98	0x3aa5b111	0.0012641271
99	0xba53c36f	-0.0008078133
100	0x3ab90a38	0.0014117425
101	0x3b2905b5	0.0025790755
102	0xbac47dd1	-0.001499111
103	0x3a7fabfe	0.0009753107
104	0x3ae1cd07	0.0017227241
105	0x3af9e0b2	0.0019064157
106	0x3b16fcac	0.0023038788
107	0xb9ae56bc	-0.00033252488
108	0x39e71cb8	0.0004408115
109	0xbaaa4c8c	-0.0012992783
110	0xbba87f69	-0.0051421416
111	0x3b737117	0.0037146264
112	0x3979a248	0.00023806945
113	0xbad21193	-0.0016026966
114	0x3afa5168	0.0019097747
115	0x3b0da515	0.002161329
116	0x3a50bce8	0.00079627195
117	0x3a82488b	0.0009939832
118	0xbb08ffbb	-0.002090438
119	0x3b2e8673	0.002663043
120	0xba5ebe5c	-0.00084969937
121	0x3b9319d7	0.0044891643
122	0x395ddb68	0.00021157938
123	0xba95b392	-0.0011421314
124	0xba5a9918	-0.0008338853
125	0xbaf5acb5	-0.0018743487
126	0xbafefc33	-0.0019453823
127	0x3abdfb52	0.0014494455
128	0x3a0cec2b	0.0005375768
129	0xb7bfd140	-2.2866414e-05
130	0x3a1ee69d	0.0006061586
131	0xbb48d44a	-0.0030644112
132	0xbb354ac1	-0.0027662965
133	0x3836be30	4.3569307e-05
134	0xba8aeab5	-0.0010598513
135	0x3b2c58b1	0.0026297981
136	0x3a256d8e	0.00063105754
137	0xba51dfa7	-0.0008006044
138	0x3a1ebd42	0.00060554233
139	0xb9e9c78c	-0.00044589897
140	0x376aca40	1.3994577e-05
141	0xbaa10792	-0.0012285581
142	0xba455db6	-0.00075289176
143	0x395f47cc	0.00021293684
144	0x3b179014	0.0023126649
145	0xbb135fe5	-0.0022487578
146	0x3a840b66	0.0010074198
147	0xba3823ea	-0.00070243946
148	0x3b0ed42c	0.0021793945
149	0xbb2e68ac	-0.0026612682
150	0x3a25322e	0.0006301728
151	0x3b320b0a	0.0027167224
152	0x3aa95334	0.0012918473
153	0xbb470e4e	-0.0030373516
154	0xba1c3e89	-0.0005960246
155	0x3b86c81f	0.0041132118
156	0xbb258c1d	-0.0025260516
157	0x3ad79ebc	0.0016450505
158	0x3af67781	0.0018803925
159	0xbb817339	-0.003950503
160	0x3b2ee53c	0.0026686927
161	0xba0e83a6	-0.0005436487
162	0xbb3cd512	-0.0028813523
163	0xba88bc31	-0.0010432062
164	0xbadddd86	-0.0016926981
165	0xb91fd600	-0.00015243143
166	0x3ac06dba	0.0014681139
167	0xb9df3c5a	-0.0004257884
168	0x394293dc	0.00018556364
169	0x38fa4520	0.000119338045
170	0x3a001ee2	0.00048874144
171	0xba58c06a	-0.0008268418
172	0x3a8d0b11	0.0010760744
173	0x3afb1ab3	0.0019157737
174	0x3b832417	0.004002105
175	0x3af774f2	0.0018879457
176	0x39346460	0.0001720353
177	0xba4ad884	-0.0007737952
178	0x3b5ee0a7	0.0034008415
179	0xba21c7bf	-0.0006171427
180	0xbae8561e	-0.001772586
181	0x3b4313dc	0.0029766476
182	0x3b14be88	0.0022696573
183	0xba7af5ec	-0.00095733884
184	0xba5de5a8	-0.00084647024
185	0xba8887df	-0.0010416469
186	0xba63d172	-0.00086905726
187	0x38276db0	3.9918057e-05
188	0xba758e4a	-0.0009367211
189	0x399f3e24	0.00030373142
190	0xba5fbe98	-0.00085351756
191	0x38dfaef0	0.00010666053
192	0x3a9196e2	0.0011107589
193	0x39a40f04	0.00031291705
194	0xbad3898a	-0.0016139012
195	0x3ae13b47	0.0017183804
196	0x3b8c8c38	0.0042891763
197	0x39938540	0.00028137304
198	0xba5d0e5a	-0.00084326195
199	0x3a6fb316	0.00091438123
200	0xbb061411	-0.0020458738
201	0xbac2b79e	-0.0014855748
202	0xbaa66297	-0.0012694177
203	0x3993d3f0	0.0002819593
204	0xbabf2598	-0.0014583347
205	0x3b8c9d55	0.0042912164
206	0x398aeed2	0.00026499346
207	0xbb65aa39	-0.0035044088
208	0x3b1233e6	0.0022308766
209	0xbad32d7a	-0.0016111576
210	0xbb45f2e0	-0.003020458
211	0x3a3468d4	0.00068820757
212	0xb9a27d5c	-0.00030992448
213	0xbaf8c4ce	-0.0018979551
214	0x3ac39846	0.00149227
215	0x39e4ddb6	0.00043652736
216	0xbb008c19	-0.0019614755
217	0x38af8708	8.369802e-05
218	0x39fb8e90	0.00047980668
219	0xbb80ec0c	-0.003934389
220	0xba78e1a8	-0.00094940746
221	0xbb1bc4e3	-0.0023768477
222	0x3b700763	0.0036625497
223	0xbac18c6e	-0.0014766583
224	0xbaa7f189	-0.0012813072
225	0x39e0e18e	0.0004289266
226	0xb98a7260	-0.00026406627
227	0x39afe7f4	0.0003355142
228	0xbb52265c	-0.003206632
229	0xba995e5e	-0.0011701097
230	0x3b127897	0.002234971
231	0xb796bdc0	-1.7969753e-05
232	0x3b39d48b	0.0028355445
233	0xbc1d9003	-0.009616855
234	0x3a031db3	0.0005001679
235	0xbafe1706	-0.0019385524
236	0xba4af100	-0.00077416
237	0xb9fa6fec	-0.00047767104
238	0xb9f7a924	-0.0004723753
239	0xbb398c3d	-0.0028312348
240	0xb99f8e06	-0.0003043266
241	0x3aaddf90	0.0013265479
242	0x3aac8e0e	0.0013164894
243	0x3a785754	0.0009473462
244	0xba443838	-0.0007485184
245	0x3a67e0e6	0.0008845463
246	0x3b0ab534	0.0021165134
247	0x3a3d3463	0.0007217584
248	0x3a9306af	0.0011217202
249	0x3ad83a81	0.0016496928
250	0xbaf1a378	-0.0018435558
251	0x3b3f8a04	0.002922655
252	0xb9deea1c	-0.00042517565
253	0x383fc770	4.572369e-05
254	0x3a41426f	0.0007372265
255	0xbaf5d42d	-0.001875525

trans_feat.bias f4 [32]
0	0xba3921b5	-0.00070622127
1	0x3a1f8143	0.000608463
2	0x39ca7eee	0.00038623012
3	0x3a67910f	0.0008833566
4	0x38e141e0	0.00010741106
5	0xba82f4fe	-0.0009991226
6	0x3a37ffd7	0.0007019019
7	0x39db50b6	0.0004183107
8	0x3a386d04	0.00070352876
9	0xba4b082d	-0.0007745054
10	0x3a6cbc1e	0.0009030717
11	0x39df6efe	0.0004261657
12	0xb94d49e0	-0.00019577844
13	0x3a30d997	0.00067462906
14	0x3a81557e	0.0009867398
15	0x39861d4c	0.000255803
16	0xb9e36424	-0.00043371425
17	0x3a6ccbf9	0.000903308
18	0xba0a2e30	-0.00052711647
19	0x3a222dc0	0.0006186627
20	0x3a814720	0.0009863116
21	0x3a34597f	0.0006879791
22	0x3a233757	0.0006226203
23	0xba552ede	-0.0008132289
24	0x39a727fa	0.00031882507
25	0x3a06adf0	0.0005137613
26	0xb9805632	-0.00024478283
27	0x39c3b200	0.0003732592
28	0xba39b6d7	-0.0007084435
29	0x3a32fdcc	0.000682798
30	0x399fd134	0.00030482712
31	0x3a815846	0.0009868226

pred_trans.weight f4 [3, 500]
0	0x40b74e66	5.72832
1	0x3df8d662	0.12150265
2	0xbeb2661c	-0.34843528
3	0xbeaf9498	-0.34293056
4	0x3e9aab87	0.3020899
5	0xbf1d0333	-0.61333007
6	0x3db97225	0.090549745
7	0xbe8eb472	-0.27872044
8	0x3ff51d88	1.9149637
9	0x3d656f40	0.0560143
10	0xbeccbeff	-0.39989468
11	0xbe6c7bf6	-0.23094162
12	0x3eb560d2	0.3542543
13	0xbe53dc19	-0.2068943
14	0x3f8334f3	1.0250534
15	0x3e9e44ad	0.3091177
16	0xbef4c067	-0.4780304
17	0xbe04cb3f	-0.12968157
18	0x3ea80bf0	0.32821608
19	0xbcaf26b2	-0.021380756
20	0xbe8463ba	-0.25857335
21	0x3eb245df	0.34818932
22	0x3d58d551	0.05293781
23	0x3e42f9e5	0.1904064
24	0x3f465547	0.7747387
25	0x3ff70d13	1.9300865
26	0x3eabd620	0.33561802
27	0xbe4cec38	-0.20011985
28	0xbcf01152	-0.029305134
29	0x3eaa79c3	0.33296022
30	0x3f39c3b2	0.7256423
31	0x3ff594f4	1.9186082
32	0x4030f1fe	2.76477
33	0x3f4701c6	0.7773708
34	0x3ed964b6	0.4245965
35	0x3e05d0ed	0.1306798
36	0x3e797310	0.24360299
37	0xbe8eba4b	-0.27876505
38	0x3fa0cc96	1.2562435
39	0xbf902163	-1.1260189
40	0x3fc7ed01	1.5619203
41	0xbdf0f7d6	-0.11766021
42	0x3ea97696	0.33098286
43	0x3d957643	0.07297947
44	0xbe7740bf	-0.24145792
45	0xbd010651	-0.031500164
46	0xbd50b10a	-0.050950088
47	0x3db9bafd	0.09068868
48	0x3e86a773	0.2629963
49	0x3e0dd165	0.13849409
50	0xbc85a15c	-0.016312294
51	0xbe4ce9de	-0.20011088
52	0xbf1fe074	-0.62451863
53	0x3e94e071	0.29077485
54	0x3f0031d5	0.5007604
55	0xbe856754	-0.26055396
56	0xbeaf0a98	-0.3418777
57	0xbeb46bdb	-0.35238537
58	0x3d6ebef8	0.05828759
59	0xbe2bf3f5	-0.16792281
60	0x3f25bd1c	0.64741683
61	0xbedf1d8a	-0.43577224
62	0x3e13cd89	0.14433874
63	0x3ea45066	0.3209259
64	0xbd59e29a	-0.05319462
65	0x3e25a775	0.16177161
66	0x3e916d94	0.28403914
67	0x3e04cc22	0.12968495
68	0xbea8d8be	-0.3297786
69	0x3e3b6c65	0.18303068
70	0xbf48339a	-0.7820374
71	0x3e6fdeb1	0.23424794
72	0x3f06b8e4	0.5262587
73	0xbe61aaf0	-0.22037864
74	0x3f1d2ee4	0.61399674
75	0x3e1b80c7	0.15185843
76	0x3e920723	0.2852107
77	0x3ecc96c6	0.3995878
78	0x3f065e00	0.5248718
79	0xbec9e87a	-0.39435178
80	0x3e193dd7	0.14964996
81	0x3cff6926	0.031178068
82	0x3e295227	0.16535245
83	0xbd950a85	-0.07277397
84	0xbcbae4e4	-0.022814222
85	0xbf185b37	-0.5951418
86	0xbe99c99c	-0.30036628
87	0xbeb6b12f	-0.35682055
88	0xbef9ed10	-0.48813677
89	0xbfdcba17	-1.724429
90	0xbf317d60	-0.6933193
91	0xbf50e0ff	-0.81593317
92	0x3f4b0701	0.7930756
93	0x3fc16b1a	1.511081
94	0x3ed5132d	0.41616192
95	0x3d5cfcb1	0.053951923
96	0xbeb81be7	-0.35958788
97	0xbde823f2	-0.11334981
98	0xbe4b0032	-0.19824293
99	0x3e16ad18	0.14714468
100	0xbe4ff6c9	-0.20308985
101	0x3ea7883d	0.3272113
102	0xbbefd55c	-0.0073191356
103	0xbf1b2dca	-0.60616744
104	0xbe94c533	-0.290567
105	0x3ec89eb5	0.39183584
106	0x3d4871da	0.048936702
107	0x3edcf50d	0.4315571
108	0xbe0b881a	-0.13626137
109	0xbd1b288b	-0.03788046
110	0x3f45d27a	0.77274287
111	0x3e20e028	0.15710509
112	0xbec56067	-0.38550112
113	0x3d65148e	0.055927806
114	0x3d8e1ae3	0.06938722
115	0xbe832abe	-0.25618547
116	0xbe54e308	-0.2078973
117	0xbebac5f5	-0.36479154
118	0xbe5b5047	-0.21417342
119	0x3f42a1ce	0.76028144
120	0xbedd64ae	-0.43240875
121	0xbf609050	-0.87720203
122	0x3d72e633	0.059301566
123	0xbe2339b5	-0.15939982
124	0xbe42713b	-0.18988506
125	0xbdacbc65	-0.08434371
126	0xbe2ffa45	-0.17185314
127	0x3c828cca	0.015936274
128	0x3e0fdb67	0.14048539
129	0xbe6c4c06	-0.23075876
130	0xbe434177	-0.19067942
131	0xbea45d18	-0.32102275
132	0xbe165c67	-0.14683686
133	0xbe42cbbe	-0.19023034
134	0xbe4c7bee	-0.1996915
135	0xbe61e7c8	-0.22061074
136	0xbeebed84	-0.46079648
137	0xbeb7bea1	-0.35887626
138	0xbedd1b69	-0.43184975
139	0xbe986407	-0.29763815
140	0x3e38573c	0.18002027
141	0xbe2fcd0d	-0.17168064
142	0x3ece6c0f	0.40316817
143	0xbd824e80	-0.06362629
144	0xbecbf68e	-0.39836544
145	0xbda89a00	-0.08232498
146	0x3f768327	0.9629387
147	0xbdda50b7	-0.106599264
148	0xbe9bf01e	-0.30456632
149	0xbe3ceab3	-0.18448906
150	0xbe4edb10	-0.20200753
151	0xbe6271ad	-0.22113676
152	0xbd8f3543	-0.06992581
153	0x3ecf79cd	0.40522614
154	0xbef81e8c	-0.48460805
155	0xbd314782	-0.043281086
156	0x3e677e5c	0.22606796
157	0xbe0ac21e	-0.13550612
158	0xbea741be	-0.32667345
159	0x3f02daeb	0.5111529
160	0xbf97d63e	-1.1862257
161	0x3eaa98d2	0.33319718
162	0xbf55c615	-0.83505374
163	0xbea7de6a	-0.32786876
164	0x3f8c3733	1.0954345
165	0x3e79f508	0.24409878
166	0xbd7e8fc9	-0.062148843
167	0x3c914e51	0.01773754
168	0x3dcbd23b	0.09952208
169	0x3f4bd3b4	0.7961991
170	0xbe77a012	-0.24182156
171	0x3fbd9092	1.4809744
172	0x3d2a1ba4	0.041530266
173	0x3e3a0466	0.1816574
174	0x3d796902	0.06089116
175	0x3ebeafda	0.3724354
176	0xbe084923	-0.1330915
177	0xbd9ec7f9	-0.077529855
178	0x3f352d82	0.70772564
179	0x3f8807d3	1.0627388
180	0x3e3f7f5d	0.18700929
181	0x3cb227d4	0.021747507
182	0xbd3587e4	-0.04431905
183	0x3f1a0d7a	0.60176814
184	0x400c970b	2.196719
185	0x3f603099	0.87574154
186	0xbecd8ded	-0.40147343
187	0x3f752602	0.9576112
188	0xbcf382ae	-0.029725399
189	0xbe9436b5	-0.28947988
190	0xbf4af7e0	-0.7928448
191	0xbe63415d	-0.22192903
192	0x3dd65dac	0.10467085
193	0xbe338f46	-0.17535123
194	0xbd1d5b5e	-0.038417213
195	0xbe931f2b	-0.28734717
196	0xbebc043b	-0.36721978
197	0x3e266a68	0.16251528
198	0x3e9d9894	0.3078047
199	0x3ee0daf6	0.43917054
200	0x3ea31e4a	0.31859046
201	0xbf133e36	-0.575168
202	0x3ef946ae	0.48686737
203	0xbeddc53a	-0.43314534
204	0xbdba35ec	-0.09092316
205	0xbe86d899	-0.26337126
206	0x3bdd5ea0	0.006755665
207	0xbdae30c2	-0.085053936
208	0x3e32f9bc	0.17478079
209	0x3d5e26be	0.054236166
210	0xbea04ef4	-0.31310236
211	0xbe8ecd58	-0.2789104
212	0xbedf3eff	-0.4360275
213	0xbf08e289	-0.53470665
214	0xbebb0bf4	-0.36532557
215	0xbec98931	-0.3936248
216	0x3d06e15c	0.032929763
217	0xbed3b95b	-0.41352352
218	0xbeda876f	-0.42681453
219	0xbf7238a0	-0.9461765
220	0x3b77f6e0	0.0037836358
221	0xbf26c911	-0.65150553
222	0xbd92809e	-0.07153438
223	0x3ee9a7d1	0.45635846
224	0xbe6547ee	-0.2239072
225	0xbe846d1b	-0.2586449
226	0xbd8aa0be	-0.067689404
227	0xbee09a53	-0.4386774
228	0xbde9d6f3	-0.114179514
229	0x3c122e9d	0.008922246
230	0xbd5801d2	-0.05273611
231	0x3e47a8b2	0.19497946
232	0xbf798fbd	-0.9748495
233	0xbda02cae	-0.07821022
234	0xbf5ab9ea	-0.8543993
235	0xbf2499eb	-0.6429736
236	0x3ed51da7	0.41624185
237	0xbe8f74aa	-0.28018695
238	0x3e662da9	0.22478355
239	0xbfc05e4a	-1.5028775
240	0xbf10331b	-0.5632798
241	0xbf145772	-0.5794593
242	0x3c2a49f6	0.01039361
243	0xbe8def78	-0.27721763
244	0xbf72b66c	-0.94809604
245	0xbe11dd4c	-0.14244574
246	0xbece88c8	-0.4033873
247	0xbf64a9bd	-0.893215
248	0x3f819cc3	1.0125965
249	0x3eb33840	0.35003853
250	0x3de9a8fc	0.11409184
251	0xbf34630e	-0.70463645
252	0xbd60586d	-0.05477183
253	0xbe574e02	-0.21025851
254	0xbea473db	-0.3211964
255	0xbed804d8	-0.42191195

pred_trans.bias f4 [3]
0	0xbd4d4e51	-0.050123516
1	0x3d19c42f	0.03754061
2	0xbcbf758d	-0.023371482

gcn_convs.0.path_weight_1.weight f4 [32, 32]
0	0x3ba72007	0.0051002535
1	0x3a89327a	0.0010467314
2	0xbb86da16	-0.0041153533
3	0xbb99765b	-0.0046832985
4	0xba90c497	-0.0011044916
5	0x3b0a1d75	0.0021074687
6	0x3a9ad2d1	0.0011812096
7	0x3b6b0f3f	0.0035867242
8	0xbb6cfc5e	-0.0036161165
9	0x3b1f3d4a	0.0024298006
10	0xbba0a13a	-0.004902032
11	0xbb0da928	-0.0021615718
12	0x3b58c2ed	0.003307517
13	0x3b80a14b	0.0039254776
14	0x3ba65c62	0.005076931
15	0xb9fdbd8c	-0.00048397144
16	0xbb8d13db	-0.0043053455
17	0xbbd7ada8	-0.0065819807
18	0x3b971640	0.0046108067
19	0x3a7e6140	0.00097038224
20	0xbb4f1038	-0.003159536
21	0xbbcbeeec	-0.00622355
22	0xbb0c844b	-0.0021441157
23	0xb9c186af	-0.00036912176
24	0x3ad06fe5	0.0015902488
25	0x3ae4eba3	0.0017465245
26	0x3b66e9ae	0.0035234499
27	0xbbf3b646	-0.0074375
28	0x3a5062a2	0.0007949268
29	0xbb4f5bf5	-0.0031640504
30	0xbb484c73	-0.0030563145
31	0xbb0c913a	-0.0021448866
32	0x3b1c3e8b	0.002384099
33	0xbad19c46	-0.0015992008
34	0x3b46b34a	0.0030319267
35	0x3b4301b6	0.0029755658
36	0xb947c625	-0.00019051933
37	0x3b38d85a	0.0028205127
38	0x3aac0499	0.0013123929
39	0x3bc7b4c1	0.0060945456
40	0xbc1c9e33	-0.009559202
41	0x3b32ab86	0.002726288
42	0x39827832	0.00024885085
43	0x3ad5c400	0.0016309023
44	0x3c00c44e	0.007859303
45	0x3c0d8914	0.008638639
46	0xbae18e60	-0.0017208569
47	0xba9efa38	-0.0012129014
48	0x3b808bce	0.003922916
49	0xbc1778e2	-0.009245129
50	0xbb994cef	-0.0046783607
51	0xbc26490d	-0.010149253
52	0xbb4821b6	-0.0030537671
53	0xbc1cec28	-0.009577788
54	0x3b70d133	0.0036745786
55	0xbbc81928	-0.0061065145
56	0x3b697b4d	0.0035626472
57	0xbb0891d5	-0.0020838876
58	0x3bb10655	0.005402366
59	0xbb717859	-0.0036845414
60	0x3c0c624a	0.008568356
61	0xbabeae69	-0.0014547828
62	0x3b0514c7	0.0020306574
63	0xbbada570	-0.0052992627
64	0x3b3a3bd8	0.0028417017
65	0x3acc7e43	0.0015601594
66	0x3ad309c2	0.001610093
67	0xbc8a827f	-0.016907929
68	0xbb8f5156	-0.0043737097
69	0xbbea881a	-0.007157338
70	0x3a930c5e	0.0011218896
71	0xba41d91d	-0.0007394718
72	0x3c18cfbd	0.009326872
73	0xbc04b2d9	-0.008099281
74	0x3ba7291a	0.0051013352
75	0xba7d79b1	-0.00096693175
76	0xbc30d978	-0.010794036
77	0xbc04c37c	-0.008103248
78	0x3bb2b3cc	0.0054535624
79	0xbbd0e2ed	-0.006374708
80	0xbc0c03c0	-0.008545816
81	0xb9181646	-0.00014504147
82	0x3b591ff7	0.0033130625
83	0x3c5e552c	0.013570111
84	0xbaf5867f	-0.00187321
85	0x3bf2c36d	0.0074085505
86	0x3b105fa6	0.0022029667
87	0x3c09281e	0.008371381
88	0xbc2cffd5	-0.010559042
89	0x3c34b167	0.011028624
90	0x3beaf3af	0.0071701626
91	0xbbba5a66	-0.005687046
92	0xbc69b23f	-0.014263689
93	0x3b648316	0.0034868172
94	0xbc0bfaf7	-0.008543721
95	0x3c1f6c87	0.009730465
96	0x3b120439	0.002228035
97	0x3b798963	0.0038076274
98	0xbbb05ffa	-0.005382535
99	0x3b42a92e	0.002970289
100	0x3b636938	0.0034700166
101	0xbaa223bf	-0.0012370272
102	0xbbc7a33b	-0.0060924566
103	0xbbfb8a07	-0.0076763663
104	0x3b86a127	0.0041085663
105	0x3baa7fb4	0.0052032117
106	0xbb1b8aef	-0.0023733934
107	0xbb8665a4	-0.004101472
108	0xbbfbd592	-0.0076853717
109	0x3b2201cd	0.0024720312
110	0xbb7b786a	-0.0038371333
111	0xb9309b9e	-0.0001684264
112	0xbb8d87a2	-0.004319147
113	0xbb0cab76	-0.0021464503
114	0xba42cca3	-0.0007431006
115	0xbb546153	-0.0032406643
116	0xba2a6248	-0.00064996304
117	0xb8def465	-0.00010631307
118	0xbc04d1e4	-0.008106682
119	0x39721b8e	0.00023089183
120	0x3be857fa	0.0070905657
121	0xbbb6e3b9	-0.005581346
122	0xb77f470b	-1.5215725e-05
123	0x3acb54a9	0.0015512902
124	0x3adcbc00	0.0016840696
125	0xba8d96fc	-0.0010802443
126	0x3a8aa777	0.0010578473
127	0xbb44a965	-0.0030008194
128	0xbba8e4df	-0.0051542367
129	0xbb73f874	-0.0037226947
130	0xba99fcac	-0.0011748276
131	0x3bac96ec	0.0052670147
132	0xbb2160f8	-0.0024624448
133	0x39594c51	0.00020723163
134	0xbb1353f2	-0.0022480455
135	0xbbbd76fb	-0.005782006
136	0xbb7691e2	-0.0037623574
137	0x3b1c9e34	0.0023898007
138	0xbaf5d298	-0.0018754778
139	0x3a8aa937	0.0010578994
140	0xbb0c2a45	-0.00213875
141	0xbb26bae8	-0.0025440995
142	0x3b054abc	0.0020338735
143	0x39c55697	0.00037639283
144	0xbb8609d2	-0.004090526
145	0x3bb5d956	0.00554959
146	0xbbf67869	-0.007521678
147	0x3b12479c	0.0022320515
148	0x3b9cf802	0.004790307
149	0xbbae9018	-0.005327236
150	0x38bbf1ff	8.96193e-05
151	0x3ac84806	0.0015280254
152	0x3bf97ba4	0.007613616
153	0x3b87b955	0.0041419663
154	0xbba93d29	-0.0051647616
155	0xbaf78c64	-0.0018886444
156	0xbb845c6c	-0.004039338
157	0xbb98f482	-0.0046678195
158	0xbaac6cca	-0.001315498
159	0xbaff0584	-0.00194566
160	0x3b72ab89	0.0037028512
161	0x39d87957	0.00041289136
162	0x3ad9ed8c	0.0016626581
163	0x3ba977a3	0.0051717325
164	0x3b29d062	0.002591156
165	0x37dd53da	2.63843e-05
166	0x3b8d468a	0.0043113874
167	0x3bb5825c	0.0055392217
168	0x39a0a914	0.0003064355
169	0xbc0a70b3	-0.008449721
170	0xbb596422	-0.0033171256
171	0x3bdf10c7	0.00680742
172	0x3a5a1d90	0.0008320445
173	0xb9bc9577	-0.00035969514
174	0xba94e72e	-0.0011360401
175	0x3bd40bcc	0.006471133
176	0x3b85ccb4	0.0040832404
177	0x3a62d7f0	0.0008653393
178	0x3bbfaf03	0.0058497204
179	0x3b02d69a	0.0019964338
180	0xbb43ef8b	-0.0029897417
181	0xbc19b7d6	-0.009382209
182	0x3be6b59b	0.007040692
183	0x3bc8e05f	0.0061302627
184	0x3b6d5fd3	0.0036220446
185	0x3a2f82e1	0.00066952227
186	0xb847f559	-4.7673795e-05
187	0xbb16f441	-0.002303377
188	0x3bd3ad09	0.0064598364
189	0xbb22c755	-0.002483805
190	0x3ac183d1	0.0014764016
191	0x3bad1202	0.0052816877
192	0x3bb26173	0.0054437458
193	0xb649f811	-3.0095728e-06
194	0x3b8d10dc	0.0043049883
195	0x3b216021	0.0024623948
196	0x3b629865	0.0034575698
197	0xba6a80fb	-0.0008945611
198	0xbbac4b13	-0.005257973
199	0xb9890b97	-0.0002613931
200	0x3a49c488	0.0007696827
201	0xba27ec91	-0.00064057956
202	0xbbb0ae4d	-0.005391872
203	0xbb27e6c9	-0.0025619736
204	0x39b4ea40	0.00034506805
205	0x3b83d96c	0.0040237214
206	0xbb0da548	-0.0021613408
207	0xbb5b9320	-0.0033504441
208	0xbb54d3c8	-0.0032474864
209	0x3ab8ad54	0.0014089742
210	0x3ae30b9d	0.0017322187
211	0xbab2347e	-0.0013595966
212	0x3b58a7c0	0.0033058971
213	0x3b39a017	0.002832418
214	0xbaab2ec7	-0.0013060205
215	0x3a6a3672	0.00089345046
216	0x3a965313	0.001146885
217	0x3abdb1ac	0.0014472506
218	0x39ef03b0	0.0004558838
219	0x39d84def	0.00041256796
220	0xba8a5a01	-0.0010555388
221	0xb97442d9	-0.00023294556
222	0x3b8db5ac	0.0043246355
223	0xbb9653ce	-0.004587627
224	0xbb386a47	-0.0028139518
225	0xbb3edfec	-0.0029125167
226	0xbbd1804c	-0.006393468
227	0xbb0ea340	-0.0021764785
228	0xbbada2ea	-0.005298962
229	0xbb218d8b	-0.0024651017
230	0xba06a6cd	-0.00051365496
231	0xbb896c98	-0.0041938536
232	0x3b67eb83	0.0035388179
233	0xbb816cb7	-0.0039497274
234	0xbbc2e1f6	-0.005947347
235	0xbb1c0f7c	-0.002381294
236	0x39f83c11	0.00047347
237	0xba856167	-0.0010176123
238	0x3bc94023	0.006141679
239	0xbb63fd01	-0.0034788253
240	0xb949951c	-0.00019224401
241	0x39d19958	0.00039977836
242	0x39998496	0.00029281218
243	0xbb40d14b	-0.0029421623
244	0xbb9ee075	-0.0048485347
245	0x3bbb7184	0.005720319
246	0x3ab93c07	0.001413227
247	0x39dc05f2	0.000419661
248	0xba757b29	-0.00093643606
249	0xb9b323d2	-0.0003416823
250	0xba1c6b8e	-0.00059669546
251	0xb9e584b2	-0.0004377715
252	0xbba07305	-0.004896524
253	0x3b056f0f	0.0020360386
254	0xbb33dcb7	-0.0027444789
255	0x3b7eb6de	0.0038866322

gcn_convs.0.path_weight_1.bias f4 [32]
0	0x3c2834f7	0.010266534
1	0x3bfd1553	0.0077234893
2	0x3f651b24	0.8949454
3	0x3eadc009	0.33935574
4	0x3f5a713f	0.8532905
5	0xbe127c79	-0.14305295
6	0xba24b5c8	-0.0006283191
7	0xbdbb56bf	-0.09147405
8	0xbf6f412a	-0.9345881
9	0x3ce877d5	0.028377453
10	0xbf48a9cb	-0.78384084
11	0x3e209971	0.15683533
12	0xbec7fd18	-0.39060283
13	0xbe6a24c8	-0.22865593
14	0xbcafa041	-0.02143872
15	0x3c94d700	0.018168926
16	0xbee03edd	-0.4379796
17	0x3c44e2c3	0.012016955
18	0xbf02f898	-0.51160574
19	0x3f1e8a42	0.61929715
20	0xbca804d4	-0.020510115
21	0x3ca9ce3c	0.020728223
22	0x3f748a3b	0.9552342
23	0xbbba8799	-0.005692434
24	0xba3bf3af	-0.00071697956
25	0xbef49737	-0.47771618
26	0x3e0bec56	0.13664374
27	0x3e789e07	0.24279033
28	0x3f4bfed4	0.7968571
29	0x3cde2b14	0.02712015
30	0xbeebf32b	-0.4608396
31	0x3f56af95	0.83861667

gcn_convs.0.path_weight_2.weight f4 [32, 32]
0	0x3a6911ac	0.0008890878
1	0xba271f54	-0.00063752127
2	0xba77f8af	-0.0009459359
3	0xba1e8ea4	-0.0006048477
4	0x399c534f	0.00029816708
5	0x3a42f291	0.0007436658
6	0x3a3e664d	0.0007263169
7	0x39b82718	0.00035124342
8	0xb9dcc337	-0.00042107116
9	0xba3593ab	-0.00069266063
10	0xb90d680d	-0.0001348557
11	0x3919293e	0.00014606581
12	0x36b6b57b	5.44515e-06
13	0x38b26eec	8.508362e-05
14	0xb9bd0180	-0.00036050007
15	0xb98374d6	-0.00025073317
16	0xb8923618	-6.971898e-05
17	0xb9754237	-0.00023389688
18	0xb8465ea6	-4.7295027e-05
19	0xb92a35cc	-0.00016232504
20	0xb9bef160	-0.00036419462
21	0x3a3ac068	0.00071240077
22	0xba38fae5	-0.0007056429
23	0x390edfd3	0.00013625556
24	0xba35a8c0	-0.0006929748
25	0xb997d87c	-0.00028962258
26	0x39501ef6	0.0001984796
27	0xba30cddc	-0.00067445426
28	0x3a264eee	0.0006344159
29	0xba252f38	-0.00063012866
30	0xb92ff656	-0.00016781068
31	0xb74fcabc	-1.2385364e-05
32	0xb992b60d	-0.00027982928
33	0x39535735	0.00020155015
34	0xba558b74	-0.00081460853
35	0x39f3b7af	0.00046485427
36	0xba28cdf6	-0.0006439382
37	0x3a3e2a06	0.0007254187
38	0xba40d6fb	-0.00073562533
39	0x3a244088	0.00062657194
40	0x39b4f045	0.0003451129
41	0x3a296680	0.0006462112
42	0xba677b33	-0.0008830309
43	0x3a52ee2c	0.00080463546
44	0xba2e5335	-0.0006649972
45	0xba41292f	-0.00073685026
46	0x3a030b14	0.0004998904
47	0x3a16d0b9	0.0005753148
48	0x39a0a88f	0.00030643164
49	0xba678aaa	-0.0008832613
50	0x3a0eff9c	0.0005454959
51	0x3a6cf6c7	0.0009039458
52	0xb8b06e64	-8.412896e-05
53	0x390f12fc	0.00013644615
54	0x3a23d48f	0.000624963
55	0xb9716213	-0.00023020087
56	0xb997f3cb	-0.00028982604
57	0x39a55998	0.00031538005
58	0xba2da548	-0.0006624055
59	0xb9563328	-0.00020427688
60	0xba2f88ba	-0.0006696094
61	0x39b2b11a	0.00034082757
62	0x3a640789	0.00086986326
63	0xb9276143	-0.00015962594
64	0x3a3b741b	0.0007150785
65	0xba46bdd7	-0.0007581389
66	0xba1ca23d	-0.0005975103
67	0xb9be767e	-0.00036327908
68	0xba2618a6	-0.00063360704
69	0x3a2768d9	0.0006386168
70	0x3993d6ff	0.0002819821
71	0xba354e3f	-0.00069162616
72	0xba45d031	-0.00075459766
73	0xba1a9bb7	-0.0005897837
74	0x38b0400f	8.404266e-05
75	0xba11b64c	-0.00055584754
76	0x3a2088fc	0.0006123928
77	0x3a249f50	0.0006279843
78	0xb80afa6e	-3.3134995e-05
79	0x37607c9b	1.3380452e-05
80	0x39e24c94	0.00043163134
81	0x37f75936	2.9486237e-05
82	0x3a60ce26	0.00085756404
83	0xba39981f	-0.0007079858
84	0xb9060130	-0.00012779678
85	0x39f5cf20	0.00046884362
86	0xb955d37e	-0.0002039205
87	0x3a4da1cb	0.00078442384
88	0xba12b8f4	-0.0005597018
89	0xba307a83	-0.0006732123
90	0xb8afbe8c	-8.3801424e-05
91	0xba348df3	-0.0006887607
92	0xb933c5a7	-0.00017144401
93	0x39a03d59	0.00030563286
94	0xb92fcb5c	-0.00016765058
95	0xba22ab98	-0.0006205379
96	0x39e8347d	0.00044289595
97	0xba3f9568	-0.0007308335
98	0x3781315f	1.5400989e-05
99	0x3a48e043	0.0007662812
100	0xba100d55	-0.00054951507
101	0x38938d2b	7.035801e-05
102	0xba0db67b	-0.0005405915
103	0xb952c2aa	-0.00020099679
104	0x39fcbed0	0.00048207352
105	0x3a42f5e6	0.00074371544
106	0x3a06c84f	0.00051415426
107	0xba4aaf53	-0.0007731814
108	0x3a5cc546	0.000842173
109	0x39ee43f4	0.00045445526
110	0x3a2633b9	0.0006340105
111	0x39dde0cb	0.0004231989
112	0xb8fe04a3	-0.000121125275
113	0x39648af5	0.0002179554
114	0x3a6994f2	0.0008910439
115	0xb9ebcb7d	-0.00044974303
116	0xb7eb130e	-2.8023056e-05
117	0xba4a3037	-0.0007712873
118	0x3a5af7f5	0.00083529885
119	0x392bdbe2	0.00016389744
120	0xb8c96657	-9.603489e-05
121	0xb88b0063	-6.6281085e-05
122	0xb85c0592	-5.2457275e-05
123	0x39c2e001	0.0003716946
124	0x389ddba6	7.527256e-05
125	0xb9592767	-0.00020709411
126	0xba299acb	-0.00064699043
127	0xb9e0d95f	-0.00042886563
128	0xba82fdd3	-0.0009993858
129	0x3a28be8c	0.0006437085
130	0x3916b7db	0.00014373606
131	0x399480b7	0.0002832466
132	0x38682b2b	5.5353314e-05
133	0x3a494d7a	0.00076790864
134	0x3a1fb25e	0.00060919474
135	0x3a6161f6	0.0008597666
136	0x39f91c15	0.00047513904
137	0xb9f5ac5a	-0.00046858453
138	0x3a09fdaf	0.0005263937
139	0x39e52380	0.00043704733
140	0x3a2e8e0b	0.00066587393
141	0xb98356b0	-0.00025050854
142	0x39d5db98	0.00040790136
143	0x390446e5	0.00012614911
144	0xba58a783	-0.0008264707
145	0xba0a615e	-0.0005278791
146	0x38c867ee	9.5561016e-05
147	0x38507022	4.9695496e-05
148	0x3a1fe112	0.0006098907
149	0xba174d8a	-0.0005771747
150	0xba1cc5c3	-0.00059803965
151	0x399b2d6e	0.00029597752
152	0xba4344c8	-0.0007448909
153	0x39bce08c	0.00036025455
154	0x39198f4e	0.00014644602
155	0xb88d6bef	-6.743508e-05
156	0x36c5e8d7	5.8981636e-06
157	0x3a27be5e	0.00063989114
158	0xba2232d1	-0.0006187382
159	0x39adab07	0.00033124557
160	0xb904a49a	-0.0001264982
161	0xba32b776	-0.0006817499
162	0x3a6c77d7	0.0009020543
163	0x3a26427f	0.0006342306
164	0xba50f715	-0.00079713884
165	0xb8a1982a	-7.705421e-05
166	0x3a451a7c	0.00075189
167	0x3a82ff72	0.0009994342
168	0x3a6d5fda	0.00090551155
169	0x39378bef	0.0001750437
170	0x3a1f9680	0.0006087795
171	0x3a418670	0.00073823985
172	0x3a30e037	0.0006747278
173	0x39f63724	0.0004696186
174	0x394d09c8	0.00019553967
175	0x395efb66	0.00021265223
176	0xb9fb72a8	-0.00047959876
177	0x3a5735a3	0.00082095916
178	0xba6d66bc	-0.0009056141
179	0xba2f975f	-0.0006698276
180	0xba1782fb	-0.00057797105
181	0xba31c559	-0.0006781421
182	0x39f3bd67	0.00046489688
183	0x3a2bd629	0.00065550447
184	0xb9c0b7fd	-0.00036758176
185	0x3a1b8c31	0.0005933671
186	0xba22e6cf	-0.0006214203
187	0xb9bfe5b8	-0.00036601513
188	0xb9f6f3a6	-0.0004710231
189	0xb9be141f	-0.00036254615
190	0x3a34e0da	0.00068999606
191	0x3a22be1f	0.000620814
192	0x390c7045	0.00013393264
193	0xba82f59a	-0.0009991408
194	0x3991b4dd	0.0002779131
195	0xba323a80	-0.00067988783
196	0xb9febabf	-0.00048585792
197	0x38886eee	6.5056476e-05
198	0xb9674877	-0.00022056872
199	0xba30dfd5	-0.0006747221
200	0xb998b5b0	-0.00029127067
201	0xb9e09653	-0.0004283661
202	0x3a04bec4	0.00050638267
203	0x39b867a1	0.00035172424
204	0xba06077f	-0.00051128113
205	0x3a32f101	0.00068260735
206	0xba3e4b59	-0.00072591525
207	0xb9da02e6	-0.0004158236
208	0x38910de2	6.916725e-05
209	0x3a5942bb	0.00082878367
210	0x397b3c8d	0.00023959782
211	0xba1dba81	-0.0006016866
212	0x3a27a665	0.0006395339
213	0xba224506	-0.0006190095
214	0x3a5154b4	0.0007985339
215	0xba817cf3	-0.0009879157
216	0xb8e47054	-0.0001089281
217	0xba161cd8	-0.0005726344
218	0xba4ddb6f	-0.00078528275
219	0x39a9e843	0.0003240724
220	0x3a2fd290	0.00067070965
221	0xb9aafaf3	-0.00032611898
222	0xba4e8d9f	-0.00078793796
223	0x37b561d6	2.162244e-05
224	0x3a1fa73c	0.00060902885
225	0x3a20dc6b	0.00061363605
226	0xb8871546	-6.441264e-05
227	0xb916d7b0	-0.00014385465
228	0xba431aec	-0.00074426713
229	0xba82186f	-0.0009925495
230	0x3a2b09a2	0.0006524568
231	0xb8b8dc7b	-8.8148714e-05
232	0x39d08407	0.0003977122
233	0x385fb370	5.3334457e-05
234	0x37cd9032	2.450505e-05
235	0xb9cf5455	-0.0003954495
236	0x3a37c3b3	0.00070100575
237	0xb96e2643	-0.00022711702
238	0xb90bc375	-0.00013328886
239	0x3a2ee0da	0.0006671079
240	0xb9ff0e88	-0.00048648217
241	0xba0dff58	-0.00054167723
242	0xba0a58a4	-0.0005277491
243	0xba2bb3ad	-0.0006549906
244	0xb8c0e843	-9.1985356e-05
245	0x3a575c2f	0.00082153355
246	0x3929dc3b	0.00016199138
247	0x3a2bdbf0	0.00065559056
248	0x3a2d0ffb	0.00066018075
249	0xba6d4fc7	-0.000905272
250	0x3a3fd463	0.000731772
251	0x372227c0	9.6652075e-06
252	0x3a1d2a6f	0.0005995398
253	0x39201595	0.00015266829
254	0xba224bb0	-0.0006191088
255	0x3a358e71	0.00069258275

gcn_convs.0.path_weight_2.bias f4 [32]
0	0x3c3ae14e	0.011406256
1	0xbf01962d	-0.50619775
2	0x3c1bf522	0.009518893
3	0x3e9e09c9	0.3086684
4	0x3f4f6c15	0.81024295
5	0xbdf4493f	-0.11928033
6	0xbc7a0ac1	-0.015261353
7	0xbdeef79a	-0.1166832
8	0xbf510f08	-0.8166356
9	0x3f4f35c8	0.8094144
10	0x3d58e03b	0.052948218
11	0x3e836bef	0.25668284
12	0x3c9c0967	0.019047452
13	0xbe6e2700	-0.23257065
14	0x3f5823d5	0.84429675
15	0x3f3bcacd	0.73356324
16	0xbf13efef	-0.57787985
17	0x3d0dd966	0.034631155
18	0xbf2eea50	-0.6832628
19	0x3f16c8bd	0.5890005
20	0xbf5755f2	-0.8411552
21	0x3f7b6f88	0.9821706
22	0x3c53cbce	0.012927009
23	0x3c6497c8	0.013952203
24	0x3f62a4f5	0.88532954
25	0xbeb92c93	-0.3616682
26	0x3df0b6d0	0.11753619
27	0x3ece0672	0.40239292
28	0x3e10bb10	0.14133859
29	0xbc75224b	-0.014961789
30	0xbeea7f3f	-0.45800206
31	0x3f4dc341	0.8037606

gcn_convs.1.path_weight_1.weight f4 [32, 32]
0	0x3ad92dee	0.0016569474
1	0xbb4647b6	-0.0030255145
2	0x3a572b1c	0.0008208023
3	0xbad533ab	-0.0016266009
4	0xbb0b1250	-0.0021220632
5	0xb99adc31	-0.00029537224
6	0x3b556780	0.0032562912
7	0xbb40b698	-0.002940571
8	0x3af86e9e	0.0018953865
9	0xbaefef82	-0.0018305632
10	0xbaa2e804	-0.0012428765
11	0x3a3e8a3d	0.0007268524
12	0xba07bab7	-0.0005177664
13	0x3a26dcee	0.00063653185
14	0x3ade90e6	0.0016980439
15	0xb9094b3a	-0.00013093362
16	0xb8ed8278	-0.00011325342
17	0xb780652d	-1.5305903e-05
18	0xba276a63	-0.0006386397
19	0x3a0f2fb5	0.0005462126
20	0x3b3f4abd	0.0029188835
21	0xbb570e39	-0.0032814874
22	0x3b6327ff	0.003466129
23	0xbacc5f91	-0.0015592446
24	0xb88e0bd3	-6.77329e-05
25	0x3b3fd7eb	0.0029272984
26	0xbb4e7563	-0.0031503073
27	0x3ac382b9	0.0014916278
28	0xba8189c9	-0.0009882982
29	0x3aca69bc	0.0015442888
30	0xbb2b8f32	-0.002617788
31	0xbb2713b7	-0.0025493929
32	0xba4e5d1f	-0.00078721525
33	0xbaa6f479	-0.0012737653
34	0x3afa5998	0.0019100187
35	0xba3e3903	-0.000725642
36	0xbb0a8a4f	-0.0021139567
37	0xbb0355e5	-0.002004021
38	0x3987a4a4	0.00025871873
39	0x3b0f7072	0.002188709
40	0x39c655a0	0.00037829299
41	0xba896d3b	-0.0010484824
42	0x3a1383d0	0.00056272466
43	0xbaf2680e	-0.0018494145
44	0xba1cc597	-0.0005980371
45	0xbabedfd8	-0.001456256
46	0xbb34edde	-0.00276076
47	0xba0a4911	-0.000527517
48	0x3a0aa1ed	0.0005288411
49	0xb974013a	-0.0002327011
50	0xbab29e1a	-0.001362744
51	0xbb0d8b85	-0.0021598053
52	0x3a9e06d0	0.0012056474
53	0xba9ec5f9	-0.0012113444
54	0x39d80d4d	0.0004120864
55	0x39e284f3	0.00043205134
56	0xba5c5609	-0.0008405154
57	0xba0f47a4	-0.00054656924
58	0xbad9c883	-0.0016615543
59	0x3aeb0b6c	0.0017932481
60	0x3a92ca95	0.001119929
61	0xba76a68a	-0.00094089715
62	0xb99712e6	-0.00028815045
63	0x3885b347	6.375327e-05
64	0x3a41f859	0.00073993724
65	0xba697d7b	-0.00089069427
66	0xbb578f5a	-0.003289184
67	0xb8dc7fba	-0.000105142084
68	0xbaf4321f	-0.001863066
69	0xbaa15410	-0.0012308378
70	0xbadd549d	-0.0016886179
71	0x3aff3842	0.0019471722
72	0x3a579f02	0.0008225293
73	0x3984aab8	0.00025304197
74	0xbb88fd5c	-0.0041805934
75	0xbb06b07d	-0.0020551973
76	0x396810c5	0.00022131491
77	0x39ef44f5	0.0004563701
78	0x39f24e12	0.00046216004
79	0xbb395186	-0.0028277352
80	0xbad8f2db	-0.0016551869
81	0x3ac31868	0.0014884593
82	0x3b783845	0.0037875336
83	0xba8a44b0	-0.0010549035
84	0x3b3ba1f6	0.0028630472
85	0x398cf5a0	0.00026885886
86	0xbb000fe3	-0.001954072
87	0xbaa190a6	-0.0012326434
88	0xbadb5020	-0.0016732253
89	0x3b81b9bf	0.0039589102
90	0xb91130d9	-0.00013846475
91	0xbb2ae023	-0.0026073537
92	0x3b1ebe43	0.0024222292
93	0xba828853	-0.0009958841
94	0x3b2d666c	0.0026458753
95	0x3936a83a	0.00017419542
96	0x3a9fd7ee	0.0012195089
97	0xb8b71a5a	-8.731028e-05
98	0xbb0561f8	-0.0020352583
99	0x3b241fae	0.0025043297
100	0xbada9494	-0.001667636
101	0x39a8900c	0.0003215078
102	0x3ad16f0c	0.0015978529
103	0xb8ff45b0	-0.00012172328
104	0x3b35cfb6	0.0027742214
105	0x39c5ca6d	0.00037725587
106	0x3af0d42a	0.0018373777
107	0x3aadd9b0	0.0013263728
108	0xba86c5f0	-0.0010282379
109	0xb9d834cc	-0.00041238067
110	0xb948aaf2	-0.00019137168
111	0x39a78367	0.00031950625
112	0xba1779af	-0.0005778325
113	0x387e9557	6.0697403e-05
114	0x3b03e864	0.002012753
115	0xba8aa2a5	-0.0010577036
116	0x3ad0d2db	0.001593198
117	0x3a9de21a	0.0012045533
118	0x3ac0a169	0.0014696541
119	0xbb014aaf	-0.0019728353
120	0x3953ca90	0.00020197988
121	0x3aee63c7	0.0018187695
122	0x3abe8185	0.001453445
123	0xbae8a34c	-0.0017748862
124	0x3ad3d868	0.0016162517
125	0xba4d8b35	-0.0007840873
126	0xba8d1235	-0.0010762872
127	0xba5f010a	-0.000850693
128	0x38f41ed0	0.00011640566
129	0xbb234b39	-0.0024916662
130	0x3b5ce9f4	0.0033708783
131	0xbb3a764d	-0.002845186
132	0x39006930	0.00012246217
133	0x3ac7cf80	0.0015244335
134	0xba99b458	-0.001172672
135	0x3aa0bee0	0.0012263916
136	0x395310eb	0.0002012883
137	0x3b42a6b3	0.0029701411
138	0x3aba2bf6	0.0014203775
139	0x3ac57f80	0.0015067905
140	0x3a3276f4	0.00068078865
141	0xb88a4088	-6.592373e-05
142	0xba4b00f3	-0.0007743977
143	0xbb253809	-0.0025210402
144	0xb984f808	-0.000253618
145	0x3afd0c36	0.0019306007
146	0xba02e24d	-0.0004992828
147	0xba5bc5ec	-0.00083836797
148	0xba698cc0	-0.0008909218
149	0x3b553594	0.0032533156
150	0x3b0bdcfc	0.0021341434
151	0xbada4573	-0.0016652778
152	0x3acf9969	0.0015838566
153	0xba898bca	-0.0010493931
154	0x39a8938c	0.00032153388
155	0xbb177c0d	-0.0023114712
156	0xbb6ec1cf	-0.0036431437
157	0x3ab46a24	0.0013764543
158	0xbae1765c	-0.0017201412
159	0xbade4430	-0.0016957577
160	0xba864a04	-0.0010245447
161	0xbac3ea47	-0.001494714
162	0x3b74b92c	0.0037341816
163	0x3af04b24	0.001833294
164	0xbb4a3b09	-0.0030857942
165	0x3b091499	0.0020916818
166	0x3a4d4de7	0.0007831738
167	0xbb909dc1	-0.004413337
168	0x3b5c2d68	0.00335964
169	0xbac210f3	-0.0014806077
170	0x3a9f852c	0.0012170426
171	0xbb3dabd6	-0.0028941534
172	0xba8c1088	-0.0010686079
173	0xba60af96	-0.0008571086
174	0xbb047a52	-0.002021451
175	0xbb2d314c	-0.0026427088
176	0x3b3f4964	0.0029188031
177	0xbabb0930	-0.0014269706
178	0x3ac9d7bd	0.0015399378
179	0x3a67473b	0.0008822565
180	0xba949335	-0.0011335375
181	0xbb78a631	-0.0037940855
182	0xb95ec3e4	-0.00021244545
183	0x38641869	5.438217e-05
184	0x3abad8b9	0.0014255262
185	0xbb0c713a	-0.0021429793
186	0xbb18b77f	-0.0023302732
187	0xbaa0328a	-0.0012222093
188	0xbb30565c	-0.0026906943
189	0x3ac06261	0.0014677757
190	0xbb2c4647	-0.0026287006
191	0xbb35a580	-0.0027717054
192	0xbaefea48	-0.0018304074
193	0xba461990	-0.00075569097
194	0x3a52cc0d	0.000804127
195	0x39ee2581	0.0004542284
196	0x39bd2138	0.0003607364
197	0x3ad9b311	0.0016609152
198	0x3a63b2a5	0.0008685983
199	0x3a949085	0.0011334574
200	0xb9e50ea3	-0.0004368919
201	0xba376659	-0.0006996147
202	0xba8933a3	-0.001046766
203	0xba0671da	-0.00051286595
204	0x3b0300ab	0.0019989412
205	0xba22984b	-0.0006202503
206	0xbb2e9b8d	-0.0026643008
207	0xbaa08c1c	-0.0012248787
208	0xbaf78ff6	-0.0018887508
209	0xba0f4bfa	-0.00054663385
210	0xb9ad0086	-0.0003299752
211	0xba2be91c	-0.00065578683
212	0xba47656c	-0.00076063606
213	0x3a3f3672	0.0007294185
214	0xba85e138	-0.0010214215
215	0xbb01cb24	-0.001980492
216	0xbb3547e0	-0.002766125
217	0xbb2a2f87	-0.002596827
218	0xba88dae6	-0.0010441213
219	0x3982427b	0.00024845064
220	0x36d2c49b	6.2813756e-06
221	0x3a04f84d	0.00050724
222	0xbaedea91	-0.0018151571
223	0xbb05501b	-0.0020341936
224	0xb98116bc	-0.00024621736
225	0x3aa2c624	0.001241867
226	0xba3b92f5	-0.0007155382
227	0xbadc82d6	-0.001682366
228	0x3ad48b8c	0.0016215905
229	0x38922ab6	6.969778e-05
230	0xb9babb32	-0.00035616156
231	0xbaf7fb40	-0.0018919483
232	0xbac08ddb	-0.0014690714
233	0xbb21710a	-0.0024634027
234	0xbac39fdf	-0.0014924965
235	0xb82ec5d0	-4.166906e-05
236	0x3b235187	0.002492042
237	0x3a2b3c2c	0.00065320986
238	0xb9a62394	-0.00031688495
239	0xb9f90a67	-0.0004750073
240	0xbae84f6e	-0.0017723867
241	0xbacc4621	-0.0015584865
242	0x3985f70b	0.00025551798
243	0xb8d9488f	-0.000103608814
244	0xba26694b	-0.00063480873
245	0x3afc4b64	0.0019248542
246	0x3a90e875	0.0011055606
247	0xba593a5c	-0.0008286589
248	0xbb07886e	-0.0020680684
249	0x3a4754a1	0.0007603858
250	0xbb1eb195	-0.0024214734
251	0xba876140	-0.0010328665
252	0x3a944c34	0.0011314214
253	0x3adb8ab6	0.0016749713
254	0xb9ce7921	-0.0003938163
255	0xba7a42b9	-0.00095466856

gcn_convs.1.path_weight_1.bias f4 [32]
0	0xbd093aa8	-0.033503205
1	0xbc5fc2e6	-0.013657307
2	0x3d13c95d	0.036080707
3	0xbadd536a	-0.0016885821
4	0xba24d2a3	-0.0006287491
5	0x3c2ee691	0.0106750885
6	0xbc8643e6	-0.016389798
7	0xbc87dc8b	-0.016584655
8	0xbb845963	-0.004038976
9	0x3caa3b30	0.020780176
10	0xbcc589dd	-0.02411359
11	0x3c325bdc	0.010886159
12	0x3dbad6bb	0.09122988
13	0xbc5202ac	-0.01281802
14	0xbcea9a6b	-0.028638085
15	0x3d2c4b9f	0.042064305
16	0x3e4035c8	0.18770516
17	0x3afadffb	0.0019140238
18	0xbd9313ee	-0.07181536
19	0x3c94b5ac	0.018153034
20	0x3c86cda9	0.016455488
21	0xbeaa5233	-0.33265838
22	0xbcc338e8	-0.023830846
23	0x3b8bc5b6	0.0042655123
24	0xbbd3e8d2	-0.0064669633
25	0x3c86d770	0.01646015
26	0xbd81ac41	-0.06331683
27	0x3c78731f	0.015164166
28	0x3ccb367f	0.02480626
29	0xbd222db4	-0.039594367
30	0xbc924123	-0.017853325
31	0xbbe2254d	-0.0069014193

gcn_convs.1.path_weight_2.weight f4 [32, 32]
0	0x3bd773a7	0.006575066
1	0x3a2c3775	0.0006569543
2	0x3de95bc2	0.113944545
3	0xbb10a36b	-0.002207006
4	0x3f0140f5	0.5048974
5	0x3c3eb8ae	0.011640711
6	0xbc874a5e	-0.016514953
7	0xbddc67a3	-0.10761955
8	0xbe1fe9d2	-0.15616539
9	0x3f1de693	0.61679953
10	0xbae58157	-0.001750986
11	0x3bbd3ac3	0.005774827
12	0xbdee2266	-0.11627655
13	0xbe018cfc	-0.12651438
14	0xbc13bc3b	-0.009017046
15	0xbb6a2101	-0.0035725238
16	0xbec58c92	-0.3858381
17	0xbc53b5f7	-0.012921802
18	0x3bf25424	0.0073952843
19	0x3e1e4c75	0.15458854
20	0xbe568168	-0.20947802
21	0x3d0236e5	0.031790633
22	0xbb6d398e	-0.0036197635
23	0xbc843d2e	-0.016142454
24	0x3d85c449	0.06531579
25	0x3c26388a	0.010145316
26	0xbbb62b82	-0.0055593858
27	0x3b091d18	0.0020921882
28	0x3ada1dff	0.001664102
29	0x3be2fbd2	0.006926992
30	0xbbedb049	-0.007253681
31	0x3f0afb26	0.5428947
32	0x3bbb1fe8	0.0057105906
33	0xbb04cae4	-0.0020262534
34	0xbbab7678	-0.0052326284
35	0xbc0ee822	-0.008722337
36	0xbb69ba05	-0.0035663855
37	0xbbdf0fee	-0.006807319
38	0xbc6a2976	-0.014292112
39	0xb9307619	-0.00016828663
40	0x3afe2d45	0.0019392153
41	0x3a580bb2	0.0008241489
42	0x3c5015d2	0.012700515
43	0xbb6a6cf5	-0.003577051
44	0xbb6a6427	-0.0035765262
45	0xbc690d02	-0.014224293
46	0xb9a2558f	-0.00030962794
47	0xbb875643	-0.0041301562
48	0xbba22084	-0.004947724
49	0xbc176ba1	-0.009241969
50	0x39c1f02a	0.00036990765
51	0xbcdbfb15	-0.026853124
52	0x3bda9b2d	0.0066713304
53	0x399e0845	0.0003014227
54	0x3c097232	0.008389043
55	0xbc2dfc52	-0.01061924
56	0xbb056bdf	-0.0020358486
57	0xbc6d6a98	-0.014490746
58	0xbb620151	-0.0034485648
59	0xbbae6d9a	-0.005323124
60	0x3ac50e0c	0.0015034094
61	0xbbaf4d46	-0.005349788
62	0x3b97949d	0.0046258704
63	0x3c2a72d5	0.010403355
64	0xbb57d2bf	-0.003293201
65	0x3c491c08	0.01227475
66	0x3b83796a	0.0040122764
67	0x3b269a83	0.0025421686
68	0xbca37ac6	-0.019956004
69	0x3c811671	0.015757771
70	0xbb50c130	-0.003185343
71	0xba9ff617	-0.0012204078
72	0x3dc039cf	0.09386026
73	0xbcd0c613	-0.025485074
74	0x3be1ff6d	0.006896904
75	0xbd5d4d4f	-0.054028805
76	0x3d37c93a	0.04486964
77	0xbde2ba21	-0.110706575
78	0xbe154bd2	-0.14579704
79	0x3c863482	0.01638246
80	0x3f136b03	0.5758516
81	0x3c8475e1	0.01616949
82	0x3eb4a480	0.35281754
83	0x3b7985f2	0.0038074222
84	0x3e0f43b1	0.13990666
85	0xbbca8e1b	-0.006181491
86	0xbc85f0eb	-0.01635023
87	0xbe8362c4	-0.2566129
88	0x3c1aac09	0.00944043
89	0x3bc9f80f	0.006163604
90	0x3c00a0b3	0.007850814
91	0x3c2ba5f9	0.010476583
92	0xbcf39e24	-0.029738493
93	0xbd2acfbf	-0.04170203
94	0xbc0dd411	-0.008656518
95	0x3dd0f6f9	0.10203356
96	0x3c38e271	0.011284457
97	0xbc45c63e	-0.01207119
98	0x3cc21930	0.023693651
99	0xbcff1e8e	-0.0311425
100	0xbacd592e	-0.0015666836
101	0x39dfa40e	0.00042656105
102	0xbba4eec3	-0.0050333454
103	0x3b4d76f7	0.0031351426
104	0x3c00b372	0.007855283
105	0x3cabd9ba	0.020977844
106	0x3ca70013	0.020385778
107	0xbca3981a	-0.019969989
108	0x3b31890a	0.0027089738
109	0xbca36f68	-0.019950584
110	0xbc0601ee	-0.008179171
111	0xbbdd6168	-0.0067559965
112	0x3ab70889	0.0013964336
113	0xbc2ad4da	-0.010426724
114	0x3c851eb7	0.016249998
115	0xbc32cabf	-0.010912596
116	0xbcb54766	-0.022128772
117	0xb80f7ae3	-3.4208304e-05
118	0x3b5c5bf9	0.0033624156
119	0xbc20cb51	-0.009814099
120	0x3a8598f5	0.001019268
121	0xbb888cf1	-0.004167192
122	0xbcc4d7dd	-0.024028713
123	0xbc3f5bb7	-0.011679581
124	0x3bd99048	0.006639514
125	0x3c19dd84	0.009391192
126	0x3b26c784	0.002544851
127	0xb9897530	-0.00026217988
128	0xbb6533d7	-0.0034973526
129	0x3c0d8dd4	0.0086397715
130	0xbb18008d	-0.0023193688
131	0x3c20eb3b	0.009821708
132	0xbc4b878c	-0.012422454
133	0xb9d14954	-0.0003991822
134	0xbc0cf8bb	-0.008604224
135	0xbbb6043a	-0.005554703
136	0xbc30cba0	-0.0107907355
137	0xbca9d09c	-0.020729356
138	0x3a8e994b	0.0010879425
139	0x3bd35441	0.006449253
140	0x3bb234e5	0.0054384344
141	0x3c303356	0.010754427
142	0x39e53ea2	0.0004372495
143	0x3b108f74	0.002205816
144	0xbbf1413f	-0.0073625143
145	0x3bc520e0	0.006015882
146	0xbb47ff7c	-0.003051727
147	0xbac12ae1	-0.001473751
148	0x3c8e601c	0.017379813
149	0x3bb7c88a	0.005608623
150	0x3bd51251	0.0065024276
151	0xbb4eda7a	-0.0031563328
152	0xbbe8251f	-0.0070845033
153	0x3a3751b9	0.00069930736
154	0x3bcba325	0.0062145167
155	0x3bbc38a0	0.005744055
156	0xbbb8b16f	-0.005636386
157	0xba3d5a46	-0.00072232296
158	0x3bd58952	0.006516614
159	0x3c5eefef	0.013607009
160	0xbc6e9af4	-0.014563311
161	0x3b80ed53	0.0039345413
162	0x3a98d3e1	0.0011659825
163	0x3bfb6ab8	0.007672634
164	0xba16f4fe	-0.00057585526
165	0x3b77eded	0.0037831024
166	0x3c51880f	0.012788787
167	0x3c3004b7	0.010743312
168	0xbb880533	-0.0041510104
169	0x3bc3fce0	0.005981073
170	0xbc06ed56	-0.008235296
171	0xbc936789	-0.017993705
172	0x3c11caa7	0.008898414
173	0x3cca3db0	0.024687618
174	0xbba9fccf	-0.005187608
175	0xbbee56c6	-0.007273528
176	0xbc31086e	-0.010805232
177	0x3c4d0cf7	0.012515298
178	0xbc2ff237	-0.010738901
179	0xbbc5ad3d	-0.0060326145
180	0x3b341ae2	0.0027481844
181	0x3b97b898	0.0046301596
182	0xbbdb30c5	-0.0066891634
183	0xbc954a9e	-0.018224057
184	0x3caca8c0	0.02107656
185	0x3b805790	0.0039166883
186	0xba8fa9d6	-0.0010960649
187	0x3b8c9ecd	0.0042913915
188	0x3c4feb90	0.01269044
189	0x3b458e5b	0.0030144665
190	0x3bc85199	0.006113243
191	0x3bcf34d8	0.006323438
192	0x3a3ad283	0.00071267056
193	0xbb8f9c88	-0.0043826737
194	0x3b358d6f	0.002770271
195	0xbb474bd0	-0.0030410178
196	0x3c959a52	0.018262062
197	0xbb972717	-0.004612814
198	0x3ce2f0b4	0.027702667
199	0xbbd7e533	-0.006588602
200	0xbc929b81	-0.017896416
201	0x3d035257	0.032060947
202	0x3e12a442	0.14320472
203	0x3c00ec0a	0.007868776
204	0xbcb3a470	-0.021928996
205	0x3ca901cf	0.020630745
206	0xbb934348	-0.0044941045
207	0x3c7dc51d	0.01548889
208	0x3dfc7672	0.12327279
209	0xbcba99e0	-0.022778451
210	0xbca4ec4f	-0.020132212
211	0x3cccf1bd	0.025017614
212	0x3bc18c8e	0.005906648
213	0xbb92f490	-0.0044847205
214	0x3b972112	0.0046120966
215	0x3a1c647e	0.0005965902
216	0xbb81d9b1	-0.0039627184
217	0x3cb70d4a	0.022345204
218	0x3b6ff6e6	0.0036615669
219	0xbbb322d1	-0.005466797
220	0x3c9e0f52	0.019294415
221	0x3ccdc5d7	0.025118751
222	0xbc16d4c3	-0.009206
223	0x3bddce75	0.0067689964
224	0x3bba60f1	0.005687826
225	0xbbcfa997	-0.0063373554
226	0x3ca0c797	0.019626422
227	0xbd05bd13	-0.03265102
228	0x3c2f3230	0.010693118
229	0x3b40cb3e	0.0029418017
230	0x3c4ac176	0.012375226
231	0x3c7f2a4b	0.015574048
232	0x3c93789e	0.01800185
233	0x3cf0c28d	0.029389644
234	0xbca78fc2	-0.020454291
235	0x3cfb94a0	0.030710518
236	0xbded8267	-0.11597138
237	0x3c066867	0.008203602
238	0x3aac437b	0.0013142669
239	0x3ba64b58	0.0050748996
240	0xbd1560b8	-0.03646919
241	0x3c473766	0.012159204
242	0xbc6a56bf	-0.014302908
243	0x3d00a673	0.03140874
244	0x3bd64eb6	0.006540145
245	0x3b3bf980	0.002868265
246	0x3b84bd51	0.0040508886
247	0x3c91f8bc	0.017818801
248	0x3a524801	0.00080215937
249	0x3b5c2e84	0.0033597061
250	0xbacfd8ee	-0.0015857497
251	0xbb578773	-0.003288713
252	0xbb322716	-0.0027183942
253	0x3c852a0d	0.016255403
254	0x3a66ecf5	0.0008809113
255	0x3c688f7a	0.014194364

gcn_convs.1.path_weight_2.bias f4 [32]
0	0xbc5d8a41	-0.013521732
1	0x3d127069	0.035751734
2	0xbcca0b50	-0.024663597
3	0xbbb837e0	-0.005621895
4	0xbb1cffe7	-0.002395624
5	0x3b577069	0.0032873398
6	0x3b94f963	0.004546331
7	0xbd02f20b	-0.03196911
8	0xbca8de5a	-0.020613838
9	0xbd7b51c0	-0.06135726
10	0xbbaf14d4	-0.005343059
11	0xba882c66	-0.0010389208
12	0xbe52dc92	-0.20591953
13	0x3c4316e7	0.011907316
14	0xbbf26fca	-0.00739858
15	0x3d2d6761	0.042334918
16	0xbc17d220	-0.009266406
17	0x3bc981a3	0.006149487
18	0x3b92a061	0.004474685
19	0xbd627884	-0.055290714
20	0x3ce76dd8	0.02825062
21	0x3d093bac	0.033504173
22	0xbc3e60c1	-0.011619748
23	0xbb286f58	-0.0025701132
24	0xbc1ccee0	-0.009570807
25	0x3c5ef927	0.013609207
26	0xbd70754e	-0.05870562
27	0xbc31372b	-0.010816376
28	0x3e3ca3c4	0.18421847
29	0xbd29a15d	-0.041413654
30	0xbcbc45fb	-0.022982588
31	0x3ca960a1	0.020675959
