fully-supervised/saved_models/cora_8_layers_.pt (torch, 664521 bytes, 52 tensors)

trans_feat.weight f4 [64, 1433]
000000 8e e1 30 39 ec 4c 5b b9 fe 01 c1 38 62 18 56 b9
       0.00016868694 -0.00020914123 9.203328e-05 -0.00020417714
000010 f7 71 a8 39 2f df a6 39 a3 dd a7 39 c7 33 0e b9
       0.00032128367 0.00031828272 0.00032017854 -0.00013561464
000020 e2 7a bf b9 5a 6c f9 37 20 e5 07 39 cc 54 fa b8
       -0.00036521914 2.9733568e-05 0.00012959959 -0.000119367236
000030 2d d0 c7 b8 34 1e 85 38 4a f1 67 b9 b0 15 63 b9
       -9.527835e-05 6.34756e-05 -0.00022119764 -0.00021656486
000040 bd 99 8b b9 24 f7 da 38 04 19 fa 38 72 22 98 39
       -0.0002662669 0.000104410836 0.000119255885 0.00029017363
000050 26 51 02 b9 19 c7 8a 37 1c c0 bc b8 6a 56 22 39
       -0.00012427996 1.6543594e-05 -9.000322e-05 0.00015481716
000060 ae c9 18 b8 66 26 a7 38 e6 bf a5 b9 f4 af 5f b9
       -3.6427453e-05 7.970333e-05 -0.00031614228 -0.00021332485
000070 cf 85 6d 39 82 a2 25 b9 b0 e0 1a b9 dc 02 40 39
       0.00022651929 -0.00015796165 -0.00014770287 0.00018311612
000080 16 f2 08 b9 60 a3 2b b7 cf 2e 31 39 f4 38 66 37
       -0.00013060155 -1.0230433e-05 0.00016897473 1.3722329e-05
000090 32 9c 1f b9 4e 12 f4 38 c8 74 44 b9 f1 8f 81 39
       -0.00015221609 0.00011638236 -0.00018735521 0.00024712042
0000a0 e4 0d ae 39 e8 c8 b0 38 68 4b 1c 38 4d 7c 40 39
       0.00033198216 8.429756e-05 3.7263526e-05 0.00018356853
0000b0 ef 1f 8c b9 dc 0d 45 38 3c e7 49 39 c3 5c 82 39
       -0.00026726673 4.6981368e-05 0.00019254995 0.00024864645
0000c0 4d c8 83 b9 fa a9 75 b8 27 12 24 39 54 bd 6f b9
       -0.00025135503 -5.8570855e-05 0.00015647021 -0.00022863346
0000d0 88 ff c8 b9 ca 4e 55 38 f2 74 ad b8 be cd e5 b8
       -0.00038337358 5.0856535e-05 -8.2710656e-05 -0.000109578934
0000e0 cb 99 0e 39 85 a5 41 39 64 84 9f 37 a8 98 02 3a
       0.00013599468 0.00018467575 1.9015926e-05 0.0004981854
0000f0 22 d8 34 38 8f 9f ba 38 92 16 45 39 a4 29 a9 38
       4.3116634e-05 8.898891e-05 0.00018795792 8.066304e-05
000100 c5 56 81 b9 86 fa 81 39 96 eb 18 b9 0b 14 8f 39
       -0.00024669446 0.00024791452 -0.00014583612 0.0002729002
000110 74 a3 42 38 35 af 3e 39 f6 e7 b8 b9 84 31 71 b9
       4.6405432e-05 0.00018185082 -0.0003526804 -0.00023001997
000120 86 63 ed 39 a7 70 19 b9 93 7d e7 38 e7 96 5a 38
       0.00045278313 -0.00014633183 0.000110383284 5.211579e-05
000130 98 32 9f 38 80 d5 08 39 90 ca 12 b9 23 47 ec b7
       7.5911346e-05 0.00013049506 -0.00013999105 -2.8166518e-05
000140 68 34 a4 36 8a 92 12 39 c8 47 d2 38 1a 76 66 b9
       4.8936818e-06 0.00013978235 0.000100269506 -0.00021978506
000150 6d 9c ef 38 55 99 62 39 ab b3 af b9 d9 74 11 3a
       0.00011425545 0.0002161016 -0.00033512464 0.00055487227
000160 ef 41 70 b9 bf 36 c2 38 ab 21 44 39 38 65 6d b8
       -0.00022912746 9.260838e-05 0.00018704559 -5.659947e-05
000170 13 2c 86 b8 a3 31 06 3a a6 d4 81 39 75 0d 0c 39
       -6.3978274e-05 0.0005119091 0.00024763233 0.00013356454
000180 06 a3 b4 b9 19 9b c3 b9 4a b1 4b 39 ac 53 83 39
       -0.00034453737 -0.00037308855 0.00019425634 0.00025048607
000190 30 60 bd 37 70 19 15 b8 6c 20 ee b8 bb ed 80 39
       2.2575347e-05 -3.554806e-05 -0.000113547634 0.00024591186
0001a0 a6 13 2d b9 79 3d 68 b9 15 fc e4 38 94 28 1b 38
       -0.00016505885 -0.00022148144 0.00010918841 3.699267e-05
0001b0 26 f3 eb 38 60 21 e9 36 2e 04 09 b9 78 12 ce 36
       0.00011250963 6.9478265e-06 -0.00013066895 6.1414285e-06
0001c0 d0 80 68 b9 ee 1d 0b 39 24 8c a3 b8 2b 4f 3c b7
       -0.0002217323 0.00013267223 -7.798549e-05 -1.1224106e-05
0001d0 42 60 9d 38 93 a4 2a 39 e6 d1 45 b9 ed 40 02 39
       7.504273e-05 0.00016273772 -0.00018865577 0.00012421953
0001e0 d7 11 82 b9 48 b5 e1 38 89 23 d3 b8 a6 bd 7c 38
       -0.00024808824 0.00010762602 -0.00010067883 6.0258106e-05
0001f0 f8 12 7b b8 c6 b9 37 b9 b3 7b f7 b9 1c f4 5a 38
       -5.986073e-05 -0.00017521446 -0.00047203674 5.2202595e-05
000200 f1 97 30 b9 79 13 ca b9 cf b2 7d b9 ea 80 f6 39
       -0.0001684127 -0.0003854295 -0.00024194572 0.00047016825
000210 16 77 49 3a 79 82 8f b9 cf f0 59 38 54 97 d9 b9
       0.00076852867 -0.00027372295 5.1961102e-05 -0.00041502214
000220 19 04 bf 39 a5 75 37 b8 2b 1a 85 38 02 22 17 b9
       0.00036433412 -4.3740165e-05 6.3468084e-05 -0.00014413151
000230 b8 03 80 b9 f9 5b 3a b9 ac 3f 37 b9 bc 4a da 39
       -0.00024416833 -0.00017772605 -0.0001747596 0.00041635882
000240 00 16 ec b6 44 8c f5 b7 4d 63 20 39 b4 41 61 39
       -7.035909e-06 -2.9271592e-05 0.00015295781 0.00021482148
000250 44 a2 48 38 e5 85 8a 37 26 82 8b b7 f4 12 91 39
       4.7834837e-05 1.6513231e-05 -1.6630696e-05 0.00027670676
000260 30 5f fa b6 f7 70 10 b9 51 60 cc 38 8c b8 d5 39
       -7.461662e-06 -0.00013774993 9.745418e-05 0.00040764024
000270 d4 62 24 39 d0 67 8b 36 10 32 2d b8 84 ca bd 38
       0.00015677075 4.154608e-06 -4.129304e-05 9.049944e-05
000280 64 52 bf b8 93 c6 17 39 ae c6 41 39 98 ee cf 36
       -9.122936e-05 0.00014474457 0.00018479928 6.1968567e-06
000290 90 c9 a1 b8 6a d2 05 b8 35 36 4f b9 2e d3 d7 b8
       -7.714622e-05 -3.1905634e-05 -0.00019761252 -0.00010291334
0002a0 34 2c 03 39 5a 3b 72 39 a7 64 1b 39 7c f1 fd b7
       0.000125096 0.00023101029 0.00014819448 -3.02724e-05
0002b0 8c 64 2b 39 0e 71 5b 39 fc 4c 08 b9 f8 6b 15 b8
       0.00016345287 0.00020927584 -0.0001299865 -3.5624922e-05
0002c0 01 26 e9 b8 78 df 75 b8 78 e9 17 37 fd 93 a5 38
       -0.000111173846 -5.8620673e-05 9.05466e-06 7.895378e-05
0002d0 50 b4 c0 38 70 0d 69 37 1d a7 b7 b9 0e ad d4 38
       9.188859e-05 1.3891011e-05 -0.0003502899 0.00010141182
0002e0 50 cf dc 37 78 3b 91 b7 68 b1 93 39 20 4c 95 b9
       2.6322581e-05 -1.731304e-05 0.00028170203 -0.00028476212
0002f0 4d eb 12 39 70 57 aa b8 06 3d 3a 39 10 dc 30 b9
       0.00014011301 -8.122518e-05 0.00017761075 -0.00016866648
000300 8e 1b 5e b9 d5 9c dd 37 e3 c2 39 39 57 7e f1 b8
       -0.00021181835 2.6418284e-05 0.00017715576 -0.00011515308
000310 de 2a bf 37 ba 60 c3 38 8c 16 8f 38 50 9d 31 39
       2.2788936e-05 9.316341e-05 6.822971e-05 0.00016938639
000320 64 c1 08 37 9e ec 94 38 df bd 0d 39 12 95 b6 39
       8.151259e-06 7.101263e-05 0.0001351754 0.0003482481
000330 e9 a8 31 39 38 d0 da 39 70 78 0e 39 3b fd 2a 39
       0.0001694296 0.00041735335 0.00013587042 0.00016306799
000340 9f a2 b5 38 88 5a 61 38 68 b4 5a b9 48 fe 85 39
       8.661043e-05 5.3728494e-05 -0.00020857307 0.0002555719
000350 d8 49 f5 38 c3 8a 66 b8 02 d3 53 38 24 2c 22 39
       0.00011696265 -5.4965505e-05 5.0502837e-05 0.00015465968
000360 1e 22 9d 38 18 b6 95 b8 6a 1e 96 ba fc fa 3a 39
       7.492698e-05 -7.138791e-05 -0.0011453156 0.00017831841
000370 5f 76 47 39 71 52 1e b9 28 4f a3 39 fc a8 d6 b8
       0.00019022216 -0.00015098766 0.0003114876 -0.00010235791
000380 9c 99 49 39 b5 5f 98 39 0a c7 eb 37 c8 ab 21 39
       0.00019226078 0.00029063007 2.8106868e-05 0.0001541815
000390 b0 d7 96 38 b6 b2 15 b9 a4 96 f3 b8 5e 07 b0 b7
       7.192732e-05 -0.00014276322 -0.00011615202 -2.0984266e-05
0003a0 be 2e 87 b7 d4 91 f1 b9 44 72 2b b9 59 4b c8 b8
       -1.611502e-05 -0.00046075752 -0.00016350398 -9.550778e-05
0003b0 00 8a ef b8 20 5d 4f b8 6b 5f 0d ba ad 18 8a 38
       -0.000114221126 -4.9439375e-05 -0.00053929415 6.584949e-05
0003c0 58 5b 01 b9 80 86 c0 b7 23 5a 8e 38 e7 59 8d b9
       -0.00012336427 -2.2950815e-05 6.787877e-05 -0.00026960598
0003d0 0a 8e 39 39 b9 d9 b5 38 21 73 a2 38 75 4a cd b8
       0.00017695889 8.6713066e-05 7.7462064e-05 -9.7890304e-05
0003e0 15 0b cd b8 43 ab 89 b8 77 1d 8c b8 cb 16 77 39
       -9.777226e-05 -6.564569e-05 -6.6812085e-05 0.00023564247
0003f0 7b 69 bc 39 50 9f c7 b6 53 18 5c b8 b6 a0 73 39
       0.00035936743 -5.9492086e-06 -5.247474e-05 0.00023234155

trans_feat.bias f4 [64]
000000 da 12 58 38 34 99 20 37 68 4e cc b7 56 61 df 37
       5.151597e-05 9.572414e-06 -2.4355206e-05 2.6628997e-05
000010 10 45 55 b8 d4 4b fb 37 46 8e f5 b7 ec 48 d8 b7
       -5.0847477e-05 2.9956842e-05 -2.9272527e-05 -2.5783163e-05
000020 80 86 ea b6 8d 48 0f 38 0a 12 20 b8 16 dd 29 38
       -6.9894013e-06 3.4161425e-05 -3.8163773e-05 4.0498642e-05
000030 7a b3 b2 37 ba 3e 37 38 78 a3 2e b8 9a f7 56 b8
       2.1302829e-05 4.368902e-05 -4.1637075e-05 -5.1252173e-05
000040 cb 59 57 b8 7a d7 44 b8 eb c8 4b 38 9a ed 9a b7
       -5.134362e-05 -4.693072e-05 4.858609e-05 -1.8468872e-05
000050 35 50 0c 38 44 53 18 38 50 77 0f b8 90 97 ef b6
       3.34533e-05 3.631717e-05 -3.4204975e-05 -7.1403992e-06
000060 58 e7 1e 38 11 81 48 38 a6 fd 53 b8 30 3f b7 37
       3.788559e-05 4.780392e-05 -5.054255e-05 2.1844724e-05
000070 ee 16 42 38 6e ac 2f 38 be 19 57 38 70 45 1c b6
       4.627456e-05 4.188384e-05 5.128397e-05 -2.328623e-06
000080 cc 1c 3b b8 2b e5 ad b7 e4 ec 14 b8 43 4c 53 b8
       -4.4611093e-05 -2.0729922e-05 -3.550657e-05 -5.0377344e-05
000090 ad 8d 50 b8 fe ff e2 b7 8c be 51 38 8e 53 56 38
       -4.972301e-05 -2.7060505e-05 5.0006944e-05 5.1099392e-05
0000a0 92 b0 4e b8 22 be e6 b7 70 f3 e5 b7 ae f3 34 38
       -4.927867e-05 -2.7506674e-05 -2.7412287e-05 4.314229e-05
0000b0 fb 5c 02 b8 33 ff 0c 38 2f 5e 41 b8 70 c3 0c b8
       -3.108101e-05 3.3616274e-05 -4.61025e-05 -3.3560616e-05
0000c0 9d 31 2c 38 ad 45 21 38 4a 96 23 b8 ac 3c 13 b8
       4.10542e-05 3.8450282e-05 -3.9002196e-05 -3.5104036e-05
0000d0 d2 bd ec b7 2a a3 48 38 28 22 18 38 f0 7a 90 36
       -2.8221784e-05 4.7835674e-05 3.6271435e-05 4.3058462e-06
0000e0 17 fa 29 b8 27 8f 49 b8 f3 8a 4d b8 8a 7e 4d b8
       -4.0525654e-05 -4.8055455e-05 -4.9005215e-05 -4.8993657e-05
0000f0 e8 08 41 b8 ea d4 10 38 a2 14 52 b8 c0 a3 5e b5
       -4.602308e-05 3.4530567e-05 -5.0087117e-05 -8.293973e-07

pred_trans.weight f4 [7, 1433]
000000 2e 6e 06 bf 18 5f 7b bf 78 9d e1 3c 95 2a db 3f
       -0.5251187 -0.98191977 0.027540907 1.712237
000010 77 35 cd bf 18 0b 9e 3e 60 c3 fc be 94 a8 c8 be
       -1.6031941 0.3086784 -0.4936781 -0.39191115
000020 59 46 a8 be a0 05 b6 3d 91 c6 8a be e4 d8 93 be
       -0.3286617 0.08887792 -0.2710462 -0.28876412
000030 55 26 d0 be 95 fd ac bd ae d0 3e be e0 77 10 3f
       -0.40654245 -0.084468044 -0.18634292 0.56432915
000040 26 d6 25 bf 74 d9 df bc 41 65 b1 be b6 47 ab c0
       -0.6477989 -0.02732537 -0.34647563 -5.352504
000050 a9 61 9c bd c1 5e be 3e 32 20 f8 bd 1a 06 60 be
       -0.07635815 0.37181666 -0.12115516 -0.21877328
000060 65 dc 05 3f 63 85 85 3e b3 7e 7f 3f de 0f 7e 3f
       0.5228942 0.26078328 0.998027 0.9924296
000070 46 fc 48 bd 9c 2a 19 3f 8d ca db bd f9 1d 09 be
       -0.04906871 0.5983064 -0.10731993 -0.1339034
000080 62 df cd bc d1 9f 7a 3e cb 5c e7 be 14 65 9d be
       -0.025130931 0.24475028 -0.45187983 -0.3074118
000090 e2 1e a1 be 44 7c 31 be 92 75 d6 bf 7f 69 98 3e
       -0.31468874 -0.1733256 -1.675463 0.29767987
0000a0 92 04 1f bf 64 4b c0 3f 39 01 02 be fa 49 6b be
       -0.6211635 1.5023007 -0.12695779 -0.22977439
0000b0 4e 78 b3 bf c8 f9 49 be 86 c0 0e be 5b 94 47 3f
       -1.4021089 -0.1972419 -0.1394063 0.7796075
0000c0 84 e8 89 bf cd 68 1a 40 af 4d c4 be 8d 27 ae bf
       -1.0774083 2.4126465 -0.38340518 -1.360582
0000d0 b3 35 de 3f 01 9a 16 be 4f 41 1f bf 07 6a 73 be
       1.7360138 -0.14707185 -0.6220903 -0.23770915
0000e0 f0 72 a5 3f cc 0e 3f bf 80 6f b9 bf e4 43 7e be
       1.2925701 -0.74631953 -1.4487152 -0.24830586
0000f0 6a 66 d5 3e a9 be fa 3e cf 3c e4 3e b7 e2 dd 3f
       0.41679698 0.48973587 0.44577643 1.7334813
000100 f5 05 ae 3f 73 5a 4e bf c3 56 26 3d 94 15 5f bc
       1.3595568 -0.80606765 0.040610086 -0.0136159845
000110 30 14 ce bd c0 d1 ca 3e 56 a1 77 3e 43 57 59 3f
       -0.10062444 0.39613152 0.24182639 0.84898776
000120 a3 11 17 be 39 78 82 be 84 5e 05 be 43 55 d4 be
       -0.14752822 -0.25482348 -0.13024336 -0.414713
000130 bb a4 2d be 3f 5e 23 bf 98 e1 8e bf eb e9 0a 3e
       -0.16957371 -0.63815683 -1.1162596 0.13565795
000140 d2 99 26 3d 35 89 a1 3e 85 e6 80 bf b7 12 27 3f
       0.04067404 0.31549993 -1.0070349 0.6526293
000150 c4 52 89 be be 88 13 bf 83 d5 ea bf d7 68 0c bf
       -0.26820958 -0.57630527 -1.8346409 -0.5484747
000160 a8 30 90 bd 7f e2 a2 3e bb 27 1f bf 90 28 04 3d
       -0.070405304 0.31813428 -0.6217 0.032265246
000170 2e b1 6b bf 21 37 c9 3f af 2a 9a 3e a8 21 3c be
       -0.9206723 1.5719949 0.3011069 -0.18372214
000180 39 cf 2e be 25 99 23 3e 24 db d9 3e 8a ea ea bf
       -0.17071237 0.15976389 0.42550004 -1.8352826
000190 e7 7b 88 3e c9 68 f8 bd 20 ba 3a bf 5a 0b df be
       0.2665703 -0.12129361 -0.72940254 -0.43563348
0001a0 15 28 c5 3f fc 14 84 be 06 ad 2a bd de fd a7 be
       1.5402857 -0.2579726 -0.041668914 -0.32810873
0001b0 aa 0b 8d be fc d3 db 3d f4 42 e2 3e cc b1 03 be
       -0.2754796 0.10733792 0.44191706 -0.12860793
0001c0 b2 47 c5 3f 03 aa 16 bf d2 c1 9f bc 4e 1d ae be
       1.5412505 -0.5885317 -0.0195016 -0.34006733
0001d0 cb 6d 59 3e 76 7a eb 3e 96 d8 af bf cc fd 1e be
       0.21233289 0.45991868 -1.3737972 -0.15526503
0001e0 e2 2d ef 3e d9 87 63 3f 1f 87 5b be 8b fa 2e 3e
       0.46714693 0.8887916 -0.21438263 0.17087762
0001f0 a9 39 2c bf 1e c7 10 bf 04 14 f4 3e 40 21 86 bf
       -0.6727548 -0.5655383 0.4767152 -1.0478897
000200 07 bd 22 bf 4d 87 ad 3d 2b be 84 bf 4d b8 db 3e
       -0.6356968 0.08473072 -1.0370535 0.42914048
000210 8e e5 5e be 98 f6 b7 3d 10 8b 04 be 21 81 0c 3f
       -0.21767256 0.08982581 -0.12943673 0.54884535
000220 fa 0a 37 bf 07 f2 1d 3e 41 2a b3 be cc 63 55 bf
       -0.71501124 0.15424357 -0.34993175 -0.833554
000230 90 c2 e1 bf e0 98 77 be 3d 03 ac be f2 08 df be
       -1.7637501 -0.24179411 -0.3359622 -0.43561512
000240 d6 01 9f 3d 75 ba 82 be b0 eb 45 3e 8d 85 7e bd
       0.07764022 -0.2553288 0.19328189 -0.062139083
000250 11 42 93 bd 7d 08 f2 be 5a 2c df bd f5 ea de 3e
       -0.071903355 -0.472721 -0.10897131 0.43538633
000260 52 16 f2 bd 8c 0e 8a 3e cf 0b 0d bf 3d ed f3 bd
       -0.118206635 0.26964223 -0.55096143 -0.11910484
000270 8d f5 98 3e 9f d4 7b bf 12 a1 62 be 68 3d 61 be
       0.2987484 -0.9837131 -0.22131756 -0.21996081
000280 31 64 c6 be a9 41 93 3e 51 8b 48 3e 05 8a 38 be
       -0.38748315 0.28761032 0.19584395 -0.180214
000290 17 5d 99 3e c8 91 b2 3f d2 a1 97 be bc 77 95 be
       0.29953834 1.3950739 -0.29615647 -0.29192913
0002a0 ce 7b 96 bf 54 51 f0 3e 9b 54 93 3e 40 83 45 be
       -1.1756532 0.46937048 0.28775486 -0.19288349
0002b0 26 c7 6e bf a1 23 8c bf f8 1f 89 be 51 5d 08 3e
       -0.93272626 -1.0948373 -0.26782203 0.13316847
0002c0 2f 8f 06 3e 9a 9b 29 bf d6 82 69 3e 9b f6 f8 3e
       0.13140558 -0.66253054 0.22803816 0.48625645
0002d0 a0 b5 f1 3b f0 0d 59 be 68 be 7f bf 8b 87 12 be
       0.0073763877 -0.21196723 -0.9989991 -0.14309518
0002e0 86 f1 fd 3e 19 43 8e be 4c bc 4d be 32 18 7e bf
       0.4959833 -0.27785566 -0.20091361 -0.9925567
0002f0 cc ff 63 be a1 bd ec 3e a4 b4 00 3f ba a1 59 bf
       -0.22265548 0.46238425 0.50275636 -0.850124
000300 fb 72 a4 bf 8b 3a 5c be c8 5f 3a bf f6 9a f4 3f
       -1.2847589 -0.21506707 -0.728024 1.910979
000310 3b cb ec be 60 c6 87 3f a6 d9 95 be ef dc e4 bd
       -0.46248803 1.0607414 -0.29267615 -0.11174952
000320 4b 13 b5 3d 3f 0d 0c 3f 71 32 38 3f 8f 8d 8b bf
       0.088415705 0.5470771 0.7195197 -1.0902575
000330 ce 23 19 bf 73 3a b0 40 18 0c 91 be c5 d8 87 bf
       -0.5982026 5.507135 -0.2832954 -1.0613028
000340 0e e3 36 bf e2 35 72 be c1 4f 01 3e 17 84 d9 3f
       -0.7144021 -0.23653367 0.1262808 1.6993436
000350 6f cb 04 3f ca 53 c3 3e 78 2b a3 be 41 af 53 3e
       0.51872915 0.38149863 -0.31869102 0.20672323
000360 db e0 98 be 9e 93 ff 3e 50 fd a6 3b f3 ef c1 3e
       -0.2985905 0.4991731 0.005096115 0.3787838
000370 0e 54 b8 3e 14 fd 94 3d 1f 59 6b bc bd 76 62 be
       0.3600163 0.07274833 -0.01436451 -0.22115608
000380 f0 6f ce be 23 ae 54 bf f5 2d 90 3e 9b 91 0c be
       -0.40319777 -0.8307821 0.28160062 -0.13727419
000390 0d 34 7e bf 4a b1 9c 3e 75 08 4f bf bc 47 01 bf
       -0.99298173 0.3060401 -0.8087228 -0.5050008
0003a0 83 8c 04 bf 4f 81 19 3f a0 2b 98 be 81 1c 18 be
       -0.51776904 0.59962934 -0.29720783 -0.14854623
0003b0 95 22 bc bd fb 4c e4 3e e8 e0 21 bf b1 14 ae bd
       -0.091862835 0.4458998 -0.63233805 -0.0850004
0003c0 8a 8d d6 be 68 9d d9 bd 0a c0 7f be 75 f1 2c 3f
       -0.4190486 -0.10625726 -0.24975601 0.67555934
0003d0 e5 f8 83 bf 60 74 dd 3f 3b be 75 be aa f3 8f be
       -1.0310332 1.730114 -0.23998348 -0.28115588
0003e0 40 fc b5 3c e4 7b 94 3f ea b6 ff 3e 1d e8 14 3f
       0.022215009 1.1600308 0.4994424 0.58166677
0003f0 a7 36 0d 3e 86 0d 90 bd 09 8c 3f bf 1f 0c 74 3f
       0.1379038 -0.070338294 -0.7482305 0.95330995

pred_trans.bias f4 [7]
000000 13 bb 0b be da 88 b7 be 9b 21 de bc 70 fb 2a 3f
       -0.13645582 -0.35846597 -0.027115634 0.66789913
000010 fc a6 90 3e 64 ad da bd 53 ec 87 be
       0.282524 -0.10677603 -0.2654749

gcn_convs.0.path_weight_1.weight f4 [64, 64]
000000 08 6e 20 b9 4d db 03 39 07 33 cc 38 96 fb a0 38
       -0.00015299779 0.0001257483 9.7369826e-05 7.676256e-05
000010 c9 a6 11 39 69 00 41 37 be df 0d 38 b5 22 0a 38
       0.0001389041 1.1503792e-05 3.3825396e-05 3.2934087e-05
000020 1f 78 16 37 69 e5 69 36 a5 bc 89 38 91 82 ed 39
       8.968665e-06 3.485324e-06 6.567807e-05 0.00045301442
000030 e4 89 57 38 55 cd db 38 81 67 a3 b6 f1 be ac 38
       5.1388415e-05 0.0001048098 -4.869828e-06 8.237165e-05
000040 96 8e 99 b8 5b 83 08 37 07 a7 a9 b9 fc c3 ae b8
       -7.322167e-05 8.136815e-06 -0.00032358637 -8.3334715e-05
000050 80 ce 6b 39 39 e8 92 38 4f 97 d3 37 79 76 61 b6
       0.00022488274 7.005077e-05 2.5223619e-05 -3.3596573e-06
000060 e5 ba 7b b9 76 af dc 38 a2 53 29 b9 b2 04 a9 b8
       -0.00024006849 0.000105230996 -0.00016148252 -8.0594225e-05
000070 6d e6 00 39 92 bd 04 38 dd bc a7 38 44 61 51 39
       0.00012292872 3.1647804e-05 7.998359e-05 0.00019968027
000080 6b f4 95 38 a7 9d e3 38 f0 47 14 37 53 c2 1a 39
       7.1504e-05 0.000108535685 8.838237e-06 0.00014758976
000090 5f 0b d1 b9 2f 83 86 35 75 70 81 b9 6e b5 1c b7
       -0.0003987206 1.0021957e-06 -0.00024688584 -9.340567e-06
0000a0 20 86 9d b9 57 3f d3 b8 33 8a 9a b9 e3 bd 36 b9
       -0.00030045304 -0.00010073062 -0.00029476135 -0.00017427611
0000b0 98 3c 99 37 eb ab 3f 37 03 dd 1c b9 55 eb d5 38
       1.8267237e-05 1.1424515e-05 -0.00014959653 0.000102004655
0000c0 6e 29 05 39 6e ad d2 37 7d 69 11 b9 c8 4c 59 38
       0.00012699302 2.511471e-05 -0.00013867575 5.180834e-05
0000d0 41 8d cb 38 dc 90 94 b9 90 4e c0 39 cc 9f e9 37
       9.706105e-05 -0.00028336688 0.00036679627 2.7850176e-05
0000e0 d4 bb 8b 37 5f 1c 94 39 7f f5 a5 38 f5 08 d0 38
       1.6657556e-05 0.00028249898 7.91354e-05 9.919881e-05
0000f0 6b b4 15 38 96 26 32 38 81 d6 50 b8 14 e9 7b b8
       3.5692396e-05 4.2474443e-05 -4.9790837e-05 -6.0060134e-05
000100 da b9 9e b9 21 b6 8e b8 6d d5 d0 b8 4a 16 91 ba
       -0.0003027458 -6.805012e-05 -9.9579665e-05 -0.0011069265
000110 55 0a e8 b9 13 67 94 b8 00 94 13 3a 85 c0 06 39
       -0.00044258186 -7.076389e-05 0.00056296587 0.00012850955
000120 b7 4a 91 b9 e7 ff 14 39 6c 6e 83 39 b3 aa 8b 38
       -0.00027712222 0.00014209711 0.00025068538 6.659832e-05
000130 04 59 8e ba d6 9b f2 36 83 a6 26 b9 78 a1 1a 39
       -0.0010860269 7.2303037e-06 -0.00015893024 0.00014746736
000140 4a b2 2c ba 64 30 70 38 c3 f0 53 b9 c7 9d 83 37
       -0.00065878464 5.7265526e-05 -0.00020212219 1.5689888e-05
000150 6f 97 68 ba a9 d7 e7 b7 a2 cf 22 b8 92 16 55 b9
       -0.0008872663 -2.763777e-05 -3.8817183e-05 -0.00020321671
000160 c7 ca ac 38 5a 04 89 b8 38 3a 78 39 1c d2 ba b8
       8.239369e-05 -6.5334796e-05 0.00023672811 -8.908307e-05
000170 27 7c d5 b9 49 76 86 39 34 13 44 b9 a8 70 f2 b8
       -0.00040719027 0.000256466 -0.0001869917 -0.00011560443
000180 70 08 cb 38 e6 a3 02 ba 02 f5 b1 b8 ed e2 3a 38
       9.681366e-05 -0.0004983529 -8.485654e-05 4.4557197e-05
000190 a0 9b c2 b8 a2 d7 92 b9 7a 71 8b 39 d7 ca ed b8
       -9.279628e-05 -0.0002800795 0.00026596693 -0.000113388225
0001a0 61 a1 0c ba 34 be 97 b9 fd c8 98 b8 ad cf b4 b9
       -0.00053646235 -0.00028942677 -7.285362e-05 -0.00034487006
0001b0 09 1e 33 3a a6 41 bf b7 db 42 20 39 10 2c 82 39
       0.00068327837 -2.2799544e-05 0.00015283695 0.0002482836
0001c0 8a c8 89 38 3e de ba 39 a0 15 99 ba 94 4e 25 39
       6.5700224e-05 0.00035642268 -0.0011679418 0.00015764899
0001d0 a3 fc d4 38 e6 7e fc 39 75 f7 3b 3a cb fc 0c 39
       0.00010156005 0.00048159732 0.0007170358 0.00013445613
0001e0 e9 a4 4d b9 94 e0 c3 38 7c 27 20 39 1e d2 3d 3a
       -0.00019611757 9.3401555e-05 0.00015273498 0.0007241088
0001f0 2a f3 22 39 da 57 34 b9 60 2c c9 b8 db 9d ca 38
       0.0001554011 -0.00017198865 -9.5926924e-05 9.6615135e-05
000200 8a ea 36 37 ea d6 88 b9 d3 c4 9c 38 a7 c6 89 b9
       1.0902653e-05 -0.00026100065 7.475321e-05 -0.00026278684
000210 44 17 00 3a 28 81 ad b9 38 76 db 39 ad cf 62 b8
       0.00048862793 -0.0003309336 0.00041859015 -5.4076012e-05
000220 bc 9d 76 b8 60 fc 98 b9 76 e6 9a 39 ba e0 87 38
       -5.8797872e-05 -0.00029179733 0.00029544876 6.47916e-05
000230 9c 22 fe b9 33 40 64 b9 48 9c 8c b9 39 fc 84 38
       -0.0004847244 -0.0002176769 -0.0002681932 6.3412306e-05
000240 51 85 59 ba 8c 8f 67 b9 6f 42 f7 b9 f3 10 60 39
       -0.0008297759 -0.00022083352 -0.00047161008 0.00021368619
000250 8e 7b d6 b9 a0 19 7b 39 fb 3a 18 38 fe 15 ee 39
       -0.00040909316 0.00023946771 3.6294554e-05 0.00045411283
000260 ea e1 17 ba 0e 8f 83 38 f0 75 14 39 c5 1c c0 39
       -0.00057938567 6.273213e-05 0.00014158315 0.0003664253
000270 99 c2 85 39 51 d2 a9 b9 77 45 67 b9 79 56 82 b8
       0.00025512723 -0.0003239089 -0.00022055754 -6.21499e-05
000280 32 35 80 b8 d8 f3 eb 38 7b 97 b1 b9 3d bf df b8
       -6.113424e-05 0.00011251093 -0.00033872933 -0.000106690895
000290 02 38 c0 b9 fb 50 54 39 ce a7 a1 38 5e cd 9a b9
       -0.00036662823 0.00020248063 7.708334e-05 -0.0002952618
0002a0 67 b4 d1 38 a6 91 e8 38 6b 1f 26 b9 d7 1a 34 b9
       9.999499e-05 0.00011089751 -0.00015842698 -0.00017176136
0002b0 26 7f 19 ba 62 c6 a1 37 ed 3f d2 b8 f7 29 b2 b8
       -0.00058554334 1.9285075e-05 -0.000100254874 -8.495518e-05
0002c0 32 67 88 b8 54 e5 6a b9 8c c8 a7 37 a3 9d 89 b9
       -6.504207e-05 -0.0002240141 2.0001338e-05 -0.00026248125
0002d0 d2 4d a9 b8 4c 41 22 b8 09 e7 ad b8 c6 23 07 ba
       -8.073043e-05 -3.8684622e-05 -8.2923165e-05 -0.0005155172
0002e0 9c 5e ee b7 2e 74 86 39 3d 1e 52 b9 80 a2 30 3a
       -2.8415867e-05 0.00025645032 -0.00020038425 0.00067380816
0002f0 cd 20 a3 b8 94 57 fd 38 79 56 21 b9 cf ff 2a ba
       -7.778555e-05 0.00012080293 -0.0001538637 -0.0006523104
000300 f4 8f 16 b9 c8 f3 9d 3a 0a f3 05 37 ab a2 12 ba
       -0.00014358741 0.0012050802 7.984005e-06 -0.00055936974
000310 3c f7 27 ba 52 8d 16 3a 53 95 09 3a 21 68 bb b9
       -0.0006407385 0.0005743104 0.00052483863 -0.00035745002
000320 8c 3c 79 38 37 2c ed 38 e7 15 e0 b9 e3 6f 26 39
       5.9422615e-05 0.00011309276 -0.00042740928 0.00015872675
000330 17 ed bc 38 a7 44 02 ba 04 5c 34 b7 e5 e0 e2 b8
       9.0087e-05 -0.00049693364 -1.075026e-05 -0.0001081841
000340 05 f5 0f bb 14 eb 84 ba c7 64 fe b9 b5 d3 c1 39
       -0.0021966111 -0.001014086 -0.0004852174 0.00036969563
000350 df e2 bf b9 70 eb 45 3a 22 e6 2b b9 19 7c fe 38
       -0.0003659939 0.00075500365 -0.00016393562 0.00012134779
000360 3d dc cc 39 f5 99 4b 39 d7 61 04 38 fd 1c 45 b8
       0.00039074002 0.00019416942 3.1562373e-05 -4.6995458e-05
000370 a8 e8 6b b9 25 c9 6c 38 8f 4e 37 38 ce 8c 26 b9
       -0.00022498018 5.6454115e-05 4.3703763e-05 -0.00015883447
000380 94 cd 3a 3a a4 fa d8 38 18 df 9b b8 53 d1 c6 b9
       0.00071259704 0.00010346368 -7.4325304e-05 -0.00037921462
000390 5a 8b dd 39 37 53 5e 3a d8 ef ad 39 3b 0a e8 b9
       0.0004225623 0.0008481028 0.0003317583 -0.0004425811
0003a0 d4 88 2c b9 2a 89 95 38 7a 87 46 b8 bb 15 0d ba
       -0.0001645417 7.1304225e-05 -4.733305e-05 -0.0005381961
0003b0 5d 16 56 ba 69 ab f1 b8 06 46 51 b9 9f 7c d8 39
       -0.00081667845 -0.00011523703 -0.00019957879 0.0004129158
0003c0 c6 c7 b0 b9 f7 fc 47 3a 39 b0 8a 39 d9 11 03 3a
       -0.0003371818 0.0007628942 0.00026452707 0.0004999913
0003d0 c4 ee 4d 39 d6 7e 0f 3a 6c 22 3c 3a 6d 8f 97 39
       0.0001963927 0.0005473917 0.000717676 0.00028907825
0003e0 d4 2d 96 b9 22 f3 50 b9 fe 35 0b 3a 5f cc 00 ba
       -0.00028644374 -0.00019927 0.00053104747 -0.0004913266
0003f0 0d c7 24 ba 46 ec a2 39 98 8f 9d b9 c7 a6 5a 39
       -0.00062857644 0.00031075085 -0.0003005236 0.0002085223

gcn_convs.0.path_weight_1.bias f4 [64]
000000 19 81 4f bd 02 08 85 3c 08 26 6c bf c6 61 85 3b
       -0.050660226 0.01623917 -0.9224553 0.0040704934
000010 e0 f3 ea ba 67 44 36 3f bc 41 9b 3e 18 e0 f2 39
       -0.0017925464 0.71198124 0.3032359 0.000463248
000020 b4 ea 95 3d de 3e 37 bf b6 16 62 bf a5 c0 29 ba
       0.07320157 -0.715803 -0.88315904 -0.00064755447
000030 ec 17 65 3f 4b 4f 10 3f 5d 71 80 bf 82 80 6e 3d
       0.89489627 0.5637099 -1.0034596 0.058228023
000040 82 97 69 3f 47 20 1e 3f de 4b 3e 3f 2c 53 5e bf
       0.9124681 0.61768 0.74334514 -0.8684566
000050 11 1f 6f bf 07 ac 8e 3f b3 f2 ea be a7 d4 bb 3e
       -0.9340678 1.1146249 -0.4588829 0.36685678
000060 b1 af ca 3e d5 52 27 3f e0 cf fc bd 90 54 1f bf
       0.39587167 0.65360767 -0.123443365 -0.6223841
000070 74 34 2d bf e5 02 e0 be 1e 1c a8 ba 1e d3 23 3f
       -0.6765816 -0.43752208 -0.0012825762 0.63994014
000080 8a 64 01 bb 27 f5 bd bc a0 28 28 3f 84 e0 51 3f
       -0.0019743764 -0.023188187 0.6568699 0.8198321
000090 f3 8a 3a bf 2f 45 8f bf 07 7e 80 bf f3 91 db 3b
       -0.7286827 -1.1192988 -1.003846 0.006700748
0000a0 b0 e2 31 bf f8 48 2b ba ac 96 1c bf 54 e7 69 3f
       -0.6948652 -0.00065340055 -0.6116741 0.91368604
0000b0 2e 8a 53 bf a1 74 2b bf 6d be 4f 3e 90 48 72 3f
       -0.8263272 -0.66974837 0.20287485 0.9464197
0000c0 ef 94 8c 3a 2f 5e 91 3f 1c 3f 49 3f 1b e6 88 3f
       0.0010725538 1.1356868 0.7861192 1.0695223
0000d0 8e 22 73 bf 60 64 ea bd 40 2d 6b 3e 13 a4 7d 3d
       -0.949746 -0.11444926 0.2296648 0.06192405
0000e0 f9 ac 78 bf 46 88 9b 3f 76 3d 07 bf 3c d2 55 3f
       -0.97138935 1.2150962 -0.52828157 0.8352392
0000f0 87 a2 29 3b ce 79 5f 3d f1 e1 29 bf 05 b0 d0 3d
       0.0025884227 0.05455952 -0.66360384 0.10189823

gcn_convs.0.path_weight_2.weight f4 [64, 64]
000000 e8 6d 59 b7 20 d9 bc 37 05 5f 4b 38 e4 55 56 38
       -1.29597975e-05 2.2512453e-05 4.8487465e-05 5.1101568e-05
000010 b7 f9 0e 38 58 21 45 b8 39 64 85 b7 8e 94 e5 b7
       3.4088003e-05 -4.6999514e-05 -1.5901505e-05 -2.7368103e-05
000020 dd 7d 05 b8 17 bf 8c 37 f7 d6 29 b8 9f 2c 2c 38
       -3.182689e-05 1.6778284e-05 -4.049294e-05 4.1049552e-05
000030 20 81 01 38 64 f2 1d b8 1d dc 2f 38 42 67 24 37
       3.0876254e-05 -3.765746e-05 4.1928248e-05 9.799203e-06
000040 5f be 84 36 53 7a 34 38 5c c0 bd b7 15 e4 10 b8
       3.9560687e-06 4.3029268e-05 -2.262013e-05 -3.4544693e-05
000050 de a3 07 b8 25 c9 51 b8 ea cc 6b b3 52 c0 4a 37
       -3.233912e-05 -5.0016813e-05 -5.490157e-08 1.2084916e-05
000060 47 d3 0a b8 21 20 57 b8 12 cd 9d 37 57 d3 fb b6
       -3.309853e-05 -5.1289917e-05 1.8811352e-05 -7.504986e-06
000070 a5 e6 04 b8 78 27 b7 37 4a 9a 94 37 81 14 4f b8
       -3.1686057e-05 2.1833679e-05 1.7714821e-05 -4.937174e-05
000080 7a c3 d0 b7 21 1f db b7 19 74 d6 37 ff 4b df 37
       -2.4886558e-05 -2.612133e-05 2.556485e-05 2.661906e-05
000090 9f 50 54 38 14 5c 2c b8 15 ea 92 37 bc 77 52 b7
       5.0619823e-05 -4.109375e-05 1.751356e-05 -1.2544853e-05
0000a0 96 b5 24 38 bf f9 c4 37 cc 24 75 b7 b4 92 07 b8
       3.9269762e-05 2.3481318e-05 -1.4611705e-05 -3.2323136e-05
0000b0 fe d8 09 38 b7 9a 0b 38 10 ad 3b b8 61 e9 ec b7
       3.2865435e-05 3.3284272e-05 -4.474545e-05 -2.8242068e-05
0000c0 ed cc 2c 38 50 2a ff 37 2b d0 0f 38 83 07 ea b7
       4.1198848e-05 3.0418072e-05 3.428773e-05 -2.7898472e-05
0000d0 b1 cd d2 37 3f 61 4b 38 8d be 5d b7 a5 7d 8f b7
       2.5129733e-05 4.848954e-05 -1.3216993e-05 -1.7105436e-05
0000e0 af cf fb 37 86 df 05 38 06 5b 39 b8 3c 9d 04 b8
       3.0018242e-05 3.1917843e-05 -4.419221e-05 -3.161769e-05
0000f0 27 85 58 37 e1 85 fb 37 25 e8 0b 38 9a 95 14 b8
       1.2905605e-05 2.9983874e-05 3.3356384e-05 -3.5425277e-05
000100 b6 05 de 37 9c c4 e9 b6 e4 19 2a 38 ba e2 89 b7
       2.6467122e-05 -6.9668295e-06 4.055527e-05 -1.643725e-05
000110 5e 31 05 38 7a 71 d9 37 a7 9e fe b7 4b 83 ae 37
       3.1755648e-05 2.5921257e-05 -3.0353038e-05 2.0803554e-05
000120 1a 27 8f b7 f1 66 0b 38 b5 51 f6 36 32 3b c8 37
       -1.7065136e-05 3.3236054e-05 7.3408833e-06 2.3869423e-05
000130 03 d5 2c b8 2f 16 4d 37 81 b2 da 37 70 1a 1f 38
       -4.120638e-05 1.2224117e-05 2.6070747e-05 3.7933176e-05
000140 8b 23 ca b6 89 4c 0c b8 37 ea e5 b7 7d 73 2c b8
       -6.024207e-06 -3.344988e-05 -2.7407992e-05 -4.1115552e-05
000150 32 48 18 38 cf 3a 08 38 3e cd 66 37 f1 af a2 36
       3.630686e-05 3.2479697e-05 1.3756855e-05 4.8484585e-06
000160 f8 63 e5 37 15 82 c6 37 f7 a1 02 b8 2e 39 0b 38
       2.7345479e-05 2.3664013e-05 -3.1145257e-05 3.3193435e-05
000170 53 5c cf 37 bb 7e 40 38 84 74 74 b7 4e 9a 00 38
       2.4719315e-05 4.5894394e-05 -1.4570662e-05 3.0661286e-05
000180 f7 26 99 37 f8 1f d0 b7 62 94 56 b8 8c d6 e2 b7
       1.8257166e-05 -2.4810419e-05 -5.115977e-05 -2.7041206e-05
000190 62 0c cc 36 7f 62 f0 37 c1 ad 0f 38 39 67 a8 b7
       6.0811153e-06 2.8656095e-05 3.4255678e-05 -2.0075227e-05
0001a0 0a 2f 4d b8 99 17 fd b7 db 46 d2 b7 25 3a 86 37
       -4.8919617e-05 -3.0170939e-05 -2.5066945e-05 1.600112e-05
0001b0 f8 3b b7 b7 58 eb 13 38 ab 2e ce 36 72 a6 24 38
       -2.1843225e-05 3.5266712e-05 6.1447113e-06 3.925566e-05
0001c0 9c b9 48 b7 6f f5 47 36 df 87 fa b7 d8 13 ee b7
       -1.19641445e-05 2.9796172e-06 -2.9865592e-05 -2.8381051e-05
0001d0 c2 95 50 b6 7b 85 b9 b7 b1 62 f9 b7 98 82 32 38
       -3.1081586e-06 -2.2115875e-05 -2.972907e-05 4.2560132e-05
0001e0 7c 4f c6 35 cc 5d 03 b8 97 6c 1e b7 c2 98 f0 b7
       1.4775283e-06 -3.132019e-05 -9.442817e-06 -2.8681363e-05
0001f0 fb 24 2d 36 6c b9 60 b7 f8 68 af 37 3c 9e 82 37
       2.5800534e-06 -1.3394612e-05 2.0910506e-05 1.5570891e-05
000200 74 5d d7 b7 f2 e6 55 b8 4d f7 06 38 0b 60 21 b8
       -2.5673515e-05 -5.0998242e-05 3.2178406e-05 -3.847484e-05
000210 d5 78 cd b6 a1 e1 01 38 d8 84 ac b6 5e b9 03 b8
       -6.123543e-06 3.096613e-05 -5.1414645e-06 -3.140547e-05
000220 00 e0 05 38 ce e9 c0 36 98 22 d7 b6 36 02 fb b7
       3.1918287e-05 5.7492643e-06 -6.4115266e-06 -2.9922561e-05
000230 20 92 a1 b7 85 ec 55 b8 f0 6a 78 b7 26 67 25 b7
       -1.926074e-05 -5.1003433e-05 -1.480685e-05 -9.8587825e-06
000240 41 c5 c8 b7 a6 01 0f b8 59 b9 d7 b7 c3 45 28 38
       -2.3933711e-05 -3.4095392e-05 -2.5716306e-05 4.0119292e-05
000250 42 2c 02 b8 61 85 d6 37 1d b2 d6 35 ab ab cd 37
       -3.1035634e-05 2.5572897e-05 1.599608e-06 2.4517843e-05
000260 e1 0f ea 37 59 ff 90 36 0d 81 a0 37 eb be bc b7
       2.7902368e-05 4.321261e-06 1.913358e-05 -2.250025e-05
000270 fc 1c 22 38 33 f8 b6 37 ba 6e 17 37 ba 41 82 b6
       3.8650804e-05 2.1811667e-05 9.026082e-06 -3.8819535e-06
000280 29 a7 d3 37 05 72 d2 37 86 8c 01 38 c3 2b 3e 35
       2.5231e-05 2.5087045e-05 3.088687e-05 7.08442e-07
000290 21 15 ae b7 a1 a3 43 b8 04 80 db 37 64 7e 04 38
       -2.0752255e-05 -4.6644014e-05 2.6166446e-05 3.1588963e-05
0002a0 3f 44 08 b8 c4 64 de 37 5f e8 94 b7 ed 94 a1 35
       -3.2488486e-05 2.6511385e-05 -1.7751181e-05 1.2038778e-06
0002b0 74 d3 42 38 4d a4 20 38 ae 8d df b7 3b d6 0a 36
       4.6450135e-05 3.829999e-05 -2.6649646e-05 2.06883e-06
0002c0 95 f9 b1 36 9c 39 db 37 5a c4 28 37 a6 6d dd 37
       5.3040662e-06 2.613366e-05 1.0059297e-05 2.6396312e-05
0002d0 35 00 3c 38 0d 5b 55 b8 e5 05 05 38 0f 4e 11 38
       4.4822886e-05 -5.0867955e-05 3.171516e-05 3.464339e-05
0002e0 df c4 e9 b7 a0 45 09 38 14 ff 3c 36 84 d1 d2 b7
       -2.786744e-05 3.272819e-05 2.8162658e-06 -2.5131514e-05
0002f0 11 39 1a b8 0a 15 27 b8 73 c3 d0 b6 1f a9 38 b8
       -3.676961e-05 -3.9835497e-05 -6.2216363e-06 -4.4026525e-05
000300 43 21 97 37 20 04 36 b8 8e 95 0a b8 0f 87 0a 38
       1.8016091e-05 -4.3396023e-05 -3.3041048e-05 3.3027547e-05
000310 fb 2c af b7 d5 e6 d7 b5 9a 5d 8a 37 47 76 17 b8
       -2.0882571e-05 -1.6085929e-06 1.6494469e-05 -3.611136e-05
000320 3d d8 c2 b5 19 3c de 37 0c ec 90 36 0d cc b9 37
       -1.451706e-06 2.6492447e-05 4.319014e-06 2.2148737e-05
000330 24 c3 9c b6 7d c0 c3 37 f0 c0 31 37 52 12 02 b8
       -4.6718797e-06 2.3335446e-05 1.0594944e-05 -3.1011477e-05
000340 94 c2 b6 37 4b ae e0 b7 35 f4 12 b8 e9 61 d8 37
       2.1786698e-05 -2.6784042e-05 -3.5036548e-05 2.57948e-05
000350 8a cb de b7 bb 03 e4 37 af 35 97 b7 21 6e 18 38
       -2.6559243e-05 2.7181455e-05 -1.8025601e-05 3.634219e-05
000360 0b ec d4 b7 f0 da 10 38 01 02 24 38 ee f0 07 38
       -2.5382285e-05 3.4536177e-05 3.9102513e-05 3.241089e-05
000370 c7 64 ca b7 42 fc 1c b8 9c 65 cf b7 57 94 55 38
       -2.4127205e-05 -3.742823e-05 -2.4723638e-05 5.092131e-05
000380 fb 2c a6 b7 89 41 40 b7 77 32 8e 37 6d c9 19 38
       -1.9809688e-05 -1.145935e-05 1.6951219e-05 3.6665635e-05
000390 ef 9d 40 b8 9a 84 45 b8 d9 6d df b7 64 b5 37 b8
       -4.5923454e-05 -4.7091955e-05 -2.6634823e-05 -4.3799533e-05
0003a0 ec d6 08 b8 ed d7 99 37 23 fc 03 b8 5e 3b 40 b6
       -3.262509e-05 1.833957e-05 -3.1467654e-05 -2.8644786e-06
0003b0 d2 28 13 b7 21 b0 3f b8 de c4 1e 38 32 ec 8e b7
       -8.771387e-06 -4.570198e-05 3.7853482e-05 -1.7037706e-05
0003c0 bc 8b 53 37 fc c3 1e b8 40 00 97 b7 c0 b6 41 b8
       1.26091145e-05 -3.785266e-05 -1.800072e-05 -4.6184985e-05
0003d0 52 c8 0a 38 17 16 04 b8 66 e4 a1 b7 57 c8 03 38
       3.3088327e-05 -3.1491825e-05 -1.9299052e-05 3.1419415e-05
0003e0 ac 45 05 b8 04 51 04 38 81 80 d9 b7 9b 46 36 b8
       -3.1774558e-05 3.1546704e-05 -2.5928255e-05 -4.3457938e-05
0003f0 3d c1 16 b8 00 2f 85 b7 5e 55 77 b6 d8 d0 58 b6
       -3.5942754e-05 -1.5876722e-05 -3.6855558e-06 -3.2308071e-06

gcn_convs.0.path_weight_2.bias f4 [64]
000000 8d ac f2 be 62 96 3a 3a 24 88 a2 b9 10 b2 97 3f
       -0.4739727 0.00071177457 -0.0003100048 1.1851215
000010 10 6d 87 bb 31 b6 3b 3f 66 41 94 3f 44 4c 52 3f
       -0.0041328743 0.7332488 1.1582458 0.8214762
000020 a6 cc 8a 3f 01 0a 86 be d5 8c 4b bf e2 f7 e3 3e
       1.0843704 -0.26179507 -0.7951177 0.44525057
000030 60 34 5d 3f f4 c8 8d 3f a4 b4 08 bf 22 cf 23 ba
       0.8640804 1.1076951 -0.53400636 -0.0006248822
000040 66 6c 58 3f 26 df 23 bf a7 a3 3a 3f b1 45 16 bd
       0.845404 -0.6401237 0.72905964 -0.036687557
000050 6b db 68 bf 67 3d 8a 3f 3a eb 4d bc 3d 54 7d 3e
       -0.90959805 1.0799989 -0.012568289 0.24739166
000060 76 ac b1 39 7f 9c 2d 3f 78 53 13 bf 6e d9 40 bf
       0.00033888564 0.6781692 -0.5754924 -0.7533177
000070 4d 54 57 bf 53 ea e7 be ee e9 0b bb 62 3c 24 3f
       -0.8411301 -0.45295963 -0.002134915 0.64154637
000080 59 fa 78 bf 85 9e 7c be 2d 3e 0a bf e2 62 4e ba
       -0.97257 -0.24669845 -0.5400112 -0.0007873011
000090 da 3d 3b bf 5e 6e dc 3a 95 e8 68 bf 21 19 56 3f
       -0.73141253 0.001681756 -0.9097989 0.83632094
0000a0 27 37 ef ba 62 eb 77 3f 59 ee 05 bf 85 30 88 be
       -0.001825069 0.9684354 -0.52316815 -0.26599517
0000b0 23 6e 69 ba 51 33 43 bf f1 ea 73 3e d1 09 ef 39
       -0.0008904656 -0.7625018 0.23820092 0.00045592946
0000c0 39 c4 b3 b9 83 a1 91 3f 11 fa 5e bc 18 d6 7f 3e
       -0.00034287738 1.1377414 -0.013609425 0.24984014
0000d0 0e 7a 6b be f8 bc 25 bf f3 35 7f 3e 23 d1 77 3e
       -0.22995779 -0.6474147 0.24922924 0.24200873
0000e0 d1 bd 1d 3f 37 5d 98 3f 4d 03 1a 39 d7 76 aa b8
       0.6161776 1.1903447 0.00014687814 -8.128367e-05
0000f0 4e 61 72 3f 26 02 83 bd 82 d1 5e bf f6 07 78 3f
       0.94679725 -0.06396894 -0.87038434 0.9688715

gcn_convs.1.path_weight_1.weight f4 [64, 64]
000000 8a 7f 0c 38 93 dc 6b 38 64 fc 96 b9 7d f0 13 38
       3.349738e-05 5.6233792e-05 -0.00028798275 3.5271503e-05
000010 ee a7 07 b9 79 4b 91 b8 1e 77 cd b8 f4 37 86 38
       -0.00012937162 -6.928197e-05 -9.797349e-05 6.40004e-05
000020 b5 3f 8a b9 7c c7 ab b7 de 0b 91 39 50 bd e5 b8
       -0.00026368877 -2.047768e-05 0.00027665397 -0.00010954833
000030 ab 89 a9 38 c2 96 d7 b8 1a 63 18 38 93 fc 56 b9
       8.0841906e-05 -0.0001028008 3.633192e-05 -0.00020502722
000040 f5 fa 83 38 13 a4 5e 39 1a a1 20 b8 96 be 33 b9
       6.293311e-05 0.00021232692 -3.829701e-05 -0.00017141769
000050 25 54 df 38 57 ad c5 b7 b2 12 25 b9 62 db 12 b9
       0.00010649142 -2.3564948e-05 -0.00015742591 -0.00014005371
000060 05 b2 f4 38 51 dd 19 b9 2b cd 8c 38 45 56 99 b9
       0.000116679854 -0.00014673664 6.713936e-05 -0.0002924671
000070 c8 74 30 b9 96 71 4c b7 6c ae fd 36 dc 81 2b b9
       -0.00016828172 -1.2185794e-05 7.560293e-06 -0.00016356207
000080 4b 4b 37 39 6b 5d 1a 39 e0 50 82 39 56 50 4f 38
       0.00017480289 0.00014721385 0.0002485579 4.9427465e-05
000090 1c 5d c0 b8 cf 02 91 b8 d0 18 24 b9 b0 7a c3 b8
       -9.1726164e-05 -6.914662e-05 -0.00015649502 -9.321177e-05
0000a0 bb 86 8f b7 82 d9 7f 38 33 1b 69 39 12 22 27 39
       -1.7109667e-05 6.0999308e-05 0.00022230744 0.00015939053
0000b0 fb 2c 29 38 75 f9 14 39 48 25 09 39 ea d8 07 b9
       4.033463e-05 0.0001420731 0.00013079226 -0.0001295541
0000c0 c6 8f c3 b8 7b 6f 26 39 45 2c 83 38 91 09 37 b9
       -9.3251045e-05 0.00015872523 6.2548126e-05 -0.00017455804
0000d0 e8 bb 6a 38 fc 0d ac b8 0a eb a4 b8 d7 e2 50 39
       5.596495e-05 -8.204204e-05 -7.863909e-05 0.0001992093
0000e0 c0 c2 37 39 22 6d a4 38 6f 24 bd b8 45 51 24 39
       0.0001752479 7.840457e-05 -9.0190086e-05 0.00015670534
0000f0 de 80 32 39 fb 36 38 39 fe 8d 3f 37 39 b9 33 b9
       0.0001702341 0.00017568089 1.1417547e-05 -0.00017139771
000100 a2 94 25 39 26 63 35 39 4a 41 42 39 5c 24 c3 38
       0.00015790996 0.00017298441 0.00018525604 9.305097e-05
000110 0d 79 93 36 31 5c c6 b8 a7 51 ac b8 61 f7 86 38
       4.3950336e-06 -9.458548e-05 -8.216808e-05 6.435696e-05
000120 c5 11 80 38 10 df 6c 39 52 a9 c8 b8 3d 87 9c 38
       6.1068255e-05 0.00022589811 -9.5682815e-05 7.46385e-05
000130 e1 1c a2 b8 40 11 d5 b8 35 88 12 34 b9 a9 41 b9
       -7.730141e-05 -0.000101598445 1.3646861e-07 -0.00018469141
000140 0d ac 92 b9 07 56 18 b9 2d 1d 6a 36 26 ec 8b 37
       -0.00027975478 -0.00014527897 3.48857e-06 1.6680056e-05
000150 31 67 35 38 e0 e8 56 b8 cc 14 84 b7 0a c5 73 38
       4.3249867e-05 -5.1238458e-05 -1.574531e-05 5.811922e-05
000160 c5 c4 69 38 ff 5d 1a b7 26 d8 20 37 a2 af 91 38
       5.5734785e-05 -9.2010005e-06 9.587069e-06 6.946853e-05
000170 c3 11 07 39 73 87 21 39 b6 d3 4f 38 8e 28 9c 38
       0.0001288122 0.00015404615 4.9549817e-05 7.4462136e-05
000180 2e 70 7f 38 01 b5 7f b6 31 d2 4f b9 24 c9 47 39
       6.0901213e-05 -3.810332e-06 -0.00019819361 0.0001905305
000190 cf 2a 0e b9 74 63 e8 b7 59 69 4a b9 f1 ae 58 39
       -0.00013558123 -2.7702867e-05 -0.00019303466 0.00020664536
0001a0 83 e1 e8 b7 09 04 ee 38 f1 2f a2 38 50 33 08 38
       -2.7761567e-05 0.00011349476 7.733692e-05 3.2472715e-05
0001b0 08 25 71 b8 08 40 8d 37 a1 0e 15 39 2c af 43 b9
       -5.7493366e-05 1.6838327e-05 0.00014215197 -0.00018661906
0001c0 5b 77 6d b9 6b eb a7 b7 f3 2a 2b 39 1a e3 86 38
       -0.00022646545 -2.0017576e-05 0.0001632383 6.431919e-05
0001d0 7d 9a 13 38 10 86 18 39 a0 f1 89 b8 56 81 40 b9
       3.519141e-05 0.00014545792 -6.577675e-05 -0.00018358728
0001e0 1a 4d 6f b7 40 50 df b7 2e a1 43 37 74 71 72 b8
       -1.4263462e-05 -2.662104e-05 1.1660433e-05 -5.7802958e-05
0001f0 3b 2d 6a 39 66 c3 b0 38 fe 9a 16 39 a2 b9 7f b8
       0.00022332829 8.42873e-05 0.00014362854 -6.096962e-05
000200 86 c9 8e b7 47 92 2b b7 b0 40 d2 37 f4 df 57 b9
       -1.702156e-05 -1.0226452e-05 2.5064073e-05 -0.00020587427
000210 2c c8 43 39 11 ad a5 38 d0 53 de 38 36 2a 4f 39
       0.00018671219 7.900049e-05 0.00010601396 0.00019756783
000220 83 a3 05 b9 c8 2b de b8 be 38 8b 38 65 39 4b b8
       -0.00012744781 -0.0001059394 6.6386056e-05 -4.8452424e-05
000230 ef da bf 37 a9 ac 63 39 4f 67 31 38 1a a5 a5 b8
       2.2870923e-05 0.00021712728 4.2296302e-05 -7.898566e-05
000240 9c 61 d4 b8 42 5e 1c 38 87 28 16 b8 4c 48 83 b8
       -0.00010127129 3.7281083e-05 -3.580053e-05 -6.260033e-05
000250 d8 d2 ad 37 dc 91 72 b8 74 22 b6 b8 b5 5f 76 b8
       2.0721389e-05 -5.783314e-05 -8.684854e-05 -5.8740105e-05
000260 65 3f 16 b9 d5 e4 8b 38 6a 42 25 b6 58 aa 14 39
       -0.00014328731 6.67066e-05 -2.4625574e-06 0.00014177838
000270 be b4 3a b9 9d a1 2f b9 01 b9 b0 38 b1 6a ae b8
       -0.00017805674 -0.00016749506 8.426794e-05 -8.3168394e-05
000280 a3 18 38 37 91 21 84 38 2a f4 75 b9 1f 84 c0 b8
       1.0972991e-05 6.300503e-05 -0.00023455979 -9.179883e-05
000290 4d c2 1c 39 aa 3e 9e 38 2b 66 d6 b8 d5 98 93 37
       0.00014949702 7.545699e-05 -0.000102233455 1.7594934e-05
0002a0 d1 3e b0 b8 0b ee 12 39 c6 9d 4e 38 bb c4 d4 37
       -8.4040345e-05 0.00014012323 4.9261165e-05 2.536398e-05
0002b0 d4 4a a0 37 63 91 7c b7 9f 6e df b7 fd 15 b6 38
       1.910833e-05 -1.5054221e-05 -2.6635184e-05 8.682532e-05
0002c0 61 70 78 b8 16 d3 07 b9 64 92 4c b9 ad 2d 26 b9
       -5.923247e-05 -0.00012953239 -0.00019509491 -0.00015848009
0002d0 4f d9 06 39 1e be d1 b8 a9 e6 0f b8 48 e5 5d b8
       0.0001286019 -0.00010001309 -3.4308676e-05 -5.290404e-05
0002e0 d0 3f c2 b7 17 46 90 b7 40 fe 46 39 f4 08 68 38
       -2.3156317e-05 -1.7198776e-05 0.00018977467 5.532145e-05
0002f0 7a 72 c4 38 bf 1b 22 39 89 65 58 b8 07 64 27 b9
       9.367331e-05 0.0001545986 -5.1592975e-05 -0.00015963624
000300 9d 99 85 39 68 7f cb b8 dc 96 46 b8 e2 fe b3 b7
       0.00025482188 -9.7035256e-05 -4.7347377e-05 -2.1457152e-05
000310 2d 08 2c b9 55 9f 03 b9 61 99 c1 38 14 c3 30 b8
       -0.00016406244 -0.0001255249 9.231526e-05 -4.214335e-05
000320 49 b7 0d 39 c6 fe 32 b8 14 4e 17 39 7c 1d 8c b9
       0.00013515087 -4.2675783e-05 0.00014429569 -0.00026724848
000330 2d 65 2b 39 b1 ca 33 39 9e 0c 96 b9 c4 3a 86 b8
       0.00016345522 0.00017146279 -0.0002861963 -6.400564e-05
000340 c6 40 e4 b8 df c2 26 b9 c2 79 89 38 c6 99 b1 b8
       -0.00010883952 -0.00015903589 6.555348e-05 -8.46866e-05
000350 3d e8 e6 b8 1a 63 ba b8 85 83 29 b9 14 fd d7 b8
       -0.000110105124 -8.88763e-05 -0.00016166091 -0.000102991384
000360 42 2f 51 b9 55 00 3d b8 41 4b 06 39 cf 88 b8 b7
       -0.00019949398 -4.506142e-05 0.0001280727 -2.1998216e-05
000370 21 86 fb 38 71 63 01 b9 1e 0c a2 b8 7c 5b 13 39
       0.00011993596 -0.00012339443 -7.727019e-05 0.00014053093
000380 94 7c 2b b8 eb 63 08 b9 10 30 55 b9 f5 c3 5f b8
       -4.08856e-05 -0.00013007193 -0.00020331168 -5.3349842e-05
000390 46 84 26 39 88 7a 5f b8 b7 3c 6e b9 e8 ab d6 b6
       0.0001588027 -5.328146e-05 -0.00022720067 -6.3977095e-06
0003a0 f9 e4 e8 37 36 a2 b2 38 69 36 3d 38 1c fd 70 b9
       2.7763179e-05 8.5179156e-05 4.5111785e-05 -0.00022982474
0003b0 3e a3 ce b8 37 f4 0d b9 c5 9b 29 b9 53 8d e4 b8
       -9.853252e-05 -0.00013537785 -0.00016175125 -0.00010898211
0003c0 b1 98 17 b9 a3 f1 08 38 ae 2c 1e b9 c0 7f c3 b8
       -0.00014457364 3.264997e-05 -0.00015084699 -9.32212e-05
0003d0 6b d9 e9 37 28 1a ec 38 b7 25 de b8 3c 57 34 39
       2.7877008e-05 0.00011258229 -0.0001059281 0.00017198635
0003e0 85 26 8d b9 81 3e b2 b7 c0 30 66 b7 a0 c7 25 38
       -0.00026922315 -2.124836e-05 -1.3720419e-05 3.952498e-05
0003f0 aa 84 bc 38 75 e9 70 38 f5 f5 d6 b8 d2 03 36 39
       8.989249e-05 5.7437883e-05 -0.00010250128 0.00017358296

gcn_convs.1.path_weight_1.bias f4 [64]
000000 84 b3 86 b8 8d 39 d7 bd 57 51 9b be 7b df 44 ba
       -6.423055e-05 -0.10509024 -0.30335495 -0.0007510108
000010 3e 92 4b 3b 25 14 0c b9 66 c0 a3 b8 c1 b0 01 3a
       0.003106251 -0.00013358945 -7.808283e-05 0.0004947298
000020 81 d3 f7 3d 76 82 47 3a c5 da 36 3e 40 91 d0 b9
       0.12100888 0.0007610688 0.17856891 -0.0003978107
000030 d7 86 43 3a ac 75 6e 3e ae 7c 8f be 8a 9f c9 37
       0.00074587524 0.23287076 -0.2802481 2.4035358e-05
000040 92 2f af 3a b4 46 6e be 56 dd e2 38 a2 05 06 3a
       0.0013365617 -0.23269159 0.00010817747 0.00051125337
000050 6a 44 12 39 c5 66 98 3d a9 62 65 ba 5d 06 83 b9
       0.00013949131 0.07441477 -0.0008750358 -0.00024991008
000060 fa 03 be 39 7d f9 73 bc 53 f2 1d ba d3 99 7d 39
       0.00036242587 -0.014891026 -0.0006025184 0.00024185264
000070 28 e6 3a b9 6e 03 37 3e 2a cf 92 3c 53 d4 b7 3a
       -0.00017824082 0.17872402 0.01792105 0.001402507
000080 39 28 8b b9 cd 6f c4 38 3d 54 83 3a 36 0b 42 ba
       -0.00026542114 9.366833e-05 0.0010019612 -0.0007402183
000090 58 7a 10 3f 0f a9 d9 36 c9 c8 a3 3e 65 6a 4c 3c
       0.5643668 6.486785e-06 0.31989124 0.012476538
0000a0 b2 82 bc 39 a5 15 d3 b9 9e 63 86 3c cc 08 89 be
       0.0003595553 -0.00040261183 0.016404923 -0.26764524
0000b0 e4 e7 27 b9 01 99 6d 3b d2 5b a5 37 9c 55 f3 b9
       -0.00016012747 0.0036254528 1.971229e-05 -0.00046412356
0000c0 06 05 59 3a 15 bb 7b 3c 76 42 12 38 3d 7e 3d be
       0.00082786416 0.015364428 3.487101e-05 -0.18505187
0000d0 ee ce 01 ba 3f fe fb 3b 99 79 b2 3e 47 ca cf b9
       -0.00049517944 0.0076902206 0.34858397 -0.00039632825
0000e0 d3 16 2a bd e6 33 db 39 a6 20 86 3a 67 78 08 3e
       -0.041525673 0.00041809602 0.0010233119 0.1332718
0000f0 28 4c 2b bc 33 97 fe 39 11 5e a2 ba 03 24 de b9
       -0.010455169 0.00048559307 -0.0012387653 -0.0004236997
