fully-supervised/saved_models/pubmed_8_layers_.pt (torch, 389513 bytes, 52 tensors)

trans_feat.weight f4 [64, 500]
7.771842e-05 -5.2409057e-05 5.562397e-05 -8.998671e-05 -0.00011600227 -3.614859e-05 -6.708434e-05 1.9337647e-05
-0.00046527426 -0.00014135698 -2.1690483e-05 -5.3909956e-05 7.5002565e-05 -0.00012119708 -8.746077e-05 -0.00041388412
2.7480799e-05 9.2666975e-05 -3.5961384e-05 -4.20062e-05 4.1558702e-05 -5.823906e-05 0.00026273308 -6.620558e-05
-4.984157e-05 -2.4172625e-05 0.00022342426 -3.8144837e-05 0.00017962525 3.058662e-05 0.00010553841 -0.00015067146
-3.529498e-05 -9.512034e-05 0.00019053258 4.6297497e-05 0.00029497646 2.4385987e-05 -9.489691e-05 -0.00023335034
0.0002406603 -0.00011414303 -1.1115189e-05 -1.3857102e-06 -8.6754095e-05 1.7459683e-05 0.00023963387 -8.0588696e-05
-7.716982e-05 -5.5854645e-05 -2.2710145e-05 1.7797996e-05 0.0004455363 -5.142472e-05 0.00015954352 0.00013538086
2.1487822e-06 -4.7802518e-05 5.216383e-06 -2.5167177e-05 -3.497819e-05 1.6731328e-05 0.00023237444 -0.0001087069
-8.536316e-05 0.00016751364 -8.595493e-05 -7.17843e-05 3.688231e-05 5.219954e-05 2.7851333e-05 2.2675058e-05
9.08128e-05 -3.6869928e-06 -4.712521e-05 6.858417e-05 -2.8937462e-05 8.205393e-05 -4.397695e-06 0.00015871796
-0.00015811757 5.0835977e-05 -0.0002009045 -5.741875e-06 0.00010565788 -0.00012163954 -7.354155e-05 3.4197154e-05
-7.650908e-05 -1.2136192e-05 -2.9711395e-05 0.00016641004 -0.0002646392 -0.00019599518 0.00015035231 1.0623445e-05
6.9623144e-05 -6.497628e-05 0.00013228488 0.00013396672 -0.00013020763 -3.1616233e-05 1.2395423e-05 -9.880776e-05
9.272138e-05 -1.6728914e-05 -9.778184e-05 6.5227774e-05 -1.7473081e-05 0.00018099805 1.2158901e-05 -0.000103188
1.8386123e-05 5.4785298e-05 0.00010404176 -0.00018397137 -0.00012468518 5.76763e-06 -0.00024194972 1.045014e-05
-3.372952e-07 7.949675e-07 0.00015500229 0.00012594389 -7.479616e-05 -0.00013824584 0.00015227958 -0.00031305823
-3.708289e-05 5.4653923e-05 3.61378e-05 6.493543e-05 2.5937501e-05 -5.4630755e-07 3.721931e-05 -5.5449655e-06
-0.00013431913 0.00011848942 0.00012565848 0.00015814495 -4.6658024e-06 0.00010494416 -9.519598e-05 -0.00012806983
-4.212609e-05 -4.7376605e-05 0.00027072983 -5.3050513e-05 -3.8978793e-05 0.00012669523 -9.0862675e-05 -2.2951128e-05
2.7227932e-05 -5.92644e-05 4.5618624e-05 -7.068492e-05 -0.00011658403 -0.00012150086 8.432005e-05 0.00010104102
-6.269741e-05 -1.33588765e-05 0.0004683992 -0.0003846395 0.00016285764 -5.7677673e-05 -0.00010249224 -4.667625e-05
6.868169e-05 -7.2100636e-05 -0.00011910657 -0.00016039166 6.949162e-05 -0.0001411783 -6.8688445e-05 3.313706e-05
2.5812245e-05 -0.00014755485 0.00015288721 -0.0002559519 0.00013745207 6.3895684e-05 -2.5529956e-05 -0.00021060911
-5.7498815e-05 -0.0002188662 5.448729e-05 0.00014130327 0.00019719567 8.5160864e-05 9.221191e-05 -4.43295e-05
-0.00010168151 0.00044582912 8.773204e-05 -0.00017828256 3.0064508e-05 -0.00015326201 0.00018069468 -1.0576832e-05
-0.00011342481 1.4338591e-05 0.00012883576 9.227668e-05 -6.94043e-05 -0.00020216647 -0.00013099828 -0.00021052593
1.1474958e-05 -2.81631e-05 -1.9920193e-05 1.9625586e-05 9.525339e-05 -0.0001690056 3.0968382e-05 4.6514782e-05
0.00029387634 -1.5391204e-05 5.421178e-06 -0.00011209545 8.395143e-05 5.094702e-05 1.417272e-05 1.1991928e-05
3.6322333e-05 -9.755616e-05 5.4269825e-05 -6.758724e-05 0.00035694314 -2.2941858e-05 0.00016952536 -5.438289e-05
-9.526173e-05 9.60524e-05 0.00011233764 -0.00011537943 -0.00034794395 0.00013490483 -0.00021099481 -3.3751385e-05
-0.0001245132 -4.639626e-05 -5.6802488e-05 2.4989062e-05 -0.00013223561 -9.413682e-05 -4.692374e-06 0.00023144338
9.396266e-05 -2.9629273e-05 0.00012749345 0.00029192117 -0.00017635377 -4.505094e-05 -0.00024615432 -5.5152395e-05
00000000: c2fc a238 ccd1 5bb8 c84d 6938 3fb7 bcb8
00000010: 3f46 f3b8 419e 17b8 a1af 8cb8 4837 a237
00000020: 0ef0 f3b9 3a39 14b9 f5f3 b5b7 601d 62b8
00000030: b24a 9d38 302b feb8 256b b7b8 96fe d8b9
00000040: 9186 e637 3456 c238 3ed5 16b8 d02f 30b8
00000050: 514f 2e38 b745 74b8 70bf 8939 dad7 8ab8
00000060: fa0c 51b8 51c6 cab7 fe46 6a39 b5fd 1fb8
00000070: c959 3c39 224a 0038 8154 dd38 90fd 1db9
00000080: b209 14b8 587b c7b8 b3c9 4739 8f2f 4238
00000090: 12a7 9a39 8290 cc37 6403 c7b8 81af 74b9
000000a0: c259 7c39 1360 efb8 607b 3ab7 a4fc b9b5
000000b0: c0ef b5b8 6276 9237 3a46 7b39 ba01 a9b8
000000c0: 3bd6 a1b8 7845 6ab8 aa81 beb7 e84c 9537
000000d0: df96 e939 dfb0 57b8 234b 2739 06f5 0d39
000000e0: cc33 1036 907f 48b8 6408 af36 1a1e d3b7
000000f0: 8cb5 12b8 415a 8c37 8aa9 7339 93f9 e3b8
00000100: ff04 b3b8 9aa6 2f39 b442 b4b8 e78a 96b8
00000110: 14b2 1a38 d4f0 5a38 48a2 e937 5136 be37
00000120: c072 be38 0e6e 77b6 4fa8 45b8 d9d4 8f38
00000130: babe f2b7 5e14 ac38 ea8f 93b6 876d 2639
00000140: 5dcc 25b9 b738 5538 e4a9 52b9 55aa c0b6
00000150: a494 dd38 bb18 ffb8 523a 9ab8 ea6e 0f38
00000160: 8073 a0b8 8c9c 4bb7 bc3c f9b7 5b7e 2e39
00000170: 46bf 8ab9 0e84 4db9 e4a7 1d39 593b 3237
00000180: a402 9238 e043 88b8 f4b5 0a39 6b79 0c39
00000190: 5888 08b9 ac9b 04b8 f0f5 4f37 0337 cfb8
000001a0: 6973 c238 1255 8cb7 3a10 cdb8 e5ca 8838
000001b0: 2893 92b7 4bca 3d39 15fe 4b37 a366 d8b8
000001c0: e63b 9a37 44c9 6538 ff30 da38 70e8 40b9
000001d0: ecbd 02b9 9087 c136 e2b3 7db9 0253 2f37
000001e0: 8015 b5b4 c065 5535 1c88 2239 ce0f 0439
000001f0: e2db 9cb8 16f6 10b9 3dad 1f39 f721 a4b9
00000200: 7389 1bb8 343c 6538 ab92 1738 f22d 8838
00000210: 5c94 d937 f8a5 12b5 ee1b 1c38 e40e bab6
00000220: 04d8 0cb9 867d f838 31c3 0339 b6d3 2539
00000230: f08e 9cb6 7815 dc38 f4a3 c7b8 7c4a 06b9
00000240: 8bb0 30b8 3eb6 46b8 bef0 8d39 8e82 5eb8
00000250: 297d 23b8 7ed9 0439 878d beb8 2c87 c0b7
00000260: 8a67 e437 aa92 78b8 a056 3f38 ad3c 94b8
00000270: 937e f4b8 47ce feb8 fbd4 b038 fce5 d338
00000280: 6a7c 83b8 f01f 60b7 7a93 f539 71a9 c9b9
00000290: c4c4 2a39 eeea 71b8 1af1 d6b8 3ec6 43b8
000002a0: 3409 9038 bc34 97b8 dac8 f9b8 cf2e 28b9
000002b0: 08bc 9138 4309 14b9 d40c 90b8 a6fc 0a38
000002c0: 6087 d837 f4b8 1ab9 5950 2039 4831 86b9
000002d0: 0221 1039 bcff 8538 2a29 d6b7 f4d6 5cb9
000002e0: e22a 71b8 737f 65b9 4889 6438 cf2a 1439
000002f0: 4fc6 4e39 6498 b238 e461 c138 70ee 39b8
00000300: d83d d5b8 2cbe e939 c8fc b738 5cf1 3ab9
00000310: 0a33 fc37 f5b4 20b9 dc78 3d39 2673 31b7
00000320: 7bde edb8 c88f 7037 1618 0739 aa84 c138
00000330: 268d 91b8 a6fc 53b9 955c 09b9 a0c0 5cb9
00000340: 9284 4037 cc3f ecb7 4a1a a7b7 a0a1 a437
00000350: c6c2 c738 1837 31b9 0ce4 0138 de18 4338
00000360: 6a13 9a39 5c1c 81b7 90e7 b536 c914 ebb8
00000370: 150f b038 f2af 5538 5ec7 6d37 f030 4937
00000380: cf58 1838 1197 ccb8 c89f 6338 a0bd 8db8
00000390: 1924 bb39 4473 c0b7 9ec2 3139 2f19 64b8
000003a0: 40c7 c7b8 bd6f c938 d096 eb38 dcf7 f1b8
000003b0: 3f6c b6b9 3d75 0d39 7d3e 5db9 4690 0db8
000003c0: c28f 02b9 9b99 42b8 353f 6eb8 9a9f d137
000003d0: baa8 0ab9 526b c5b8 3073 9db6 9caf 7239
000003e0: d20d c538 618c f8b7 c3af 0539 ff0c 9939
000003f0: 9beb 38b9 14f5 3cb8 460e 81b9 6f53 67b8

trans_feat.bias f4 [64]
-4.153886e-06 6.2686495e-06 -2.554155e-06 2.9120251e-06 -4.6121504e-06 6.8746717e-06 -6.310942e-06 6.870469e-06
-2.522755e-06 -1.2874275e-06 -5.5863047e-06 -5.066664e-06 -6.541213e-06 -5.077659e-07 4.052959e-06 -5.5811574e-06
-3.0120264e-06 1.6378449e-06 -6.3825873e-06 -3.5549836e-06 -1.218611e-06 -2.7444244e-06 5.6128633e-06 -4.820712e-06
1.8308965e-06 -1.1678817e-06 6.66837e-08 9.869023e-07 -6.01517e-06 -4.178547e-06 -6.126249e-06 5.2183104e-06
-3.9514857e-06 3.5847868e-06 1.8547044e-06 -6.885446e-06 5.615227e-06 5.3557437e-06 5.517839e-06 -4.2931547e-06
-2.3173016e-08 8.484226e-07 2.9882513e-06 -6.312225e-07 -1.0576614e-06 -3.1582351e-06 -6.3724933e-06 3.2966827e-06
-4.575221e-06 1.1856457e-06 2.9123235e-06 6.593184e-06 6.4973406e-06 4.80485e-06 -6.765692e-06 2.255274e-08
3.6232707e-06 -5.432709e-06 3.476088e-06 6.524645e-06 -3.2831824e-06 -8.1661165e-07 6.79437e-06 -6.291185e-06
00000000: 9c61 8bb6 4a57 d236 0c68 2bb6 366c 4336
00000010: 12c2 9ab6 fbac e636 94c2 d3b6 e188 e636
00000020: 9a4c 29b6 accb acb5 fe71 bbb6 5002 aab6
00000030: 987c dbb6 684d 08b5 a7fe 8736 c745 bbb6
00000040: 3822 4ab6 ecd3 db35 022a d6b6 2792 6eb6
00000050: 288f a3b5 da2c 38b6 2156 bc36 9ac1 a1b6
00000060: 20bd f535 1cc0 9cb5 c033 8f33 b475 8435
00000070: ebd5 c9b6 7235 8cb6 1490 cdb6 f218 af36
00000080: 0197 84b6 2b92 7036 28ef f835 8809 e7b6
00000090: 6f6a bc36 7db5 b336 e025 b936 eb0d 90b6
000000a0: 000e c7b2 28bf 6335 c489 4836 4871 29b5
000000b0: f8f4 8db5 11f2 53b6 4dd3 d5b6 943c 5d36
000000c0: d984 99b6 7a22 9f35 5671 4336 053b dd36
000000d0: bb03 da36 5939 a136 da04 e3b6 00ba c132
000000e0: 5127 7336 9d4a b6b6 bd46 6936 46ee da36
000000f0: a554 5cb6 2035 5bb5 32fb e336 de18 d3b6

pred_trans.weight f4 [3, 500]
12.798369 -0.65855217 -0.36692187 0.23508026 -0.28160584 -0.9177965 1.7825186 -0.19300447
7.718781 0.23492287 -0.36515474 0.18623568 -0.16826813 0.23356472 0.4403348 6.0992403
-2.7039852 -0.48336464 -0.08364597 0.18521458 -0.96412915 3.6837854 0.16906253 3.6995509
3.6817842 3.0506248 0.015188806 -0.07813292 1.8020364 0.53785956 0.121661924 1.0570397
3.383314 2.6363823 0.9632573 1.4815893 -0.36122248 0.15079275 2.6689746 3.2416532
0.4951676 0.22577696 0.3179129 1.3595848 -1.0187982 -0.1662625 0.1590721 0.51308614
-0.050928377 -2.3023536 0.4445526 -1.0271598 1.8452119 1.0586554 2.4990077 -0.8989541
-0.31084543 -1.0542121 -0.19795631 -1.4793681 2.3475854 0.050079472 0.77117056 1.0780023
-0.13114886 1.1988484 1.4883565 -0.59116584 -0.7415455 -0.8387316 -5.9986644 0.10242159
-0.27126315 -0.38271016 0.85833174 0.5124271 0.48996955 1.5327988 0.17208457 0.13670716
-0.6852669 0.16202274 0.32381368 0.23576258 0.4159626 -1.4542272 -1.4094186 -0.641334
-0.65924233 -8.3102255 -1.9081298 -0.5837244 1.8420082 3.0685499 0.77703154 -0.034234118
-0.122500665 0.13852364 0.9051545 1.1683556 0.048469674 0.6649502 0.90120643 -0.093319505
0.08677819 -0.24857673 0.43264395 0.17255676 -0.8757405 -0.5258004 3.0314429 -0.7090511
-0.5196495 0.18608236 -1.0448363 -0.52699226 0.21897839 -0.29172808 -0.1702638 2.272023
-1.1386435 -1.9470325 -0.16953158 0.20821844 -0.64314735 -0.9947728 -1.0132782 -1.0065634
-0.6715066 -0.89929533 -0.7850116 -0.7244017 -1.5304588 -1.150794 -0.8466848 -0.77922225
-0.99072343 -1.2735173 -0.7089147 -1.9995444 0.34971094 -0.5302427 -0.57085496 -1.2174207
-1.0363215 -0.5438217 1.0555471 -0.29564464 -1.0604401 -2.303559 0.47417685 0.39430895
-0.43120065 -0.5883684 -0.21191272 0.253917 0.6994789 1.7214726 -1.0485823 4.0554223
-0.8264271 -0.4586316 -1.8402579 -0.31545967 0.9108311 0.012574979 -0.1011429 -0.5744588
1.2955227 2.7281647 0.2897625 1.1233002 1.2276787 1.0922643 -0.07705409 -0.18949322
-0.43745238 0.7880424 0.831391 0.6394968 -0.80363494 -0.115629844 -0.5433639 2.2774398
7.723751 0.42637217 -0.47761783 0.12670027 -0.12843919 -1.0046562 -1.080383 0.23712158
1.5970914 0.6805805 -0.28547254 -0.96903044 1.270681 -0.31176028 0.7999965 -0.40118662
3.1674864 -2.1191835 0.9528793 -1.593489 2.3746707 -1.3786685 -1.1351805 -0.6240702
0.025824454 0.8602232 -0.7173075 0.09417132 -1.0916238 -1.1373899 0.7605603 -0.66728956
-1.0267597 -1.4928166 -1.3127159 -0.85555387 0.5639115 -1.4256642 -0.81601393 -0.10950839
-1.4054334 -0.68537945 -1.3144042 -0.35777754 1.0425981 -0.46419838 -0.4892803 -1.3595243
-2.5162182 -0.059075266 -1.8695569 -2.429788 1.6614659 -1.5943278 -0.9257042 -1.7320201
-1.1641914 -0.13839573 0.6668373 -1.2974592 -0.9411631 -0.8968366 -1.178502 -3.2754421
2.695212 0.089067005 0.1434027 -5.784609 1.1397082 -0.3307585 -0.30414417 -0.74493504
00000000: 1fc6 4c41 e096 28bf 2fdd bbbe e1b8 703e
00000010: a42e 90be b6f4 6abf 9229 e43f f7a2 45be
00000020: 4100 f740 9f8f 703e 90f5 babe 91b4 3e3e
00000030: 7b4e 2cbe 972b 6f3e 9073 e13e fa2c c340
00000040: 180e 2dc0 927b f7be 944e abbd e4a8 3d3e
00000050: 2bd1 76bf 24c3 6b40 ba1e 2d3e 71c5 6c40
00000060: 5aa2 6b40 703d 4340 78da 783c 2704 a0bd
00000070: 21a9 e63f 2ab1 093f e329 f93d 144d 873f
00000080: 3788 5840 7dba 2840 0898 763f b8a4 bd3f
00000090: 27f2 b8be 6a69 1a3e 7bd0 2a40 3f77 4f40
000000a0: 9c86 fd3e 1332 673e 7bc5 a23e e006 ae3f
000000b0: fb67 82bf b840 2abe cce3 223e 9d59 033f
000000c0: 469a 50bd c359 13c0 669c e33e f979 83bf
000000d0: e72f ec3f 0582 873f beef 1f40 db21 66bf
000000e0: 2227 9fbe 6cf0 86bf 0fb5 4abe ef5b bdbf
000000f0: d73e 1640 2220 4d3d 6f6b 453f fbfb 893f
00000100: e34b 06be dd73 993f 7782 be3f a556 17bf
00000110: edd5 3dbf 1db7 56bf 0ff5 bfc0 69c2 d13d
00000120: 01e3 8abe 96f2 c3be a1bb 5b3f 6c2e 033f
00000130: 4add fa3e c032 c43f f036 303e f6fc 0b3e
00000140: a76d 2fbf 4ae9 253e e8ca a53e bf6b 713e
00000150: 0df9 d43e 1e24 babf d467 b4bf 772e 24bf
00000160: 1bc4 28bf aff6 04c1 993d f4bf f66e 15bf
00000170: edc6 eb3f 1f63 4440 8aeb 463f 1339 0cbd
00000180: a1e1 fabd 24d9 0d3e 35b8 673f ad8c 953f
00000190: 2388 463d 2d3a 2a3f 77b5 663f 4c1e bfbd
000001a0: c4b8 b13d e68a 7ebe 8283 dd3e b8b2 303e
000001b0: 8830 60bf db9a 06bf 2903 4240 5f84 35bf
000001c0: c007 05bf 608c 3e3e 32bd 85bf f7e8 06bf
000001d0: df3b 603e 625d 95be a259 2ebe d368 1140
000001e0: 12bf 91bf 5c38 f9bf b099 2dbe 3737 553e
000001f0: 4ea5 24bf 6ea9 7ebf 1ab3 81bf 12d7 80bf
00000200: dbe7 2bbf 3838 66bf 85f6 48bf 6472 39bf
00000210: 13e6 c3bf 384d 93bf 56c0 58bf 1c7b 47bf
00000220: 0da0 7dbf 9d02 a3bf 6f7b 35bf 12f1 ffbf
00000230: 500d b33e fcbd 07bf 8d23 12bf 71d4 9bbf
00000240: 2fa6 84bf e637 0bbf 2b1c 873f bc5e 97be
00000250: 80bc 87bf 836d 13c0 4fc7 f23e dde2 c93e
00000260: 55c6 dcbe 509f 16bf a6ff 58be 6901 823e
00000270: 0d11 333f 3759 dc3f f237 86bf 05c6 8140
00000280: ba90 53bf c3d1 eabe 928d ebbf ee83 a1be
00000290: 3a2c 693f 4907 4e3c 0224 cfbd bb0f 13bf
000002a0: b0d3 a53f 409a 2e40 c05b 943e 4dc8 8f3f
000002b0: 9324 9d3f 51cf 8b3f 89ce 9dbd 830a 42be
000002c0: c2f9 dfbe 26bd 493f 0ad6 543f 10b6 233f
000002d0: 05bb 4dbf 57cf ecbd e619 0bbf 93c1 1140
000002e0: f828 f740 744d da3e 538a f4be b7bd 013e
000002f0: 9085 03be 9398 80bf fd49 8abf 00d0 723e
00000300: 7e6d cc3f 863a 2e3f 7529 92be 6112 78bf
00000310: ada5 a23f 0b9f 9fbe 92cc 4c3f 5568 cdbe
00000320: 19b8 4a40 b4a0 07c0 e6ef 733f 73f7 cbbf
00000330: 9bfa 1740 3678 b0bf 984d 91bf 11c3 1fbf
00000340: ce8d d33c 9637 5c3f 77a1 37bf e5dc c03d
00000350: 54ba 8bbf fe95 91bf 14b4 423f 7dd3 2abf
00000360: dd6c 83bf 9d14 bfbf 1307 a8bf 9405 5bbf
00000370: 815c 103f 2a7c b6bf 4ae6 50bf ef45 e0bd
00000380: 3ee5 b3bf 0775 2fbf 663e a8bf 9e2e b7be
00000390: db73 853f 69ab edbe f382 fabe e404 aebf
000003a0: b809 21c0 e8f8 71bd a44d efbf a681 1bc0
000003b0: eaaa d43f ef12 ccbf f3fa 6cbf d6b2 ddbf
000003c0: 3904 95bf 9cb7 0dbe d9b5 2a3f 2513 a6bf
000003d0: 11f0 70bf 1597 65bf 27d9 96bf d8a0 51c0
000003e0: 5a7e 2c40 c368 b63d 28d8 123e 841b b9c0
000003f0: f5e1 913f 2e59 a9be c9b8 9bbe 10b4 3ebf

pred_trans.bias f4 [3]
-0.75646687 -0.108353786 -0.00692508
00000000: d0a7 41bf 97e8 ddbd c8eb e2bb

gcn_convs.0.path_weight_1.weight f4 [64, 64]
-3.464254e-05 3.6081576e-06 1.1289685e-05 -2.4022214e-05 7.246114e-05 6.191812e-05 4.000939e-05 1.6973709e-05
-1.2233582e-05 5.9627102e-05 -4.258551e-05 4.502326e-05 1.8252322e-05 -2.1793667e-05 3.9921448e-05 -1.9591047e-05
-1.17933505e-05 3.9746486e-05 2.3163442e-05 -4.2714903e-05 -1.7065715e-05 6.9651855e-05 -2.8911341e-05 -3.0168103e-05
-2.9049133e-05 2.5579344e-05 -2.0706282e-06 4.4036526e-05 -3.571864e-05 -1.2023143e-06 4.9280927e-05 -7.709696e-05
-4.5150777e-05 2.7855885e-05 2.4996194e-05 2.5657031e-05 -4.4824643e-05 -2.2627155e-05 4.1590712e-05 -3.123683e-05
7.028572e-06 -2.3003086e-06 -6.669992e-05 -4.250697e-07 -3.257942e-05 -5.4922442e-05 -2.2208611e-05 2.8566876e-05
-2.3143662e-05 -1.8107597e-05 1.2011677e-05 -6.5032946e-05 -4.9118902e-05 -2.524499e-06 8.4010186e-05 -2.0539735e-05
-1.8619337e-05 1.3669969e-05 2.2170467e-05 -1.3927567e-05 -6.8871395e-06 3.5057263e-05 3.2112486e-05 -5.937479e-05
-2.0314958e-05 -5.4661752e-05 5.580974e-06 -8.750861e-05 -2.22235e-05 -2.2438576e-07 -2.454856e-05 4.421736e-05
-5.598533e-05 6.837128e-05 3.4844586e-05 1.679566e-05 7.775147e-05 -3.2525797e-05 -4.0058996e-05 -5.2399893e-05
2.8773407e-05 -2.9139776e-05 8.543423e-05 -1.697423e-05 -5.2512798e-05 -2.7301789e-05 3.7855873e-05 2.5976884e-05
7.685368e-05 7.4988134e-06 4.7199187e-06 2.9299604e-06 5.200366e-05 -3.1211817e-05 1.559934e-05 -6.0731683e-05
6.3138505e-06 -3.4414214e-05 4.0838673e-05 -2.452027e-05 -1.1370129e-05 -2.31001e-07 4.1908e-06 5.632525e-05
4.8629798e-05 3.2841006e-06 3.531928e-05 4.7428854e-05 6.720801e-06 -3.9768806e-06 2.168706e-05 9.080167e-06
6.434648e-05 -1.3722907e-05 2.0370368e-05 -2.5666282e-06 3.4089007e-05 8.736033e-06 -5.6288398e-05 -5.0964805e-05
2.682164e-05 3.662247e-05 6.195465e-05 3.995387e-05 8.969777e-06 -0.00013414072 2.0746465e-05 -1.5051797e-05
-1.7889468e-05 -2.9814573e-06 -3.1505704e-05 -1.3946407e-05 5.74718e-06 3.192993e-05 5.69457e-07 1.9576431e-05
3.0524305e-05 4.6563826e-05 4.2530643e-05 -2.8463919e-05 3.238967e-05 -3.5411329e-06 4.061799e-05 -1.2969019e-06
3.067429e-05 6.994363e-06 3.1896125e-05 9.0921174e-05 4.6031444e-05 6.118953e-06 -6.3772754e-06 -5.0817387e-05
-2.2391489e-05 -7.928908e-06 -4.9251485e-05 -9.316745e-06 6.4049746e-05 7.9794605e-05 -6.9607854e-06 1.0091274e-05
1.5392807e-05 -1.5394358e-05 -1.6920673e-06 -2.0764011e-05 7.001481e-06 2.0359437e-06 1.8161727e-05 1.26421655e-05
7.00367e-06 5.1425714e-06 -3.4488057e-05 -6.711109e-05 -5.2852884e-05 1.8536168e-06 -5.444533e-05 1.2915912e-06
-9.627231e-06 -3.5246596e-06 -1.3135624e-05 -5.293159e-05 7.658239e-06 1.6941885e-05 -1.1676051e-05 -6.2380177e-06
-3.8965405e-05 5.5799577e-05 -2.4557452e-05 1.445333e-05 -4.2629606e-05 1.1916991e-05 2.6473524e-05 -3.496647e-06
-4.3518794e-05 6.788269e-05 5.748204e-06 -2.210993e-05 1.1507672e-05 1.6986682e-05 7.420087e-06 4.9415234e-05
-4.7969665e-05 6.6037055e-06 -6.647078e-05 -1.1773036e-05 -4.000219e-05 2.6578617e-05 1.3070728e-05 -5.3791773e-06
1.4672108e-05 -5.5323148e-05 -2.0329295e-05 -2.609783e-05 1.6739508e-05 3.5377412e-05 -2.1638023e-05 5.5993683e-06
1.9273422e-05 4.6465055e-05 -4.2639863e-06 5.4267683e-05 -4.6167486e-05 2.7633409e-05 -1.3896016e-05 -8.422362e-06
-3.6519796e-06 -2.6737018e-05 1.7646282e-05 1.7799932e-05 -2.240982e-05 1.6098886e-05 2.718831e-05 2.0656174e-05
-2.6605054e-05 2.6222811e-05 -2.3523313e-05 -2.4924897e-05 1.5436204e-05 -2.3089777e-05 -2.718659e-05 -2.0990434e-05
-2.6766302e-05 1.7287888e-05 5.1338775e-05 -2.7880114e-05 3.5318535e-05 -1.20985105e-05 2.3876153e-06 1.7977765e-05
-5.8737358e-05 4.2316715e-05 -2.8081962e-07 -5.4900356e-06 -1.7541422e-05 -9.944365e-06 -3.952024e-05 -1.5160003e-06
00000000: 254d 11b8 ad23 7236 d468 3d37 5083 c9b7
00000010: 47f6 9738 0ada 8138 c1cf 2738 c362 8e37
00000020: d63e 4db7 1d18 7a38 d89d 32b8 5bd7 3c38
00000030: 901c 9937 8bd1 b6b7 5471 2738 7457 a4b7
00000040: 0edc 45b7 77b5 2638 1d4f c237 c728 33b8
00000050: 5828 8fb7 0e12 9238 a286 f2b7 8211 fdb7
00000060: 8aae f3b7 3993 d637 1ff5 0ab6 dcb3 3838
00000070: 99d0 15b8 345f a1b5 feb2 4e38 1daf a1b8
00000080: 4760 3db8 0fac e937 ebae d137 0e3a d737
00000090: 1802 3cb8 72cf bdb7 b071 2e38 4a04 03b8
000000a0: f9d6 eb36 005f 1ab6 3fe1 8bb8 2235 e4b4
000000b0: e3a5 08b8 865c 66b8 a14c bab7 e6a2 ef37
000000c0: a324 c2b7 c5e5 97b7 c385 4937 4c62 88b8
000000d0: 0505 4eb8 906a 29b6 a02e b038 bf4c acb7
000000e0: b930 9cb7 1258 6537 b7fa b937 72aa 69b7
000000f0: 1418 e7b6 730a 1338 85b0 0638 3209 79b8
00000100: 0a6a aab7 9c44 65b8 3444 bb36 d484 b7b8
00000110: 9a6c bab7 b0ee 70b4 a2ed cdb7 0776 3938
00000120: cad1 6ab8 8d62 8f38 1726 1238 68e4 8c37
00000130: 810e a338 4f6c 08b8 0505 28b8 f5c7 5bb8
00000140: 6c5e f137 3171 f4b7 272b b338 e263 8eb7
00000150: 3041 5cb8 2506 e5b7 6fc7 1e38 efe8 d937
00000160: 812c a138 519e fb36 cb5f 9e36 56a0 4436
00000170: 811e 5a38 6fe9 02b8 54db 8237 26ba 7eb8
00000180: 90db d336 fb57 10b8 314a 2b38 e1b0 cdb7
00000190: 55c2 3eb7 1209 78b4 b39e 8c36 c73e 6c38
000001a0: d9f7 4b38 6b64 5c36 ca23 1438 58ee 4638
000001b0: 3e83 e136 2571 85b6 9bec b537 0557 1837
000001c0: c1f1 8638 703b 66b7 08e1 aa37 563e 2cb6
000001d0: cbfa 0e38 fa90 1237 3517 6cb8 0bc3 55b8
000001e0: 09ff e037 149b 1938 a6ed 8138 2494 2738
000001f0: e67c 1637 20a8 0cb9 b208 ae37 fa86 7cb7
00000200: 5711 96b7 0c15 48b6 fe24 04b8 5dfb 69b7
00000210: e6d7 c036 80ec 0538 c9dc 1835 1138 a437
00000220: 3907 0038 874d 4338 ee62 3238 cdc5 eeb7
00000230: 25da 0738 33a4 6db6 3c5d 2a38 3611 aeb5
00000240: 45a8 0038 1fb1 ea36 34c8 0538 efac be38
00000250: e311 4138 6851 cd36 61fc d5b6 c124 55b8
00000260: 5bd5 bbb7 6706 05b7 6193 4eb8 1d4f 1cb7
00000270: 7252 8638 6757 a738 b190 e9b6 b14d 2937
00000280: cd1f 8137 2223 81b7 fd1a e3b5 602e aeb7
00000290: 44ee ea36 3fa1 0836 035a 9837 b019 5437
000002a0: 1101 eb36 5a8e ac36 45a7 10b8 febd 8cb8
000002b0: 5aae 5db8 cac9 f835 3a5c 64b8 bc5a ad35
000002c0: a484 21b7 3189 6cb6 1361 5cb7 dd02 5eb8
000002d0: e37b 0037 6c1e 8e37 42e4 43b7 2a50 d1b6
000002e0: c96e 23b8 570a 6a38 ba00 ceb7 947c 7237
000002f0: 31cd 32b8 16ef 4737 7613 de37 f0a7 6ab6
00000300: f387 36b8 3e5c 8e38 b2e0 c036 b778 b9b7
00000310: 1311 4137 9f7e 8e37 10fa f836 3443 4f38
00000320: 0933 49b8 6695 dd36 3a66 8bb8 ce84 45b7
00000330: 06c8 27b8 25f5 de37 594a 5b37 c87e b4b6
00000340: 3928 7637 c70a 68b8 d488 aab7 aaec dab7
00000350: d26b 8c37 3562 1438 4d83 b5b7 35e2 bb36
00000360: 5cad a137 79e3 4238 5d13 8fb6 7b9d 6338
00000370: f6a3 41b8 4bce e737 ef22 69b7 c54d 0db7
00000380: 8814 75b6 4f49 e0b7 1a07 9437 1051 9537
00000390: b9fc bbb7 180c 8737 7312 e437 cc46 ad37
000003a0: eb2d dfb7 0ff9 db37 ee53 c5b7 cf15 d1b7
000003b0: ff7c 8137 ebb0 c1b7 c20e e4b7 9d14 b0b7
000003c0: 3288 e0b7 7505 9137 9754 5738 17e0 e9b7
000003d0: fd22 1438 b5fa 4ab7 eb3a 2036 f5ce 9637
000003e0: c25c 76b8 3a7d 3138 8ec3 96b4 0c37 b8b6
000003f0: eb25 93b7 b9d6 26b7 89c2 25b8 6079 cbb5

gcn_convs.0.path_weight_1.bias f4 [64]
0.0018810859 1.0028455 0.10812905 -0.25139576 -0.00031050123 0.6835842 -8.425234e-06 0.00017258873
0.17218943 0.55382663 -0.71714336 0.6502072 0.5370183 -0.17870158 0.6062741 -0.8225417
0.0051632095 0.7690961 -0.029739128 -0.0050184918 0.0040064096 -0.18689086 -0.014307635 3.9840584e-06
0.62580156 -0.005079307 -0.11364002 -0.00022735131 0.9574167 0.26218006 -0.7845038 0.056542657
9.7396205e-06 -0.95916873 0.96594906 -0.116606094 0.00021654177 -0.6017653 -7.0299684e-05 -0.48099625
-0.9290336 0.0578948 -0.9307721 -0.00064504065 0.43708813 0.26487663 0.9396389 -0.40551132
-8.338664e-06 0.71343595 0.0013119803 0.19241323 -0.008742464 -0.00016684717 0.9689124 0.0003161108
-0.00036801727 8.0065896e-05 -0.7935294 0.041813165 0.35129392 -0.057305433 0.19473664 -0.12540953
00000000: c58e f63a 3e5d 803f c372 dd3d f2b6 80be
00000010: c5ca a2b9 60ff 2e3f 1b5a 0db7 eff8 3439
00000020: 6d52 303e 95c7 0d3f b596 37bf fb73 263f
00000030: 087a 093f 8cfd 36be c834 1b3f 1892 52bf
00000040: 2430 a93b 7be3 443f 799f f3bc 2972 a4bb
00000050: 3348 833b 5160 3fbe 926a 6abc cdae 8536
00000060: 8834 203f 5170 a6bb 19bc e8bd 2765 6eb9
00000070: 4319 753f 773c 863e 3ed5 48bf 4699 673d
00000080: 5a67 2337 158c 75bf 7048 773f 2dcf eebd
00000090: 7d0f 6339 4a0d 1abf db6d 93b8 2445 f6be
000000a0: 25d5 6dbf 1923 6d3d 1547 6ebf f217 29ba
000000b0: 04ca df3e e99d 873e 2d8c 703f 2e9f cfbe
000000c0: 4ae6 0bb7 bda3 363f c1f6 ab3a f907 453e
000000d0: 8d3c 0fbc b2f3 2eb9 a50a 783f acbb a539
000000e0: 71f2 c0b9 0de9 a738 be24 4bbf 4844 2b3d
000000f0: ccdc b33e 1ab9 6abd 0b69 473e 5b6b 00be

gcn_convs.0.path_weight_2.weight f4 [64, 64]
-1.3566111e-07 3.8981357e-06 4.0640175e-06 -2.1387525e-06 4.7657363e-06 -4.7358008e-06 -4.473152e-06 3.58505e-06
-4.7356334e-06 -3.4800344e-06 -1.4524817e-06 8.023013e-07 -4.1097915e-06 5.892304e-07 -4.824063e-06 4.0304008e-06
5.299007e-07 3.2365115e-06 -4.174756e-06 2.721877e-06 1.4090783e-06 -6.3912794e-06 1.0630514e-06 4.169937e-06
-6.858742e-06 4.025976e-06 4.025499e-06 -3.553241e-06 -4.173246e-06 2.9317787e-06 4.5317773e-07 -1.8857836e-06
6.719246e-08 4.7682365e-06 9.0476743e-07 4.4899743e-06 -5.984383e-06 -3.5179141e-06 -4.0802383e-06 4.923239e-07
4.3340656e-06 -1.0548354e-06 4.8169222e-06 2.783977e-06 3.071236e-06 2.7850083e-06 -4.399825e-06 3.818306e-06
5.1116563e-06 9.6217e-07 -4.1444005e-06 -1.9045057e-06 4.8896504e-07 4.586571e-06 5.887716e-06 3.5316023e-06
2.3311866e-06 1.1517265e-06 4.0355253e-06 -4.028498e-06 -6.3223943e-06 -3.7458983e-06 3.156467e-06 -5.6258186e-06
4.7216317e-06 5.692767e-07 -1.8179641e-06 1.4091235e-06 4.66094e-06 4.77011e-06 -4.166875e-06 -2.3132802e-06
-4.6089303e-06 -6.8824793e-06 -4.1150515e-06 2.9433704e-06 5.6454e-06 -6.5971713e-06 1.3704499e-06 2.43795e-06
3.0063206e-06 5.686165e-06 -3.9844253e-06 4.647872e-06 6.292395e-06 4.1469957e-06 3.973802e-06 4.308425e-06
3.7740958e-06 -2.284202e-06 -4.3884093e-06 -9.2077187e-07 4.4535586e-06 1.4127357e-06 1.4986469e-07 4.1620297e-06
2.0120804e-06 1.3318723e-06 -2.6554683e-06 -3.3497693e-06 -4.5263732e-06 3.6860943e-06 5.388062e-06 3.6103493e-06
-2.6196506e-06 4.1480457e-06 -4.6212494e-06 -3.1217007e-06 -5.605786e-06 -3.8120297e-06 -4.171793e-06 4.0534806e-06
4.1243757e-06 2.5369043e-06 5.604927e-06 -4.8549514e-06 -3.1427903e-06 -2.79778e-08 1.8884413e-06 6.5100417e-06
-4.205872e-06 -3.3942356e-06 5.0783615e-06 -5.1628645e-06 7.985415e-07 -2.925299e-06 -1.10508964e-07 -2.9204773e-07
1.5099868e-06 1.7789553e-06 -4.4631583e-06 -2.338597e-06 4.9766127e-06 3.82029e-06 4.05494e-06 -2.1153078e-06
-2.2840193e-06 6.3992925e-06 -3.641231e-06 -1.7432976e-06 3.9500474e-06 -2.7703247e-06 -2.750138e-06 2.3759676e-06
-4.193762e-06 8.135567e-07 -3.3026001e-06 -6.2105346e-07 -2.3186908e-06 4.5072925e-06 3.8818034e-06 -4.7987896e-06
-5.371044e-07 2.5541658e-06 -2.2768754e-06 4.1547555e-06 -3.6215406e-06 -4.4739095e-06 -5.467269e-07 -4.178527e-06
2.181629e-06 2.9292437e-06 -4.4971325e-06 2.2193292e-06 4.3118935e-06 4.9696296e-06 4.226753e-06 -4.8697048e-06
-5.8324217e-06 -4.460578e-06 -4.3953044e-08 -5.0367285e-06 1.5171627e-06 2.1900948e-06 1.4638712e-06 -1.2578264e-06
-3.3911047e-06 6.7877477e-06 -3.0138156e-06 -4.9122154e-06 4.973546e-06 -3.6144004e-06 3.4348595e-06 5.705807e-07
-1.0087159e-06 -3.3799915e-06 6.105803e-06 -6.412704e-06 2.6538908e-06 9.3415935e-07 -1.7940383e-06 4.1822937e-06
-5.4031225e-06 -3.0960953e-06 -1.344814e-06 -4.173077e-06 -2.8026323e-08 3.9880974e-06 4.1419817e-06 4.379812e-06
2.0659431e-06 -3.7633843e-06 -2.1371557e-06 4.5673496e-06 -5.4985508e-06 -4.6894743e-06 -5.14083e-07 5.483407e-06
2.1482073e-07 4.2877114e-06 4.519732e-06 -1.8618218e-07 -4.171631e-06 -3.5313742e-06 -1.411156e-06 -4.197263e-06
3.4111188e-06 4.6503774e-06 5.493521e-07 3.4137477e-06 2.9721205e-06 -2.6790102e-07 -3.6720263e-07 3.5926807e-06
-6.8948016e-06 -4.1606963e-06 -1.4027181e-06 -9.166976e-07 2.825943e-06 -3.9323745e-06 -5.5468877e-07 -4.18195e-06
-2.5157553e-06 -5.014981e-06 -6.1415926e-06 -4.779051e-06 6.6943553e-06 6.768463e-06 4.175128e-06 -6.7168995e-09
2.7496505e-06 -3.1291124e-06 -3.2852847e-06 2.351057e-06 -7.323559e-07 -1.0953716e-07 4.5950222e-07 5.226971e-06
3.1388575e-07 -1.971835e-06 -4.0479154e-06 -4.1975923e-06 3.7658094e-06 -3.9243932e-06 -3.1440854e-06 2.577807e-06
00000000: 3eaa 11b4 bbcc 8236 a55d 8836 7d87 0fb6
00000010: 5de9 9f36 38e8 9eb6 1518 96b6 b196 7036
00000020: c8e6 9eb6 898a 69b6 e4f2 c2b5 ba5d 5735
00000030: d7e6 89b6 9b2b 1e35 63de a1b6 e13c 8736
00000040: 803e 0e35 d832 5936 e214 8cb6 7ea9 3636
00000050: 901f bd35 ac74 d6b6 2bae 8e35 7ceb 8b36
00000060: 2524 e6b6 df16 8736 c612 8736 3774 6eb6
00000070: e907 8cb6 93bf 4436 464c f334 081b fdb5
00000080: 724b 9033 d7fe 9f36 25df 7235 96a8 9636
00000090: 75cd c8b6 4e15 6cb6 fbe8 88b6 3e28 0435
000000a0: 576d 9136 de93 8db5 0ca1 a136 5cd4 3a36
000000b0: 6f1b 4e36 14e6 3a36 35a2 93b6 001f 8036
000000c0: cb84 ab36 e923 8135 2110 8bb6 519e ffb5
000000d0: 6c41 0335 58e6 9936 188f c536 7700 6d36
000000e0: 7b71 1c36 0595 9a35 e668 8736 892c 87b6
000000f0: f424 d4b6 0b62 7bb6 b1d3 5336 6ac5 bcb6
00000100: 826e 9e36 66d0 1835 c500 f4b5 1d21 bd35
00000110: 2b65 9c36 ef0e a036 2fd1 8bb6 da3d 1bb6
00000120: 69a6 9ab6 0cf0 e6b6 0614 8ab6 b886 4536
00000130: 9e6d bd36 455d ddb6 4df0 b735 a99b 2336
00000140: 32c0 4936 c9cb be36 f4b1 85b6 ebf4 9b36
00000150: 4323 d336 6c26 8b36 b356 8536 1791 9036
00000160: 7946 7d36 4b4a 19b6 2640 93b6 f62a 77b5
00000170: c76f 9536 3b9d bd35 7eea 2034 90a7 8b36
00000180: 4707 0736 c9c2 b235 9934 32b6 99cc 60b6
00000190: 40e1 97b6 9e5e 7736 1acb b436 5449 7236
000001a0: 41cd 2fb6 712f 8b36 3b10 9bb6 697e 51b6
000001b0: 5619 bcb6 2cd2 7fb6 6efb 8bb6 2203 8836
000001c0: 1e64 8a36 af3f 2a36 f511 bc36 b7e7 a2b6
000001d0: bae8 52b6 d553 f0b2 5976 fd35 d570 da36
000001e0: 2a20 8db6 86c8 63b6 cb66 aa36 ab3c adb6
000001f0: 5b5b 5635 4150 44b6 f250 edb3 bcca 9cb4
00000200: c0aa ca35 70c4 ee35 3dc2 95b6 caf0 1cb6
00000210: c7fc a636 0b30 8036 ab0f 8836 b6f4 0db6
00000220: 2747 19b6 81b9 d636 df5b 74b6 40fb e9b5
00000230: a68a 8436 d1e9 39b6 038f 38b6 d072 1f36
00000240: 24b8 8cb6 3163 5a35 3da2 5db6 78b6 26b5
00000250: ce9a 1bb6 593d 9736 7040 8236 4a05 a1b6
00000260: 892d 10b5 3c68 2b36 6ccc 18b6 1469 8b36
00000270: 9809 73b6 971e 96b6 c9c2 12b5 4635 8cb6
00000280: 1a68 1236 0694 4436 13e6 96b6 c9ef 1436
00000290: e2ae 9036 cbc0 a636 88d3 8d36 7266 a3b6
000002a0: 1fb4 c3b6 13ac 95b6 e2c6 3cb3 2b01 a9b6
000002b0: 50a1 cb35 8bf9 1236 3b7a c435 96d2 a8b5
000002c0: bc92 63b6 4fc2 e336 f540 4ab6 9cd3 a4b6
000002d0: 6fe2 a636 ed8e 72b6 7082 6636 022a 1935
000002e0: 3763 87b5 d0d3 62b6 73e0 cc36 b52c d7b6
000002f0: 7f19 3236 f1c2 7a35 b0ca f0b5 a155 8c36
00000300: 784c b5b6 83c6 4fb6 757f b4b5 7506 8cb6
00000310: 89be f0b2 7fd1 8536 5afb 8a36 4cf6 9236
00000320: a2a4 0a36 738e 7cb6 0e6c 0fb6 3c41 9936
00000330: 3180 b8b6 475a 9db6 84ff 09b5 1cfe b736
00000340: 79a9 6634 29df 8f36 34a8 9736 5ee9 47b4
00000350: 0afa 8bb6 8cfc 6cb6 f366 bdb5 37d6 8cb6
00000360: 93ea 6436 700a 9c36 3077 1335 bd17 6536
00000370: a474 4736 09d4 8fb4 f223 c5b4 c919 7136
00000380: e559 e7b6 1c9c 8bb6 0745 bcb5 fb12 76b5
00000390: 55a5 3d36 d7f2 83b6 ece5 14b5 ad52 8cb6
000003a0: 59d4 28b6 5c46 a8b6 e113 ceb6 bc5b a0b6
000003b0: 13a0 e036 a81c e336 1418 8c36 79ca e6b1
000003c0: a386 3836 befd 51b6 c378 5cb6 dac6 1d36
000003d0: 1d97 44b5 b13a ebb3 81b1 f634 5763 af36
000003e0: 2184 a834 de53 04b6 54d3 87b6 0bd9 8cb6
000003f0: 1db8 7c36 48ae 83b6 fafe 52b6 63fe 2c36

gcn_convs.0.path_weight_2.bias f4 [64]
0.5477588 1.029367 0.0880593 0.1146727 0.0001014598 0.64441144 -0.76644266 -9.188775e-05
-0.020457968 -7.521278e-05 -0.75737774 0.62204796 0.53776693 -0.91862994 0.6189789 0.03136361
-0.6573555 0.7411716 0.4128276 0.425482 0.00022249795 -0.17720877 -0.008815073 0.9719537
0.6642414 8.6068016e-05 0.05618001 -0.83849037 0.97858095 0.27649572 -0.23145095 0.75417006
-0.845571 -0.9714392 -0.034901295 -0.02668788 -0.26305765 4.3337302e-05 -0.7556303 -0.48774594
-8.956094e-05 -0.35566476 -0.00028225326 0.00053657766 -0.00039364904 1.0274982 -0.0039813453 -0.3970881
0.00015748027 0.63216585 0.00092557806 0.18588114 -0.0061962977 0.1319004 0.93956953 -0.00070384535
-0.00018915236 -0.00021375895 -0.8258699 0.8783924 0.33646366 -0.032531474 0.14275414 -0.00015165999
00000000: ec39 0c3f 4cc2 833f 6f58 b43d 85d9 ea3d
00000010: d1c6 d438 26f8 243f 9635 44bf dcb3 c0b8
00000020: 7897 a7bc 8ebb 9db8 82e3 41bf 893e 1f3f
00000030: 18ab 093f 552b 6bbf 6775 1e3f 2177 003d
00000040: 7348 28bf 6cbd 3d3f 245e d33e c7d8 d93e
00000050: 574e 6939 3776 35be 196d 10bc f5d1 783f
00000060: b90b 2a3f 6a7f b438 031d 663d 4ea7 56bf
00000070: 4884 7a3f d990 8d3e 7a01 6dbe 4a11 413f
00000080: 5777 58bf 3db0 78bf a9f4 0ebd 8aa0 dabc
00000090: 7eaf 86be 13c5 3538 fd70 41bf d6b9 f9be
000000a0: aad2 bbb8 b119 b6be 64fb 93b9 1ea9 0c3a
000000b0: ae62 ceb9 1085 833f f275 82bb 224f cbbe
000000c0: 4a21 2539 9fd5 213f 7ea2 723a a057 3e3e
000000d0: 500a cbbb e610 073e a187 703f 4382 38ba
000000e0: 3357 46b9 7b24 60b9 366c 53bf 53de 603f
000000f0: f744 ac3e b93f 05bd 242e 123e eb06 1fb9

gcn_convs.1.path_weight_1.weight f4 [64, 64]
-5.3744243e-06 -1.0061155e-05 7.769367e-06 3.0236376e-07 6.702387e-07 9.495436e-07 -1.7118615e-05 -2.807294e-06
2.4388776e-06 2.1693534e-06 -1.32620835e-05 2.0908703e-06 -8.5849314e-07 -2.3530421e-07 -6.262438e-06 2.3704379e-05
-1.4506128e-06 3.0994643e-06 -1.1875358e-05 6.9165458e-06 -1.2393906e-06 1.827221e-05 -3.859362e-06 7.866749e-06
1.2462524e-05 -1.2313104e-05 1.2853576e-05 -6.665763e-06 -3.6534711e-06 -6.245796e-07 9.994764e-06 1.279007e-05
3.0455456e-06 9.094274e-06 5.8018563e-06 1.9257734e-05 3.975611e-06 -8.703247e-06 -1.493392e-05 1.0212231e-05
1.999662e-05 2.3549308e-05 -1.0772804e-05 -2.724094e-05 5.3903436e-06 9.741751e-06 -8.544992e-06 4.624208e-06
-1.1336262e-05 -6.3786288e-06 3.4438488e-06 -1.2732233e-06 1.6119686e-05 -7.2500743e-06 2.420251e-05 1.241432e-05
1.4262003e-05 -1.2734283e-05 -8.196326e-06 1.0818831e-05 1.5599933e-05 4.525665e-06 -1.747693e-05 7.699966e-06
1.5033396e-05 -1.1096953e-05 2.9316539e-06 1.4884158e-05 1.7244836e-05 1.0732645e-06 1.1288809e-05 -5.3059666e-06
-8.404804e-06 4.195104e-06 4.104989e-06 1.1443684e-05 2.2126385e-06 -3.9119313e-06 9.668208e-06 1.2060241e-06
-7.896614e-06 1.9886998e-05 -3.9725724e-06 -1.5881502e-05 1.8043509e-05 -2.3944582e-05 -3.0000818e-05 2.744294e-07
-2.2836644e-05 1.2135341e-05 1.2926835e-05 -7.90732e-06 -6.9836265e-06 1.6526872e-05 6.263071e-07 -1.5969821e-05
5.2283067e-06 -1.195111e-06 2.3208113e-05 -2.1386611e-05 -3.2117316e-06 1.560057e-05 1.973647e-05 -1.2543956e-05
-1.8294171e-05 -1.731657e-05 5.0670235e-07 -1.2355685e-05 -7.1128206e-06 -3.2157345e-06 4.2846564e-06 1.2483279e-05
-6.637513e-06 -2.0701932e-06 5.601994e-06 2.8548247e-05 7.501658e-06 1.1028321e-06 1.3814168e-06 -2.3496767e-05
1.1322699e-05 4.459058e-06 1.2974838e-05 -5.3560675e-06 -2.0789412e-05 1.4274341e-05 2.4333001e-05 -1.9517763e-06
7.972702e-06 -6.8890604e-06 8.217492e-06 -6.999003e-06 7.594464e-06 -1.84749e-06 1.2627635e-05 1.1261885e-05
-7.62043e-06 4.7598084e-07 -4.968287e-06 -3.104599e-06 -5.938267e-06 -2.035658e-06 -1.2905307e-05 8.662679e-06
9.457369e-06 -1.2953863e-05 -4.727336e-06 1.1318007e-05 7.0614e-06 -4.4750836e-06 -7.26349e-06 -9.432631e-07
-1.7304028e-06 5.4754905e-06 7.674147e-06 -5.689584e-06 8.798281e-06 9.325831e-06 5.8958917e-06 -9.580571e-06
-4.8389306e-06 -1.3891034e-05 -6.9982325e-06 1.3447347e-05 -5.174643e-06 -5.2623764e-06 1.8804493e-06 -2.81753e-07
4.415673e-06 1.2625089e-05 -7.071505e-07 9.019584e-06 -5.3123576e-06 -9.518546e-07 4.559279e-06 -1.9679155e-05
-4.0040177e-06 -1.1085461e-05 -7.943976e-06 1.0411544e-05 9.186172e-06 -6.0969605e-06 -9.602284e-06 -2.507088e-06
-1.4878762e-05 3.6964177e-06 1.3675346e-05 1.0031771e-05 -1.5572992e-05 2.541229e-06 3.4852744e-06 9.361414e-06
-1.5361391e-05 6.8606896e-06 -3.1627387e-06 -1.631603e-05 -9.177131e-06 -3.897245e-06 -2.1493186e-06 4.1168682e-06
-4.23353e-06 1.6167729e-05 -7.0015626e-06 -1.3593583e-05 -8.908566e-06 1.9302539e-05 9.561061e-06 1.5878037e-05
-4.7150033e-06 1.1816069e-06 6.8384797e-06 1.2556341e-05 -8.934295e-06 1.3696995e-06 2.2889782e-05 5.101814e-06
1.3221709e-05 3.3639176e-06 -6.1429473e-06 -8.28077e-06 -1.0863407e-05 -4.474262e-07 -6.8518466e-06 -2.2272518e-06
-1.3205962e-05 2.2711845e-06 3.1048148e-06 2.2594313e-06 -1.2349759e-05 1.52206285e-05 1.3852048e-05 -2.717364e-06
-9.793339e-06 -1.4918219e-05 1.967623e-05 -2.3815167e-06 -1.5852519e-06 -6.8376085e-06 -7.783515e-06 5.325338e-06
7.292631e-06 -1.2533969e-05 -1.384934e-05 6.108611e-06 -1.3539451e-05 -5.625036e-06 -1.2076276e-05 -4.275684e-06
1.1731075e-05 -1.926227e-06 -1.0535654e-05 -4.960462e-06 -1.7050092e-05 -1.3586372e-05 1.9316669e-05 -1.0617393e-05
00000000: f455 b4b6 55cc 28b7 2d59 0237 8f54 a234
00000010: 74ea 3335 24e4 7e35 f299 8fb7 f264 3cb6
00000020: 99ab 2336 3595 1136 3780 5eb7 e150 0c36
00000030: 3373 66b5 eea7 7cb4 ef21 d2b6 c4d8 c637
00000040: adb2 c2b5 6400 5036 463c 47b7 ad14 e836
00000050: 2359 a6b5 4647 9937 ab7f 81b6 6efb 0337
00000060: 2216 5137 6194 4eb7 b0a5 5737 78aa dfb6
00000070: 282e 75b6 c9a8 27b5 2faf 2737 ef94 5637
00000080: 1362 4c36 9c93 1837 91ad c236 ab8b a137
00000090: 3d66 8536 2904 12b7 b38c 7ab7 3355 2b37
000000a0: 6abe a737 c18b c537 d7bc 34b7 7983 e4b7
000000b0: b3de b436 8070 2337 765c 0fb7 a529 9b36
000000c0: e030 3eb7 0108 d6b6 df1c 6736 9fe3 aab5
000000d0: c338 8737 aa45 f3b6 7f06 cb37 1947 5037
000000e0: d646 6f37 54a5 55b7 f482 09b7 8682 3537
000000f0: 9adc 8237 2bdb 9736 6c9b 92b7 1a2f 0137
00000100: f237 7c37 0d2d 3ab7 6ebd 4436 f9b6 7937
00000110: 01a9 9037 160d 9035 1165 3d37 e809 b2b6
00000120: 5c02 0db7 abc3 8c36 96bd 8936 40fe 3f37
00000130: d77c 1436 3c43 83b6 a334 2237 acde a135
00000140: b37b 04b7 01d3 a637 234c 85b6 4439 85b7
00000150: 245c 9737 99dc c8b7 44aa fbb7 4a55 9334
00000160: 5291 bfb7 e598 4b37 55e0 5837 aea9 04b7
00000170: e554 eab6 30a3 8a37 7f1f 2835 eef6 85b7
00000180: d06e af36 b467 a0b5 0baf c237 6667 b3b7
00000190: 2189 57b6 f8dd 8237 bf8f a537 e173 52b7
000001a0: 6f76 99b7 0d43 91b7 5204 0835 434b 4fb7
000001b0: aaaa eeb6 e6cd 57b6 ebc4 8f36 466f 5137
000001c0: cdb7 deb6 a6ed 0ab6 c3f8 bb36 e57a ef37
000001d0: c0b6 fb36 0605 9435 1f69 b935 ec1a c5b7
000001e0: 9ff6 3d37 049f 9536 81ae 5937 45b8 b3b6
000001f0: ec64 aeb7 d47b 6f37 b91e cc37 43fb 02b6
00000200: 7fc2 0537 9428 e7b6 dcdd 0937 fad8 eab6
00000210: f3d3 fe36 46f7 f7b5 48db 5337 6ef1 3c37
00000220: ffb2 ffb6 4f8a ff34 43b5 a6b6 9b58 50b6
00000230: 5341 c7b6 579c 08b6 df83 58b7 ec55 1137
00000240: 17ab 1e37 6b54 59b7 829f 9eb6 78e2 3d37
00000250: f7f0 ec36 ad28 96b6 e7b8 f3b6 8c34 7db5
00000260: 3040 e8b5 1bba b736 36c0 0037 28e9 beb6
00000270: 549c 1337 2476 1c37 53d5 c536 3dbc 20b7
00000280: 195e a2b6 890d 69b7 5cd2 eab6 ea9b 6137
00000290: d8a1 adb6 7893 b0b6 bf63 fc35 d643 97b4
000002a0: 582a 9436 58d0 5337 03d3 3db5 d152 1737
000002b0: ce40 b2b6 f382 7fb5 e9fb 9836 aa14 a5b7
000002c0: 405a 86b6 b1fb 39b7 1e47 05b7 3ead 2e37
000002d0: 4f1e 1a37 7e94 ccb6 7f19 21b7 723f 28b6
000002e0: cc9f 79b7 f90f 7836 2a6f 6537 214e 2837
000002f0: bfa2 82b7 fb89 2a36 8fe4 6936 f80e 1d37
00000300: 56dc 80b7 e034 e636 703f 54b6 68de 88b7
00000310: 7af7 19b7 14c5 82b6 033d 10b6 a123 8a36
00000320: bf0d 8eb6 ef9f 8737 f7ee eab6 ff0f 64b7
00000330: 0076 15b7 e3eb a137 7268 2037 d331 8537
00000340: 9235 9eb6 b497 9e35 1876 e536 13a9 5237
00000350: 81e4 15b7 84d6 b735 6f03 c037 4030 ab36
00000360: cfd2 5d37 aabf 6136 841f ceb6 a3ed 0ab7
00000370: fa41 36b7 ca35 f0b4 eae8 e5b6 e577 15b6
00000380: 2d8f 5db7 a76a 1836 505c 5036 bca0 1736
00000390: d031 4fb7 1a5c 7f37 1866 6837 f55b 36b6
000003a0: 124e 24b7 4349 7ab7 620e a537 25d2 1fb6
000003b0: d7c4 d4b5 9c6e e5b6 f195 02b7 4eb0 b236
000003c0: 39b3 f436 fd48 52b7 765a 68b7 92f8 cc36
000003d0: 8027 63b7 b1be bcb6 369b 4ab7 d977 8fb6
000003e0: 95d0 4437 5444 01b6 4ac2 30b7 0b72 a6b6
000003f0: cb06 8fb7 06f1 63b7 3b0a a237 5b21 32b7

gcn_convs.1.path_weight_1.bias f4 [64]
-6.9246234e-06 3.0957155e-05 -0.0017406476 2.4078563e-05 0.004052871 0.002448448 4.260356e-06 -1.49533e-05
-0.061155997 -0.00017636943 -2.085112e-05 1.7337232e-05 6.012233e-05 5.085503e-05 3.6096615e-05 -0.000102602404
-5.444299e-05 1.0583267e-05 1.6305628e-05 -1.0984963e-05 0.00010737736 -0.0004887793 -9.3914505e-06 -3.2606615e-05
-0.021540625 0.037784096 0.007821239 0.007637321 7.632832e-05 3.1786549e-06 -7.357411e-05 -0.00030526015
0.00024519613 -7.783157e-05 -0.000101145786 3.0653668e-05 3.0262916e-05 -9.970811e-06 2.867087e-06 -0.004193976
-1.1705153e-05 0.011412945 -0.032512207 -0.03216725 -1.4393466e-05 -3.4027307e-05 -0.00014947161 -1.013301e-05
0.00015292624 -0.042752594 -7.266999e-05 1.3493359e-05 0.0002103661 -1.3078446e-05 -5.091845e-05 0.01468084
0.16787829 -2.8219585e-05 -3.290323e-05 1.7698233e-06 7.124167e-05 0.00021478848 -5.092376e-05 0.009132607
00000000: 105a e8b6 fed7 0138 7126 e4ba 52fc c937
00000010: f2cd 843b 2476 203b 2ef4 8e36 efdf 7ab7
00000020: b67e 7abd cfef 38b9 70e9 aeb7 6c6f 9137
00000030: dc2b 7c38 2c4d 5538 7266 1738 3f2c d7b8
00000040: b759 64b8 c98e 3137 12c8 8837 0f4c 38b7
00000050: c82f e138 6c21 00ba f98f 1db7 16c3 08b8
00000060: f775 b0bc 7fc3 1a3d a724 003c 7e42 fa3b
00000070: 7412 a038 e050 5536 cd4b 9ab8 530b a0b9
00000080: ab8d 8039 8239 a3b8 3b1e d4b8 2092 0038
00000090: 1edd fd37 4f48 27b7 2e68 4036 9f6d 89bb
000000a0: 4061 44b7 5cfd 3a3c 852b 05bd cec1 03bd
000000b0: 777b 71b7 8bb8 0eb8 7bbb 1cb9 f200 2ab7
000000c0: d35a 2039 581d 2fbd 6766 98b8 8961 6237
000000d0: b895 5c39 7f6b 5bb7 4591 55b8 e887 703c
000000e0: 49e8 2b3e 19b9 ecb7 9301 0ab8 aa8a ed35
000000f0: 9567 9538 d838 6139 f996 55b8 eea0 153c

gcn_convs.1.path_weight_2.weight f4 [64, 64]
5.793959e-06 -0.00023856974 -0.09592918 4.2765176e-05 -3.437114e-05 0.00014832302 0.00032509182 0.06644543
-0.00011322726 -4.8374623e-05 -0.0005336288 -0.00012759172 2.4168487e-05 9.057026e-05 0.42724246 0.00040756568
1.0292236e-05 0.08339225 -0.00017202212 2.8729604e-05 3.4457655e-05 1.6809023e-05 8.867223e-05 0.00019419513
0.003417661 0.026516078 0.00062848063 0.07257002 -0.0017204302 -0.0003100167 -0.00020715987 8.978298e-05
5.4972785e-05 -0.0027554107 -0.023685457 0.0008372078 3.3662556e-05 -0.016202467 9.080409e-05 0.0002529258
-0.00035661308 -2.427689e-05 0.00014189065 5.081733e-05 6.0224967e-05 -0.00042706245 -4.416599e-05 -0.0010681186
-3.290572e-05 0.084260374 -0.06878127 -0.00030236092 0.07524584 -9.3147806e-05 0.00014369447 0.0126224635
-0.17235175 -6.582705e-05 0.45332724 0.01298891 0.0001705727 0.0016250216 5.101287e-05 0.0021070307
-0.0984089 -0.085230984 0.0006630226 0.00057396165 0.000170092 -1.0632334e-05 0.00065489754 -8.061375e-05
-0.00042823853 0.0077222832 -0.0011284666 0.24308048 0.0012864729 -2.7760978e-05 0.00044206658 0.038635317
0.00030311264 0.038834512 -1.3031514e-05 0.000105284475 -3.6302896e-05 -0.0069101285 2.993625e-05 9.692538e-06
0.003779444 -0.018725442 -1.0887467e-05 0.008639678 -0.0003262962 0.006549285 6.2344498e-06 -2.6122316e-05
0.00042525286 -0.00043208877 -0.000926214 -2.4775978e-05 7.841403e-06 -8.726264e-05 0.0034286159 0.00037485678
1.5528565e-05 -0.00014363303 -2.547489e-05 -0.00015631782 4.118675e-05 2.174252e-05 6.5066724e-06 -1.0367608e-05
0.00019098913 2.3547262e-05 4.0151077e-05 -0.11164708 -0.059647642 6.751582e-05 -5.116845e-06 0.0016481233
-8.220705e-05 -0.009708894 4.3801523e-05 -0.03876049 -3.302099e-05 0.0003054665 -0.00030954147 0.046094406
-0.00015007071 -0.0009819674 8.407727e-06 0.0001597105 -2.6976115e-05 -0.00020784397 -4.675067e-05 2.4767805e-06
7.302e-05 5.9800473e-06 0.00020483107 -0.0077175987 0.00081140135 2.8391125e-05 -0.29886574 5.497615e-05
3.2138465e-05 5.2567844e-05 -0.00010042497 0.00010742755 -0.00011172511 -0.0037721943 7.71377e-05 -1.7884887e-06
-7.3182724e-05 -6.124537e-05 -0.00012980877 -5.699607e-06 -4.3651453e-06 3.0059633e-05 2.3981524e-05 0.00015210874
-6.424138e-05 -5.157991e-05 0.00017211886 2.6321928e-05 3.6988808e-05 0.00019730559 -9.7070355e-05 8.730575e-06
-8.180049e-05 3.530034e-05 9.005548e-06 -0.00013278933 0.00011326264 2.2640717e-05 5.2605947e-06 -0.00019327558
-0.0009492971 2.9093148e-05 -0.00013507153 -7.277229e-05 0.00034212545 7.815657e-06 -0.00025924703 -0.007215861
0.0001798329 -0.0056576314 -0.022308594 -0.026685534 -7.194226e-05 1.9723599e-05 8.7654655e-05 3.4558423e-05
2.4743616e-05 -0.06926334 -2.0174453e-05 0.03612539 0.0002695399 0.01197065 -0.0003202339 0.0002386132
-2.8965502e-05 7.565438e-05 -0.009384885 0.08880271 5.541041e-05 5.637944e-05 -0.00012247243 0.00040465267
0.036287844 -0.16646127 0.0004690101 6.7973865e-06 -4.144606e-06 0.2084338 0.001165292 9.152494e-05
4.927984e-05 0.32753485 6.32884e-05 -0.06570352 -0.000112978174 -0.2972264 -9.139081e-05 4.680218e-05
0.1066253 -5.6881513e-06 1.1735943e-05 0.00010611647 -2.4781244e-05 -0.00021662404 -0.008568144 5.882598e-05
-8.347335e-05 0.0006215467 2.417312e-05 -0.015784657 6.098579e-06 -0.015486103 -2.3584971e-05 4.4609056e-05
0.0007968147 -0.014076565 0.03226597 0.0112705035 -0.03632452 2.5750875e-05 -3.3296026e-05 0.21091685
0.049888723 0.00010189593 -0.3495701 0.12875745 -5.017129e-05 5.2109717e-05 0.00020399675 -0.021681508
00000000: bb69 c236 9428 7ab9 8576 c4bd c25e 3338
00000010: bb29 10b8 2887 1b39 1671 aa39 8b14 883d
00000020: 6c74 edb8 dbe5 4ab8 39e3 0bba 24ca 05b9
00000030: 6ebd ca37 8af0 bd38 86bf da3e 8aae d539
00000040: d1ac 2c37 8ec9 aa3d d660 34b9 5b00 f137
00000050: a086 1038 1a01 8d37 8af5 b938 dca0 4b39
00000060: d6fa 5f3b 3f38 d93c 9fc0 243a 979f 943d
00000070: 0f80 e1ba bd89 a2b9 0e39 59b9 df49 bc38
00000080: 9492 6638 1f94 34bb 0108 c2bc 1078 5b3a
00000090: e530 0d38 09bb 84bc 136e be38 209b 8439
000000a0: ccf7 bab9 39a6 cbb7 7bc8 1439 b124 5538
000000b0: 119a 7c38 5ae7 dfb9 df3e 39b8 1d00 8cba
000000c0: 3f04 0ab8 b490 ac3d 32dd 8cbd 3286 9eb9
000000d0: 7e1a 9a3d 5958 c3b8 b1ac 1639 73ce 4e3c
000000e0: fa7c 30be a10c 8ab8 821a e83e 70cf 543c
000000f0: c3db 3239 adfe d43a a7f6 5538 1c16 0a3b
00000100: 9b8a c9bd 958d aebd b2ce 2d3a ea75 163a
00000110: b95a 3239 8761 32b7 6ead 2b3a 2d0f a9b8
00000120: 3485 e0b9 350b fd3b 0ee9 93ba 17ea 783e
00000130: de9e a83a 3fe0 e8b7 2cc5 e739 1140 1e3d
00000140: 17eb 9e39 f010 1f3d eda1 5ab7 2ccc dc38
00000150: f043 18b8 5c6e e2bb 9b1f fb37 229d 2237
00000160: 8cb0 773b 1966 99bc 51a9 36b7 708d 0d3c
00000170: bc12 abb9 629b d63b 8431 d136 3f21 dbb7
00000180: 79f4 de39 f989 e2b9 2bcd 72ba 02d6 cfb7
00000190: 928e 0337 c600 b7b8 a1b2 603b 6d88 c439
000001a0: 5743 8237 339c 16b9 e9b2 d5b7 3fe9 23b9
000001b0: f0bf 2c38 b563 b637 e453 da36 8af0 2db7
000001c0: 4144 4839 5c87 c537 e467 2838 39a7 e4bd
000001d0: 1651 74bd 4897 8d38 5db1 abb6 d705 d83a
000001e0: 9366 acb8 0e12 1fbc 87b7 3738 52c3 1ebd
000001f0: 0580 0ab8 0527 a039 f449 a2b9 7dcd 3c3d
00000200: 4d5c 1db9 5cb5 80ba ea0e 0d37 f677 2739
00000210: c44a e2b7 b1f0 59b9 2616 44b8 c436 2636
00000220: 5022 9938 37a8 c836 ecc7 5639 e9e3 fcbb
00000230: 39b4 543a 7a29 ee37 ee04 99be 3196 6638
00000240: 6acc 0638 4b7c 5c38 3f9b d2b8 ba4a e138
00000250: f64d eab8 eb36 77bb fdc4 a138 010c f0b5
00000260: ad79 99b8 dc70 80b8 471d 08b9 403f bfb6
00000270: 5078 92b6 9228 fc37 ee2b c937 617f 1f39
00000280: 54b9 86b8 8257 58b8 ce7a 3439 e9cd dc37
00000290: 6e24 1b38 d1e3 4e39 4092 cbb8 8979 1237
000002a0: 4e8c abb8 740f 1438 8916 1737 5d3d 0bb9
000002b0: 6b87 ed38 92ec bd37 2a84 b036 05aa 4ab9
000002c0: 40da 78ba 0f0d f437 fda1 0db9 539d 98b8
000002d0: 4d5f b339 fe1f 0337 8ceb 87b9 0873 ecbb
000002e0: 8791 3c39 a763 b9bb 83c0 b6bc 9f9b dabc
000002f0: b5df 96b8 1b74 a537 3cd3 b738 d3f2 1038
00000300: 8390 cf37 f0d9 8dbd 4f3c a9b7 38f8 133d
00000310: 0851 8d39 8c20 443c 11e5 a7b9 3e34 7a39
00000320: f1fa f2b7 a3a8 9e38 10c3 19bc 32de b53d
00000330: 7a68 6838 f678 6c38 f16b 00b9 9027 d439
00000340: 90a2 143d d374 2abe 78e5 f539 1b15 e436
00000350: e511 8bb6 ac6f 553e b6bc 983a 14f1 bf38
00000360: d3b1 4e38 a6b2 a73e b3b9 8438 918f 86bd
00000370: b2ee ecb8 0f2e 98be 11a9 bfb8 754d 4438
00000380: 5e5e da3d d9dc beb6 7ee5 4437 d98a de38
00000390: 51e1 cfb7 9325 63b9 6761 0cbc eabb 7638
000003a0: 6a0e afb8 4bef 223a 61c7 ca37 d34e 81bc
000003b0: 65a2 cc36 6cb9 7dbc 57d8 c5b7 9c1a 3b38
000003c0: 54e1 503a 65a1 66bc 5229 043d eba7 383c
000003d0: 05c9 14bd 9503 d837 56a7 0bb8 96fa 573e
000003e0: 1e58 4c3d f6b0 d538 dafa b2be fed8 033e
000003f0: 036f 52b8 6290 5a38 f6e7 5539 6b9d b1bc

gcn_convs.1.path_weight_2.bias f4 [64]
-0.000495673 0.00013596227 -4.6693658e-05 -0.000236754 0.00017504694 0.000199082 -0.00079666555 -7.083498e-05
1.8282248e-05 6.1100422e-06 0.011700689 -5.2147407e-05 -0.00013018132 -3.783333e-05 -2.2624174e-05 -6.1617495e-05
-1.617086e-05 -0.00026085405 -3.4975074e-05 7.8325385e-05 4.1126383e-05 -0.00019063258 0.00063609984 -1.654815e-05
-0.010043072 0.05628837 0.008715694 -0.00014625942 -7.981185e-05 -9.88972e-06 0.009362862 -3.1456973e-05
-1.434991e-05 -1.0918577e-06 5.0866263e-05 0.0018573246 9.2688046e-05 0.00023339789 0.002251007 -0.004418358
-0.00018583813 0.0007720287 -0.053794965 -0.025735674 -0.023627058 9.952717e-08 -0.0006659969 4.2154174e-05
6.554858e-05 -0.00092301983 -0.00014747547 -0.1579305 -0.0002382971 7.0772454e-05 -9.1151196e-05 0.00012596199
0.00037158333 -4.432939e-06 3.9236544e-05 0.00011427776 0.014918126 -0.00023925345 -3.5564466e-05 -9.7439995e-05
00000000: 0df0 01ba 1891 0e39 efd8 43b8 2b41 78b9
00000010: ce8c 3739 abc0 5039 52d7 50ba 3e8d 94b8
00000020: d45c 9937 dd04 cd36 3fb4 3f3c dab8 5ab8
00000030: 4881 08b9 3baf 1eb8 0bc9 bdb7 a438 81b8
00000040: a8a6 87b7 3dc3 88b9 33b2 12b8 9f42 a438
00000050: 1e7f 2c38 8be4 47b9 f0bf 263a e2d0 8ab7
00000060: b28b 24bc a28e 663d 45cc 0e3c 375d 19b9
00000070: a960 a7b8 06ec 25b7 b166 193c abf0 03b8
00000080: 65c0 70b7 f28b 92b5 3c59 5538 7971 f33a
00000090: 8461 c238 45bc 7439 a185 133b e0c7 90bb
000000a0: 8bdd 42b9 f861 4a3a 1c58 5cbd 9fd3 d2bc
000000b0: 888d c1bc a4bb d533 4c96 2eba b3ce 3038
000000c0: 2077 8938 d0f6 71ba a5a3 1ab9 88b8 21be
000000d0: 64df 79b9 ac6b 9438 6d28 bfb8 aa14 0439
000000e0: 12d1 c239 a8be 94b6 eb91 2438 68a8 ef38
000000f0: 286b 743c 1ce0 7ab9 0e2b 15b8 b358 ccb8
